Entities/pained_nav.pth (torch, 73785 bytes, 6 tensors)

net.0.weight f4 [128, 4]
-0.17476821 0.22972761 0.4086957 0.2785287 -0.23576957 -0.060917668 0.34300452 -0.44310203
0.14939123 0.18974748 -0.022125266 0.09150253 -0.18145859 -0.38518858 -0.10696018 -0.09055823
-0.07868087 -0.47186887 -0.41102248 0.119036436 -0.24579585 -0.34039348 -0.31674165 -0.16846824
0.12385084 0.16559176 -0.2988483 0.04296263 -0.28742248 -0.41255707 0.22230536 -0.37285036
-0.462744 0.19816598 -0.17847429 0.18823 0.059608452 0.40024582 -0.3602681 0.42486092
-0.47586486 0.08926706 0.4468446 0.36075526 0.055834293 -0.06147802 -0.25901526 0.017372668
0.23708197 0.12812982 -0.33235812 0.38209525 -0.33539894 0.3218528 -0.07111391 0.2929182
-0.24550736 0.1812858 -0.34863412 -0.0935421 -0.19597274 -0.4809355 -0.26051426 0.19063282
-0.5039185 0.32219884 -0.12503 0.34182608 0.42659998 -0.4053047 0.089323655 0.19109407
0.44887087 -0.21571557 0.13857582 -0.05267738 0.40802082 -0.14925496 0.069037646 -0.15486075
-0.31331986 -0.13857687 0.09796828 -0.41548157 0.25800058 0.04528618 0.35549268 -0.1627404
-0.23208493 -0.22442031 -0.371831 0.21744263 0.33359155 0.082705505 -0.19531748 0.2999609
0.20371899 0.3148277 0.32019934 0.44477138 0.22155431 0.47523862 -0.3687312 -0.38427275
0.30214512 -0.3439508 0.2446226 -0.30675995 0.39058378 0.28402662 -0.021721788 0.10916174
0.051261246 0.107273564 0.2766165 0.06626553 -0.47235426 0.40086442 0.25004172 0.033105288
-0.070429504 0.10248685 -0.099764764 -0.40821373 0.24606034 0.13191725 -0.40690494 -0.07211833
0.48705542 -0.40290123 0.04741804 0.19795507 0.43799672 0.0030952645 -0.27278754 -0.22076017
-0.48616397 -0.3920008 -0.051424682 0.060346782 0.16285059 0.2548708 0.014573849 -0.2950837
-0.048577067 0.3369793 0.03323549 -0.35133398 0.41343963 -0.094449766 0.15537946 -0.0070620193
0.1887431 -0.26238868 -0.28569922 0.46962807 -0.18673153 -0.46161622 0.119219534 -0.032005914
0.5025555 -0.079163395 -0.35820833 -0.4039784 0.035813637 0.44442564 -0.27938566 0.3695201
-0.4362551 0.3265373 -0.17152306 0.4589782 -0.22979064 0.449451 0.2989666 0.24067536
0.22770071 0.016860347 0.1645335 -0.019918336 -0.43222067 0.37761313 0.06666357 0.07541753
-0.2888484 -0.392532 0.13151354 -0.38981736 -0.119685255 -0.19360162 0.29728112 0.01686255
0.22595127 -0.2354517 -0.42493817 0.17478395 -0.057020042 -0.21699154 0.36370355 0.38541108
-0.42912203 0.17625576 -0.4640159 -0.26030982 0.3540502 -0.4312575 0.4573134 0.017776715
-0.31865653 -0.3363255 0.28328294 -0.12428561 -0.47090852 0.031398 0.30446124 -0.2826381
-0.19342065 -0.21479392 -0.43334246 -0.3952616 -0.25039262 0.41313174 -0.07540502 0.21342498
-0.5233628 0.2240013 0.42431897 0.070224136 0.06469799 -0.051696934 0.32999018 0.4337693
-0.27685028 -0.27985048 -0.36377287 0.29300034 0.43175894 -0.13474764 -0.12793292 0.092914335
-0.53243047 -0.07573627 0.41624227 -0.33220768 -0.3012367 0.37058792 -0.45807883 0.46568733
0.031570315 -0.41553923 0.08263749 0.31736612 -0.092978805 -0.2858865 0.23006788 0.31747198
00000000: 70f6 32be b73d 6b3e 9040 d13e 509b 8e3e
00000010: 946d 71be ce84 79bd 4a9e af3e 45de e2be
00000020: 04fa 183e 2a4d 423e 0c40 b5bc ae65 bb3d
00000030: 48d0 39be 7037 c5be f00d dbbd 9876 b9bd
00000040: 7023 a1bd cc98 f1be 8a71 d2be 60c9 f33d
00000050: e8b1 7bbe 0e48 aebe f62b a2be f082 2cbe
00000060: 82a5 fd3d e390 293e a502 99be 95f9 2f3d
00000070: 0a29 93be ae3a d3be 04a4 633e 3ee6 bebe
00000080: c8ec ecbe 06ec 4a3e f7c1 36be 5dbf 403e
00000090: fe27 743d 05ed cc3e 0f75 b8be 5f87 d93e
000000a0: 8fa4 f3be a6d1 b63d d1c8 e43e eab4 b83e
000000b0: 80b2 643d 60d0 7bbd a69d 84be 2051 8e3c
000000c0: 9ec5 723e 7734 033e d82a aabe fda1 c33e
000000d0: 69b9 abbe e4c9 a43e 2ba4 91bd 60f9 953e
000000e0: 4866 7bbe fca2 393e 2c80 b2be 0093 bfbd
000000f0: 14ad 48be 2e3d f6be 2062 85be 4035 433e
00000100: ce00 01bf 3ff7 a43e dd07 00be d403 af3e
00000110: 506b da3e 1984 cfbe 52ef b63d 2aae 433e
00000120: 67d2 e53e 8be4 5cbe d2e6 0d3e 3dc4 57bd
00000130: 1be8 d03e 4bd6 18be 9c63 8d3d d193 1ebe
00000140: 766b a0be 18e7 0dbe 98a3 c83d 00ba d4be
00000150: a718 843e 007e 393d 2303 b63e 6ba5 26be
00000160: aca7 6dbe 70ce 65be a260 bebe 48a9 5e3e
00000170: 83cc aa3e 8161 a93d 4e01 48be 7a94 993e
00000180: b69b 503e 1931 a13e 2bf1 a33e 13b9 e33e
00000190: 22df 623e 7a52 f33e 56ca bcbe 66bf c4be
000001a0: c4b2 9a3e 521a b0be 597e 7a3e a40f 9dbe
000001b0: 99fa c73e f06b 913e e4f1 b1bc 3190 df3d
000001c0: 50f7 513d 3eb2 db3d aea0 8d3e 39b6 873d
000001d0: 6bd8 f1be 1a3e cd3e 7805 803e 6999 073d
000001e0: 583d 90bd a0e4 d13d 7851 ccbd 6401 d1be
000001f0: 3ef7 7b3e 5115 073e d855 d0be c6b2 93bd
00000200: 545f f93e 1249 cebe 6b39 423d bcb4 4a3e
00000210: 1b41 e03e ecd9 4a3b cfaa 8bbe f40e 62be
00000220: 7cea f8be 54b4 c8be b0a2 52bd 302e 773d
00000230: 4ec2 263e 6d7e 823e 27c7 6e3c 3615 97be
00000240: bff8 46bd 8d88 ac3e f021 083d 0ce2 b3be
00000250: 5cae d33e e16e c1bd cb1b 1f3e 8368 e7bb
00000260: df45 413e cf57 86be 2b47 92be 1773 f03e
00000270: 8d36 3fbe f658 ecbe 5f29 f43d a218 03bd
00000280: 7aa7 003f 6b20 a2bd 1567 b7be 42d6 cebe
00000290: 52b1 123d c28b e33e a30b 8fbe bd31 bd3e
000002a0: d45c dfbe e62f a73e bea3 2fbe 31ff ea3e
000002b0: 3d4e 6bbe 711e e63e 2612 993e 9a73 763e
000002c0: 602a 693e b61e 8a3c 787b 283e c72b a3bc
000002d0: 074c ddbe 8256 c13e e986 883d 8274 9a3d
000002e0: f0e3 93be f4f9 c8be 7cab 063e 2496 c7be
000002f0: 8b1d f5bd 813f 46be 3b35 983e 5523 8a3c
00000300: c55f 673e 401a 71be 7f91 d9be 90fa 323e
00000310: d98d 69bd 0833 5ebe 5a37 ba3e 9a54 c53e
00000320: e2b5 dbbe 647c 343e 7e93 edbe 5447 85be
00000330: 1146 b53e c8cd dcbe fb24 ea3e 79a0 913c
00000340: f326 a3be db32 acbe 760a 913e 7489 febd
00000350: ec1a f1be 309b 003d 58e2 9b3e f1b5 90be
00000360: 1010 46be f0f2 5bbe 10df ddbe ba5f cabe
00000370: 7633 80be 0186 d33e f26d 9abd 148c 5a3e
00000380: 1bfb 05bf 9960 653e 5640 d93e acd1 8f3d
00000390: 6180 843d 2ac0 53bd 79f4 a83e 0217 de3e
000003a0: 52bf 8dbe 9048 8fbe 7040 babe 2404 963e
000003b0: 820f dd3e 49fb 09be d900 03be df49 be3d
000003c0: 5d4d 08bf 9e1b 9bbd b51d d53e 2017 aabe
000003d0: b23b 9abe b3bd bd3e 4f89 eabe 926e ee3e
000003e0: e04f 013d 8fc1 d4be d83d a93d d07d a23e
000003f0: ac6b bebd b75f 92be ea96 6b3e b08b a23e

net.0.bias f4 [128]
-0.38183248 0.03733876 0.12191323 -0.25250298 0.37210804 0.39386594 -0.15481156 -0.10698962
-0.37863252 -0.18422872 0.33650276 -0.1826896 0.5225913 -0.17477968 -0.38266808 -0.2536925
-0.4647024 -0.19293602 0.16571029 -0.028443145 -0.39260244 -0.52860576 0.062232792 0.3626795
-0.056729745 0.40729544 0.07145751 0.16444536 0.45212182 -0.062089786 -0.31691796 0.3733911
0.1743039 0.14798498 0.47665697 0.14114052 0.2711093 0.103209 0.5865224 -0.32208964
-0.046126246 0.47646812 -0.07762025 0.11471753 0.08763936 0.3681964 -0.2281686 -0.4256932
-0.23230927 -0.07543059 0.30002922 0.37682435 -0.36115694 0.26404008 0.11436361 -0.49518126
-0.52759 0.12080306 0.3888814 0.26808742 0.008952522 -0.17947009 -0.23164123 -0.0823638
0.3470745 0.32705703 0.32372913 0.29993224 0.04543867 0.06702498 0.24432638 -0.23877037
-0.4013125 -0.5096788 0.064238966 0.4127192 0.31336427 0.16834742 -0.18284221 0.20286204
-0.19841743 0.23945712 -0.12340935 0.15410317 0.16644202 0.5373896 0.24564809 -0.081163704
-0.42478332 0.37509137 -0.047852397 0.025641818 0.4379666 0.2576003 -0.01596556 0.31826842
0.045309905 0.04751448 0.3613244 -0.20021257 0.1071444 0.083408095 0.31404415 -0.19118643
-0.20741107 0.18389608 0.27619496 -0.19710028 0.038611446 -0.14587389 -0.028162658 -0.52092534
0.48895305 -0.035910163 -0.21445513 -0.42778495 -0.25383896 -0.017360678 -0.50673485 -0.14762127
0.29293612 -0.06294688 0.26560605 0.4481207 0.43001983 -0.5326165 -0.23192346 -0.36395368
00000000: 8c7f c3be 87f0 183d a5ad f93d 1248 81be
00000010: f284 be3e cca8 c93e ec86 1ebe 601d dbbd
00000020: 1fdc c1be 74a6 3cbe 174a ac3e fc12 3bbe
00000030: 8bc8 053f 72f9 32be 12ed c3be fce3 81be
00000040: 79ed edbe 0591 45be f5af 293e 9901 e9bc
00000050: 3003 c9be b552 07bf d0e7 7e3d 21b1 b93e
00000060: 735d 68bd 0789 d03e 5158 923d 5d64 283e
00000070: 837c e73e dc51 7ebd 1243 a2be 1e2d bf3e
00000080: b97c 323e 6089 173e 620c f43e 2487 103e
00000090: d7ce 8a3e 3d5f d33d 5526 163f efe8 a4be
000000a0: e0ee 3cbd a1f3 f33e 5ef7 9ebd 06f1 ea3d
000000b0: 447c b33d 3d84 bc3e 08a5 69be 76f4 d9be
000000c0: 7be2 6dbe 5a7b 9abd 6e9d 993e 1fef c03e
000000d0: 90e9 b8be 4330 873e 7837 ea3d 6688 fdbe
000000e0: 2310 07bf 9867 f73d 761b c73e c142 893e
000000f0: 99ad 123c 02c7 37be 5c33 6dbe 5aae a8bd
00000100: c0b3 b13e 0574 a73e d3bf a53e b890 993e
00000110: e61d 3a3d 6544 893d b230 7a3e 3880 74be
00000120: d578 cdbe 4f7a 02bf b88f 833d ee4f d33e
00000130: 4871 a03e 4463 2c3e fd3a 3bbe 11bb 4f3e
00000140: f02d 4bbe 3f34 753e 0bbe fcbd 39cd 1d3e
00000150: c76f 2a3e 5d92 093f 2c8b 7b3e 2839 a6bd
00000160: 337d d9be fa0b c03e e000 44bd ca0e d23c
00000170: 283d e03e 30e4 833e 35ca 82bc 14f4 a23e
00000180: e196 393d 8b9e 423d 83ff b83e 8604 4dbe
00000190: 866e db3d ddd1 aa3d 65ca a03e 60c6 43be
000001a0: 9163 54be 414f 3c3e 6d69 8d3e a8d4 49be
000001b0: 0927 1e3d f75f 15be 60b5 e6bc 5d5b 05bf
000001c0: 0e58 fa3e 8916 13bd 209a 5bbe a106 dbbe
000001d0: 2ef7 81be fb37 8ebc 60b9 01bf 082a 17be
000001e0: b9fb 953e 4bea 80bd 84fd 873e 1470 e53e
000001f0: 8f2b dc3e 8e59 08bf 587d 6dbe 2358 babe

net.2.weight f4 [128, 128]
0.06063253 -0.043310907 0.013837538 0.055792876 -0.045492675 0.004060462 0.08050915 0.030508429
-0.009807372 -0.06559469 0.030393368 -0.00905402 0.014363072 0.03985947 -0.050426755 0.009012178
0.038557366 -0.09282276 -0.08320535 -0.038160793 0.05419592 0.00022652248 -0.019431762 -0.06064101
-0.08559086 0.10176442 0.057915688 -0.020445995 0.0053185653 -0.0044120043 -0.024784245 -0.060734313
-0.07951844 -0.05201276 -0.062873624 -0.025051102 0.053379342 0.06858423 0.089776166 0.07841518
-0.04801213 0.053635526 0.03410889 0.04352255 -0.06719985 -0.011072929 0.06261345 -0.049499266
0.023562305 0.043546394 0.07648786 0.023841163 -0.070548706 -0.04845683 -0.04083611 0.0067707878
-0.044929963 0.068158984 -0.0088861585 0.047201592 -0.0021600812 -0.011716472 0.053632647 0.06627665
-0.061249897 0.047490243 0.031200098 -0.04125093 -0.07800621 0.010071801 0.014535253 0.026863107
0.05254263 -0.053503085 0.028895522 -0.08908909 -0.04994433 0.028863749 -0.11748259 0.04711471
0.052493364 0.013497715 0.014200677 0.035171583 -0.0349254 0.13066256 0.047890678 0.06601893
-0.0006296055 -0.08384286 0.059997037 -0.025102187 -0.0879441 -0.019456888 0.06499198 -0.0507704
-0.06278807 0.059284758 0.066672124 0.01057421 0.047186363 0.048866134 -0.039619848 -0.04112543
0.07159007 0.06478418 -0.04587765 -0.01881688 0.038027152 -0.0198903 0.04952032 0.0545119
0.07260762 0.043907285 0.035466112 0.018236987 0.045785777 0.052250274 0.029401375 0.07682491
0.08441148 -0.095980816 0.012016529 -0.02325648 0.055318687 -0.07125031 -0.029064897 0.037373483
-0.057512645 0.021544565 0.076340735 -0.022628866 0.0077219456 -0.08205956 0.0108053535 0.020400353
0.047474205 -0.03913564 0.05702952 0.06309859 -0.05912011 -0.032505773 -0.062259763 0.010078393
0.03665562 0.036576107 -0.0038934648 -0.045808714 -0.08067856 -0.07627206 -0.018530227 -0.07541914
0.019794565 0.0840952 0.083516285 -0.054395422 0.07066809 -0.034505166 0.0022441521 0.03289677
-0.017278746 0.034948472 0.054584466 -0.0013048514 0.013173719 0.07740577 0.05399374 0.010251134
0.018763766 0.041183423 0.08281165 -0.052553065 0.0415148 0.0047329576 -0.054993596 -0.07080875
0.11639183 -0.066609554 -0.07731113 -0.0023920424 0.028325714 -0.05542474 -0.012708686 0.06970514
0.08747478 0.026256995 0.07073081 -0.032826804 -0.035093307 -0.04531022 -0.03098771 -0.028138287
-0.07930119 0.06132128 0.0012598647 0.033309806 0.02638787 0.03429595 -0.10769096 -0.022123326
-0.03314991 0.068005085 -0.021818874 -0.0021871163 -0.032574434 -0.019988447 -0.06863288 0.07877214
-0.07036405 -0.0355573 0.081207596 0.043844804 -0.050567564 -0.021462068 0.020490961 -0.075662285
0.031449128 -0.103691146 -0.0415844 -0.054903615 0.025031574 0.025830775 0.062555194 0.021115072
0.0512465 -0.049225092 -0.07690607 0.021096252 0.015424929 0.041430254 -0.041785073 0.027516989
0.053211313 0.06468906 -0.05654415 -0.08441353 0.08748439 0.0362284 -0.03303902 0.041293267
0.033827864 -0.055241697 0.07711663 0.0015400177 0.04588241 0.012291744 -0.053243283 0.0034916997
0.08787178 -0.06712193 0.0052505424 -0.07735749 0.04071016 -0.04608199 0.0431375 0.07230954
00000000: d159 783d c766 31bd d7b6 623c 1287 643d
00000010: 8756 3abd a00d 853b fbe1 a43d d0ec f93c
00000020: 19af 20bc 8256 86bd 83fb f83c 5057 14bc
00000030: 1753 6b3c af43 233d 498c 4ebd d0a7 133c
00000040: 54ee 1d3d dc19 bebd 9167 aabd 7e4e 1cbd
00000050: 8afc 5d3d aa86 6d39 5c2f 9fbc b562 78bd
00000060: 434a afbd dd69 d03d 0039 6d3d 5c7e a7bc
00000070: 5c47 ae3b 9392 90bb 5408 cbbc 8bc4 78bd
00000080: 90da a2bd 550b 55bd e3c3 80bd f837 cdbc
00000090: 4ca4 5a3d e475 8c3d 91dc b73d 2398 a03d
000000a0: 5ea8 44bd edb0 5b3d c3b5 0b3d b444 323d
000000b0: 13a0 89bd 3b6b 35bc 7b3b 803d bebf 4abd
000000c0: bc05 c13c b45d 323d aba5 9c3d 8b4e c33c
000000d0: d77b 90bd ab7a 46bd c443 27bd 7cdd dd3b
000000e0: 7b08 38bd f096 8b3d 4097 11bc 7556 413d
000000f0: 2690 0dbb 72f6 3fbc e8ad 5b3d 0dbc 873d
00000100: 2ce1 7abd 2185 423d 5997 ff3c bcf6 28bd
00000110: b8c1 9fbd 3204 253c 4525 6e3c 0510 dc3c
00000120: f136 573d 0d26 5bbd 4db6 ec3c 5774 b6bd
00000130: 6d92 4cbd ab73 ec3c b69a f0bd 5bfb 403d
00000140: 4803 573d 8525 5d3c f5a9 683c 1410 103d
00000150: f00d 0fbd 68cc 053e 0429 443d ef34 873d
00000160: 1c0c 25ba ceb5 abbd 74bf 753d 1aa3 cdbc
00000170: 091c b4bd 0d64 9fbc 841a 853d 9ff4 4fbd
00000180: 0897 80bd 93d4 723d 658b 883d 743f 2d3c
00000190: 7d46 413d db27 483d 6c48 22bd 2473 28bd
000001a0: d19d 923d 91ad 843d 34ea 3bbd dc25 9abc
000001b0: 5cc2 1b3d fcf0 a2bc d2d5 4a3d df47 5f3d
000001c0: 4eb3 943d 20d8 333d ea44 113d bc65 953c
000001d0: de89 3b3d 6204 563d 27db f03c 6156 9d3d
000001e0: eddf ac3d 9791 c4bd fae0 443c 6084 bebc
000001f0: d995 623d afeb 91bd 8219 eebc f014 193d
00000200: 6192 6bbd 3a7e b03c 8858 9c3d 2c60 b9bc
00000210: 6008 fd3b d80e a8bd f008 313c a41e a73c
00000220: 5074 423d b14c 20bd c997 693d d539 813d
00000230: ee27 72bd c624 05bd 1804 7fbd d81f 253c
00000240: 3424 163d d4d0 153d 8029 7fbb eba1 3bbd
00000250: cd3a a5bd 8734 9cbd b4cc 97bc 5a75 9abd
00000260: 3628 a23c 1b3a ac3d 960a ab3d bccd 5ebd
00000270: 6eba 903d 4a55 0dbd a012 133b c3be 063d
00000280: 288c 8dbc 2126 0f3d f693 5f3d 8c07 abba
00000290: 95d6 573c eb86 9e3d 8a28 5d3d 5ff4 273c
000002a0: 78b6 993c f3af 283d 2899 a93d e241 57bd
000002b0: 6c0b 2a3d ed16 9b3b f740 61bd 2e04 91bd
000002c0: d75e ee3d 976a 88bd 4c55 9ebd d0c3 1cbb
000002d0: 540b e83c 0d05 63bd 1838 50bc 92c1 8e3d
000002e0: fa25 b33d e918 d73c 51db 903d 6675 06bd
000002f0: 00be 0fbd 3697 39bd f0d9 fdbc 4482 e6bc
00000300: aa68 a2bd 062c 7b3d 0b22 a53a dd6f 083d
00000310: 602b d83c e979 0c3d 148d dcbd fa3b b5bc
00000320: 33c8 07bd 4046 8b3d 7fbd b2bc b955 0fbb
00000330: c56c 05bd d0be a3bc 658f 8cbd 4a53 a13d
00000340: 071b 90bd 88a4 11bd 2b50 a63d 9c96 333d
00000350: ef1f 4fbd 38d1 afbc a9dc a73c d4f4 9abd
00000360: cdd0 003d 065c d4bd 6754 2abd 9de2 60bd
00000370: 040f cd3c 109b d33c f01c 803d 84f9 ac3c
00000380: dae7 513d 40a0 49bd ee80 9dbd 0cd2 ac3c
00000390: d7b8 7c3c c5b2 293d d326 2bbd 4f6b e13c
000003a0: 1bf4 593d b37b 843d d79a 67bd 00e1 acbd
000003b0: 042b b33d 3b64 143d ec53 07bd 2123 293d
000003c0: 168f 0a3d 1e45 62bd 53ef 9d3d 6bda c93a
000003d0: 32ef 3b3d 5063 493c a115 5abd 00d5 643b
000003e0: 1ff6 b33d 3977 89bd be0c ac3b 9b6d 9ebd
000003f0: b2bf 263d 78c0 3cbd f2b0 303d 0617 943d

net.2.bias f4 [128]
0.02440933 -0.079305574 -0.15282227 0.084845 -0.09854965 -0.05523223 0.12688646 -0.07927199
0.051706076 0.054858647 0.0453869 0.0077987015 -0.020522237 -0.05487383 -0.11321979 0.07441698
-0.05435153 -0.07063785 -0.0059960634 0.07183207 -0.010679945 -0.09425283 -0.028183114 0.038539253
0.005402506 -0.019966539 -0.006498096 0.040401243 0.020375073 0.02338975 -0.017707169 0.06832517
0.06377824 0.086182095 -0.07622488 -0.02105152 0.06622828 0.048839927 0.046318516 0.06581386
-0.18659909 0.11204613 -0.02306116 -0.053322084 0.04592504 -0.029805638 -0.05173336 -0.08292644
-0.06416751 -0.054818824 -0.07593628 0.10289686 0.05753406 0.05990548 0.07587985 0.049673628
0.067361034 -0.008237489 0.03502803 -0.023511646 0.16029257 0.052832134 0.1266726 -0.027458366
0.018516416 0.03244618 -0.0063751936 0.04337541 0.0781551 0.195164 0.09010825 0.025302842
-0.08766926 0.03093145 0.04829061 0.14205518 -0.005828865 -0.040474772 -0.07573486 -0.054222763
0.0009780873 -0.024380602 0.06365409 0.049208857 0.061738834 -0.0073917178 0.061412677 0.08649223
-0.054130074 0.07478445 0.22843243 -0.039964058 -0.05114289 0.07588875 0.029337203 -0.037416473
-0.027905997 0.045304254 0.01202772 0.034422934 -0.039485507 0.294041 0.06404484 0.005121854
0.09284397 -0.08423871 0.045444943 -0.06788061 -0.052068464 -0.035485864 0.0045439154 -0.024349034
0.044165812 -0.23126653 0.019946694 0.020597817 -0.045485992 0.020798348 0.0023786465 -0.023520997
0.11789633 0.0018090069 0.06572144 0.05764775 -0.06579268 -0.0590332 -0.0893666 0.36600885
00000000: 13f6 c73c f66a a2bd 717d 1cbe 37c3 ad3d
00000010: 66d4 c9bd 313b 62bd 86ee 013e 5a59 a2bd
00000020: c0c9 533d 76b3 603d 9de7 393d 408c ff3b
00000030: 401e a8bc 62c3 60bd c7df e7bd ee67 983d
00000040: b69f 5ebd 94aa 90bd a07a c4bb b11c 933d
00000050: f0fa 2ebc a107 c1bd 46e0 e6bc 56db 1d3d
00000060: 8107 b13b de90 a3bc fbed d4bb c67b 253d
00000070: a0e9 a63c dc9b bf3c a00e 91bc 11ee 8b3d
00000080: 2a9e 823d 3d80 b03d ca1b 9cbd 3d74 acbc
00000090: b1a2 873d 600c 483d 7cb8 3d3d 6bc9 863d
000000a0: d513 3fbe 7178 e53d c2ea bcbc 4268 5abd
000000b0: e51b 3c3d f42a f4bc 5ce6 53bd 56d5 a9bd
000000c0: 416a 83bd b489 60bd 7b84 9bbd 97bb d23d
000000d0: d6a8 6b3d 735f 753d e566 9b3d 9376 4b3d
000000e0: 95f4 893d 88f6 06bc 8d79 0f3d 7f9b c0bc
000000f0: bc23 243e 8266 583d 76b6 013e 5ef0 e0bc
00000100: bdaf 973c 49e6 043d 00e7 d0bb 6aaa 313d
00000110: c80f a03d 12d9 473e ad8a b83d e847 cf3c
00000120: f18b b3bd f463 fd3c 60cc 453d ea76 113e
00000130: 1000 bfbb e0c8 25bd e11a 9bbd b018 5ebd
00000140: 2a33 803a d4b9 c7bc 135d 823d 3a8f 493d
00000150: dce1 7c3d 3936 f2bb dc8b 7b3d d722 b13d
00000160: 7fb7 5dbd 9728 993d 31ea 693e 5ab1 23bd
00000170: 357b 51bd 906b 9b3d 9354 f03c 0442 19bd
00000180: 1e9b e4bc f490 393d ea0f 453c 10ff 0c3d
00000190: 8ebb 21bd 8b8c 963e f129 833d 3ad5 a73b
000001a0: fb24 be3d 5885 acbd 7a24 3a3d fd04 8bbd
000001b0: be45 55bd a059 11bd 20e5 943b a077 c7bc
000001c0: 36e7 343d 22d1 6cbe 4067 a33c c1bc a83c
000001d0: 854f 3abd 4c61 aa3c 11e3 1b3b 1baf c0bc
000001e0: a273 f13d 331c ed3a f698 863d 0c20 6c3d
000001f0: 50be 86bd cccc 71bd d605 b7bd 8365 bb3e

net.4.weight f4 [4, 128]
-0.020259062 -0.02540601 -0.008168382 0.04056833 -0.02469197 -0.053269863 0.033173792 -0.08383728
-0.05591379 0.08576342 0.0066456464 0.0231359 -0.020988315 0.056169603 0.001787131 -0.07989334
0.07191085 -0.001730292 0.043953456 0.0010697395 -0.06296404 0.019539982 0.043658152 -0.048270088
0.054679163 0.010884904 0.02366428 -0.059331812 -0.009390667 -0.019780643 0.033748053 0.071258135
0.0029051804 0.053435855 0.07068861 0.022368664 0.04332619 0.006019554 0.06780786 0.045881204
-0.013917762 0.032965478 0.023502415 0.049229898 -0.0010619015 -0.08422575 -0.08171126 -0.015740909
-0.040461004 0.008159961 0.031134456 -0.0045174067 -0.069955625 -0.020555453 -0.0058149546 0.051813263
0.020986654 -0.007481625 -0.059575073 -0.0041188006 0.008717382 0.06115854 0.0855223 -0.07614357
-0.008361696 0.015516027 0.020633228 -0.06215839 -0.009143201 -0.0074707954 0.040148903 0.008507974
0.059082024 -0.0068518925 -0.0024962658 -0.010818602 -0.054909673 0.04306881 -0.0024382977 0.068915136
-0.030013831 0.074305214 -0.005880276 -0.085675314 -0.0202274 0.00046413814 0.038295362 -0.079674624
0.02557692 0.05057759 -0.008756098 -0.012336027 -0.011711178 -0.04079424 -0.0061623678 0.022214942
-0.010438898 0.051785458 0.038406327 0.0077146953 -0.012090571 -0.026848013 0.025074707 -0.06259751
0.08262458 0.0106743425 0.06529612 0.022024035 0.0013954152 -0.043706786 -0.02565825 0.0005924031
-0.03282499 -0.028013958 0.060975663 -0.025689622 -0.0649942 0.033918273 -0.00798158 -0.02280771
0.0141493175 0.048047572 0.08165609 -0.02758817 0.04205782 -0.07161109 0.011999103 0.004944194
0.05261657 0.06431957 0.01591924 -0.03617969 -0.0102990335 -0.06743347 -0.019892968 0.068361096
0.075018816 0.08578723 -0.008343497 0.04930141 0.06561627 0.0076460224 -0.053512525 -0.07864999
0.01071088 0.010388297 0.008405864 0.05892756 0.05389575 -0.0345234 -0.05064343 -0.07750554
0.004792371 0.0152833415 0.07888778 -0.03620981 -0.043025356 0.033615287 -0.03468088 -0.06994514
0.004199229 -0.008081213 -0.036651984 0.04025622 0.027173162 0.086500615 0.037386265 0.04840683
-0.044517867 0.0585955 0.03797853 -0.035162706 -0.030203652 -0.056562122 0.082158126 -0.06509346
6.32325e-06 0.017448453 -0.031637352 0.02792229 0.039529607 -0.044040866 -0.03156613 0.010327243
0.07969979 0.009079295 0.034632232 0.079441935 -0.08644078 -0.046728536 0.05094156 -0.021171287
-0.009987961 -0.011986463 0.00076648593 0.011408754 -0.0097405845 0.044636197 0.06020369 -0.0039355904
0.0065301284 -0.0009298528 -0.074021 0.015207928 0.05838067 0.066360004 0.008422972 0.0041503906
0.042952113 -0.019714408 0.06547721 -0.018932901 -0.05977124 -0.0150234755 -0.030903958 -0.07652885
-0.04969024 0.01783924 0.069665365 -0.018193366 -0.017925723 -0.044505324 0.01221423 0.02261866
-0.034284074 0.059364554 0.040907167 0.0655753 0.027442664 -0.13311876 0.14488368 -0.0802076
0.051757492 -0.05480398 0.038608782 0.052344855 0.069883175 0.00045401603 0.067370646 0.036391303
0.040981878 -0.074991755 0.06768107 -0.02742791 -0.030875515 0.063893646 -0.08395292 -0.05733659
-0.014070343 0.03136677 -0.06888975 -0.0067961104 -0.075025626 -0.04798818 0.0030726495 0.1676692
00000000: 55f6 a5bc 4420 d0bc add4 05bc fa2a 263d
00000010: d046 cabc 8031 5abd 3ee1 073d e1b2 abbd
00000020: dc05 65bd bba4 af3d b9c3 d93b 8087 bd3c
00000030: b0ef abbc 1912 663d 2a3e ea3a 1f9f a3bd
00000040: ff45 933d f7ca e2ba 8a08 343d 8036 8c3a
00000050: 4af3 80bd 5012 a03c e4d2 323d dbb6 45bd
00000060: 42f7 5f3d 9956 323c 98db c13c ea05 73bd
00000070: 50db 19bc 040b a2bc 663b 0a3d c9ef 913d
00000080: d764 3e3b 8edf 5a3d 31c5 903d 7d3e b73c
00000090: ce76 313d ae3f c53b d9de 8a3d eeed 3b3d
000000a0: 5307 64bc cf06 073d 2388 c03c 4aa5 493d
000000b0: 802f 8bba 8d7e acbd 3c58 a7bd 14f3 80bc
000000c0: 70ba 25bd 5bb1 053c b00d ff3c c106 94bb
000000d0: e544 8fbd e963 a8bc 608b bebb 253a 543d
000000e0: 34ec ab3c 6b28 f5bb fe04 74bd 01f7 86bb
000000f0: 5ad3 0e3c 6181 7a3d 5126 af3d 29f1 9bbd
00000100: 7fff 08bc ef36 7e3c 0407 a93c cc99 7ebd
00000110: 5dcd 15bc 93cd f4bb 2d73 243d 0865 0b3c
00000120: feff 713d d785 e0bb 6498 23bb 8140 31bc
00000130: f7e8 60bd ec68 303d d9cb 1fbb 6123 8d3d
00000140: 91df f5bc 552d 983d 55af c0bb 8a76 afbd
00000150: efb3 a5bc 9157 f339 99db 1c3d 732c a3bd
00000160: b086 d13c 722a 4f3d bd75 0fbc 0c1d 4abc
00000170: 3ee0 3fbc dc17 27bd b0ed c9bb 1cfc b53c
00000180: e907 2bbc fd1c 543d f44f 1d3d 8ecb fc3b
00000190: 8817 46bc 5df0 dbbc 7969 cd3c 2033 80bd
000001a0: 1337 a93d 70e3 2e3c f9b9 853d c06b b43c
000001b0: 5de6 b63a e305 33bd 4031 d2bc 804b 1b3a
000001c0: 7f73 06bd 877d e5bc 9ec1 793d 0b73 d2bc
000001d0: ae1b 85bd e3ed 0a3d 2cc5 02bc 3cd7 babc
000001e0: 8ad2 673c 88cd 443d 4f3b a73d 9600 e2bc
000001f0: d244 2c3d d6a8 92bd e397 443c e802 a23b
00000200: 7984 573d fbb9 833d 1169 823c 2831 14bd
00000210: 47bd 28bc 8f1a 8abd 94f6 a2bc e700 8c3d
00000220: 77a3 993d 37b1 af3d 2ab3 08bc 46f0 493d
00000230: d361 863d 7c8b fa3b f32f 5bbd 3f13 a1bd
00000240: b07c 2f3c ad33 2a3c c0b8 093c 065e 713d
00000250: cac1 5c3d 6968 0dbd 7c6f 4fbd 39bb 9ebd
00000260: 5209 9d3b fb66 7a3c eb8f a13d bd50 14bd
00000270: 5b3b 30bd 2fb0 093d 8a0d 0ebd 663f 8fbd
00000280: b099 893b 1067 04bc 6420 16bd b5e3 243d
00000290: 409a de3c 3c27 b13d 5722 193d 3d46 463d
000002a0: 5e58 36bd d601 703d 608f 1b3d c506 10bd
000002b0: a66d f7bc afad 67bd 8542 a83d b84f 85bd
000002c0: 4e2c d436 0ff0 8e3c 2b96 01bd 49bd e43c
000002d0: cce9 213d 3264 34bd 7d4b 01bd 9933 293c
000002e0: a539 a33d 53c1 143c 87da 0d3d 74b2 a23d
000002f0: dd07 b1bd 6c66 3fbd 19a8 503d 686f adbc
00000300: 8ba4 23bc df62 44bc 00ee 483a c8eb 3a3c
00000310: f996 1fbc 72d4 363d 2598 763d 20f6 80bb
00000320: b0fa d53b 5dc1 73ba 5298 97bd ac2a 793c
00000330: 9220 6f3d c1e7 873d 8100 0a3c 0000 883b
00000340: 8eee 2f3d 1c80 a1bc ea18 863d 2c19 9bbc
00000350: b0d2 74bd 0625 76bc 4c2a fdbc 28bb 9cbd
00000360: fe87 4bbd 9923 923c b7ac 8e3d 410a 95bc
00000370: f7d8 92bc 374b 36bd 321e 483c c54a b93c
00000380: 756d 0cbd 3f28 733d 468e 273d 584c 863d
00000390: 70cf e03c 4950 08be 635c 143e e243 a4bd
000003a0: aaff 533d 237a 60bd 3e24 1e3d 8f67 563d
000003b0: e91e 8f3d 0009 ee39 9ff9 893d 0c0f 153d
000003c0: 9ddc 273d 4795 99bd 5f9c 8a3d 7fb0 e0bc
000003d0: a6ee fcbc acda 823d 82ef abbd c6d9 6abd
000003e0: 4c87 66bc 717a 003d 1216 8dbd e8b1 debb
000003f0: 09a7 99bd 418f 44bd 815e 493b 7ab1 2b3e

net.4.bias f4 [4]
-0.05142381 -0.00052548223 0.063859664 -0.00083642796
00000000: c6a1 52bd 84c0 09ba dbc8 823d bb43 5bba
