Entities/pained_nav.pth (torch, 73382 bytes, 6 tensors)

net.0.weight f4 [128, 4]
0	0x3edd1184	0.43177426
1	0x3c6d3312	0.014477508
2	0x3dd1be27	0.10241347
3	0xbed44242	-0.414568
4	0x3e9e0011	0.30859426
5	0xbe32ad0c	-0.17448825
6	0x3ebf3b3a	0.37349874
7	0xbe982e1c	-0.2972268
8	0xbea95d1a	-0.33078843
9	0x3ed66128	0.41871
10	0xbe560da8	-0.20903647
11	0xbe9e4fb6	-0.3092019
12	0xbecafc40	-0.39645576
13	0xbe26ff38	-0.16308296
14	0xbe0c4ef0	-0.13701987
15	0x3d03c470	0.03216976
16	0x3eb60668	0.35551763
17	0x3e1e3d98	0.15453184
18	0x3e0289f7	0.12747942
19	0x3d9da6b8	0.07697815
20	0xbd9123f5	-0.070869364
21	0xbe8c5d04	-0.27414715
22	0xbd8fe26b	-0.07025608
23	0x3e83a1af	0.25709292
24	0xbda546b9	-0.0807013
25	0xbf11b2ce	-0.5691346
26	0x3e2470b8	0.16058624
27	0x3dd3d9c1	0.10344268
28	0x3efa4ef2	0.48888355
29	0xbe1f09bf	-0.15531062
30	0xbdff3276	-0.124607965
31	0x3eb615db	0.3556355
32	0xbf147921	-0.5799733
33	0x3c46e4c1	0.0121395
34	0xbdc13e5f	-0.094357245
35	0x3ee2f70a	0.443291
36	0x3e982f5f	0.2972364
37	0x3e2434de	0.16035792
38	0xbd0c7d43	-0.034299146
39	0xbd304c76	-0.04304167
40	0xbf26aaa9	-0.65104157
41	0x3e838ec2	0.25694853
42	0x3e951fb9	0.29125765
43	0xbec8ac04	-0.39193738
44	0x3d9c347e	0.076271996
45	0xbe83a395	-0.2571074
46	0xbead5f00	-0.33861542
47	0x3ebccef9	0.36876658
48	0xbef12fbb	-0.47106728
49	0x3eda03f1	0.42581132
50	0xbd89aff8	-0.067230165
51	0xbea59228	-0.3233807
52	0x3ea0378d	0.31292382
53	0xbea703c2	-0.32620054
54	0x3de0581b	0.10954305
55	0xbacbe838	-0.0015556877
56	0x3e9a9550	0.3019204
57	0xbe788333	-0.24268799
58	0x3dbdf1eb	0.09274658
59	0xbd87035f	-0.0659244
60	0x3ea3cc23	0.3199168
61	0xbdd4798e	-0.10374747
62	0xbeb0f159	-0.34559134
63	0xbebeecc8	-0.37290025
64	0xbe185bbf	-0.14878748
65	0x3e93c3d8	0.28860354
66	0x3ea96beb	0.33090147
67	0x3e3bbf9d	0.18334813
68	0x3e813ef7	0.2524335
69	0xbeea22aa	-0.45729572
70	0x3e258d47	0.16167174
71	0x3ed61e77	0.41820118
72	0x3cf1eebf	0.029532788
73	0xbecdda10	-0.4020543
74	0xbb820f91	-0.003969141
75	0x3ed9cc39	0.42538622
76	0x3ecfc13c	0.40577114
77	0xbea04828	-0.3130505
78	0x3db96f31	0.09054411
79	0x3e2605b8	0.16213119
80	0xbf0dc4bd	-0.55378324
81	0x3eeaa453	0.45828494
82	0x3eb091bd	0.3448619
83	0x3d849d76	0.06475346
84	0x3e9d4a0e	0.30720562
85	0xbe7bd004	-0.2459107
86	0xbde572b0	-0.112035155
87	0xbec7936a	-0.38979656
88	0xbe84f9ec	-0.25971925
89	0x3e7243a5	0.23658617
90	0xbe73181e	-0.23739669
91	0x3b490f24	0.003067919
92	0x3e78dfd6	0.24304137
93	0x3e80c054	0.25146735
94	0x3eb64d53	0.3560587
95	0x3e92cd88	0.28672433
96	0xbd929093	-0.071564816
97	0x3e508a09	0.20365156
98	0x3eb727ea	0.3577264
99	0xbe801b4c	-0.25020826
100	0xbf0b637f	-0.54448694
101	0xbd3951ab	-0.0452439
102	0xbe0e3b3e	-0.13889787
103	0x3ea8b527	0.32950708
104	0xbe94e222	-0.29078776
105	0xbe58b51c	-0.21162838
106	0xbd842120	-0.064516306
107	0xbed78986	-0.4209711
108	0x3eaca1e8	0.33717275
109	0xbe4d8952	-0.20071915
110	0xbd81b07e	-0.06332491
111	0x3e1a8a93	0.15091924
112	0xbe260a1a	-0.16214791
113	0x3d4d11bc	0.05006574
114	0xbe9acdeb	-0.30235228
115	0x3e17f9bf	0.14841364
116	0xbbf24e80	-0.007394612
117	0xbe3737ec	-0.17892426
118	0xbcdde9c0	-0.027089
119	0xbeda58c4	-0.42645848
120	0xbe499c39	-0.196885
121	0x3e78f3dd	0.24311776
122	0xbe1fc49f	-0.15602349
123	0x3e8c9035	0.2745377
124	0x3e247613	0.16060667
125	0x3eb8a744	0.36065114
126	0x3d9f4d0a	0.07778366
127	0xbefdb1ee	-0.49549812
128	0x3cc04e6f	0.0234749
129	0x3e058c01	0.13041689
130	0xbc31cbdb	-0.010851826
131	0xbe19f628	-0.15035307
132	0x3e42b6ff	0.1901512
133	0x3d4478ab	0.04796664
134	0xbd2101d5	-0.039308388
135	0x3ea8095b	0.32819638
136	0xbed6723d	-0.41884032
137	0xbda0a8a5	-0.078446664
138	0x3cbc609e	0.02299529
139	0xbdbc453d	-0.09192894
140	0xbe924716	-0.2856986
141	0x3e34da68	0.1766144
142	0x3eef912a	0.4679044
143	0xbed22a02	-0.41047674
144	0xbeaffd19	-0.34372786
145	0xbe84f833	-0.2597061
146	0x3d25714c	0.04039125
147	0x3e03d730	0.12875056
148	0xbde97ac3	-0.11400368
149	0xbe7a2782	-0.24429134
150	0x3e6bac35	0.2301491
151	0xbea9309b	-0.33044896
152	0x3e3d5144	0.18488032
153	0xbec0532d	-0.37563458
154	0xbe8dec1c	-0.277192
155	0x3ea2522e	0.31703323
156	0x3ecff64f	0.40617606
157	0xbe8a2c7d	-0.26987067
158	0xbee4be8f	-0.44676635
159	0xbe9eb307	-0.30995962
160	0x3e298899	0.16556014
161	0x3edac8a1	0.42731193
162	0xbf0797ca	-0.52965987
163	0xbe24d786	-0.1609784
164	0x3e95e096	0.29272908
165	0x3edd56ab	0.43230185
166	0xbe9ba272	-0.30397373
167	0xbeac1a0c	-0.33613622
168	0x3e8215c3	0.25407228
169	0x3e16b87d	0.14718814
170	0x3d9e0030	0.077148795
171	0xbe99df51	-0.3005319
172	0x3df9f572	0.12205018
173	0xbea0f6dc	-0.3143834
174	0xbdb6d720	-0.089277506
175	0x3dee9382	0.11649229
176	0xbe326fa4	-0.174254
177	0xbeca2ca7	-0.39487192
178	0xbd9c1436	-0.076210424
179	0x3ec4376a	0.38323528
180	0x3eaca343	0.3371831
181	0x3ed8ea36	0.4236619
182	0xbe97ab95	-0.29623094
183	0x3e3886cb	0.1802017
184	0xbe41bffa	-0.1892089
185	0xbe16ac6d	-0.14714213
186	0x3cea5d0c	0.028608821
187	0x3c6fe23a	0.014641339
188	0x3e5e33bb	0.21699421
189	0xbe50ee68	-0.20403445
190	0xbefdba06	-0.49555987
191	0x3e6e2248	0.23255265
192	0xbef6ba0c	-0.48188818
193	0xbebc6693	-0.36797008
194	0xbe28b9ea	-0.1647717
195	0x3ee72ace	0.45149845
196	0x3e995710	0.29949236
197	0xbeb50c37	-0.35360882
198	0x3e89fd18	0.26950908
199	0x3d8d6092	0.06903185
200	0xbe258920	-0.1616559
201	0xbd12dd90	-0.03585583
202	0xbecae92c	-0.3963102
203	0xbe44f2ac	-0.19233197
204	0x3f091f38	0.5356326
205	0xbebc364d	-0.36760178
206	0x3e4756ed	0.19466753
207	0xbe0bd39b	-0.1365494
208	0xbe7db513	-0.24776106
209	0xbdc7e755	-0.0976092
210	0xbee71d9c	-0.45139778
211	0x3e47aae0	0.19498777
212	0xbe46305e	-0.19354388
213	0xbe332278	-0.17493618
214	0xbe50cb37	-0.2039002
215	0x3ee2d2a3	0.44301328
216	0xbeb38fc2	-0.35070616
217	0x3ea97b2c	0.33101785
218	0xbec4712e	-0.383676
219	0xbefdf01e	-0.49597257
220	0xbe81f44c	-0.25381696
221	0xbe947856	-0.2899806
222	0xbec6d0ba	-0.3883112
223	0x3e664e15	0.22490723
224	0x3d131158	0.035905212
225	0x3e421c76	0.1895617
226	0x3d2e263a	0.042516924
227	0xbebe0424	-0.37112534
228	0xbf073dca	-0.5282866
229	0x3e8aa463	0.27078542
230	0x3e23a4f0	0.15980887
231	0xbe2a228e	-0.16614744
232	0xbeb9e9ca	-0.3631118
233	0xbd035189	-0.03206018
234	0x3e3450cf	0.17608951
235	0x3d069a3c	0.032861933
236	0x3cce2b9d	0.02516728
237	0x3ec2f1ae	0.38075012
238	0xbe4cca76	-0.19999108
239	0x3deb917e	0.1150236
240	0x3e5cd16c	0.21564263
241	0xbe9a781e	-0.30169767
242	0xbe07f4bc	-0.13276953
243	0x3e7d3b3f	0.24729632
244	0x3d7551a0	0.059892297
245	0xbecb5494	-0.39712965
246	0xbec40aae	-0.38289398
247	0xbe894c9c	-0.2681626
248	0xbe2e6f13	-0.17034559
249	0xbed98697	-0.42485496
250	0x3e992f0d	0.2991871
251	0x3d949652	0.07255234
252	0x3dd830b0	0.105561614
253	0xbe7d7c18	-0.2475437
254	0xbe26692c	-0.16251057
255	0xbea960b4	-0.3308159

net.0.bias f4 [128]
0	0x3ee92d98	0.45542598
1	0xbef88d15	-0.48545137
2	0xbdc418e0	-0.09575057
3	0xbddde088	-0.108338416
4	0xbd27ea76	-0.040995084
5	0x3e0bb534	0.13643342
6	0x3c6ef5bd	0.014584956
7	0xbdfde1ac	-0.12396559
8	0xbe1d00b0	-0.15332294
9	0x3e2d92b2	0.16950491
10	0xbf0cb5f1	-0.5496512
11	0x3da21a52	0.079151765
12	0xbea2c3f1	-0.31790116
13	0x3ef7067d	0.48247138
14	0xbe3c0645	-0.18361767
15	0xbed3ab80	-0.41341782
16	0x3e615f12	0.22008923
17	0xbe7cbb85	-0.24680908
18	0xbe813220	-0.25233555
19	0xbed8cd9c	-0.42344368
20	0xbe43722f	-0.19086526
21	0x3e4bc928	0.19900954
22	0xbeb4a33a	-0.35280782
23	0xbed29146	-0.4112646
24	0xbe89b26a	-0.26893932
25	0xbe4030fe	-0.18768689
26	0x3d5ba880	0.05362749
27	0xbf0dde54	-0.5541737
28	0x3ec9c49d	0.39407817
29	0x3d767950	0.060174286
30	0x3e3ba4d7	0.183246
31	0x3d961339	0.07327885
32	0x3eb21d6a	0.34788066
33	0x3e6f3355	0.23359425
34	0xbe2a4952	-0.16629532
35	0x3ea28984	0.3174554
36	0xbddd19d5	-0.10795943
37	0xbeef7364	-0.46767724
38	0xbb302781	-0.0026879015
39	0xbe9297df	-0.28631493
40	0x3e22c31f	0.15894745
41	0x3f0e3644	0.5555155
42	0xbed18cfb	-0.40927872
43	0x3e31a4fe	0.17348096
44	0x3d0d50f7	0.034501042
45	0x3e48e0c4	0.19616991
46	0xbe8400e7	-0.25781938
47	0xbca63ff2	-0.020294163
48	0xbf01e9df	-0.50747484
49	0xbd74fbe7	-0.059810545
50	0x3e36c61c	0.1784901
51	0xbec3aa7d	-0.3821601
52	0xbec6215f	-0.38697335
53	0x3e6c661a	0.23085824
54	0x3e4ce460	0.20008993
55	0xbec47e77	-0.38377735
56	0xbec921ab	-0.392835
57	0x3e83f141	0.2577
58	0xbf051156	-0.5197958
59	0x3e90b3cc	0.28262174
60	0xbf2f583a	-0.68494
61	0xbd950c08	-0.072776854
62	0xbefe9015	-0.497193
63	0xbedd125e	-0.43178076
64	0x3d5adf60	0.053435683
65	0xbedd4ad5	-0.43221155
66	0xbda3d1bd	-0.07998989
67	0x3ed1f483	0.4100686
68	0xbce86ae0	-0.028371274
69	0xbe3b3599	-0.18282165
70	0xbd46d1e0	-0.048539996
71	0x3ec2d12d	0.38050213
72	0xbd2216d4	-0.03957255
73	0xbe3f4da0	-0.18681955
74	0x3c80fed0	0.015746504
75	0xbe596660	-0.21230459
76	0x3e558694	0.20852119
77	0x3ebe880c	0.3721317
78	0xbed0db78	-0.4079244
79	0xbe3ce0c8	-0.18445122
80	0xbef4a39e	-0.4778108
81	0xbe3cbd09	-0.18431486
82	0x3d4b0200	0.049562454
83	0x3f147f74	0.5800698
84	0xbea7bb3a	-0.3276003
85	0xbebc4032	-0.36767727
86	0xbee83819	-0.453553
87	0xbf2914d5	-0.6604741
88	0xbd1b3df1	-0.03790087
89	0x3f3610ce	0.7111939
90	0x3e8fcd0c	0.28086126
91	0xbe665a51	-0.2249539
92	0x3dafcc14	0.08583847
93	0xbe14be2d	-0.14525671
94	0xbebf08a3	-0.37311277
95	0xbe9cae64	-0.306018
96	0x3e178524	0.14796883
97	0xbde03177	-0.10946935
98	0x3c0e6501	0.008691073
99	0xbf07fefe	-0.5312346
100	0xbe0f0e51	-0.13970305
101	0x3ead16fb	0.33806595
102	0xbe841c13	-0.2580267
103	0x3dbe6cf0	0.09298122
104	0x3f4953a3	0.78643245
105	0xbec75cf4	-0.38938105
106	0x3e90d6ba	0.28288823
107	0xbec6b726	-0.38811606
108	0xbdec12c6	-0.11527018
109	0x3da26eba	0.07931276
110	0x3ed8e580	0.42362595
111	0x3e06156c	0.1309411
112	0x3e79826a	0.24366155
113	0xbedddc50	-0.43332148
114	0xbe35c5b0	-0.17751193
115	0x3e0c7f3f	0.13720416
116	0xbf0abbe2	-0.54192936
117	0xbecd6309	-0.4011462
118	0xbde48c30	-0.11159551
119	0xbdd54f4f	-0.104155175
120	0x3e4e3270	0.20136428
121	0x3ee59598	0.44840693
122	0xbe4213cf	-0.18952869
123	0x3b9c7d77	0.0047756988
124	0xbe811cfb	-0.25217423
125	0xbd5fbd8c	-0.054624125
126	0x3ed99c93	0.4250227
127	0x3ee94243	0.45558366

net.2.weight f4 [128, 128]
0	0x3d2b1d77	0.041776147
1	0x3c8def1b	0.017325928
2	0xbc155dd0	-0.009116605
3	0x3d22ba96	0.039728723
4	0xbdc4971a	-0.09599133
5	0x3b9d5880	0.00480181
6	0xbd92a2a3	-0.07159927
7	0x3c7be596	0.015374562
8	0xbd178947	-0.036996152
9	0x3def3d5b	0.116816245
10	0x3befaa8c	0.007314032
11	0xbca36d29	-0.019949513
12	0x3d4777be	0.04869818
13	0xbdd3f1b0	-0.103488326
14	0xbd80d257	-0.06290119
15	0x3d66674e	0.056250863
16	0xbd140ff7	-0.036148038
17	0x3d10935e	0.03529679
18	0xbdade355	-0.08490626
19	0xbce687fd	-0.028141016
20	0xbc8d03bb	-0.017213693
21	0x3d24ad86	0.040204547
22	0x3d09ef15	0.033675272
23	0xbb99d6ab	-0.00469478
24	0xbd532409	-0.051548038
25	0x3d0b4265	0.033998866
26	0x3d44005e	0.047851913
27	0xbd320f4c	-0.04347162
28	0x3ccfc457	0.025362177
29	0xbd1d0675	-0.038336236
30	0xbcc18dfb	-0.023627272
31	0x3d2c5a72	0.042078443
32	0xbc912e2e	-0.017722216
33	0xbda3367f	-0.07969379
34	0x3d4b5f7e	0.049651615
35	0xb9617776	-0.00021502175
36	0xbd8d93af	-0.06912934
37	0xbd88593c	-0.06657645
38	0x3cf948bb	0.030430188
39	0x3ca2e74c	0.019885682
40	0xbd7c0e71	-0.06153721
41	0x3d95691c	0.07295439
42	0xbba81c8e	-0.005130357
43	0xbd9ad643	-0.075603984
44	0xbcb64ea1	-0.02225429
45	0xbc9c31bb	-0.019066682
46	0x3dab7fa3	0.08373954
47	0x3cd70038	0.026245221
48	0x3d62ad66	0.055341147
49	0xbd7129e5	-0.058877844
50	0x3c995a24	0.01871974
51	0xbd9abff5	-0.07556144
52	0xbc2ae9b8	-0.010431699
53	0x3d259ee1	0.04043472
54	0xbd91143a	-0.07083936
55	0x3d95cd5d	0.073145606
56	0x3b75c60c	0.0037502078
57	0xbcaa3032	-0.020774934
58	0xbd807acc	-0.06273422
59	0xbde4df98	-0.111754596
60	0xbcb28584	-0.02179218
61	0x3d8bb1cd	0.06821022
62	0xbc476f39	-0.012172514
63	0x3d37f79a	0.044913866
64	0xbd7b2ba0	-0.0613209
65	0xbd858768	-0.06519967
66	0xbd0d320c	-0.034471557
67	0xbc0a1e94	-0.008430142
68	0xbd23f573	-0.040029
69	0xbd989305	-0.07449917
70	0xbd8719e5	-0.06596736
71	0x3d26deda	0.04073987
72	0xbbe15b32	-0.0068773264
73	0xbd157334	-0.03648682
74	0x3ac49cc2	0.0015000331
75	0x3b043ba0	0.002017714
76	0x3c78d420	0.015187293
77	0xbcfe3774	-0.031032301
78	0xbd1ae815	-0.037818987
79	0xbd4e53c4	-0.050372854
80	0x3c64ce58	0.013965212
81	0x3d8517fd	0.06498716
82	0xbd2446ec	-0.0401067
83	0xbcdd23ac	-0.026994549
84	0x3cea1b34	0.028577425
85	0x3d8d6503	0.06904032
86	0xbb0587f9	-0.0020375235
87	0xba37fe64	-0.0007018803
88	0xbd7170ef	-0.058945592
89	0xbd41ce75	-0.047316033
90	0xbd194ca3	-0.037426602
91	0xbd94b026	-0.0726016
92	0xbd08e157	-0.033418026
93	0x3d4d38b2	0.050102897
94	0xbdeb2151	-0.11480964
95	0xbc0f4b60	-0.008745998
96	0xbb84a30d	-0.0040477575
97	0xbd8456ce	-0.06461869
98	0xbd2d1eca	-0.04226569
99	0x3c6889f4	0.014193047
100	0x3b65c116	0.0035057715
101	0x3d08070e	0.033209853
102	0xbd387993	-0.045037817
103	0xbd1c327b	-0.03813408
104	0xbd2a9b64	-0.0416521
105	0x3d4799da	0.04873071
106	0xbce2f35c	-0.027703933
107	0x3cd0bcac	0.02548059
108	0xbd93777d	-0.07200525
109	0xbd732228	-0.059358746
110	0xbd2ab22b	-0.04167382
111	0xbd87b88b	-0.06626996
112	0xbdb21bb9	-0.08696694
113	0xbda1b494	-0.07895771
114	0xbd50ec95	-0.051006872
115	0x3d36f1f0	0.044664323
116	0xbd0550c3	-0.032547724
117	0xbd90d8c4	-0.07072595
118	0x3cd64cfa	0.026159752
119	0x3cd8a90b	0.026447793
120	0x3d6d27ce	0.05789929
121	0xbcda52bd	-0.02665078
122	0xba7cb000	-0.0009639263
123	0xbd9441df	-0.072391264
124	0xbcc292a9	-0.023751574
125	0x3d07bc96	0.033138834
126	0xbcb251fc	-0.021767609
127	0x3ceab95d	0.028652841
128	0x3d2a13cb	0.041522782
129	0x3d230905	0.039803524
130	0x3d2a8056	0.041626297
131	0x3c7090e0	0.014682978
132	0xbd9b4aa5	-0.07582597
133	0xbd2b573c	-0.04183124
134	0xbd4ac7e8	-0.04950705
135	0xbcb09108	-0.021553531
136	0x3cd738c2	0.026272181
137	0xbd9e7351	-0.077368386
138	0x3d049575	0.032369096
139	0xbd0e007c	-0.03466843
140	0x3d9fb147	0.07797485
141	0xbda9db66	-0.082938
142	0xbe0280f0	-0.12744498
143	0x3cc0a913	0.02351812
144	0xbcd55239	-0.026040183
145	0xbc68577f	-0.014181017
146	0x3d022df3	0.0317821
147	0x3bada326	0.00529899
148	0x3db1f6cd	0.08689652
149	0xbd76ca5b	-0.060251575
150	0x3cddf30d	0.027093435
151	0xbd0639f7	-0.032770123
152	0x3bce3980	0.0062934756
153	0x3c6c8e99	0.014438295
154	0x3d0b5d2a	0.034024395
155	0xbe02e55f	-0.1278281
156	0xbd363eb7	-0.044493403
157	0xbd2948f0	-0.041329324
158	0x3d950b07	0.07277494
159	0x3d777c7c	0.060421452
160	0x3d406bc7	0.046977784
161	0xbbd7c179	-0.006584343
162	0x3badc96b	0.005303552
163	0x3de7c489	0.11316783
164	0x3d358120	0.044312596
165	0x3d3f4314	0.04669483
166	0xbe137e2c	-0.144036
167	0xbc8fa01c	-0.0175324
168	0x3d5a7f29	0.053343926
169	0x3d9292f6	0.07156937
170	0xbd498750	-0.04920131
171	0xbdcbec83	-0.099572204
172	0xbd2c2be7	-0.042034056
173	0xbda5e634	-0.081005484
174	0xbda0b91d	-0.078478076
175	0x3d9f058f	0.07764732
176	0x3c183a62	0.009291263
177	0x3ac9786c	0.0015370972
178	0xbd7afc84	-0.061275974
179	0xbe1523ee	-0.14564487
180	0xbbdb7970	-0.006697826
181	0xbd6d6f8c	-0.057967708
182	0xbd1c4a63	-0.03815688
183	0x3c927f34	0.01788292
184	0x3d874f8d	0.0660697
185	0x3d281cd5	0.04104312
186	0xbd36b8e3	-0.044609915
187	0x3d02d20b	0.031938594
188	0xbdb0e028	-0.086365044
189	0xbbc75000	-0.006082535
190	0xbb970def	-0.0046098153
191	0x3d7fcc12	0.062450476
192	0xbd815976	-0.063158914
193	0xbe51fcf8	-0.20506656
194	0xbb0580df	-0.0020371003
195	0xbd958839	-0.07301373
196	0x3c0c3550	0.008557633
197	0xbde8c275	-0.11365215
198	0x3d39d5da	0.04536996
199	0x3d7d0f0f	0.06178194
200	0xbcd283f2	-0.025697682
201	0xbd13c4ac	-0.036076233
202	0xbce06293	-0.027390754
203	0x3d64cbfe	0.055858605
204	0xbda2954b	-0.079386316
205	0xbaaf8340	-0.0013390556
206	0x3d391668	0.045187384
207	0xbc2c244f	-0.0105067035
208	0x3da90657	0.08253162
209	0x3d442cd5	0.047894318
210	0xbca1c6bc	-0.019748084
211	0xbd84d33e	-0.06485604
212	0x3d1c2c16	0.03812798
213	0xbdb48321	-0.08814073
214	0xbd6e7c3d	-0.05822395
215	0x3baa025a	0.0051882686
216	0xbde97135	-0.11398546
217	0x3be00b04	0.0068372507
218	0x3d11dbde	0.035610072
219	0xbc1ddf82	-0.009635808
220	0x3d207ae5	0.0391797
221	0x3d131a90	0.035914004
222	0x3d6b3ba2	0.057429917
223	0xbc995c48	-0.018720761
224	0xbda9ed23	-0.08297183
225	0x3c9895f8	0.018626198
226	0x3c1d2e7b	0.009593601
227	0xbd762ad5	-0.06009944
228	0xbd34bc39	-0.044124816
229	0x3d1a43dc	0.037662372
230	0xbd5d2e68	-0.053999335
231	0xbe214510	-0.15749002
232	0x3d843330	0.06455076
233	0x3daea915	0.085283436
234	0x3d9c78c2	0.0764022
235	0x3c5f7040	0.013637602
236	0xbd77088c	-0.060310885
237	0xbd8f8ca1	-0.07009245
238	0xbcf82117	-0.030289216
239	0xbbc16c50	-0.0059028044
240	0xbdb1767d	-0.08665178
241	0xbd15fddd	-0.036619056
242	0xb9be6600	-0.0003631562
243	0xbd4920ad	-0.049103428
244	0x3c1f40d5	0.009720047
245	0x3cc17d72	0.023619387
246	0x3d0d99b0	0.034570396
247	0xbd189f3b	-0.03726123
248	0xbcf1c054	-0.029510655
249	0x3d3ce688	0.04611829
250	0x3d6cdbbb	0.05782674
251	0x3cb90938	0.022587404
252	0xbd390180	-0.045167446
253	0xbda791d1	-0.08182109
254	0xbd89842e	-0.067146644
255	0xbd3cfd12	-0.046139784

net.2.bias f4 [128]
0	0xbd545c14	-0.051845625
1	0xbdbd83aa	-0.092536286
2	0x3da2af79	0.07943625
3	0x3ed4cccd	0.415625
4	0xbc11928e	-0.008885039
5	0xbcee3ac7	-0.029080762
6	0xbdce5a27	-0.10075789
7	0x3cc859e4	0.024456926
8	0xbd7ab6d4	-0.061209515
9	0xbe10bf6a	-0.14135519
10	0x3ccb62a6	0.024827313
11	0xbd6f814d	-0.05847292
12	0x3c889397	0.016671939
13	0xbc17923e	-0.009251175
14	0xbbb1e078	-0.00542837
15	0x3d05ec2e	0.03269594
16	0xbdbf3c6f	-0.09337699
17	0x3bcc17be	0.006228416
18	0x3cbbf23f	0.02294266
19	0xbdd9b956	-0.10631053
20	0xbdb14cec	-0.0865725
21	0xbc86f6b8	-0.016475067
22	0x3df32a81	0.11873341
23	0xbd476749	-0.048682485
24	0xbd0fe330	-0.035128772
25	0xbdbcec5a	-0.09224768
26	0xbcad961a	-0.021189738
27	0xbc110460	-0.008851141
28	0x3d66fc0e	0.05639272
29	0x3e638410	0.22218347
30	0x3dcd7387	0.10031801
31	0xbd76c590	-0.060247004
32	0xbe319db7	-0.1734532
33	0x3d747af4	0.05968757
34	0xbd8999a3	-0.06718757
35	0xbdf30ba5	-0.118674554
36	0x3d8445d3	0.064586304
37	0x3da25d5f	0.079279654
38	0xbcd4594c	-0.025921486
39	0xbc260c65	-0.010134791
40	0xbd8adaaa	-0.06779988
41	0x3d292311	0.041293208
42	0xbe1421f7	-0.14466082
43	0x3c879cc3	0.016554242
44	0x3d09e515	0.033665735
45	0xbd0f9812	-0.035057135
46	0xbcc95ef4	-0.02458141
47	0x3cfc69a2	0.030812088
48	0x3d86b969	0.06578333
49	0xbcbac7f5	-0.022800425
50	0xbd8d548f	-0.06900894
51	0xbd3894ba	-0.04506371
52	0x3d594676	0.053045712
53	0x3d3b6598	0.045751184
54	0x3c92afb8	0.017906055
55	0xbd2e3d7c	-0.042539105
56	0x3cfa0e28	0.030524328
57	0xbd643159	-0.055711124
58	0xbdec2fc6	-0.115325496
59	0xbda14d4a	-0.0787607
60	0xbd63b018	-0.055587858
61	0xbc1cb0ef	-0.009563669
62	0xbd2e2916	-0.04251965
63	0xbd863a9f	-0.0655415
64	0x3e66c068	0.22534335
65	0x3d8d63b0	0.069037795
66	0x3d8287ed	0.06373582
67	0xbdd5a892	-0.10432543
68	0x3d25014c	0.04028444
69	0xbd74e266	-0.059786223
70	0xbcb29ca0	-0.0218032
71	0xbdf27c24	-0.11840084
72	0x3d8e43f2	0.06946553
73	0xbd220b95	-0.039561827
74	0xbd926ef8	-0.07150072
75	0xbdcd6756	-0.100294754
76	0x3d2320d0	0.039826214
77	0x3cf9efa1	0.030509772
78	0xb9b8d3d0	-0.00035253027
79	0x3cd7da48	0.026349202
80	0x38938400	7.034093e-05
81	0xbda6eea3	-0.08150985
82	0xbdd48637	-0.10377162
83	0xbda0b8f4	-0.07847777
84	0x3b4b7fdb	0.003105155
85	0xbcd21a78	-0.025647387
86	0xbd8bf9b0	-0.068347335
87	0xbd291558	-0.04128012
88	0x3cf71164	0.03015966
89	0x3b0d3e46	0.002155201
90	0x3de703b5	0.11280004
91	0x3d5297bc	0.051414236
92	0x3d80acd9	0.06282968
93	0xbc15b84a	-0.009138176
94	0x3d875b9b	0.06609269
95	0xbd3826de	-0.04495894
96	0xba55a152	-0.0008149344
97	0x3da26095	0.07928578
98	0xbd6f72db	-0.058459144
99	0x3c08517d	0.00832021
100	0x3b1f75b7	0.0024331638
101	0x3d5538b3	0.052056026
102	0xbe1db6b8	-0.15401733
103	0x3d6c5705	0.057700176
104	0xbcdfac98	-0.027303979
105	0x3d67d59c	0.0566002
106	0xbd9aaa37	-0.07551997
107	0xbc6ef2e2	-0.014584275
108	0xbd43d218	-0.047807783
109	0xbdb47070	-0.08810508
110	0x3e19cb5e	0.15018985
111	0xbceca7b5	-0.028888563
112	0xbd9ce226	-0.07660322
113	0xbc57652c	-0.01314668
114	0xbd740c15	-0.059581835
115	0x3d43e596	0.047826372
116	0x3d945196	0.07242124
117	0x3bcf75c0	0.0063311756
118	0xbdc2f57c	-0.09519479
119	0x3ca4616d	0.020065987
120	0xbd89e7cd	-0.067336656
121	0xbb86e5dc	-0.004116757
122	0x3d0970c3	0.033554804
123	0xbde24a2e	-0.11049305
124	0xbd9b17c3	-0.075728916
125	0x3d6c92ca	0.057757176
126	0xbdb64253	-0.08899369
127	0x3d3f56e5	0.04671373

net.4.weight f4 [4, 128]
0	0x3ceac3ef	0.028657882
1	0x3dac2476	0.08405392
2	0xbb3457a0	-0.002751805
3	0x3cf22e82	0.029563192
4	0x3d85cc16	0.06533067
5	0x3bb0490c	0.0053798016
6	0x3d836155	0.06415049
7	0xbd2aa572	-0.041661687
8	0xbc3dcc2d	-0.011584324
9	0xb9aafe75	-0.00032614512
10	0xbcd8978b	-0.026439449
11	0x3d38c258	0.045107216
12	0xbd19cbb7	-0.037547793
13	0x3d322ab5	0.04349776
14	0xbd7af25e	-0.061266296
15	0x3d50febb	0.05102418
16	0x3d33f743	0.04393698
17	0x3c04ee67	0.00811348
18	0x3d106c17	0.035259333
19	0x3caeebaf	0.021352617
20	0x3d167411	0.036731783
21	0xbc0d50b8	-0.008625202
22	0x3c0da804	0.008646015
23	0xbbae5af3	-0.0053209006
24	0xbbf74391	-0.0075458963
25	0x3d544b98	0.051829904
26	0xbc82e12c	-0.015976511
27	0xbc8efbf0	-0.017454118
28	0xbd13ed41	-0.036114935
29	0x3c3fa213	0.011696356
30	0x3d14c2e3	0.03631867
31	0xbc2cfa9a	-0.010557795
32	0x3cb04c78	0.021520838
33	0xbcd1bd67	-0.02560301
34	0x3d963d5e	0.073359236
35	0x3d3127f7	0.043251004
36	0xbc06aec0	-0.008220375
37	0x3d70abc3	0.058757555
38	0x3cea47aa	0.028598625
39	0x3d18545a	0.03718982
40	0xbdcd9f2e	-0.10040127
41	0x3cb2547d	0.021768803
42	0x3df2754a	0.11838777
43	0x3d2439f2	0.040094323
44	0xbd065a31	-0.032800857
45	0xbd235f38	-0.03988573
46	0xbc2ea3ff	-0.010659217
47	0xbca9dbb8	-0.020734653
48	0x3d2cb106	0.04216101
49	0xbcb05b28	-0.021527842
50	0xbd9e3be4	-0.07726267
51	0x3c26882e	0.010164304
52	0xbdb3135e	-0.087439284
53	0xbd52a1c7	-0.051423814
54	0x3d9c4a8f	0.076314084
55	0xbd2ff0c5	-0.042954225
56	0x3d99c7c1	0.07508803
57	0x3c3912b8	0.011295967
58	0xbe5bb1b8	-0.21454513
59	0x3e06725e	0.13129565
60	0xbc4a363c	-0.012342032
61	0x3d3ee69e	0.046606652
62	0x3cc983f8	0.02459906
63	0xbd0f30e9	-0.034958754
64	0xbccb04ad	-0.024782503
65	0x3cf1b688	0.029505983
66	0x3c136e49	0.008998462
67	0x3c893a8c	0.01675155
68	0x3d8d08d9	0.06886453
69	0xbd7677a2	-0.060172684
70	0x3d59d13a	0.05317805
71	0xbbdf13e1	-0.0068077897
72	0x3da1d6f9	0.07902331
73	0x3ce4db28	0.027936533
74	0x3cc4e8e9	0.024036841
75	0x3d16b663	0.03679503
76	0xbd2a0b6c	-0.0415148
77	0x3de00ce7	0.10939961
78	0xbc206c3c	-0.00979143
79	0xbd84c450	-0.06482756
80	0x3d2381a2	0.03991855
81	0xbd3fd910	-0.046837866
82	0xbd4ac4a3	-0.049503934
83	0x3cebc9a3	0.028782671
84	0xbc72b26b	-0.014813046
85	0xbcb23ac6	-0.021756541
86	0xbd5faf7e	-0.05461072
87	0x3cedaafc	0.029012196
88	0x3d2f600a	0.0428162
89	0x3de66d6d	0.1125134
90	0x3d30a4d9	0.04312596
91	0x3d16333f	0.036669966
92	0xbd295704	-0.04134275
93	0xbd148a15	-0.036264498
94	0x3d742716	0.059607588
95	0x3d4e6b68	0.0503954
96	0x3d2ff006	0.042953514
97	0x3d0b6408	0.034030944
98	0x3c5f70d0	0.013637736
99	0x3d3cc758	0.046088547
100	0xbccbbb7b	-0.024869671
101	0x3d432560	0.047643065
102	0x3c7b494e	0.015337301
103	0x3cbd82d2	0.023133669
104	0x3d1ce9f1	0.03830904
105	0x3b6a16f0	0.0035719238
106	0x3c842594	0.0161312
107	0xbd0c22db	-0.03421293
108	0xbbe1f5b1	-0.006895744
109	0x3d984d71	0.07436646
110	0x3dad956d	0.08475766
111	0xbd3024ec	-0.04300396
112	0xbd1e1509	-0.03859428
113	0xbd8a343b	-0.067482434
114	0x3cb9db50	0.022687584
115	0xbda7c9a6	-0.08192758
116	0xbd9739d4	-0.07384077
117	0x3c828680	0.015933275
118	0xbd564644	-0.052313104
119	0x3c7e1a6c	0.015509229
120	0x3d20d49d	0.039265264
121	0x3d119ef7	0.03555199
122	0x3d9d46d3	0.07679524
123	0x3cf60bad	0.030034864
124	0xbd9398cc	-0.07206878
125	0xbb95128c	-0.00454933
126	0x3d7a4f65	0.061110873
127	0x3dfe3408	0.12412268
128	0xbcfa1de2	-0.030531827
129	0x3dd90869	0.10597307
130	0x3d032476	0.032017194
131	0xbe54234e	-0.20716593
132	0x3d69846b	0.05701105
133	0xbd0471fd	-0.03233527
134	0x3d368778	0.044562787
135	0xbddcf565	-0.10788993
136	0x3ce74895	0.028232852
137	0x3d2cbef5	0.0421743
138	0xbc3f0286	-0.0116583165
139	0x3cd51bc1	0.02601421
140	0xbd79f2bf	-0.061022516
141	0x3d3fcb35	0.046824653
142	0x3dbfe510	0.09369862
143	0x3d3da2f7	0.046297994
144	0x3c8a0f49	0.016852992
145	0xbd83f82a	-0.06443818
146	0xbd1fa706	-0.038977645
147	0x3d51e529	0.051243935
148	0x3b9a3329	0.004705806
149	0x3bc5ae90	0.0060327724
150	0xbc611620	-0.013738185
151	0x3bf39fdf	0.0074348296
152	0x3d2c491e	0.042061917
153	0x3c8d8e98	0.017279908
154	0xbd778675	-0.060430963
155	0x3d735ce2	0.05941475
156	0xbd245048	-0.040115625
157	0x3e1b4b6c	0.1516549
158	0xbc23b314	-0.009991426
159	0x3ce75444	0.028238423
160	0xbb23507c	-0.0024919799
161	0x3d81f8fc	0.06346318
162	0x3b770514	0.0037692236
163	0xbcfb67b2	-0.030689094
164	0x3b917900	0.004439473
165	0x3ca9c4ff	0.020723818
166	0x3cb88b5e	0.022527393
167	0xbc7f7efb	-0.015594239
168	0xbbb94ef5	-0.0056551644
169	0x3d75e113	0.0600291
170	0xbd073c01	-0.03301621
171	0x3cdaf256	0.026726883
172	0xbb7ce872	-0.0038590697
173	0xbdac0d3a	-0.0840096
174	0x3d135bd0	0.03597623
175	0x3cad2b7c	0.021138899
176	0x3d2e2a0b	0.042520564
177	0x3d8bc2e8	0.06824285
178	0xbda01925	-0.07817296
179	0xbd82fd3e	-0.06395958
180	0x3d2db12e	0.0424053
181	0xbc58f603	-0.0132422475
182	0xbc7d7268	-0.015469171
183	0x3c4ecc74	0.012621988
184	0x3c606b00	0.013697386
185	0xbdada67e	-0.084790215
186	0xbe225c30	-0.15855479
187	0x3ded1a11	0.115772374
188	0xbc394056	-0.011306843
189	0x3c78bb8a	0.015181432
190	0x3b95736b	0.004560878
191	0x3da94f6b	0.08267101
192	0xbde3724b	-0.11105784
193	0x3caaf495	0.020868579
194	0xbd878e47	-0.06618934
195	0xbcee40b0	-0.02908358
196	0x3d84fa17	0.06493013
197	0x3cb899e4	0.022534318
198	0xbd33a7a7	-0.043861058
199	0xb9e209e8	-0.0004311346
200	0xbcfb0ebd	-0.030646676
201	0xbd7fa034	-0.06240864
202	0xbda9ac34	-0.08284798
203	0x3d4901b3	0.049073886
204	0x3d94b006	0.07260136
205	0xbd09ea28	-0.033670574
206	0x3d775709	0.060385738
207	0x3d344065	0.044006724
208	0xbd7bae6c	-0.06144564
209	0xbcbedc58	-0.023298427
210	0xbcbba2f8	-0.022904858
211	0xbd6c2583	-0.05765296
212	0x3d25fd5e	0.040524833
213	0x3ce2e697	0.027697844
214	0x3db2c824	0.0872958
215	0xbc53e6d8	-0.012933455
216	0x3cafdce4	0.021467634
217	0x3ddb1be2	0.106986776
218	0x3cac5e7b	0.021041146
219	0xbdd639bc	-0.10460231
220	0x3d1f9eee	0.038969927
221	0x3d42ae82	0.047529705
222	0x3d648ba5	0.055797238
223	0xbcd3f458	-0.025873348
224	0x3d14c47b	0.03632019
225	0xbd51b1ca	-0.051194943
226	0x3c84ac14	0.016195334
227	0xbcbda9e3	-0.023152297
228	0x3cd7ca5e	0.026341613
229	0x3cae0947	0.021244658
230	0x3c6e9c4e	0.014563633
231	0x3c6938f8	0.014234774
232	0x3c985e5c	0.018599682
233	0xbc6cd395	-0.014454742
234	0xbdd2f2c5	-0.10300211
235	0x3cc61215	0.024178544
236	0xbbe67a8f	-0.007033653
237	0x3d0c8c75	0.034313638
238	0xbd26c129	-0.040711556
239	0x3cb19103	0.021675592
240	0xbd5b23dd	-0.053501
241	0xbd5fff11	-0.05468661
242	0xbd21a260	-0.039461493
243	0x3c774368	0.0150917545
244	0xbd96df74	-0.07366839
245	0x3ca04c24	0.019567557
246	0xbd053360	-0.0325197
247	0xbcb87b88	-0.022519842
248	0x3d60ddba	0.054898955
249	0x3d7cb1f3	0.061693143
250	0x3c361e95	0.01111569
251	0x3d3e265f	0.046423312
252	0x3d220c22	0.039562352
253	0xbc7172b7	-0.014736823
254	0xbc67c0a5	-0.014145051
255	0x3d7360a2	0.059418328

net.4.bias f4 [4]
0	0x3d71e346	0.059054635
1	0x3e67cb5d	0.2263617
2	0x3d3821d1	0.044954125
3	0xbe4237be	-0.18966576
