Entities/pained_rep.pth (torch, 80038 bytes, 6 tensors)

net.0.weight f4 [128, 12]
0	0x3f613456	0.87970483
1	0x3e7a7f4d	0.24462624
2	0x3ef3a6f0	0.475883
3	0x3f69038e	0.9102105
4	0x3e270c85	0.1631337
5	0xbc2da28c	-0.010597836
6	0x3eb42c12	0.35189873
7	0xbe87c5aa	-0.26517993
8	0x3f483e31	0.78219897
9	0xbd37065f	-0.04468381
10	0x3b9c33f8	0.0047669373
11	0x3e36ed88	0.17864048
12	0xbe42c283	-0.19019513
13	0xbec7ef09	-0.39049557
14	0x3d848770	0.06471145
15	0x40124552	2.285481
16	0x3ecc75cf	0.3993363
17	0x3e71902a	0.2359015
18	0xbf334130	-0.70021343
19	0xbe8a56aa	-0.27019244
20	0xbd1b7a09	-0.03795818
21	0xbf00f2fc	-0.50370765
22	0xbc3b4843	-0.011430803
23	0x3e18decf	0.14928745
24	0xbeb24462	-0.34817797
25	0x4047397c	3.1128836
26	0xbda96505	-0.08271221
27	0xbeffa3b0	-0.4992957
28	0xbd1bacfd	-0.03800677
29	0xbeaf6edb	-0.34264264
30	0xbe985611	-0.29753163
31	0xbea1b7d6	-0.31585568
32	0xbec13199	-0.37733153
33	0xbeb3fdb1	-0.3515449
34	0xbe0f332f	-0.13984369
35	0xbe480761	-0.19534065
36	0x3ee6f96e	0.45112175
37	0xbf0499d7	-0.5179724
38	0x3ebb9d44	0.36643422
39	0xbec8c83e	-0.39215273
40	0x3d913583	0.07090285
41	0xbe71662b	-0.2357413
42	0x3fd2948e	1.6451585
43	0x3e0814c1	0.13289167
44	0x3e524f79	0.20538129
45	0x3f1bab18	0.60807943
46	0xbda41c43	-0.08013203
47	0xbee06bc3	-0.43832216
48	0x3d978e26	0.074001595
49	0xbfbe5e79	-1.4872581
50	0x3daf7679	0.08567519
51	0xbf077247	-0.5290875
52	0xbea9c5a0	-0.33158588
53	0xbf17ccdb	-0.5929696
54	0xbe3f674b	-0.18691747
55	0x3de6ad75	0.11263553
56	0x3f8f207d	1.118179
57	0x3f5e3271	0.8679572
58	0xbd979f9b	-0.07403489
59	0xbdda47b6	-0.10658209
60	0xbdc30fa3	-0.09524467
61	0xbc946adf	-0.018117366
62	0x3f305767	0.68883365
63	0x3f7e346d	0.99298745
64	0x3f8bb37e	1.0914152
65	0x3f0575fc	0.52133155
66	0xbe19ffa5	-0.15038927
67	0x3f2df381	0.6794968
68	0x3f465287	0.77469677
69	0xbc98b020	-0.01863867
70	0xbd874f04	-0.06606868
71	0xbe44f5c5	-0.19234379
72	0xbe7e7925	-0.248509
73	0x3d8ef078	0.069794595
74	0x3e4eb7d3	0.20187311
75	0xbd0c390a	-0.034234084
76	0x3da28300	0.079351425
77	0xbe7aab5e	-0.24479434
78	0xbd98ef23	-0.07467487
79	0x3e8643fa	0.26223737
80	0x3d656ce5	0.056012053
81	0x3dee74ed	0.116433956
82	0xbe4d302c	-0.20037907
83	0x3d79a6ef	0.060950216
84	0x3f6e8fce	0.9318818
85	0x3eaf9455	0.34292856
86	0x3f349893	0.7054531
87	0x3f2670eb	0.6501605
88	0x3f4cb52f	0.79963964
89	0x3d746ebb	0.059675913
90	0x3eda2c1c	0.42611778
91	0xbea1a859	-0.31573752
92	0x3ececf5a	0.40392572
93	0xbee077a2	-0.43841273
94	0x3c7f7d79	0.01559388
95	0x3edb554a	0.42838508
96	0x3e8ac4cd	0.27103272
97	0x3eaa4f0d	0.33263436
98	0x3f22692e	0.6344174
99	0x3f277f3f	0.6542854
100	0x3ecab1ad	0.3958868
101	0x3fbd72b8	1.4800634
102	0x3fa39f2d	1.2782952
103	0x3f2e5009	0.68090874
104	0x3f0701cd	0.5273712
105	0x3f1dc79b	0.616327
106	0xbc2d44e8	-0.010575511
107	0xbe37161c	-0.17879528
108	0x3e1d77ce	0.15377733
109	0xbf620bef	-0.8829946
110	0xbe632c68	-0.22184908
111	0x3e1d63f8	0.15370166
112	0xbbc365f7	-0.005963083
113	0xbcca65c9	-0.024706738
114	0xbf09b648	-0.53793764
115	0xbe8f9347	-0.2804205
116	0x3e90698d	0.2820553
117	0xbeaca664	-0.33720696
118	0xbe97385b	-0.29535183
119	0x3d838aa9	0.06422932
120	0xbe41bbce	-0.18919298
121	0xbe8af757	-0.2714183
122	0x3f19ba69	0.60050064
123	0x3f36ce7d	0.71408826
124	0x3ff20a01	1.8909303
125	0x3f4fe4ad	0.81208307
126	0x3f309070	0.68970394
127	0x3f41323d	0.7546728
128	0x3e7c751e	0.24654052
129	0x3f0e8fd3	0.5568821
130	0xbcaf68d7	-0.021412296
131	0xbe9137e2	-0.28362948
132	0xbd86db53	-0.065848015
133	0x3e46e47c	0.19423097
134	0x3d882a09	0.066486426
135	0x3ffd3754	1.978251
136	0xbef2aab9	-0.47395876
137	0x3e806db4	0.25083697
138	0x3e863359	0.2621105
139	0xbedfed61	-0.43735793
140	0x3f28fe5d	0.6601313
141	0x3e845355	0.25844827
142	0xbd473912	-0.04863841
143	0x3dad4b7e	0.084616646
144	0xbed0774f	-0.40716025
145	0xbf12d352	-0.573537
146	0xbdf01f0a	-0.1172467
147	0x3f64bf63	0.8935453
148	0xbf4fbd59	-0.81148297
149	0xbdfb7a2d	-0.122791626
150	0x3e3ec995	0.18631585
151	0x3ef01db7	0.4689767
152	0x3ecdc4b0	0.40189123
153	0x3eedf474	0.46475565
154	0xbd25f041	-0.040512327
155	0x3e08bd44	0.13353449
156	0xbe3c9546	-0.18416318
157	0xbe046a4f	-0.12931179
158	0x3e90e49c	0.28299415
159	0xbe928d4f	-0.28623435
160	0x3d243448	0.04008892
161	0xbe45c429	-0.1931311
162	0x3e93705a	0.28796655
163	0x3e668a80	0.22513771
164	0xbdfcb5e2	-0.12339379
165	0x3e42f5fe	0.19039151
166	0xbddeccb0	-0.10878885
167	0xbe7fb164	-0.24970013
168	0x3da2ee94	0.079556614
169	0xbe572967	-0.21011887
170	0xbf87c595	-1.0607172
171	0xbe7c3482	-0.24629405
172	0xbd81a32d	-0.063299514
173	0xbf423436	-0.7586092
174	0xbe418183	-0.18897061
175	0xbe6a55bf	-0.22884272
176	0x3d991e8a	0.07476528
177	0xbed1f2b0	-0.41005468
178	0xbc9ba587	-0.018999828
179	0xbf0fe416	-0.56207407
180	0xbd28bd29	-0.041196022
181	0xc0aa6fe8	-5.3261604
182	0xbc85c220	-0.016327918
183	0xbeb4a225	-0.35279956
184	0x3d4aa86e	0.049477033
185	0xbe650140	-0.22363758
186	0xbe6d815a	-0.23193875
187	0xbebdc425	-0.3706371
188	0x3e128ca7	0.14311467
189	0xbd70b6d7	-0.05876812
190	0x3aac15bd	0.0013129037
191	0x3d935cd5	0.07195441
192	0xbe6d2672	-0.23159197
193	0xbf4857f8	-0.7825923
194	0xbe4d6971	-0.20059754
195	0xbf167cdc	-0.5878427
196	0xbedd8649	-0.43266514
197	0xbf4ccad7	-0.7999701
198	0xbe1d574f	-0.15365337
199	0x3d8ad88c	0.06779584
200	0xbe69c099	-0.22827376
201	0x3ea48cb1	0.3213859
202	0xbcede376	-0.029039126
203	0xbea4b57d	-0.32169715
204	0x3cb2dcc2	0.021833781
205	0x3dd60507	0.10450178
206	0x3e056abe	0.13029
207	0x3f05821c	0.52151656
208	0x3d8196f6	0.06327622
209	0xbd9cb0f0	-0.07650936
210	0x3e8fb4c1	0.28067592
211	0xbe66ff1f	-0.22558258
212	0x3dbb0e5f	0.091336004
213	0xbe60f004	-0.21966559
214	0xbe244c2e	-0.16044685
215	0x3e880599	0.2656677
216	0x3e80145d	0.25015536
217	0xbeebc3f5	-0.4604794
218	0xbf6afe4f	-0.91794294
219	0xbfdcb2e9	-1.7242099
220	0xbfaeb432	-1.3648741
221	0xbf613513	-0.8797161
222	0xbf185180	-0.5949936
223	0xbf6087cb	-0.87707204
224	0xbf38861f	-0.7207965
225	0xbfc6aded	-1.5521828
226	0x3aa7a77e	0.0012791005
227	0x3ed01ea0	0.40648365
228	0x3d587888	0.052849323
229	0xbee3d5f5	-0.44499174
230	0x3fbcf862	1.47633
231	0x3f4a9dd1	0.7914706
232	0x3ecb132e	0.3966307
233	0x3c500a81	0.012697817
234	0x3faddd30	1.3583126
235	0x3ea5326c	0.3226503
236	0xbea0a7a1	-0.3137789
237	0x3f7a0be3	0.9767439
238	0xbddd0b1f	-0.10793137
239	0xbda86a62	-0.08223416
240	0xbea0ef65	-0.31432644
241	0xbff84492	-1.9395926
242	0x3e88086d	0.26568928
243	0x3efc1f16	0.49242467
244	0x3f0ad506	0.542313
245	0xbf268f4d	-0.6506241
246	0xbee30442	-0.44339186
247	0x3f473326	0.7781242
248	0xbe7a4d5f	-0.24443577
249	0xbd8b37f7	-0.06797784
250	0xbd2dc2c7	-0.042422082
251	0xbf027121	-0.5095387
252	0xbdb7f452	-0.08982147
253	0xbece96ec	-0.4034952
254	0xbdc710fb	-0.09720036
255	0xbf70db3d	-0.9408453

net.0.bias f4 [128]
0	0x3fab9be2	1.3406947
1	0xbe03abcf	-0.12858509
2	0xbe62975b	-0.2212805
3	0x3e6ad4e0	0.22932768
4	0xbd093639	-0.033498976
5	0xbe8ed927	-0.2790005
6	0xbe9a0085	-0.3007852
7	0x3fcf009d	1.6172062
8	0x3eae40a2	0.34033686
9	0x3eb1bfac	0.34716547
10	0x3e9d8434	0.30764925
11	0xbecbd1b4	-0.39808428
12	0xbf49258c	-0.78572917
13	0xbe4ceb2a	-0.20011583
14	0xbf080c28	-0.5314355
15	0xbf0e2d2a	-0.55537665
16	0xbf3af5c5	-0.73031265
17	0x3e4ec40c	0.20191973
18	0x3e21a4f7	0.15785585
19	0xbd9bb37e	-0.07602595
20	0xbf2579cd	-0.6463898
21	0xbf2efef4	-0.6835778
22	0xbcb4c700	-0.022067547
23	0x3f47afaf	0.78002447
24	0x3d33a5fd	0.04385947
25	0xbfa82913	-1.3137535
26	0x3e7544c6	0.23952016
27	0x3f13ef8b	0.5778739
28	0x3ed3340a	0.4125064
29	0xbf87cb60	-1.060894
30	0xbeaaf54c	-0.33390272
31	0x3ee93034	0.4554459
32	0x3e6b8a02	0.23001865
33	0xbe177c54	-0.14793521
34	0x3f6eaf64	0.93236375
35	0x3d82fa5d	0.06395409
36	0xbfa26520	-1.2687111
37	0xbe99c81d	-0.30035487
38	0xbf8466b0	-1.0343838
39	0xbeb5c082	-0.35498434
40	0xbe47f66a	-0.19527593
41	0xbe0b65fb	-0.13613121
42	0xbf181bf5	-0.5941766
43	0x3dac4ba8	0.08412868
44	0x3f209507	0.627274
45	0xbf4af6e9	-0.79283005
46	0xbc9c993f	-0.019116042
47	0xbdc224a0	-0.09479642
48	0x3f4971e5	0.78689414
49	0xbf8ebabc	-1.1150737
50	0x3e40a108	0.18811429
51	0x3f284622	0.65732014
52	0x3f7cf383	0.9880907
53	0x3f66b3d3	0.9011814
54	0xbf161ef7	-0.58641
55	0xbf9fbd7d	-1.2479702
56	0x3e8f5a5b	0.27998623
57	0xbe4061a1	-0.18787242
58	0xbf519609	-0.8186956
59	0xbf8f2586	-1.1183326
60	0xbf53953e	-0.826496
61	0xbf999c2a	-1.2000782
62	0xbf0eb15d	-0.55739385
63	0x3fb5f36e	1.4214914
64	0x3d924053	0.07141175
65	0x3e0c9a65	0.13730772
66	0x400b58f2	2.1773038
67	0xbf8bafaa	-1.0912983
68	0xbeb0b154	-0.3451029
69	0xbcfd3cb3	-0.030912733
70	0xbcf74954	-0.030186333
71	0xbc6cba24	-0.014448676
72	0x3e81e51b	0.25370106
73	0x3dd796b3	0.105267905
74	0xbf2792e3	-0.65458506
75	0x3f1f657c	0.6226423
76	0xbd97b1f3	-0.07406988
77	0x3da1263c	0.07868621
78	0x3f02e6d2	0.51133454
79	0x3d485607	0.048910167
80	0x3f27fdb1	0.6562148
81	0x3e635eef	0.22204183
82	0xbe832b77	-0.256191
83	0xbdf1dd68	-0.11809808
84	0xbf128d8a	-0.5724722
85	0xbfba8861	-1.457287
86	0x3d078ea7	0.03309503
87	0x3da6e23c	0.081486195
88	0xbf4802c9	-0.7812925
89	0xbf402d35	-0.7506898
90	0xbe2627e5	-0.16226156
91	0xbebc4fa8	-0.36779523
92	0xbe46461f	-0.19362687
93	0xbea54d3c	-0.32285488
94	0x3dba5a08	0.09099203
95	0x3ec03ec8	0.37547898
96	0xbd7c9ce8	-0.061673075
97	0x3e771a95	0.24131234
98	0xbf95d6a9	-1.1706134
99	0xbe016e33	-0.12639694
100	0x3df5738a	0.11984928
101	0xbf4f5c59	-0.81000286
102	0xbf8102fd	-1.0079037
103	0xbdf24329	-0.11829216
104	0xbe3c11db	-0.18366186
105	0xbf2c8764	-0.6739409
106	0xbf6a79a3	-0.9159185
107	0xbf261c7c	-0.64887214
108	0xbfb82e07	-1.4389046
109	0x3e632308	0.22181332
110	0xbfbe2a3e	-1.4856641
111	0xbd7b4769	-0.0613474
112	0xbddff12f	-0.10934674
113	0x3e245b95	0.16050561
114	0xbc4f667f	-0.012658714
115	0xbf8acab5	-1.0843111
116	0xbd0c9043	-0.034317266
117	0xbe579d36	-0.21056065
118	0x3e18a9c0	0.14908504
119	0xbf856a46	-1.0423057
120	0x3dfb0035	0.12255899
121	0x3ebed460	0.37271404
122	0x3e7c28d6	0.24624953
123	0xbf26e377	-0.65190834
124	0xbc2905a4	-0.010316286
125	0xbf71fe66	-0.94528806
126	0xbef5ef98	-0.48034358
127	0xbe86e9c0	-0.26350212

net.2.weight f4 [128, 128]
0	0xbc4b8915	-0.01242282
1	0xbca74b4f	-0.020421652
2	0x3c7ad726	0.015310084
3	0xbb0eae20	-0.0021771267
4	0x3d07f9b5	0.033197124
5	0xbc1f72bf	-0.009731947
6	0x3d13e6e8	0.03610888
7	0xbdda5b70	-0.106619716
8	0xbda312f1	-0.07962597
9	0x3ced4310	0.028962642
10	0xbd895629	-0.06705887
11	0x3ce98625	0.028506348
12	0xbd32cc85	-0.043652076
13	0xbd12f894	-0.035881594
14	0xbd023fad	-0.031799007
15	0xbc82272f	-0.015887825
16	0xbc854500	-0.016268253
17	0xbd557139	-0.05210993
18	0xbd47e50c	-0.04880242
19	0x3c42e7de	0.011896102
20	0x3d05baf1	0.032648984
21	0xbba85d37	-0.005138065
22	0xbdaa968a	-0.08329494
23	0x3d54696b	0.051858347
24	0xbe0dee26	-0.13860378
25	0xbdb47d45	-0.08812956
26	0xbd65d958	-0.05611548
27	0xbc9ca7c2	-0.019122962
28	0xbb213b34	-0.0024601938
29	0xbd6629c9	-0.056192193
30	0xbc93fad8	-0.018063948
31	0xbcdc91a8	-0.026924923
32	0xbd2617b6	-0.040549956
33	0x3d2b0fb6	0.04176303
34	0xbdd3716f	-0.1032437
35	0xbd72a8b6	-0.059242927
36	0xbd3049a2	-0.04303897
37	0xbd6d6d0f	-0.057965335
38	0xbdbd47d9	-0.092422195
39	0xbd2d60c4	-0.04232861
40	0xbcc28a20	-0.023747504
41	0xbd1d6d96	-0.038434587
42	0xbda02065	-0.07818679
43	0xbdaff050	-0.08590758
44	0x3cea38d8	0.028591558
45	0xbdb55cef	-0.08855616
46	0x3d0ac701	0.03388119
47	0xbcafaf86	-0.021446
48	0xbc8b461c	-0.017001204
49	0xbe15beda	-0.14623585
50	0x3cbfe36c	0.023423873
51	0xbd3e33f5	-0.04643627
52	0xbc676d3e	-0.014125166
53	0xbc2cc479	-0.01054489
54	0x3c3f5bd1	0.011679606
55	0x3c9131ff	0.017724035
56	0x3c9673a7	0.018365694
57	0x3d84dc3d	0.064873196
58	0xbe002a01	-0.12516023
59	0xbe2ed1e6	-0.17072257
60	0xbd01af01	-0.031661037
61	0xbe04ed03	-0.12981038
62	0xbe16c532	-0.14723662
63	0x3becdddb	0.0072285957
64	0xbc01d320	-0.007923871
65	0xbbd9a43f	-0.006641894
66	0xbd6e8383	-0.058230888
67	0xbcfd741e	-0.030939158
68	0xbd2eaad0	-0.04264337
69	0x3d78c9a4	0.060739174
70	0x3d773456	0.060352646
71	0xbe0a5d04	-0.13512045
72	0xbd5e0609	-0.054204974
73	0xbb3f5f60	-0.0029201135
74	0x3c3e319c	0.0116085075
75	0x3d971c89	0.073784895
76	0xbd987d86	-0.07445817
77	0xbdc28ab6	-0.09499113
78	0x3cbc0206	0.022950184
79	0x3d35eb9e	0.044414155
80	0xbdab82ac	-0.08374533
81	0xbd43fe6b	-0.047850054
82	0x3d4f21bc	0.05056928
83	0x3d11cdfc	0.035596833
84	0xbdb26d84	-0.08712295
85	0xbd1e50b7	-0.038651194
86	0xbc2f5a5e	-0.010702698
87	0x3c1da7e9	0.009622552
88	0xbd1a4c22	-0.037670262
89	0xbd8ec8a0	-0.0697186
90	0x3ce026e7	0.0273623
91	0xbcdaa8e4	-0.026691861
92	0xbd37fdf9	-0.04491994
93	0x3d305386	0.043048404
94	0xbdc9f74c	-0.09861621
95	0xbd82fa6c	-0.063954204
96	0xbd8bbbde	-0.06822942
97	0xbd141434	-0.03615208
98	0xbdccebbb	-0.100058995
99	0x3db443f5	0.08802024
100	0x3d7bdfda	0.06149278
101	0xbdda6237	-0.10663264
102	0xbdda2ba6	-0.106528565
103	0xbd62f464	-0.05540885
104	0xbc04a71e	-0.0080964845
105	0x3d539530	0.05165595
106	0xbd73ac41	-0.059490446
107	0x3d5b7de9	0.053586874
108	0x3cdcfbcf	0.02697554
109	0xbd236207	-0.039888408
110	0xbdf94b33	-0.12172546
111	0xbd55009b	-0.05200253
112	0xbcf87f0d	-0.03033402
113	0xbd428599	-0.04749069
114	0xbdc48413	-0.09595504
115	0xbd931452	-0.0718161
116	0xbd800888	-0.06251627
117	0x3d332e09	0.043745074
118	0xbbe3f354	-0.006956497
119	0xbd0ac2d8	-0.033877224
120	0x39f57b00	0.00046821684
121	0x3d8f3f95	0.06994549
122	0xbdbc0c3b	-0.0918202
123	0xbe0b3a04	-0.1359635
124	0xbd17ed27	-0.0370914
125	0xbdc2db93	-0.09514537
126	0x3d1a4f85	0.037673492
127	0x3d83bfc3	0.0643306
128	0xbdbd3c76	-0.09240048
129	0xbc84d6fc	-0.016215794
130	0xbd3819d2	-0.0449465
131	0xbcba9541	-0.022776248
132	0x3ce73414	0.028223075
133	0xbd199bbe	-0.037502043
134	0x3ca83f32	0.020537946
135	0xbdc00ce5	-0.093774594
136	0xbd304c48	-0.043041497
137	0xbe2d3801	-0.16915895
138	0xbc395eb5	-0.011314084
139	0xbd0508ee	-0.03247922
140	0x3d267d10	0.040646613
141	0xbdab8dce	-0.083766565
142	0x3cec70ea	0.028862435
143	0xbdc2bf8b	-0.0950919
144	0xbd92d11d	-0.071687914
145	0x3de0572e	0.10954128
146	0xbd8a2776	-0.06745808
147	0xbd6fcada	-0.058543064
148	0xbda97c49	-0.08275659
149	0xbd382532	-0.044957347
150	0xbdc2dbcc	-0.09514579
151	0xbe536bf9	-0.20646657
152	0xbd255d6f	-0.04037231
153	0xbce7a4bb	-0.028276792
154	0xbdb118de	-0.08647321
155	0xbe8beaff	-0.27327725
156	0x3cc57167	0.024101926
157	0x3b8a7437	0.0042252797
158	0xbcb984d5	-0.022646347
159	0x3ce77a0b	0.028256437
160	0xbc4ad4aa	-0.012379805
161	0x3d86c7e7	0.06581097
162	0xbbedcf35	-0.007257367
163	0x3cc89391	0.024484428
164	0xbd978842	-0.07399036
165	0x3d5e388e	0.054253154
166	0xbdd3086a	-0.10304339
167	0x3d05edb0	0.03269738
168	0xbc60985d	-0.013708201
169	0xbd998b96	-0.07497327
170	0xbd277446	-0.04088237
171	0xbe479477	-0.19490229
172	0xbec8f0a7	-0.39246103
173	0xbce39f46	-0.027785908
174	0x3c78769e	0.015164999
175	0xbd811a52	-0.06303848
176	0x3d3a2c74	0.04545255
177	0xbd234e60	-0.039869666
178	0x3e9c8057	0.30566666
179	0xbe5da273	-0.21644
180	0xbde2c163	-0.11072042
181	0xbe746528	-0.23866713
182	0xbc0d69c3	-0.008631173
183	0xbe14ea79	-0.14542569
184	0xbcbe2299	-0.023209857
185	0xbd944626	-0.07239942
186	0xbcee079b	-0.029056361
187	0xbdf17f51	-0.11791862
188	0x3cf544e8	0.029940084
189	0x3d418087	0.047241714
190	0x3e2b1bed	0.16709872
191	0xbd71a086	-0.058990978
192	0xbc66d398	-0.014088534
193	0xbc14b1a5	-0.009075557
194	0xbda0aa1d	-0.078449465
195	0xbca76316	-0.02043299
196	0xbe11fbdd	-0.14256234
197	0xbd370940	-0.044686556
198	0x3db897f0	0.09013355
199	0xbdca8483	-0.09888556
200	0xbd80849e	-0.06275295
201	0xbd2e2fe1	-0.04252613
202	0xbd357747	-0.044303205
203	0xbd30993e	-0.043114893
204	0x3d4bf196	0.04979094
205	0xbc9956a9	-0.01871808
206	0x3c86eb7b	0.016469708
207	0x38a69000	7.942319e-05
208	0xbd8a540c	-0.06754312
209	0xbb167949	-0.0022960475
210	0xbd541d1b	-0.05178557
211	0xbdb6f9d2	-0.08934368
212	0xbc8f512d	-0.017494762
213	0x3cfbd302	0.030740265
214	0xbcf51d0a	-0.029921073
215	0x3c1fa052	0.009742813
216	0xbd88e78d	-0.0668479
217	0x3bf639d6	0.007514219
218	0x3e0490e1	0.12945892
219	0xbc5072c3	-0.012722674
220	0x3ba7fb54	0.005126396
221	0x3d36398c	0.044488475
222	0xbb48715e	-0.003058515
223	0xbcfc26e1	-0.030780258
224	0xbd5be1e3	-0.05368222
225	0xbe098bf8	-0.134323
226	0x3d112caf	0.035443004
227	0x3d7e2859	0.062050197
228	0xbd80f975	-0.0629758
229	0x3d6acb1a	0.0573226
230	0x3d811c84	0.06304267
231	0xbe010fb6	-0.1260365
232	0xbdbfd6fb	-0.09367176
233	0x3d504b7a	0.05085323
234	0xbc4ff61f	-0.012692957
235	0xbd760327	-0.0600616
236	0xbbac45ea	-0.005257358
237	0xbce8600d	-0.028366113
238	0xbd3710ed	-0.044693876
239	0xbd7a12e8	-0.061053187
240	0x3c3db110	0.0115778595
241	0x3cb91f44	0.022597916
242	0xbd5ac323	-0.053408753
243	0x3cfa7a00	0.030575752
244	0xbdf96377	-0.121771745
245	0x3d0f37e4	0.03496541
246	0xbd9e8349	-0.077398844
247	0xbd9955e3	-0.07487085
248	0xbe3648b3	-0.1780117
249	0x3ef00714	0.468804
250	0xbdc1341a	-0.09433766
251	0xbce7ecc5	-0.028311143
252	0x3d87d37c	0.06632134
253	0xbdbcbf60	-0.092161894
254	0xbd89c7d4	-0.06727567
255	0xbd1a2584	-0.037633434

net.2.bias f4 [128]
0	0xbdad289b	-0.084550105
1	0xbddb62be	-0.10712193
2	0xbd8bd96d	-0.0682858
3	0xbcc838e7	-0.024441196
4	0xbfa96728	-1.3234606
5	0xbfa8be0e	-1.3183
6	0xbf70f9d5	-0.94131213
7	0xbeafb3d5	-0.34316888
8	0xbdd8cf1b	-0.10586377
9	0x3c7bbcd1	0.015364842
10	0xbb6c993d	-0.003610208
11	0x3cb6bebd	0.022307748
12	0xbe193119	-0.14960136
13	0xbdd58ae5	-0.10426883
14	0xbdbab56c	-0.09116635
15	0xbe744877	-0.23855768
16	0x3e901604	0.28141797
17	0xbfa21d3a	-1.2665169
18	0xbda120a1	-0.078675516
19	0xbde11ced	-0.10991845
20	0xbd38b578	-0.045094937
21	0xbe8f6570	-0.28007078
22	0xbdef94fb	-0.11698338
23	0x3ee312b8	0.4435022
24	0xbf95bbed	-1.1697975
25	0xbd87e47f	-0.06635379
26	0xbfabece0	-1.3431664
27	0xbd9e625e	-0.07733606
28	0x3d96993a	0.073534444
29	0x3f090bed	0.5353382
30	0xbf8d6934	-1.104773
31	0xbe0306b8	-0.12795532
32	0xbe2f483b	-0.17117397
33	0x3e3ffc1b	0.18748514
34	0xbf84e669	-1.0382816
35	0xbe694e1c	-0.22783703
36	0xbf8f461e	-1.1193273
37	0xbd1bc57b	-0.03803013
38	0xbf57d63d	-0.84311277
39	0xbe3126ac	-0.17299908
40	0xbe843e64	-0.2582885
41	0x3e30658e	0.1722624
42	0x3d5d07cc	0.053962514
43	0xbe78b316	-0.24287066
44	0x3e5d6e83	0.21624188
45	0xbf910551	-1.1329747
46	0xbf3a020b	-0.7265937
47	0x3fa1b59f	1.2633551
48	0x3ce2eb7b	0.027700176
49	0x3d21e7ab	0.039527576
50	0x3eb12885	0.34601226
51	0xbda59653	-0.08085313
52	0x3ce7d9c8	0.028302088
53	0xbd58b422	-0.052906163
54	0xbc88970d	-0.01667359
55	0x3ea1c2fd	0.31594077
56	0x3d343b33	0.04400177
57	0xbf6b4ac6	-0.9191097
58	0x3eafc0dc	0.34326828
59	0xbe8d3fa6	-0.27587622
60	0x3e85403f	0.26025578
61	0xbd672ef7	-0.056441274
62	0xbf8e344b	-1.1109709
63	0xbed4ee54	-0.4158808
64	0xbd3bbffe	-0.045837395
65	0x3ef4331c	0.47695243
66	0x3f18ee21	0.59738356
67	0xbeb10ee6	-0.3458168
68	0xbd997404	-0.07492831
69	0xbdaa4510	-0.08313954
70	0xbec03b34	-0.37545168
71	0x3e5f867d	0.21828647
72	0xbf81547a	-1.0103905
73	0xbfa38a47	-1.2776574
74	0x3e1be2aa	0.15223184
75	0xbd1fa059	-0.03897128
76	0xbf583900	-0.84461975
77	0xbeb3a231	-0.3508468
78	0xbf8740cc	-1.056665
79	0xbf8f91ff	-1.121643
80	0xbdcb9bfe	-0.099418625
81	0xbd2d2831	-0.042274658
82	0xbf435d91	-0.76314646
83	0x3ec88fe6	0.39172286
84	0xbcdd8066	-0.027038764
85	0x3e163c36	0.14671406
86	0xbecccb37	-0.3999879
87	0xbe4e1805	-0.2012635
88	0xbe9f95c4	-0.3116895
89	0xbdd8cc1b	-0.10585805
90	0xbf967c38	-1.1756659
91	0xbd22b9f7	-0.03972813
92	0xbe2ed1f4	-0.17072278
93	0xbdd86c79	-0.105675645
94	0xbc810e76	-0.015753966
95	0xbf849ba6	-1.036
96	0xbb973773	-0.0046147644
97	0x3d940810	0.072281
98	0xbda633f8	-0.08115381
99	0xbbb03ac6	-0.0053781
100	0xbedfa17f	-0.436779
101	0x3cb79ee6	0.022414636
102	0x3eace7ed	0.33770695
103	0xbdb8b0d7	-0.090181045
104	0xbe127b40	-0.14304829
105	0x3d2b13bf	0.04176688
106	0xbd19e0ad	-0.037567783
107	0xbca6e392	-0.020372186
108	0xbcbed287	-0.023293747
109	0xbf87536b	-1.0572332
110	0x3d048026	0.032348774
111	0x3ee2dc90	0.443089
112	0x3dcb59a0	0.09929204
113	0xbdad5ec9	-0.084653445
114	0xbec455bd	-0.38346663
115	0x3ddc9767	0.10771065
116	0xbf99501d	-1.1977574
117	0xbf597ab3	-0.8495285
118	0x3badb43a	0.0053010257
119	0x3e31f13e	0.17377183
120	0xbf2f482d	-0.68469507
121	0x3bcbe6ae	0.0062225675
122	0x3d01c376	0.031680547
123	0x3e13b735	0.14425357
124	0x3e63f9d9	0.22263278
125	0xbc10611c	-0.008812215
126	0xbe3a792d	-0.18210287
127	0x3e9d84b2	0.307653

net.4.weight f4 [9, 128]
0	0x3c9f0896	0.019413274
1	0xbc09c28d	-0.008408201
2	0x3d3f938c	0.04677157
3	0xbdd52af0	-0.1040858
4	0x3c9b7e34	0.018981077
5	0x3c620766	0.013795709
6	0x3d34768f	0.04405838
7	0x3ea6da4f	0.3258843
8	0xbeb60a59	-0.3555477
9	0xbd81f116	-0.063448116
10	0xbd5453fa	-0.0518379
11	0xbcb0f6f2	-0.021602128
12	0xbdc90f1d	-0.09817336
13	0x3d620d69	0.05518857
14	0xbd7e2bee	-0.062053613
15	0x3dc3d2f7	0.09561723
16	0xbeabbe80	-0.33543777
17	0x3d5f3bf5	0.05450054
18	0xbd84e97c	-0.06489846
19	0x3c9bf86d	0.019039357
20	0x3af33628	0.0018555569
21	0x3c608e29	0.013705769
22	0xbaa4e19e	-0.0012579446
23	0x3e873212	0.26405388
24	0x3d4f1cb3	0.05056448
25	0x3cc6ab88	0.024251714
26	0x3c05dfed	0.008171064
27	0xbd5092a3	-0.050921094
28	0xbeebb886	-0.46039218
29	0x3e9d4cd1	0.3072267
30	0x3d5a4863	0.05329169
31	0x3d31b77e	0.043387882
32	0xbcf51c20	-0.029920638
33	0x3eb2a8cd	0.3489441
34	0x3d581206	0.052751563
35	0xbe6c3d7a	-0.23070326
36	0x3d48e6ad	0.049048115
37	0xbd499113	-0.04921062
38	0x3d84c492	0.06482805
39	0xbd4ab442	-0.049488313
40	0x3ce40c4b	0.027837893
41	0xbeb78c4f	-0.35849234
42	0xbcaeea76	-0.021352034
43	0xbc074e0f	-0.008258357
44	0x3de9a9fe	0.114093766
45	0x3d1c736a	0.038196005
46	0x3cad6f8c	0.021171354
47	0xbe8c2fd2	-0.27380234
48	0xbd3c65c6	-0.045995496
49	0xbd80b211	-0.062839635
50	0x3ee0a610	0.43876696
51	0x3d85b3d5	0.06528441
52	0xbd368cf9	-0.044568036
53	0xbc646dbd	-0.013942179
54	0x3d2d4207	0.042299297
55	0xbebd7b8c	-0.3700832
56	0x3d680b28	0.056651264
57	0x3ce95287	0.028481735
58	0x3e8e1846	0.27752894
59	0x3b87f6a7	0.0041492763
60	0xbcb1d2bc	-0.021706931
61	0x3ced2dcc	0.028952502
62	0x3cc46182	0.023972277
63	0x3cca35c4	0.02468384
64	0xbd1cd848	-0.0382922
65	0x3efd61d4	0.494887
66	0x3e69c440	0.2282877
67	0xbc7622f7	-0.015022985
68	0xbc8e82ab	-0.017396292
69	0xbceb5c44	-0.02873052
70	0x3c39c3c2	0.011338176
71	0xbe2ab677	-0.16671167
72	0x3d0e0820	0.034675717
73	0x3dafe182	0.08587934
74	0x3ec7388d	0.38910332
75	0x3d4dacba	0.050213553
76	0x3cbc1272	0.022958014
77	0xbe9d29d3	-0.30695972
78	0x3d497d5a	0.04919181
79	0x388d972f	6.751564e-05
80	0xbd2fc798	-0.042914957
81	0xbd0c2c3e	-0.03422188
82	0x3d0ebfe7	0.03485098
83	0xbee46423	-0.44607648
84	0x3eb248bc	0.34821117
85	0xbe527aa1	-0.20554592
86	0x3df8aed1	0.121427186
87	0x3ccc6c45	0.02495397
88	0xbecdef3a	-0.40221578
89	0x3da06cfd	0.07833288
90	0x3d71de04	0.05904962
91	0xbd3c1a46	-0.045923494
92	0xbe22035c	-0.15821594
93	0x3d7ab3d2	0.061206646
94	0xba9da0c0	-0.0012026057
95	0x3cf4d7f8	0.029888138
96	0x3cce3b0d	0.025174642
97	0xbea7d652	-0.327807
98	0x3d4922e4	0.04910554
99	0x3eaf6a4b	0.34260783
100	0xbde6c69b	-0.1126835
101	0xbd220701	-0.03955746
102	0x3f13f448	0.5779462
103	0xbc5faf87	-0.013652689
104	0x3d8caebd	0.06869266
105	0xbd4f2229	-0.050569687
106	0xbb511438	-0.003190292
107	0xbcbff718	-0.023433253
108	0xbc269799	-0.01016798
109	0xbc21cbcc	-0.009875249
110	0xbed06ad9	-0.40706518
111	0xbddc73ef	-0.107643
112	0x3c7e67ba	0.01552766
113	0x3d9dfa04	0.07713702
114	0xbc79d344	-0.015248124
115	0x3ddd5c15	0.10808579
116	0x3c69bbcd	0.014265967
117	0x3c88cd95	0.016699592
118	0xbcefa99e	-0.029255684
119	0x3dfb9199	0.1228363
120	0x3dd6c26e	0.10486303
121	0xbd87dd96	-0.06634061
122	0xbc750053	-0.014953691
123	0xbe9d0615	-0.30668703
124	0x3d338608	0.043828994
125	0xbd95d032	-0.07315101
126	0xbe629475	-0.22126944
127	0x3e6d20f8	0.23157108
128	0xbc9b9982	-0.018994097
129	0x3c3ea1a3	0.011635217
130	0x3d0f6d7c	0.03501652
131	0x3cc2b52d	0.023768032
132	0x3d0ba8a2	0.034096368
133	0x3d451ea4	0.048124924
134	0x3d447df9	0.0479717
135	0xbd8a8fb7	-0.06765693
136	0xbea94214	-0.33058226
137	0x3ccde5b2	0.025133941
138	0xbdb4bd1e	-0.08825134
139	0x3d007bf2	0.031368203
140	0x3e69788e	0.22799894
141	0x3dd18396	0.10230176
142	0x3d000a2e	0.031259708
143	0x3dbb6773	0.09150591
144	0xbe99d9e3	-0.30049047
145	0x3d710bae	0.05884903
146	0xbbb1ed10	-0.0054298714
147	0x3d9619cb	0.07329138
148	0x3e1c4050	0.15258908
149	0x3c111f30	0.008857533
150	0x3cb4f816	0.022090953
151	0x3f3c7c12	0.73626816
152	0x3cdd32c3	0.027001744
153	0xbb99e8f0	-0.0046969578
154	0x3d1f3c8b	0.038876098
155	0x3ccd7978	0.025082335
156	0xbeb54278	-0.35402274
157	0x3f0ac7ac	0.54210925
158	0x3d95f18a	0.073214605
159	0x3d13f18d	0.036119033
160	0xbd9cf864	-0.07664564
161	0x3e33bd89	0.1755277
162	0x3d5c099f	0.053720113
163	0xbf57d3ce	-0.84307563
164	0x3d5a5a2e	0.05330866
165	0xbcf7c516	-0.030245345
166	0x3cd8cee5	0.026465843
167	0x3e7e3509	0.24824919
168	0xbac14c4b	-0.0014747469
169	0xbee3e5bf	-0.4451122
170	0x3c504f4d	0.012714219
171	0x3d233cc4	0.039852872
172	0x3e904113	0.28174648
173	0x3cc48f23	0.023994034
174	0x3c2d5282	0.010578753
175	0xbe8cd453	-0.2750574
176	0x3d00b4bd	0.031422365
177	0xbda07383	-0.07834532
178	0x3e6eb55f	0.23311375
179	0xbd8a5d7f	-0.06756114
180	0xbd37c70d	-0.044867564
181	0x3bb0fa71	0.0054009487
182	0x3d85f7b8	0.06541389
183	0xbf0e9592	-0.55696976
184	0x3d992eed	0.074796535
185	0x3c5e7e9b	0.01357999
186	0x3f24e1b8	0.6440692
187	0xbd376a46	-0.044779085
188	0xbe6d6766	-0.23183975
189	0x3d433d24	0.04766573
190	0x3c8d7f92	0.017272744
191	0x3ccfc0c3	0.02536047
192	0xbc6d2570	-0.014474258
193	0x3efcf97a	0.49409086
194	0x3d3307c8	0.043708593
195	0x3dd991d0	0.10623515
196	0x3e23b77e	0.15987965
197	0xbd575ec7	-0.05258062
198	0xbc8ab5da	-0.016932417
199	0x3f098e6f	0.5373296
200	0x3d104af4	0.03522773
201	0x3dc8ad51	0.097986825
202	0x3e9496af	0.29021212
203	0xbda32206	-0.07965474
204	0x3d1b625f	0.03793561
205	0x3dd670bc	0.10470721
206	0x3c8ba93d	0.017048473
207	0x3d383b4b	0.04497842
208	0xbd1a977d	-0.037742127
209	0x3d05e6d8	0.032690853
210	0x3d0fe351	0.035128895
211	0xbee933cc	-0.4554733
212	0x3e3a554a	0.18196598
213	0xbb96eaee	-0.0046056425
214	0x3f01cbfe	0.5070189
215	0xbed78f15	-0.4210135
216	0xbd1a00f3	-0.03759856
217	0xbe9bdf22	-0.30443674
218	0x3d08d121	0.033402566
219	0xbf025e50	-0.5092516
220	0xbe7ce2e3	-0.24695925
221	0xbd95891d	-0.07301543
222	0xbd9d06e3	-0.07667329
223	0xbce917e6	-0.028453778
224	0x3d0e2ffd	0.034713734
225	0xbe8df624	-0.27726853
226	0xbf19581b	-0.59900063
227	0x3e88b6b6	0.26701897
228	0x3cfd72ef	0.030938594
229	0x3d5252dd	0.051348556
230	0x3f0302d2	0.5117618
231	0x3da14ee1	0.07876373
232	0x3ea07aa6	0.31343573
233	0x3e89cb30	0.26912832
234	0x3d545fda	0.051849224
235	0xbc1b50e3	-0.009479734
236	0xbd4b56c7	-0.049643304
237	0xbc651857	-0.013982854
238	0xbf32d388	-0.6985402
239	0x3ecc5fc6	0.3991682
240	0xbe869285	-0.2628366
241	0xbc7c2ee0	-0.015392035
242	0x3c8be9a8	0.01707919
243	0x3dd357f3	0.10319509
244	0x3cc82186	0.024430048
245	0xbc675306	-0.014118915
246	0x3cfede60	0.031111896
247	0x3e771f54	0.24133044
248	0x3de4a155	0.11163584
249	0x3d657502	0.05601979
250	0xbd919059	-0.0710761
251	0xbead77d1	-0.33880475
252	0x3e03cabb	0.12870304
253	0x3dbc2ce3	0.09188249
254	0x3e03465a	0.12819806
255	0x3ce8ae20	0.028403342

net.4.bias f4 [9]
0	0xbfaf688b	-1.3703779
1	0xbfa906cf	-1.3205203
2	0xbfa3e0ba	-1.2802956
3	0xbf9c12f2	-1.2193282
4	0xbf8751eb	-1.0571874
5	0xbf644a1c	-0.8917558
6	0xbfb73209	-1.4312145
7	0xbf8e7019	-1.112796
8	0xbfa69aef	-1.3016032
