Entities/pained_nav.pth (torch, 73785 bytes, 6 tensors)

net.0.weight f4 [128, 4]
000000 68 cb 3a 3e 6c 2b d4 3d b0 74 64 3e a7 30 80 3e
       0.18241656 0.103598446 0.22310138 0.2503712
000010 ec 4d d0 be f8 11 fa bd 44 61 05 3e 2c 73 a9 be
       -0.4068445 -0.122104585 0.13025385 -0.33095682
000020 18 e3 b2 be 60 74 69 be c0 48 9b 3c 4c fe 24 be
       -0.34938884 -0.227983 0.018955588 -0.16112632
000030 b9 f5 b4 be 44 95 eb be 0e 04 d2 3e 1c 47 43 be
       -0.35343722 -0.46012318 0.41018718 -0.19070095
000040 61 4b e9 be 10 8d 58 3e f8 25 41 3e e9 10 6d 3d
       -0.45565322 0.21147561 0.1886214 0.057877455
000050 20 03 42 3e e0 67 4b be 20 ff cb be af e0 10 3d
       0.18946505 -0.19863844 -0.39843082 0.035370525
000060 c6 ca 9e 3e 3c aa 48 be 69 4f 5a bc 82 78 df 3e
       0.3101408 -0.1959619 -0.013324597 0.43646628
000070 4e 2f a0 be cd 45 89 3e da a1 bc 3e 82 68 f3 be
       -0.3128609 0.26811066 0.36842233 -0.4754067
000080 62 ac a6 3e 21 4d 8b 3e 5a 41 48 be e5 13 14 be
       0.32553393 0.27207282 -0.1955618 -0.14460714
000090 7f 8a 56 be 05 6f ef 3e ae 46 8c be a4 0d 4e bd
       -0.2095127 0.4676439 -0.27397674 -0.050305977
0000a0 6e 85 92 be c0 5f fa bc 54 09 46 3e 72 1c e0 be
       -0.28617424 -0.030563235 0.19339496 -0.43771702
0000b0 e0 a7 f5 be 6b ff d9 be 34 35 e0 3e f8 34 bf bd
       -0.4797964 -0.4257768 0.4379059 -0.09336275
0000c0 c4 6b 89 be 8c 39 4a 3e 60 56 a5 bd cd b0 9c 3e
       -0.2684003 0.19748515 -0.08073115 0.30603638
0000d0 53 2e 11 bd 18 d1 e8 3e 9f 19 7b be 73 96 c8 bd
       -0.03544457 0.45472026 -0.24521492 -0.09794321
0000e0 e2 b0 a8 be ac 50 56 bd 7b 0f 0d 3e ae fa a2 3e
       -0.3294745 -0.05232303 0.13775437 0.31831878
0000f0 56 30 95 be bb 0b bd be 1f 92 50 3e 5b 35 fc 3e
       -0.2913844 -0.36923012 0.20368241 0.49259457
000100 92 2b ba 3e fd ad c9 3c 18 d8 5e 3e b8 34 8a be
       0.36361367 0.024619097 0.2176212 -0.26993346
000110 d0 25 bf be 97 58 97 3e ce 33 dd 3e 8c 20 56 be
       -0.37333536 0.29559776 0.43203586 -0.20910853
000120 1a 6d c6 3e 6a 60 1b be 03 22 85 be b5 05 32 3e
       0.38755113 -0.15173498 -0.2600251 0.1738499
000130 6c ab 60 be b2 84 f7 3e 29 99 e4 be 52 7f 87 3e
       -0.21940392 0.48343426 -0.44648102 0.26464325
000140 00 16 db ba d4 f0 b3 be 84 db 82 be 34 91 0e 3e
       -0.001671493 -0.35144675 -0.25558102 0.13922578
000150 86 b5 fe be 24 e0 90 be ac 58 3c 3e de bc d3 be
       -0.49747866 -0.28296006 0.183932 -0.41355032
000160 0f 0c 06 bf ff 97 7a 3e 23 12 c3 3e 57 4c a5 3e
       -0.5236215 0.24472044 0.38099775 0.32284805
000170 8a 54 c0 3e 82 ad 75 be e5 12 e9 be 24 54 40 bd
       0.37564498 -0.23991969 -0.45522228 -0.046955243
000180 d5 c4 11 3e 0e f1 02 3e a7 bd 2f 3e 86 62 cc be
       0.14235242 0.12787268 0.1716219 -0.39918917
000190 35 05 e6 bd 18 8d 58 3e df a8 62 be b9 81 4f 3e
       -0.11231462 0.21147573 -0.22134732 0.20264329
0001a0 3e ed b2 3e a9 be e4 3e 47 79 b0 3c 48 f8 89 be
       0.34946626 0.44676712 0.021542205 -0.26947236
0001b0 6d 1f d1 be 85 c3 04 3e df fb d7 3e bb 64 cb 3d
       -0.40844288 0.1296521 0.4218435 0.09931322
0001c0 df 64 e1 3e 4f 89 47 be 29 8a 53 3e 6f 2c c7 3e
       0.4402227 -0.19485973 0.20658173 0.38901088
0001d0 d8 be 9e 3d 1c 74 bf be c6 0e 8c be 8a dd 9a be
       0.07751244 -0.37393272 -0.2735502 -0.30247146
0001e0 a9 9a 04 be f2 31 43 3d 63 36 61 3e 9f d1 a7 3d
       -0.12949623 0.047655053 0.21993403 0.08194279
0001f0 b8 97 80 be 22 3e 89 3e 4e a6 45 3e 57 ae 03 3e
       -0.25115752 0.26805216 0.19301721 0.12859474
000200 1b 16 86 be f2 9f f0 bd cd 42 07 3e aa 04 4d 3e
       -0.2618874 -0.11749257 0.13209076 0.2002131
000210 f6 c8 81 bd c8 1e d1 be 57 5f 8b 3e d2 fd 82 3c
       -0.063371584 -0.40843797 0.27221176 0.015990172
000220 4c 28 af be 58 4f 27 be 72 27 fe be 94 67 1f 3e
       -0.34210432 -0.16338861 -0.4963947 0.15566856
000230 d0 63 e9 3e fa c6 ea bd c3 df 94 be c1 ae ae be
       0.45583963 -0.11463733 -0.29076967 -0.34117702
000240 68 ac f5 3d 63 59 e7 3e 88 c4 f7 be 5b 65 90 3e
       0.119957745 0.45185384 -0.4839213 0.28202328
000250 74 56 e5 bc e1 e5 c0 3d d8 3e a2 be f7 26 d3 3e
       -0.027995326 0.09418846 -0.3168857 0.41240665
000260 1a 92 ae 3e 9a d1 d3 3d b3 48 91 3e 4a 43 c1 3b
       0.34095842 0.10342713 0.28375778 0.005897914
000270 fd c1 b8 3e fe 41 d5 bd b9 42 2a 3d e8 96 56 3e
       0.360855 -0.10412978 0.041567538 0.20956004
000280 4c 62 b8 be 2b ab 65 be fb de d8 3e 7e 0c 3b be
       -0.36012495 -0.22428577 0.4235762 -0.18266484
000290 46 52 ea be 54 b6 ae 3e 57 aa cc 3e 00 18 d9 3e
       -0.45765895 0.3412348 0.3997371 0.42401123
0002a0 6c 48 a9 be 68 17 ff bd 00 13 06 bd d4 1f 99 be
       -0.33063066 -0.12455636 -0.032732964 -0.29907095
0002b0 c3 eb 42 bd 25 d7 90 be a1 8a 5f 3e 2f f9 a2 3b
       -0.04758812 -0.28289142 0.21830226 0.0049735527
0002c0 51 55 96 be 6c c2 a3 bd 7e 5c 26 3e 5c a7 db bd
       -0.29361966 -0.079960674 0.1624622 -0.10725281
0002d0 f1 4d 01 be 3f 46 ab 3e 38 05 a2 3e ba ea b2 be
       -0.12627389 0.3345203 0.31644607 -0.34944707
0002e0 40 80 bc bc 00 dd c7 bb 80 97 2f bd c8 46 32 be
       -0.023010373 -0.0060993433 -0.04286909 -0.17409813
0002f0 01 10 7c 3e fb 4b fa be 7c 0d f2 be 82 8c 44 3e
       0.2461548 -0.48886093 -0.47275913 0.19194224
000300 ff 01 bb 3e 67 98 c4 3e fd 34 ad 3e 22 14 cf bc
       0.3652496 0.38397524 0.3382949 -0.025278155
000310 f6 69 dd be cc ef ac be e6 cf dd 3e 08 47 c2 be
       -0.43244904 -0.337767 0.43322676 -0.37944818
000320 d5 a2 91 be b1 3b 8d 3e 41 91 e9 be 9e cd b4 bc
       -0.28444543 0.27584603 -0.45618632 -0.022070702
000330 f6 a5 96 be 38 dc fd 3d 30 4b a4 bd 68 f4 bc bd
       -0.29423493 0.12395519 -0.080221534 -0.09226304
000340 8e 0c 93 be 6b 83 e3 3e a2 20 e1 3e ae 4c 53 be
       -0.28720516 0.444362 0.4397021 -0.2063472
000350 48 1e 7d be 00 31 17 bc d0 2e 21 3d c2 76 8c be
       -0.24718583 -0.009227991 0.039351285 -0.27434355
000360 2b b3 f8 be f8 aa 86 be 49 f3 92 3d 65 8d da 3e
       -0.48574194 -0.26302314 0.07175309 0.42686
000370 08 42 57 3e 89 ce fc bc c9 46 3f be 98 e8 a9 be
       0.21021283 -0.030860202 -0.18679346 -0.33185267
000380 40 9e 8d 3d a4 e4 fb be 18 80 ac be 5c 92 9f be
       0.069149494 -0.49197876 -0.33691478 -0.3116635
000390 0f 5c 48 3e 13 34 8f bd b1 0d 9b 3e 78 da b7 be
       0.19566368 -0.06992354 0.30283883 -0.35908866
0003a0 8d 5b 1a be 4f 75 02 3f f8 5a 47 3d af 8c 9e be
       -0.15073986 0.5096025 0.04867074 -0.30966708
0003b0 b1 40 70 bd 8f c1 9b 3e 5d 3d a1 3e 3d fa 37 be
       -0.058655445 0.3042111 0.3149213 -0.17966552
0003c0 80 db 7b be 78 25 74 be b8 96 c9 bd 68 e8 31 3e
       -0.24595451 -0.23842418 -0.098432004 0.17373812
0003d0 cd d1 83 be d6 51 9b 3e 5d 8a 38 3e 50 94 62 3e
       -0.25746003 0.30335873 0.18021531 0.22126889
0003e0 6f cf 8a be d6 9c 7a bc c5 f4 d8 3e e4 3d ea bd
       -0.27111384 -0.015296182 0.42374244 -0.11437586
0003f0 5d e0 95 be b6 ef 25 bd 70 9e a9 3e fd 94 6b be
       -0.29272738 -0.04051181 0.3312869 -0.23006053

net.0.bias f4 [128]
000000 35 1d 6b 3f aa ef 8a 3e 84 76 96 3e 61 b6 ca 3d
       0.9184144 0.27135974 0.29387295 0.09898067
000010 6c a4 2f bf 7e 73 8d be ef 45 7e 3f 86 f2 d2 be
       -0.6861026 -0.27627176 0.9932546 -0.41200656
000020 fb 20 6f 3f 4b 45 42 3e 0c 92 3d 3e da e9 a0 be
       0.934097 0.18971746 0.18512744 -0.31428415
000030 58 55 f3 be b9 86 45 bd 73 d6 de be d9 c5 6b 3f
       -0.4752605 -0.048224185 -0.43522987 0.92098767
000040 83 d8 10 3f 39 c5 42 bf 54 42 9d 3e ba d6 84 3f
       0.5658037 -0.7608219 0.30714667 1.0378029
000050 d0 49 9b 3d bc 16 80 be 64 e7 4e bd 32 50 6e 3e
       0.07582438 -0.25017345 -0.05051364 0.2327278
000060 3a fc 11 3f 41 b9 0b bf 86 f5 08 3f 77 cf 5e bf
       0.5702549 -0.5457955 0.5349964 -0.87035316
000070 e2 63 c5 3e 10 a7 9b bd 95 a9 91 3e 88 af a3 3c
       0.38552767 -0.07600224 0.28449693 0.01998116
000080 99 69 30 bf f9 04 a1 be 88 34 da bd f0 d4 b1 3d
       -0.6891113 -0.31449106 -0.10654551 0.08683193
000090 98 1b 15 bf a5 20 1b 3f 5f 48 27 bf 65 03 59 bf
       -0.5824523 0.60596687 -0.65344805 -0.84770805
0000a0 09 16 c1 be b9 e5 5e 3f 68 11 4c be 05 85 cc bd
       -0.37712124 0.8706928 -0.19928515 -0.09986309
0000b0 80 12 87 3e 08 de 72 3f 40 81 93 3d ca 29 ef 3e
       0.26381302 0.9487004 0.07202387 0.4671157
0000c0 d6 fd eb 3e 42 40 be 3e 26 cf c0 be a0 05 bd bc
       0.460921 0.371584 -0.37658042 -0.023073971
0000d0 14 96 2f 3f c4 2e 0e 3e 5f 8a 17 3e b2 57 d3 3e
       0.68588376 0.13885027 0.14798878 0.41277844
0000e0 22 ed b9 be 57 f7 0e bf 86 92 84 3f 93 0c 48 bf
       -0.3631373 -0.5584616 1.0357215 -0.78144187
0000f0 08 fc 49 3e 38 b0 dd 3e db 09 23 bf 50 6e fe 3e
       0.19725049 0.43298507 -0.63686913 0.49693537
000100 20 e7 2a 3e a0 85 5a be 4f 20 43 3f f0 f3 5f bd
       0.1668973 -0.21340036 0.76221174 -0.054675996
000110 f1 ba d1 3e 11 ec 3c 3f 2c 4a c0 be 0e 2d 9e be
       0.40962937 0.7379771 -0.3755659 -0.3089375
000120 f2 d3 7d bf bd 7a 44 bf 7c 64 80 3f c0 43 cf 3d
       -0.9915153 -0.76749784 1.0030665 0.10120344
000130 8d c1 03 bf c8 57 9b 3e e6 60 bb be d0 5a fb 3e
       -0.5146721 0.3034041 -0.36597365 0.49092722
000140 30 84 ba be 25 16 25 bf 85 a1 e7 3e e7 ce 9b be
       -0.36428976 -0.64486915 0.45240417 -0.3043129
000150 33 01 bb be 7d bd 13 bf 05 54 09 3f 4c 05 34 3e
       -0.36524352 -0.5771101 0.5364383 0.17580146
000160 f5 b9 6e 3f 26 ef e2 3e c6 66 d3 be 29 07 78 3f
       0.932525 0.4432308 -0.41289347 0.96885926
000170 6d 21 5d 3e 92 12 f7 3e bd 06 c7 3e de ba dd be
       0.21594782 0.48256356 0.38872328 -0.4330663
000180 a7 19 46 be 8e 97 bf bd 30 e9 c5 3e 68 44 ea bd
       -0.19345723 -0.09355079 0.3865447 -0.11438829
000190 b8 29 06 3e 10 db 0b bd 56 e5 be be 1e 20 bb be
       0.13101852 -0.03414446 -0.37284344 -0.3654794
0001a0 44 7c db be d4 6a ed 3e 15 17 88 3e 84 df 39 bf
       -0.42868245 0.46370566 0.2658011 -0.7260668
0001b0 03 44 cd be de be ba 3e 12 4d 35 3f d0 96 de 3e
       -0.4009095 0.36473745 0.70820725 0.43474436
0001c0 cd 7f 64 3f 93 02 91 bd 0b 71 38 bf 24 91 10 be
       0.8925751 -0.07080569 -0.7204749 -0.14117867
0001d0 f0 3c 2e bd 71 0e 5e bf 20 40 32 3d 5c 59 8e be
       -0.042538583 -0.86740786 0.043518186 -0.2780255
0001e0 98 1a 69 3f 3b f4 39 bf bf 78 41 bf 56 79 ce be
       0.91056204 -0.7263829 -0.7557487 -0.40326947
0001f0 00 fc 06 bf e8 a0 ec be 16 ba 41 bf 67 c3 13 be
       -0.5272827 -0.46216512 -0.7567457 -0.14430009

net.2.weight f4 [128, 128]
000000 55 a8 97 3d 28 53 89 3c 06 db 48 3d eb 13 03 bd
       0.07405154 0.016763285 0.049037002 -0.032001417
000010 ee b7 52 bd 78 92 9e bc ba 4e a5 bd dd e4 a0 bc
       -0.05144494 -0.019356951 -0.080716565 -0.01964038
000020 0c d3 84 3c be c2 a9 3b e0 df 14 3b fe 97 4f 3d
       0.016213916 0.005180686 0.0022716448 0.05068206
000030 bd f7 84 3d f1 4d 9b 3c 1e 74 49 3d b9 d5 ec 3c
       0.06492565 0.018958064 0.049183004 0.028910505
000040 d2 73 4e bd b7 4c 9f bd 51 61 7c bb 6a 00 ac 3d
       -0.050403424 -0.07778304 -0.0038510154 0.083985165
000050 c0 2d 56 bb 7e 4c 6a 3d 3c d1 7b 3c 75 d1 28 bd
       -0.0032681078 0.057201855 0.01536971 -0.04121538
000060 ec cc fa 3c 70 38 41 3c 54 a5 fd bb 1a b6 0b 3d
       0.030615292 0.011793241 -0.007740656 0.034109212
000070 78 9c 9e 3d 00 fd 8a bb 50 74 49 3d e2 19 3a bd
       0.07744688 -0.0042415857 0.04918319 -0.04543484
000080 08 2a 04 bd 4f cd a4 bd 00 72 cc 3b ed cb 2f bd
       -0.032266647 -0.08046972 0.006239176 -0.04291909
000090 be d3 bf 3c ac 15 b6 3d 34 94 90 3d 99 43 11 bc
       0.023416396 0.08890852 0.070595175 -0.008866214
0000a0 a0 c3 87 3b 4d 48 4b bb 8e e7 26 bd 5a f6 3f bd
       0.0041431934 -0.0031018436 -0.04074817 -0.0468658
0000b0 d8 b8 c2 3c 2b cb d9 bc e7 3e 8c 3d a9 3b 99 bd
       0.023769781 -0.026586136 0.06847935 -0.074820824
0000c0 58 b3 e7 ba c0 d2 e4 3a c6 11 27 bd 05 9b 2f bd
       -0.001767735 0.0017457828 -0.040788434 -0.042872448
0000d0 13 fa 80 bd 0d c1 0d bd 61 4e 12 bd 13 c8 ab bd
       -0.06297698 -0.034607936 -0.03571928 -0.083877705
0000e0 8a 86 1f 3d af 6a 6c 3d a8 7c 62 bd 06 26 09 3d
       0.038946666 0.05771893 -0.055294663 0.033483528
0000f0 2b 55 86 3d ee e6 90 bd 11 3f 49 3d 08 c2 1e 3b
       0.06559213 -0.07075296 0.04913241 0.0024224538
000100 e6 82 44 3d dc df 52 bd 40 cb b8 bd 08 90 e2 3c
       0.047976397 -0.05148302 -0.09023142 0.02765657
000110 33 4b a5 3c fc d7 25 3d aa df c3 bd 33 e9 7c bb
       0.02017746 0.040489182 -0.09564145 -0.0038591146
000120 9c bd ae bd fe 74 87 bd db 2a 83 3d ad eb 88 3d
       -0.08532259 -0.06614111 0.064046584 0.066855766
000130 7b 67 81 3d 52 d1 52 3d c4 cc 6d bd e3 c7 0b bd
       0.063185655 0.051469155 -0.058056608 -0.034126174
000140 9d 52 a9 ba 0e 7d 7f bd 85 fc fd bc 20 ef 93 3c
       -0.0012918297 -0.06237512 -0.0310042 0.01805836
000150 d8 cc 6e bd a6 1f 28 3d 66 f9 ca ba c5 20 98 bd
       -0.058300823 0.041045807 -0.0015485703 -0.07428125
000160 f6 25 c6 bd 2f 18 0d bd 96 d9 86 bd 96 0e f4 3c
       -0.09675209 -0.03444689 -0.0658447 0.029792111
000170 6d c1 57 3b 8f 37 2d bd 66 c8 b8 bd f0 3e 36 bc
       0.0032921687 -0.042289313 -0.09022598 -0.011123404
000180 56 60 3e 3d 95 d2 8f 3c e7 2a a7 bd 81 75 f5 bc
       0.04647859 0.017556468 -0.0816248 -0.029963257
000190 e2 f5 a2 3c 00 18 47 bd 01 ba 91 3d 89 8f 17 3c
       0.019892637 -0.048606873 0.071155556 0.00925053
0001a0 2c ff 52 bd 23 57 a5 3d 49 ce a1 3d a9 7d a4 bc
       -0.051512882 0.08073261 0.07900674 -0.02007945
0001b0 c8 75 58 3d 86 f4 2f bc 3f 3b d6 3c a5 68 8a bd
       0.0528467 -0.010739451 0.026151298 -0.067582406
0001c0 78 f9 9b bd ed 4a 49 bd 3e 0a 2c bd 90 fa 83 bd
       -0.07615942 -0.04914372 -0.042001955 -0.064442754
0001d0 88 8c 2a bc a6 b1 9a 3c 96 86 54 3d 2c 7d 15 3d
       -0.010409482 0.018883538 0.051886164 0.036496326
0001e0 2e a2 a4 3d ca 4f 00 3d d9 d1 a7 3d 22 40 6c 3d
       0.08038746 0.031326093 0.08194322 0.05767835
0001f0 32 36 6f 3d 4e 7d 24 bd 7a a4 e5 bc 24 a6 93 3d
       0.058401294 -0.040158562 -0.02803253 0.07209423
000200 96 00 7f bd 9a ed f2 bc 8e 87 6a bd 0d 4f 16 bd
       -0.06225642 -0.029654313 -0.05725818 -0.036696482
000210 fb d5 a7 3d bb 56 a6 3d ae c0 5e bd 33 b3 90 3d
       0.081951104 0.08122011 -0.054382972 0.070654295
000220 20 bb fb bb 9a 84 6d 3d 74 d8 8b bd 1e ac 69 bd
       -0.007682219 0.057987787 -0.068283945 -0.05704891
000230 1a ee 10 3d c0 23 1a bd 0d 76 b0 bd c5 9a 37 bd
       0.03538332 -0.03763175 -0.086162664 -0.044825334
000240 a6 1d e8 bc 0f ef 26 bd af 7e a2 bd 70 c7 03 3d
       -0.02833445 -0.040755328 -0.07934319 0.03217262
000250 a2 c9 73 3d 83 01 16 bd c4 91 cd bc 9b c6 aa 3d
       0.059518464 -0.036622535 -0.02509392 0.08338662
000260 b8 93 eb bc 5e 50 94 bd 90 e7 70 bd 21 e3 47 bd
       -0.028756961 -0.07241891 -0.058814585 -0.04880059
000270 40 12 53 bb 8f 02 a9 3d 7a ff 26 bd de a3 6d bd
       -0.0032206923 0.08252441 -0.040770985 -0.058017604
000280 c7 15 2a bd 22 1f 38 3d 82 b2 48 3d 30 68 02 3c
       -0.041524675 0.044951566 0.048998363 0.007959411
000290 26 f3 63 3d 3b 76 3b bd 80 1f 9e 3c 15 01 0b bd
       0.055651806 -0.04576705 0.01930213 -0.03393658
0002a0 d0 7f c8 3c 70 ae 06 3c 9a 5c 22 3d f4 36 fd 3c
       0.024475008 0.0082203 0.039639093 0.030909993
0002b0 b5 35 91 3d 40 11 77 bc 84 a6 af 3c 48 54 77 bc
       0.07090322 -0.015079796 0.021441706 -0.015095778
0002c0 91 3b a7 3d 76 83 82 bd fb d2 b1 3d 8a 2b 19 3d
       0.08165658 -0.063727304 0.086828195 0.037395038
0002d0 40 85 54 bc 4e 0e 2c 3d 30 cb a6 3b 74 f8 8f bd
       -0.012971222 0.04200583 0.00509014 -0.070298105
0002e0 bf b2 3b bd 70 fa 78 bc 13 54 a0 bd 80 37 de ba
       -0.045824762 -0.015196428 -0.07828536 -0.0016953796
0002f0 df f6 80 bd 58 b5 05 3c 84 f1 30 bd 8a 1b e2 bc
       -0.06297087 0.0081609115 -0.043199077 -0.027601022
000300 30 08 82 3b 78 90 ca 3c d6 18 20 bd 92 d5 78 3d
       0.003968261 0.024727091 -0.039086185 0.06075055
000310 ce 30 b2 bd 51 1c 9b bd c8 7d 08 3d 88 f3 2f bd
       -0.08700715 -0.0757376 0.03332308 -0.04295686
000320 40 ad aa bd 34 2f b3 3c 83 a7 ac 3d f8 15 60 3c
       -0.08333826 0.021873094 0.08430388 0.013677113
000330 a4 f9 d0 bc 7e d9 a9 bd 2a a7 6a 3d c3 bc a2 3d
       -0.025509663 -0.082934365 0.057288326 0.0794616
000340 7b 42 ae bd 1b 1a 98 bd de 62 b4 bd c0 0c cf 3b
       -0.08508774 -0.07426854 -0.0880792 0.0063186586
000350 2c 8a cf 3c e4 7a 7b bd 40 58 a2 bc e0 18 9a bc
       0.02533444 -0.061396495 -0.019817472 -0.01881069
000360 e0 b3 01 3c c0 4e 7f 3b c0 24 09 3b 80 8b 04 3d
       0.007916421 0.003895685 0.0020926446 0.0323596
000370 3e 36 6a 3d 83 80 ab bd f4 dc ca bc 66 60 77 3d
       0.057180636 -0.08374121 -0.024763562 0.060394667
000380 86 92 ab bd 68 cc 90 bd 52 d8 23 3d 74 9a c4 3c
       -0.083775565 -0.070702374 0.04000122 0.02399943
000390 90 ee 9a bb 15 cb a6 3d f8 a8 3d bd 61 bb 98 bd
       -0.004728146 0.081442036 -0.04630372 -0.07457615
0003a0 e8 a5 4a 3c 9c 01 e1 3c 70 36 8b bb c2 3c aa bd
       0.012368657 0.027466588 -0.004248433 -0.0831237
0003b0 d4 f8 49 bd 7c bc c3 3c 9c 04 bf 3c ab 4f 9a bd
       -0.049309567 0.023893587 0.023317628 -0.07534727
0003c0 3b ad a0 bd f8 dd 6d bd dc 0d ef 3c 08 a5 35 bc
       -0.07845541 -0.058073014 0.029181413 -0.01108671
0003d0 2c 73 26 bd 80 9d 9e 3a 68 21 cc 3c 30 ec 1b 3c
       -0.04063718 0.0012101382 0.024918273 0.009516761
0003e0 9a 54 0b 3d 48 75 56 bd 28 86 5e bd a0 56 61 bc
       0.03401623 -0.052357942 -0.05432716 -0.013753563
0003f0 62 1e 21 3d ab 3d b2 bd 60 b6 32 bb 93 8c 21 bd
       0.039335616 -0.087031685 -0.0027269349 -0.039440703

net.2.bias f4 [128]
000000 0c 60 9f bd d0 1a f7 bb 1f db 80 3d 5d 5a 33 be
       -0.07781991 -0.007541038 0.06291794 -0.1751494
000010 03 f3 b0 3e 22 d9 62 3e 50 20 e0 3e 29 45 de bd
       0.34560403 0.22153142 0.43774652 -0.10853035
000020 b8 a1 81 bd c4 3b 18 3f 09 a3 af 3d f3 79 86 bb
       -0.063296735 0.59466195 0.08576018 -0.004103893
000030 c8 b7 25 bd 1e b6 79 be 78 5b de be 7e cc 94 bd
       -0.04045847 -0.24385878 -0.4342916 -0.07265566
000040 9e 6a 2e 3d 35 5a b4 ba ff d0 06 bf dc 83 d1 ba
       0.042582147 -0.0013759794 -0.5266265 -0.0015984732
000050 41 ef 15 3f 2a 7f 06 3d 11 5c 02 3f a6 df 07 3f
       0.585682 0.032836117 0.5092173 0.53075635
000060 05 cc 48 be f6 18 1a bf 3a 68 5e 3d 0b d3 25 be
       -0.19609077 -0.6019434 0.054298617 -0.16193788
000070 80 99 60 bd a3 5e d2 3d 00 12 41 bd 23 bd c3 39
       -0.05483389 0.10271957 -0.047136307 0.00037334216
000080 27 23 c9 3c 50 ba 67 3d 40 8c aa bd 38 1d 94 3c
       0.024552895 0.056574166 -0.08327532 0.018080339
000090 5b f5 99 3d 19 c6 bc 3d 6c 2e 97 bd 30 54 b4 bd
       0.07517501 0.09217472 -0.07381901 -0.0880512
0000a0 bd 9b 82 be c6 d4 4e 3d e0 11 96 be d7 7f 6a bd
       -0.25509444 0.050495885 -0.29310513 -0.057250824
0000b0 6a a0 06 3c 7f 9f 0c 3f f5 ee bb 3e d3 64 64 3e
       0.008216957 0.5493087 0.36705747 0.22304086
0000c0 2b e2 a6 bd 93 7f 2f 3d d1 ac f4 3e d8 48 07 3d
       -0.08148607 0.042846274 0.47788098 0.033028454
0000d0 c9 81 ef be 84 1c ea 3e 84 76 72 bd f2 75 00 3f
       -0.46778706 0.4572488 -0.059195057 0.5017997
0000e0 83 a4 02 bf 00 e4 1b 3f 16 34 f3 bc c6 a1 11 3e
       -0.51032275 0.60894775 -0.029687922 0.14221868
0000f0 43 55 91 bd 34 0a 60 bd 5e fa 13 3d bc be 01 3f
       -0.070963405 -0.05469723 0.03612744 0.5068166
000100 ed 0d 51 3c ff 1d 9c 3d e5 f8 96 3d 92 b3 21 3d
       0.012759668 0.07622909 0.073716916 0.039477892
000110 fb 3d 99 3d c4 3f ba bc 9e a7 23 3d 8f 61 40 bd
       0.07482525 -0.022735484 0.039954774 -0.04696804
000120 35 10 18 be 50 f7 4e bd 46 73 4c 3d 91 65 7a 3e
       -0.14849932 -0.050528824 0.04991462 0.24452807
000130 19 d7 a8 be 6e b0 85 3e 21 5f f1 be 10 c4 87 3c
       -0.32976606 0.26111168 -0.4714289 0.016572982
000140 55 81 99 3d a2 67 0d bf b4 fd 06 bf a2 07 1f 3d
       0.07495371 -0.55236256 -0.5273087 0.03882564
000150 78 1e 93 bc 38 63 09 bc a3 4a d9 3e 13 1e c6 3b
       -0.017958865 -0.008385472 0.42439756 0.0060460656
000160 4f 27 95 be 7e ae 84 3e aa 8d b4 be f9 c3 0b 3e
       -0.29131553 0.25914377 -0.3526433 0.13648976
000170 6d 51 8b 3d 8e 4a c0 3c cb fd 95 3e 61 3a 4e 3d
       0.0680264 0.02347305 0.2929519 0.050348643
000180 c7 5d 98 bd 0b 39 83 be 0e ca 96 be fa 65 f8 be
       -0.074397616 -0.25629458 -0.2945103 -0.48515302
000190 f5 49 98 bd 6d 69 b1 3d c2 33 c3 3e 4e a2 af 3e
       -0.07435981 0.086626865 0.38125426 0.34303516
0001a0 fb a7 d9 3c db 97 93 3d ed 2b d1 3e 19 ca ae 3d
       0.026569357 0.072066985 0.40853825 0.08534641
0001b0 55 fc c6 3e 76 53 33 be 70 9b c4 3d 8f 71 57 3e
       0.3886439 -0.17512307 0.0959996 0.21039413
0001c0 1c c7 04 be c0 c4 a8 bc f2 75 85 3e 47 d9 14 3f
       -0.12966579 -0.02060163 0.26066548 0.5814404
0001d0 d8 2b 22 3e bf f1 8f 3c 7d 15 8f bd a6 55 48 bd
       0.15837038 0.017571328 -0.069865204 -0.048909806
0001e0 11 41 85 3d ca 40 87 3e fd 70 85 bc 0a a5 a7 bd
       0.06506551 0.26416618 -0.016289229 -0.081857756
0001f0 1a 9c fa be 75 c3 02 bf 58 2e f7 bc 94 a7 9f 3c
       -0.4894722 -0.51079494 -0.030173466 0.019489087

net.4.weight f4 [4, 128]
000000 f7 06 c3 3d 84 11 95 3c 8d 5a 10 bd 00 71 09 bd
       0.09522813 0.018196829 -0.035242606 -0.03355503
000010 c3 fe 31 ba 9b 4a 84 3c 6e 0a 1f 3d db 7e 93 bb
       -0.00067899766 0.016148856 0.038828306 -0.0045012063
000020 de f6 62 3d 5d 5e 25 3e 5a f9 49 3d 5a 91 09 3e
       0.055411212 0.16149278 0.049310066 0.13434353
000030 50 a3 d3 3c c2 52 ee bd 97 be 91 bd ad c1 ad 3d
       0.02583471 -0.116368786 -0.0711643 0.08484206
000040 c0 ac b7 3a 65 21 a5 bd 1a 53 9a bc 7b f1 49 bd
       0.0014013276 -0.0806301 -0.018838454 -0.04930256
000050 af 89 00 3e c5 89 9c bc c7 f3 7d 3d c6 0f c4 3d
       0.12552522 -0.019108662 0.062000062 0.09573321
000060 fe d2 07 3c b6 fb c0 be ff 4f 89 bd 33 06 da bc
       0.008290051 -0.3769204 -0.06704711 -0.026614284
000070 a4 8c 7c bd 83 46 4c 3d 5b ff 38 3c ff 6b 1a 3b
       -0.061657563 0.049871933 0.01129135 0.0023562906
000080 50 42 1a 3c ab 6f 30 3c 7e da 1d 3d f9 f6 9b bc
       0.009415224 0.010768811 0.03853845 -0.019038664
000090 60 cf 1b bc 03 e7 3d 3d 70 c8 4f bd 08 dc 52 3b
       -0.009509891 0.046362888 -0.05072826 0.0032174606
0000a0 ec 7e ce bc f8 f9 9b 3c 0c 5d c0 bc 5d f8 2e bd
       -0.025207005 0.019040093 -0.023481868 -0.042717326
0000b0 21 61 ff ba 51 f2 71 3d ae 3a 49 3d 48 06 ac 3c
       -0.0019483903 0.05906898 0.049128227 0.020999089
0000c0 b2 0c c8 bc 9c 79 06 bb 07 5d b9 3d 04 12 e1 bc
       -0.024420116 -0.0020519262 0.09050947 -0.02747441
0000d0 fd 3c 29 bc a8 d7 ca 3c f3 8b b3 bd 8e b0 a3 3d
       -0.010329482 0.024761036 -0.087669276 0.079926595
0000e0 61 cc f8 bc 37 3e 03 3e 7a 71 0c 3d 74 ed ee 3c
       -0.030370893 0.12816702 0.034287907 0.02916596
0000f0 ec 97 5a bd 78 dc 08 bc 27 ca b3 bc 4d ba ad 3d
       -0.05336754 -0.008353345 -0.02194698 0.084828
000100 76 81 02 bd e4 7e 70 bd 7c e6 e0 3c 18 87 b3 3c
       -0.031861745 -0.058714762 0.027453654 0.021915004
000110 1f 2c 9b bd 36 1e 5b 3d e6 95 43 3d 2d 28 9b bc
       -0.07576775 0.05349561 0.047750376 -0.018940056
000120 7e b8 90 bc 6e 95 1b 3d a2 a4 e6 bc 5f 9a 77 bc
       -0.017666098 0.037984304 -0.028154675 -0.0151124885
000130 9f 8b 83 bb 50 92 a6 3b 1b e7 61 bd 6d 42 9f 3d
       -0.004014447 0.00508336 -0.05515204 0.077763416
000140 dc b7 d3 bc 04 46 5f bd 9f 54 ff bd d9 f1 ad 3d
       -0.025844507 -0.05451013 -0.12467312 0.084933944
000150 d4 9a fa bc 70 4e e4 3c d4 36 87 3d 6b 04 a9 bd
       -0.030591406 0.027869433 0.066022545 -0.08252796
000160 a0 2b 95 bd 8f 7d 5d 3b c6 0e 1f be 11 f5 95 bc
       -0.072837114 0.0033796763 -0.1553298 -0.018305333
000170 7a 3d 7c 3d 5e 8f ba ba 69 83 9f 3b 3f 6e 9b 3a
       0.061582066 -0.00142334 0.0048679602 0.0011858417
000180 7b 4b 0b ba cc 1c ec 3c 92 0a a1 bd 0e 25 d5 bd
       -0.00053136767 0.028822325 -0.07863344 -0.10407458
000190 26 ae 1a 3d 5e 53 5e 3d 57 1b ea 3c af a8 33 3c
       0.037763737 0.054278724 0.02857749 0.01096551
0001a0 74 3c 81 bd 9a ed 9e bd fc 79 14 3c 53 0d d6 bc
       -0.06310359 -0.07760163 0.0090622865 -0.0261294
0001b0 b3 ce ec 3a ad c3 53 bc de 69 9e bd 95 e6 f0 3b
       0.0018066972 -0.012925071 -0.07735036 0.0073517063
0001c0 0b 8f b8 bc 18 b4 ad bd d3 f6 18 3d 4c cc 2a 3d
       -0.022529146 -0.08481616 0.037344765 0.04169874
0001d0 aa af 07 3d 51 c5 24 3d ec 04 a8 3c e0 1c ee 3b
       0.03312651 0.040227238 0.02051016 0.0072666258
0001e0 ea 30 20 3d 2b c8 7a 3c 41 79 18 bd 20 05 79 bc
       0.039109148 0.015306513 -0.03722501 -0.015198976
0001f0 67 ee 67 bd 32 72 42 bd d3 04 a9 bd d5 4c a0 3d
       -0.056623843 -0.047472186 -0.08252873 0.078271545
000200 e8 fb 79 bd 78 8b a1 bd 2a ad b4 3c 87 2c 47 bd
       -0.061031252 -0.0788793 0.022055227 -0.04862645
000210 6b 04 69 3d e8 4b 23 3c 0c 78 d1 3b d2 0d d9 bc
       0.05688898 0.009966828 0.0063924845 -0.026495848
000220 e9 9f af 3d 12 6e ce 3d e8 b4 b0 bd bd 6e 75 bd
       0.08575422 0.10079588 -0.08628255 -0.05992006
000230 59 7e 8f 3d c0 72 2f bd 4b 36 02 be c9 ef a7 3d
       0.07006521 -0.042834044 -0.12716024 0.08200032
000240 c0 71 a8 ba 64 9b fb 3c a4 00 cc bd 70 67 20 bd
       -0.0012851283 0.030713744 -0.0996106 -0.039161146
000250 16 46 dc 3d d9 64 b7 3c 16 38 7e 3d 4d 9f 83 3d
       0.10755555 0.022386955 0.062065206 0.064268686
000260 27 3c 73 bc c1 2b 00 be 14 2b 94 bd e7 7c f2 bb
       -0.014845884 -0.12516691 -0.07234779 -0.0074001434
000270 d3 e0 56 3d d1 da 7a bc 44 b6 a3 ba ea 2c 59 3d
       0.052460503 -0.015310959 -0.0012490232 0.05302135
000280 14 a2 2c 3d db a4 81 3d 79 9e ae bd 9e ec 30 bd
       0.042146757 0.06330272 -0.0852632 -0.043194406
000290 86 89 74 bd d4 ba 69 3c 80 ca 47 ba 3e 89 b5 bc
       -0.059701465 0.014265735 -0.00076214224 -0.022160169
0002a0 59 d3 a1 3b 9e 61 37 3d 5d 8d f4 ba 7c 27 07 3d
       0.0049385247 0.04477083 -0.0018657852 0.03299664
0002b0 61 d9 9d bd 6a a8 50 3d 29 cf 19 3e fe a4 08 3d
       -0.07707477 0.050941862 0.15020432 0.033360474
0002c0 db 71 d8 bc ba d3 35 bc d1 5b 03 3d 73 4e bc bc
       -0.026421478 -0.011097843 0.032069985 -0.022986626
0002d0 33 d1 d8 bd 98 12 8f 3d c4 f6 a7 bd f3 62 85 3d
       -0.105867766 0.06985968 -0.08201364 0.06513014
0002e0 7a 9a 84 bd c1 3d 87 3d f8 59 c0 3c 80 39 34 3d
       -0.064747766 0.066035755 0.0234804 0.04400015
0002f0 0a 51 dd bc 78 58 8b bc af d8 dc 3c f5 6b a3 3d
       -0.027016181 -0.017009959 0.026958792 0.079795755
000300 44 c6 93 bc 96 a1 1a 3d 29 56 a5 3d 16 60 1f 3d
       -0.018038876 0.037751757 0.08073074 0.038909994
000310 37 95 06 bd 05 b4 23 bd 24 e6 74 bd ec 50 48 bd
       -0.032857146 -0.039966602 -0.05978979 -0.048905298
000320 f3 80 a4 bc 40 15 c4 3b 00 3a fc 39 05 10 d7 3b
       -0.020081019 0.0059839785 0.000481084 0.006563189
000330 d0 4a 1f bd d1 0b a1 3d 94 86 91 bc dc 3b 8b bc
       -0.038889706 0.07863582 -0.017764367 -0.016996317
000340 50 06 db 3c 60 73 b2 bd be f0 95 3b 08 50 14 bd
       0.026736408 -0.08713412 0.004575818 -0.036209136
000350 7a e9 40 bd e0 33 19 bb 31 90 30 3d 7a 56 05 3d
       -0.04709766 -0.0023376867 0.04310626 0.032553174
000360 8c fb 6c bd 7f 92 f8 3c 6b 57 1a be 0e 9d dd 3c
       -0.05785708 0.030343292 -0.1507241 0.027052429
000370 c4 39 d7 3c d7 7f f9 bc 72 ae 69 3d 5d 4e 35 bc
       0.026272662 -0.030456467 0.05705113 -0.011066047
000380 56 29 21 ba 4a 30 a8 bb 69 9a 43 bd 97 77 32 be
       -0.0006147822 -0.0051327096 -0.04775468 -0.17428432
000390 8c 99 94 bc 86 44 2d 3d b0 1e 71 3d c3 38 cf 3c
       -0.018139623 0.042301677 0.058867157 0.02529562
0003a0 b6 8e 1b be 41 32 a4 3d de cd 48 3d 6b fb 03 3d
       -0.15191159 0.08017398 0.049024455 0.032222193
0003b0 82 f2 3f 3d 33 f6 f4 bc e8 9b 48 3d a3 8d 42 3d
       0.046862133 -0.029902553 0.04897681 0.047498357
0003c0 48 49 30 bd c6 1f 0e 3d 72 87 bf 3b b2 95 32 3d
       -0.043038636 0.03469827 0.0058450038 0.04359979
0003d0 84 c0 b7 bb 60 22 2f bd a6 76 87 bd de b6 0d 3d
       -0.0056076664 -0.042757392 -0.06614427 0.034598224
0003e0 7a 41 47 3d 05 59 fe 3b 1f 41 b5 bc b9 44 90 bd
       0.048646428 0.007762077 -0.022125779 -0.07044358
0003f0 37 41 43 bb 11 ba ac bc 68 c4 8d bd 94 fb ab bd
       -0.002979351 -0.021084817 -0.06922227 -0.08397594

net.4.bias f4 [4]
000000 a6 13 8e 3e 26 d9 a5 3e 95 ec 9a 3e 39 c7 a1 3e
       0.27749366 0.32392234 0.30258623 0.31597307
