Entities/pained_nav.pth (torch, 73785 bytes, 6 tensors)

net.0.weight f4 [128, 4]
00000000: 7996 acbe b49c a93e a6b7 b73e 8ab9 203e
00000010: f3dd 87be 315e 00bf 5de1 4b3d 9dab 9c3e
00000020: 3653 18be 3b85 ba3b de27 2fbe 20d5 7e3e
00000030: c291 6abd a69d 163e 3c38 20be e339 0d3e
00000040: 5f64 47be e45f debe 2351 d13e bd00 843e
00000050: a6c7 f4be 92e7 8bbe e266 e2be b8d0 bcbe
00000060: c088 123c 4cdb 05be 402d 87bd c04a d7be
00000070: 0e5d 08be 1990 5ebd b367 ae3c 8e30 b73e
00000080: 95ba e2be 0e28 763e 821d e1be d1ad 16be
00000090: b067 d83e d6d4 673d 3682 813d a4b6 fabe
000000a0: e2bc 993e d5f8 e1bd e32d d93e 76cf e5bc
000000b0: 7e64 abbe 208d ecbd 6443 5cbe c0ee d43e
000000c0: f89f 8ebd f506 ff3b f09a d93e 58dd 05bf
000000d0: 305d 883d f00f 81be 60dd 313d d420 e4be
000000e0: f885 95be 2cc2 39be 3194 b93e 1a15 8d3e
000000f0: 1bb0 b6be ab35 083e e0c7 113d b88e bcbd
00000100: 20d7 19be d0cc 6dbe c49c 95be a69c c7be
00000110: 24b4 8c3e 5f86 debe 301e 5bbd 61fc ce3e
00000120: 743a 833e b296 c43e e657 ba3e 7e5d 45be
00000130: fb08 febe f090 fbbd 47cb ef3d 9953 1fbe
00000140: 8900 873e bab7 663e e27e f4be 5169 41bd
00000150: 0f14 f1be 1011 3ebe 037c 1a3e ca56 e0be
00000160: badc 2f3d e9b1 50bd fcc0 8e3e 62f3 c2be
00000170: efe3 b6be fd9a 8abe b7ab 483e 4354 983d
00000180: 9cff 5cbe 943d d5be 70d3 313d d46d 96be
00000190: 567f 713e 9466 023e 0ae1 c93e 279f 06be
000001a0: 06bc 8b3e e6b7 a93d 40cb 71be c286 93be
000001b0: 5512 58be 25f6 4cbe d3ce fcbd 721d 693e
000001c0: d10b c33e d6c2 e13e d8b3 19be 7434 253a
000001d0: c8ed b6bd 706a 3cbd a603 ecbe 36f2 a6be
000001e0: 3761 a53c eb7f 973e a2cf 93be 50f8 a93e
000001f0: be8f acbe 5026 0fbd bec2 afbe 60a3 f5be
00000200: 469d c7bc f6ea f3bb 31f1 bf3e a505 cbbe
00000210: ea11 da3e 5d1b 103e f966 a6be 61a5 db3e
00000220: 4653 a5be 6fb5 403a 121b 643e 2f2a 5e3e
00000230: 78df 31be c42b 80be 9a5b e4be 5834 903d
00000240: 50c6 cabd 2ca9 003e 18e9 dcbd 0034 80be
00000250: 80f3 06bd e64a d6be 504d ed3d b4eb e8be
00000260: 02a4 8d3e 68f0 003d 399d 1dbe c5f5 60be
00000270: e6a0 bebe c059 6abe 519d dc3e b1f9 96be
00000280: 985d 1fbf 1ee8 88be 21b9 913e c28c 06bf
00000290: c294 14bf 4047 323e e9e6 0d3e 4d1a b43c
000002a0: 483b f3be bc0c 6e3e 4aa2 b4be e86b 6fbe
000002b0: 5872 e1be 7015 e6be 703e 81be ac0e 17be
000002c0: d954 fd3e 9cf4 99bd 8558 70be 225f 7cbe
000002d0: 5dc8 47bd 5e93 c03e ed66 45be 40a6 02be
000002e0: b437 abbe ab7f a9bd 5cca bbbe b629 053f
000002f0: a4d0 853e b4a9 083d 5493 b53e 0940 50be
00000300: 002c 583c 2c14 5fbe e0f4 75be f8ef babe
00000310: 1441 b7be d485 073d 3912 69be 29df bb3d
00000320: 9711 dc3d 7480 2fbc 3de8 73be ec94 753e
00000330: 41e8 70bd ba0a dc3e a363 73be d68a 403c
00000340: 57b6 e23d cbf8 5e3e cabc 9c3c f7e8 a2be
00000350: 3013 1e3f ce91 de3e 2c1f 123d a1d5 f2be
00000360: 1a85 37be be60 86bb 41bf d9bd 8bd7 1d3e
00000370: 8f68 d13e 126e 61be b906 b93e c19b 34be
00000380: 663d 97be d990 2abe 5f8c df3e a423 c3bd
00000390: 2fc4 1c3e d6ea 61be 7b43 9f3e 7aa6 2c3e
000003a0: 9a7f 293f 9599 b4be fdb9 c33c d88d 8c3e
000003b0: c747 c23e 1ac0 cdbe c98f 58be e800 ed3d
000003c0: f48a 7abe 2b25 4f3e b884 443e 81b1 0fbe
000003d0: 08d2 77be 0000 de36 9896 f6be c089 0ebc
000003e0: cb5f a43d 0f79 ee3e 887b ffbe 3009 cb3e
000003f0: 487c d03d 5a22 a6be 7c4f 79be a8c8 a9bd
-0.33708552 0.33127367 0.358823 0.15695778 -0.2653652 -0.50143725 0.04977547 0.3059968
-0.14875492 0.005692152 -0.17105052 0.24885988 -0.05726791 0.14708576 -0.15646452 0.13791613
-0.19471882 -0.43432534 0.40882215 0.25781813 -0.4780857 -0.27325112 -0.44219118 -0.3687799
0.008943737 -0.13071936 -0.06600428 -0.42049217 -0.13316748 -0.05433664 0.021289682 0.35779232
-0.44282976 0.24038717 -0.43967825 -0.14714743 0.42266607 0.05659946 0.06323664 -0.4896747
0.3002692 -0.11033789 0.4241782 -0.028053027 -0.33475107 -0.11550355 -0.21510082 0.41588402
-0.06964105 0.0077828118 0.4250102 -0.5229087 0.06658399 -0.25207472 0.04342401 -0.44556296
-0.29203773 -0.18140477 0.36245874 0.27555162 -0.35681233 0.13301723 0.035591006 -0.09206909
-0.1502347 -0.23222661 -0.29221165 -0.389867 0.27481186 -0.43461892 -0.053495586 0.40426925
0.25630534 0.3839622 0.36395186 -0.19273946 -0.49616227 -0.12283504 0.11708694 -0.15559234
0.26367596 0.22531024 -0.47753054 -0.04721958 -0.47085616 -0.18561196 0.15086369 -0.43816215
0.04293511 -0.05095092 0.2788161 -0.3807631 -0.35720775 -0.27071372 0.19596754 0.07437947
-0.21581882 -0.41648543 0.043414533 -0.29380667 0.23583731 0.12734443 0.39429504 -0.1314665
0.27291888 0.08287029 -0.2361269 -0.2881375 -0.21100743 -0.20015772 -0.12344136 0.22765139
0.38094953 0.4409396 -0.15010011 0.00063020666 -0.08932072 -0.045999944 -0.46096534 -0.32606667
0.020187957 0.2958978 -0.2886935 0.3319726 -0.33703417 -0.034948647 -0.34328264 -0.47976208
-0.024366986 -0.007443781 0.37488702 -0.39652744 0.42591792 0.14072938 -0.32500437 0.42899612
-0.32290095 0.00073512545 0.22275952 0.2169578 -0.17370403 -0.2503339 -0.44601136 0.07041234
-0.09901106 0.12564534 -0.107866466 -0.25039673 -0.032947063 -0.41854018 0.11587012 -0.45492327
0.2766419 0.03147927 -0.15392007 -0.21968754 -0.3723213 -0.228858 0.43088773 -0.29487374
-0.6225219 -0.2673959 0.28461555 -0.5255853 -0.58039486 0.17409992 0.13857616 0.021985197
-0.47506166 0.23247045 -0.35280067 -0.23381007 -0.4403255 -0.4493823 -0.2524295 -0.1475169
0.49478796 -0.07517359 -0.23471268 -0.24645665 -0.048775066 0.37612432 -0.19277544 -0.12758732
-0.33440936 -0.08276304 -0.36677825 0.5201677 0.26135743 0.033364967 0.35463965 -0.20336927
0.013194084 -0.21785039 -0.24019194 -0.36511207 -0.35791838 0.033086613 -0.22760858 0.09173424
0.107455425 -0.010711778 -0.2381906 0.2398259 -0.058815245 0.42976934 -0.23768477 0.011751851
0.11069935 0.21774594 0.01913299 -0.31818363 0.6174803 0.43470615 0.03567426 -0.4742861
-0.17921868 -0.004100888 -0.10632182 0.15414254 0.40900084 -0.22014645 0.3613794 -0.1763754
-0.2953903 -0.16656817 0.43661782 -0.09528282 0.15309213 -0.22062239 0.3110617 0.16860381
0.6621033 -0.35273424 0.023892397 0.27451968 0.37945387 -0.40185624 -0.211486 0.115724385
-0.24467069 0.20229022 0.19191253 -0.14032556 -0.24201214 6.6161156e-06 -0.4816177 -0.008699834
0.080260836 0.46576735 -0.49898934 0.39655447 0.10179955 -0.32448083 -0.24346727 -0.08290225

net.0.bias f4 [128]
00000000: 05da 06bc 585b 53be 10fb ba3e 1489 a73e
00000010: 6937 ea3d 3c87 92be e0cb 89bd 4536 55bf
00000020: 917c 743c d6ab 243f f25e 133f 81b0 013f
00000030: e94d 023f 288e 81be 0d18 f8bd 55b8 40be
00000040: e852 cb3e 13e6 323e c118 7fbe 4435 a03c
00000050: 3e69 66bf e6a1 933e dd27 863e 8c61 2fbe
00000060: 96c8 c73e ee8c 903e a80c 9abd ffdf 2ebe
00000070: f397 8a3e 5e6b b6be af84 fa3e dec2 f33e
00000080: 110f f8be 7a99 83be 9cb3 38be 00f4 403b
00000090: be64 afbe 0808 553e 43c5 a43f 4cbb c43e
000000a0: 4f80 9e3d 73d8 323e 2447 7bbe 54c7 44be
000000b0: 5528 313d 44eb 80be e605 d4be 3987 f1be
000000c0: 4e13 e2be 80c0 f83e cae8 4abd 2cd3 c23e
000000d0: fd47 89be fb93 1c3f 9f8f c1bd 7b84 343f
000000e0: 92d3 2b3f b473 23bd 4b38 a4be 32cb 9fbe
000000f0: 8203 0ebf 9872 c03e ae66 88bf 2042 803d
00000100: ae72 3c3e 80f2 afbe 206d 4abf b3b8 993e
00000110: f074 54be 7a24 673e 2002 5b3e 0c02 393e
00000120: c2e8 70be f5a3 1bbe 8579 47bf b904 28be
00000130: d18f 243d aa20 b93e 7c15 213d 1a99 cdbe
00000140: bfdd 85be b98f 073f 5e33 f03d 68a2 103f
00000150: d52e c53d 1373 c23d 510a 0e3e 9294 ccbe
00000160: 6a98 a13f 868e 213e 1288 d4bc 3a19 73ba
00000170: ef2d 32bf e47d c93e 1403 8dbe a2e2 853e
00000180: 4885 e8bd a49b d5be 14bd 443e 83c4 073f
00000190: 587f dcbe 249b f93e 004a 213d 4a44 f83e
000001a0: b002 093e e378 29be 04ba 653f ad85 abbe
000001b0: 814d 93bd 2b86 febe dc5e 163f 161c f5be
000001c0: b0a0 5dbe 2e4d e6bc 908c 23bf fb76 983f
000001d0: c26e 4fbe 0204 6fbe c172 aa3c 4834 03be
000001e0: 46df a4bd 5a29 be3e d48f e1bd ec93 253e
000001f0: 6547 13be 03d2 61be 012b b7be 1964 1cbe
-0.008230691 -0.20640314 0.3651967 0.3272177 0.1143635 -0.286188 -0.06728339 -0.83285934
0.014922277 0.643247 0.5756675 0.5065995 0.5090013 -0.2530377 -0.12113962 -0.18820317
0.3971169 0.17470579 -0.24911787 0.019556649 -0.90004337 0.28834456 0.26202288 -0.17127055
0.39020222 0.2823252 -0.07521945 -0.17077635 0.27069053 -0.3562879 0.48929355 0.4760961
-0.48448995 -0.2570303 -0.18037266 0.002944231 -0.34256548 0.20803845 1.28727 0.38424146
0.07739317 0.17465381 -0.24538857 -0.19216663 0.043251354 -0.25179493 -0.4141075 -0.4717348
-0.44155353 0.48584366 -0.04953841 0.38051736 -0.26812735 0.611633 -0.09451222 0.7051465
0.67119706 -0.039905265 -0.32074198 -0.31209713 -0.554741 0.37587428 -1.0656335 0.06262612
0.18403122 -0.343647 -0.7907276 0.30023727 -0.20747733 0.22572508 0.2138753 0.18067187
-0.2352629 -0.15199263 -0.779198 -0.16408052 0.040176217 0.36157733 0.03932713 -0.4015587
-0.2614574 0.5295368 0.117285475 0.5649781 0.09628073 0.09494605 0.13871123 -0.399571
1.2624638 0.15777025 -0.02594379 -0.00092734734 -0.6960134 0.3935386 -0.2754141 0.2614947
-0.113535464 -0.41720307 0.19212753 0.5303423 -0.43065906 0.48751175 0.039377213 0.484896
0.13379931 -0.16550021 0.8973696 -0.33500424 -0.07192517 -0.49711737 0.58738494 -0.4787299
-0.21643329 -0.028112974 -0.63886356 1.191131 -0.20257095 -0.23341373 0.020806672 -0.12812912
-0.080503985 0.37140924 -0.11013761 0.16169709 -0.14382704 -0.2205277 -0.35774997 -0.15272559

net.2.weight f4 [128, 128]
00000000: 3a6d 13bb d503 083d 8c51 663d fefb fbba
00000010: 7a93 98bd 3108 8a3d 44cf a8bc 9be6 553d
00000020: cb4a 3ebb d55d 223d 1e70 a43d 3bc7 363d
00000030: 388c ff3c 1a21 2c3d ea9c a83c f446 9c3d
00000040: d22b 7d3d ef6b 9dbc 384c 1a3d 3014 9fbd
00000050: 504c 86bd 00d1 8f3b 47cd 8fbc 9b71 6d3d
00000060: a4f4 0a3d 3cff 3e3d d6d5 84bd f197 2d3d
00000070: 378c 70bd 40c6 85bb b807 7b3d 5471 65bd
00000080: eae8 a9bd 72f9 fdba 9a72 b5bc cc86 023d
00000090: 4c16 9a3c 0553 50bd 0989 9dbd fe2a a73c
000000a0: 756d 3e3d a1e9 89bd 7c51 b8bc cedd fdbc
000000b0: a81f 31bc a867 a1bd 94e2 d0bb e522 76bd
000000c0: 7fa9 ac3d 3ceb a33d 2536 4ebc 667a 8cbc
000000d0: 843f 523d d78a 52bd 2b28 313d 82a7 d43c
000000e0: ebd8 2fbd ad29 2e3b 2b0e 0dbd 9eed fa3c
000000f0: d445 5b3d 90ed 733c f5ca c73c 18ec 9bbc
00000100: 05d0 bb3c c412 043d 697f 74bc 89b9 fd3c
00000110: dda4 aa3d b428 b5bc c195 423c ab90 9d3d
00000120: ac1a cc3a fcff 0b3d 46ce 073d c5ce ecbc
00000130: d5ae 703c ab15 9abd c36e 723d 8e85 c1bc
00000140: e4a6 d93c eaab a5bd e31f 343d 53d8 533c
00000150: ceeb a93c a944 4dbb 8699 2abd d84b f73c
00000160: 86b1 56bd f1aa c5bd 3bce 41bd 958f a1bd
00000170: cc9b e8bc 8f74 fdbc d628 713d 6b61 153d
00000180: e078 8dbd 6dd6 863d 9e55 753d 91e8 43bd
00000190: 1b95 bc3c 8215 8cbd f4ea 8c3c 80a6 dfbc
000001a0: 8caf 81bc 2b84 5fbd e337 df3b dc62 38bd
000001b0: 39f1 5abd 3bff f9ba aa9d 143e c7c3 b43d
000001c0: 70fb 123c 3e8f c63d 8f28 c2bd 93f7 9a3d
000001d0: 8075 7abd 0c3c 8dbd 149e e23a a0f9 6b3c
000001e0: 3c32 a23c 6432 933d d658 dd3c 8b04 94bd
000001f0: 8352 bbbd 3d98 80bd 4867 25bd 8f9d 1d3d
00000200: 5036 61bb 2992 d73c 51f7 c1bd 6ccb 91bd
00000210: 37f2 453d 67f5 853d dd22 a4bd d597 1c3d
00000220: 9a6f a5bd 0613 163d 351a 62bc 3369 b4bd
00000230: 9b98 acbd 8ad9 71bd e8ce ba3c 7e06 f9bb
00000240: 009b ef3a 4d4c 7b3d 6f12 03bd 2170 9e3b
00000250: 29cf b7bb 3697 a9bd 7aa2 8f3c 1d94 babd
00000260: c1bf 55bd 356d 943d e4de db3c be15 57ba
00000270: 58bf 6cbd ff82 843d 870e 193d d8b0 fb3c
00000280: 522e ca3c faa7 a7bd 62d7 5dbc b496 e33c
00000290: 255d a6bd d887 10bc a088 7ebc 24a5 46bd
000002a0: d4b8 833b d440 d43c b166 92bd 0e32 9dbd
000002b0: 18d1 503d 0770 92bd 91f0 ffbc bf09 78bc
000002c0: 1845 b6bc 3d9c 8b3d 0407 813d 9f6d 853b
000002d0: c0e5 4fbc 90e2 29bd 7506 48bd 3ea2 233d
000002e0: e825 0bbd e2a9 bb39 d24e 14bd ba6f 083d
000002f0: 4fdd 17bd 2683 7e3d 9507 12bd ccc6 023d
00000300: 3f4b 99bd afac a23c 35d9 2f3d d432 79bd
00000310: 70b8 023d a2ca 963d 67a1 b13d c6de a1bd
00000320: 4b90 163b 118a 863d 9a0e 67bc 5832 893c
00000330: 950a a13d 34d9 cf3c f80a e5bb dca2 a4ba
00000340: 2d06 c9bd e601 65bd 381b 9cbd 5ee0 63bd
00000350: 6e69 5a3b 70cb 873d 222f 833d 70ee 8dbd
00000360: a568 c4bc c008 963c b88f 2dbb c45f a9bc
00000370: e8f8 403d 78fa 2fbd dd8a 893d 3668 ac3c
00000380: e685 5f3d 4310 3ebd a0fa ca3c e6a1 54bd
00000390: 6388 8cbd 43b8 27bd a96f ab3d c072 cf3b
000003a0: 0006 1b3c 57bc cf3b b1d7 40bd 9ded 0fbd
000003b0: 0c9c 483d 881f 343d 25c5 9f3d 72fc 5bbd
000003c0: 63c3 873d b486 99bd c978 c5bd 7d24 3ebd
000003d0: 33b7 333d 70f4 4e3d 8f63 843d 88c2 f33c
000003e0: 363a 633d 7fce cc3c 2649 f3bc ce75 713d
000003f0: 3090 79bd 5d4f 53bd fb73 05bb 8265 e0bc
-0.0022495524 0.03320678 0.056230113 -0.001922488 -0.07450004 0.06739844 -0.020606644 0.052221876
-0.002903628 0.039640266 0.08029197 0.044623595 0.031194791 0.042023756 0.020582635 0.07630721
0.06180937 -0.019216506 0.037670344 -0.07767522 -0.06557524 0.0043889284 -0.017553939 0.05796967
0.033924714 0.04663013 -0.064860985 0.04238123 -0.05872747 -0.004082471 0.061286658 -0.05601628
-0.08296378 -0.0019376709 -0.022149373 0.031866834 0.01880946 -0.050860424 -0.07692153 0.020406242
0.046491105 -0.06734014 -0.022499792 -0.030989554 -0.01081077 -0.07881099 -0.0063746665 -0.06009187
0.08430766 0.08003852 -0.012586151 -0.017148208 0.051330104 -0.05140194 0.043251198 0.02595878
-0.04293148 0.0026575134 -0.03443734 0.030630883 0.05353339 0.014888182 0.02438877 -0.019033477
0.02292634 0.03224446 -0.014922955 0.03097226 0.083322264 -0.022114135 0.011876524 0.07693609
0.0015571914 0.034179673 0.033155702 -0.02890719 0.014690121 -0.07523664 0.05918766 -0.023623254
0.026568837 -0.08089431 0.043975722 0.012929994 0.020742323 -0.0031321442 -0.041650318 0.030187532
-0.052415393 -0.09651745 -0.047315817 -0.07888714 -0.028394602 -0.030939369 0.058876835 0.03646986
-0.06907821 0.06583867 0.059896104 -0.047829214 0.023020318 -0.0684004 0.017201878 -0.027301073
-0.015830778 -0.054569405 0.006812082 -0.045016155 -0.053452704 -0.0019073257 0.14513269 0.08826404
0.00897108 0.0969529 -0.09480392 0.07566752 -0.061147213 -0.06896219 0.0017289543 0.014402777
0.019799344 0.071873456 0.0270199 -0.07227429 -0.09146597 -0.06279037 -0.0403817 0.038480338
-0.0034364648 0.026314812 -0.09471 -0.07118878 0.048326697 0.065409474 -0.08014462 0.038230736
-0.08077927 0.036639236 -0.013800194 -0.08809128 -0.08427545 -0.059045352 0.022803739 -0.007599651
0.0018280447 0.061352063 -0.032 0.004835144 -0.005609412 -0.08280794 0.01753353 -0.091102816
-0.052184824 0.07247392 0.026839681 -0.0008204839 -0.057799667 0.06470298 0.03736737 0.030723974
0.02468029 -0.08186336 -0.013540121 0.027781822 -0.08123235 -0.00882145 -0.015535504 -0.048497334
0.004019836 0.025909819 -0.07148493 -0.07675563 0.050980657 -0.07150274 -0.03124264 -0.015139042
-0.022249743 0.068169095 0.06300166 0.0040719057 -0.012689054 -0.041475832 -0.048834283 0.039949648
-0.033971697 0.00035793992 -0.03620798 0.033309676 -0.03707629 0.06213679 -0.035651762 0.03192787
-0.07485055 0.019857733 0.042931754 -0.06083949 0.031914175 0.07362868 0.08673363 -0.07903819
0.002297419 0.06569303 -0.014102602 0.016747639 0.078633465 0.025372125 -0.006989833 -0.0012560743
-0.09815631 -0.055910014 -0.07622379 -0.055633895 0.0033327 0.066305995 0.06405474 -0.06930244
-0.02397568 0.01831472 -0.0026483368 -0.020675547 0.047112375 -0.042963475 0.06715939 0.021045785
0.054571055 -0.046402227 0.02477771 -0.05191221 -0.06861951 -0.04094721 0.08370907 0.006330818
0.00946188 0.0063395905 -0.0470807 -0.035138715 0.048976943 0.043975383 0.07801274 -0.053707547
0.06629064 -0.07496396 -0.096421786 -0.046421517 0.043875884 0.050526083 0.06464302 0.029755846
0.055475436 0.025000809 -0.029697966 0.058950238 -0.060928524 -0.05158936 -0.002036332 -0.027392153

net.2.bias f4 [128]
00000000: e8b9 ca3c 3d35 023c 349d 823d decc 07bf
00000010: d85d 02bb cfe6 fabd 2ed4 1c3d a70c ab3d
00000020: 45c0 3d3d a065 aa3d ff4d bf3d 4488 4a3f
00000030: b2e6 b4bc 653b 9c3c 78f3 7b3e 3e0a a5bd
00000040: 90ae a2bc d7b5 583e 820c af3d 064f 1a3c
00000050: 66f4 e63c 61fc dcba 8a78 d73c 2e0e a6bd
00000060: 0a72 0a3e 09b1 963d 5094 733e 807b 673f
00000070: 3725 47bf f05b 2fbd ed6e 3abd b2d5 d4bd
00000080: 173f d3bc 153d c1bc 5890 e13d a03c 863d
00000090: cb78 44be 8d6c 18bd 1d10 7339 09d2 c1bd
000000a0: 80f9 91bc 101c 953e 3b5e 123f 97bd 083c
000000b0: 550c 6a3e 10b7 a33e 50cd 0ebf 9efe 503f
000000c0: 27d1 733d 5abb 503d e156 933d a35b 373d
000000d0: 132c c2bc adda 6a3d 5b3a 03bd 6bb2 8b3d
000000e0: 00b0 a23d f5d7 a03d 0da3 7b3d 7004 14bd
000000f0: 5da6 e9bd 8aa6 7a3c fcf7 ae3c 10dd 093f
00000100: 0c20 9c3d b942 723d 33f5 0dbe bcb4 28bd
00000110: 948e 4abd b729 1e3f 90d5 f9bc 304d e53c
00000120: 0d79 3f3e 042f 12be f114 82bd 08f9 ed3d
00000130: 46db 1fbd 5d33 bc3e 88e4 7a3c fd17 de3d
00000140: d8dc 393d 1a1b a53d 2f72 8c3d c065 6dbc
00000150: 43ce b63c ca69 283d 39c4 413e e69d ce3e
00000160: d124 1e3d 06d1 823d 3cdf 07be 6188 24bf
00000170: a747 a63d df48 70bd 45e1 223e 4dff 5f3a
00000180: 76f6 d43e 9a33 093d 1b2f 483e 9a10 97bd
00000190: 1c01 57bd 5fdc 813e 5ccd 233f 436d da3d
000001a0: 95fb 6a3c adc5 843d 288b 1d3e 7133 78bd
000001b0: 002d ca3a 4ba4 b33c ab8b dbbc e33b 64bd
000001c0: ca34 73bd c277 c2bc 92ca aebd c460 493d
000001d0: 23f7 d23e 9715 913c 978d 093d b67a 163d
000001e0: 6db7 c23d 24ad c6bc 2a2e 343e 2d9a 983d
000001f0: b67c 783b 1d62 4ebd 6d82 00bd 451b a03c
0.02474685 0.007947263 0.0637764 -0.5304698 -0.001989236 -0.122510545 0.038288288 0.083520226
0.04632594 0.08320165 0.093410484 0.79114175 -0.02208266 0.01907129 0.24604595 -0.08058594
-0.019858629 0.21163116 0.085473076 0.009418255 0.02819271 -0.0016859883 0.026302595 -0.08108173
0.13520065 0.073579855 0.23787045 0.9042282 -0.7779116 -0.042812288 -0.045515943 -0.10392322
-0.02578692 -0.023588696 0.110138595 0.06554532 -0.19186704 -0.037212897 0.00023180289 -0.09463889
-0.017819166 0.29122972 0.57175034 0.008345983 0.22856267 0.31975603 -0.5578203 0.81638515
0.059525635 0.050959922 0.07194305 0.044765126 -0.023702657 0.05733745 -0.032038074 0.0682114
0.079437256 0.078536905 0.061434794 -0.036137044 -0.114086844 0.015298495 0.021358483 0.5385294
0.076233 0.059145663 -0.13863067 -0.041187987 -0.04945238 0.617824 -0.030497342 0.027990907
0.18698521 -0.14275748 -0.063516505 0.116197646 -0.039027475 0.36757937 0.015313275 0.10844419
0.04537663 0.0806181 0.06857716 -0.014489591 0.02231515 0.041116513 0.18922509 0.40354842
0.03860933 0.06387524 -0.13268751 -0.642706 0.08119135 -0.058663245 0.15906246 0.00085448177
0.41594285 0.033496477 0.1954922 -0.07376213 -0.052491292 0.25363442 0.6398523 0.10665371
0.014342208 0.06483016 0.15385115 -0.060595933 0.0015424788 0.021928927 -0.026799997 -0.055721175
-0.059376515 -0.023738746 -0.08534731 0.04916455 0.41204175 0.01771049 0.033582296 0.03673812
0.09507642 -0.024252482 0.17595735 0.07451282 0.003791613 -0.050386537 -0.031374384 0.019544253

net.4.weight f4 [4, 128]
00000000: ece9 a9bc 8ccc ea3c 4871 61bc 19a6 08bd
00000010: f0f2 ac3d f403 fe3a c7fd a4ba 90c3 8d3d
00000020: 3a88 31bc a88e 2dbd b36d 8abc a1c8 3b3d
00000030: 5bf8 08bc 293f 863d 743d 803d 8184 a73d
00000040: 2885 b8bb e750 b7bb 179c 3dbc 45bc 3fbc
00000050: fbd0 0b3d a5b8 b7bc b881 033c 8583 883d
00000060: a429 e63a d3ea 4cbd 509b 00bc 3190 11bc
00000070: 6727 26be ec77 e63c 9a38 31bb 667f 463c
00000080: f4b6 3e3d e2f3 7fbb 9aa0 e5ba 3487 6bbc
00000090: 4636 0d3c fe2e 533d 2045 0c3b 5825 a43c
000000a0: 6f33 9dbd 7323 bf3c 9a92 c93c f46f 4f3c
000000b0: 1e2a 043c d0e1 9e3c e08d d8bb 5dc5 023b
000000c0: 105b 453c 8cd3 f33c 738b 843d 0078 76bc
000000d0: 2d35 7dbb 099c c73c 0b91 b03d 3bfb 46bd
000000e0: fbd0 923d bcb1 4d3c 1306 44bd d37f 80bb
000000f0: 88f2 ce3a 5cc1 773d 12f1 1cbd 178b d3b9
00000100: d57d 4b3d 30d0 cb3c 858b e33c ab7e 123c
00000110: a704 46bd 465f b7bc 20af 81bc b523 543b
00000120: e38d 063d 97c6 91bc f927 04bc f7e3 4bbb
00000130: 06a3 1e3d 37e1 243d 3898 b53c 532b 8c3c
00000140: c654 18bc f2a3 4a3d 5c13 9bbc 05d2 a0bd
00000150: eb69 423d fdc2 d83c d99f fb3b 7b1c 293d
00000160: eb07 a43d 1375 30bc 2f7b 5cbc a5f8 2dbe
00000170: d76d 81bb 784c 703c 0101 943d f29f 483d
00000180: 0ec2 d6ba 105b 99bb 8e50 673d 6b59 2abc
00000190: 4275 0b3c f0ef 573d 544c cabd 2e8f 36ba
000001a0: b313 1a3b c4fc 78bc 8433 17bc c610 ebbc
000001b0: 10de 1cbd fbe1 aabd a2df 8a3b 67ae acbc
000001c0: 1791 113d a635 743c 848e e0bc ef56 9e3d
000001d0: 6079 78bd 2ca1 453a 78c1 ba3b 8475 56bd
000001e0: 8559 e93a 0d00 973d a39e e43c d757 263d
000001f0: 65e6 41bd 72ce d63c 6ab0 a6bd f735 40bc
00000200: 2b31 2eba 36b4 5fbc 3b8a 9c3c db09 03bd
00000210: 7080 84ba b300 ccba cb20 aa3c 48e7 36bc
00000220: f8d9 e2bc 848e c4bc 1271 cc3b 04b6 ddba
00000230: 0830 dfbb a948 113c e910 e5ba b61b 233d
00000240: eb3a 97bb 679e 6abe ccf6 033d 51aa 93bc
00000250: 0d04 4b3c cf12 06bc bb29 14bc 7133 05bd
00000260: 4233 27b9 00dd f33a e76b 493b 9bcb 55bb
00000270: d455 b3bd 409e 1d3d e83b 403d 47b7 3e3e
00000280: b936 253d 6be5 a3bb 1530 d63b 9773 5ebd
00000290: f5e0 2dbc 31b8 2cbd 17b9 96bd 8407 163e
000002a0: 08a5 973d 2f24 ac3d b283 133d 2a25 7db9
000002b0: 7ac6 13bb 29c7 3c3c 5550 0fbd 37b1 11bc
000002c0: a595 a8bd a41f 2b3d 2b8f 8b3d 3913 08bd
000002d0: 37fb 86bd d7e6 93bc 62ba 163d 688b 8ebd
000002e0: ce26 0ebc cb39 a8bd 3777 2a3c 794b 7f3c
000002f0: 29bd 833b c494 8dbc d0ec 23bd 837f 0fbd
00000300: a6e0 86bc 60c4 01bb c152 a43c 908b 233c
00000310: 2a8d 80bd bbd4 473c cdd2 863d cd94 843c
00000320: 4f94 f4bb 28de a039 3218 643d 698d c33b
00000330: 2c0e 3abd 9a35 7b3c 164f 6cbd 0d47 7cbe
00000340: 7589 bcbb b6e8 55bd 6da6 3cbc 07f3 893d
00000350: e1ed 3ebc 8f8f a3bd a108 383b b1b5 29be
00000360: 4234 23bd 26d5 923b 79f3 44bb b00d 26be
00000370: 3b45 0abc a7e4 bcbc 352c 9a3d d603 15bd
00000380: 3a83 bf3c f069 da3c cc6f a63b 5371 9fbd
00000390: d902 273c f2f8 8d3d 9e07 8bbd 0b0f 4abc
000003a0: 6fe1 d6bc dcf9 2c3e 18e2 133b f5cd a43d
000003b0: 2a57 2d3d 63a7 99bc eb53 d7bc 8903 c73c
000003c0: 5b80 2dbd 5cdc 003d b2c5 023d d14d adbc
000003d0: 757f 89bc 4e61 bd3c 3ca3 fa3c 8888 d63d
000003e0: 129c 573d 5c46 9ebc 2295 123d 4f51 64bd
000003f0: 56a8 a3bc 373a 843d 808f 3a3c 4418 52bc
-0.020741425 0.028661989 -0.0137599185 -0.033361528 0.08444774 0.001937984 -0.0012587839 0.06922066
-0.010835702 -0.042372376 -0.016898012 0.04584563 -0.008359994 0.065550156 0.06261721 0.0817957
-0.005631108 -0.005594361 -0.011572859 -0.011702602 0.034134846 -0.022426913 0.008026533 0.0666571
0.0017560017 -0.050028633 -0.007849529 -0.008884476 -0.16225968 0.028133355 -0.0027041794 0.012115335
0.046561196 -0.0039055278 -0.0017519176 -0.014375497 0.008618897 0.051558487 0.0021403506 0.020037338
-0.07675826 0.023332333 0.024606038 0.012660969 0.008066682 0.019394785 -0.0066087097 0.0019954063
0.012045637 0.02976396 0.0647191 -0.015043259 -0.0038636432 0.024366396 0.08621415 -0.048579436
0.07168766 0.012554582 -0.047857355 -0.003921488 0.0015788833 0.060487136 -0.03831584 -0.00040348686
0.04968055 0.024879545 0.027776489 0.008941333 -0.04834428 -0.022384297 -0.015830576 0.0032369916
0.032850157 -0.01779489 -0.008066171 -0.003111122 0.03872969 0.040253844 0.02216731 0.017110502
-0.009297555 0.049472757 -0.01893013 -0.07852558 0.047464292 0.026460165 0.0076789674 0.041286927
0.08009323 -0.0107701 -0.013457104 -0.16989382 -0.0039498615 0.014666669 0.07226754 0.04898066
-0.0016384737 -0.004680045 0.056473307 -0.0103972955 0.008511843 0.052719057 -0.0987784 -0.00069640845
0.0023510277 -0.015196983 -0.009228591 -0.028694522 -0.038297713 -0.083438836 0.004238085 -0.021079255
0.03553876 0.014905369 -0.027411707 0.07731425 -0.060662627 0.000753897 0.005699333 -0.052358165
0.0017803168 0.073730566 0.027907675 0.040611114 -0.047338862 0.026221488 -0.08139117 -0.011731616
-0.00066449 -0.0136538055 0.019108882 -0.03199182 -0.0010109078 -0.0015564173 0.02076759 -0.01116354
-0.027691826 -0.023993738 0.006239065 -0.0016915207 -0.0068111457 0.008867421 -0.0017476353 0.03982135
-0.004615178 -0.22911988 0.032217786 -0.01802555 0.0123911025 -0.008183195 -0.009043152 -0.03251976
-0.00015945456 0.0018605292 0.003073448 -0.003262258 -0.08756605 0.038480997 0.04693213 0.18624602
0.04033539 -0.005001714 0.0065364935 -0.054309454 -0.010612716 -0.042167846 -0.07359522 0.14651304
0.07404524 0.08405339 0.036014266 -0.00024141805 -0.0022548721 0.011522093 -0.03498872 -0.008892349
-0.082316674 0.04177822 0.068144165 -0.033221457 -0.06590884 -0.018054409 0.036798842 -0.069601834
-0.008676244 -0.08214148 0.0104044 0.015581959 0.0040203524 -0.017282851 -0.040020764 -0.035033714
-0.016464543 -0.0019800887 0.020058991 0.009982005 -0.06276925 0.012196715 0.06583176 0.016184235
-0.007463969 0.00030683097 0.055687137 0.005967785 -0.04542367 0.015332604 -0.05769261 -0.24636479
-0.005753691 -0.052223884 -0.011514288 0.06735807 -0.011653394 -0.07986366 0.0028081315 -0.16573216
-0.03984476 0.0044809757 -0.0030052348 -0.16216159 -0.008439357 -0.023058249 0.07527963 -0.03638061
0.023378003 0.026661843 0.005079245 -0.07785287 0.01019355 0.06932248 -0.06788562 -0.012332688
-0.026230542 0.16892189 0.0022565182 0.08047096 0.042319454 -0.018756574 -0.026285132 0.024293678
-0.042358737 0.03146015 0.03192682 -0.02115527 -0.016784409 0.023117688 0.030595414 0.1047526
0.052639075 -0.01932066 0.035786755 -0.055741604 -0.01997773 0.06456416 0.011386752 -0.012823168

net.4.bias f4 [4]
00000000: 807a 903e 451f 123e 8831 493e 505b 333e
0.2821846 0.14269741 0.19647801 0.17515302
