Entities/pained_rep.pth (torch, 78905 bytes, 6 tensors)

net.0.weight f4 [128, 9]
0.0992825 0.138049 0.13027263 0.2348434 -0.32286736 -0.1577801 0.27783468 -0.21879499
-0.16399452 0.140134 0.17174819 -0.25592446 -0.2884239 0.18833116 0.31521747 -0.2054654
-0.22088513 -0.26874614 0.11558381 -0.23643999 -0.06906435 0.29169837 -0.19642279 0.042568654
0.2407898 -0.065935016 0.111566216 -0.2422164 -0.30615896 0.25449386 -0.15858936 0.091808766
-0.24939796 0.2811909 0.019019932 -0.15902472 0.121445864 -0.20827076 -0.15253076 -0.19098473
0.014880985 -0.22582456 0.018732041 0.23774037 0.14915013 0.2849535 0.021776587 -0.22889023
-0.21334295 0.122446746 -0.110300824 0.21450654 -0.17945711 0.17423621 0.20548633 0.18282935
-0.28811073 -0.27754265 0.15174606 0.11535025 -0.16719437 -0.10704307 -0.17935884 0.23565546
-0.12442605 -0.15843233 -0.12540135 0.17557147 0.10859656 0.17940268 -0.009667963 0.0032577813
0.020165533 0.07288396 0.2771277 -0.30049002 0.20006785 0.10967624 -0.08163759 0.22649285
-0.2668137 -0.087210774 -0.03619182 0.16832462 -0.1602796 0.14973512 0.26475784 0.2893785
0.26661775 0.07030168 -0.19645123 -0.2999576 -0.094359085 0.28606543 -0.29076636 -0.07400456
0.25869945 -0.12863716 -0.2712751 0.07386264 0.0025639832 0.05695772 0.025261194 -0.15969726
-0.14897554 0.28816715 0.15727088 -0.2602083 0.30323532 -0.20562379 0.053077847 -0.14600913
-0.08205989 0.27151707 0.07281354 -0.15869658 -0.17691891 -0.3264676 0.19037297 -0.19563846
-0.3049056 0.32150003 0.1070582 0.1013242 0.18176016 0.016827136 0.18409082 0.0024417937
0.25761023 0.017737716 -0.2711104 0.04446581 0.06320059 -0.09391825 -0.3030183 0.05225596
0.123212665 -0.122401446 0.23452297 -0.14408338 -0.2490232 -0.004539758 0.11363602 -0.29138613
-0.3020574 -0.24778359 -0.06323147 -0.14828138 -0.18534744 -0.15614566 0.24652997 0.03315863
0.020404607 -0.10230319 -0.18271713 0.07449636 -0.12890923 -0.09771292 -0.06360102 -0.2693598
-0.21539664 0.18546966 0.13140574 -0.18222308 0.16738358 -0.23271982 0.32607546 -0.122324035
0.26131824 0.14908579 -0.09518087 0.0933989 -0.23619378 -0.19109651 0.12696862 -0.17772457
-0.090149164 0.32134965 -0.31638116 -0.16232774 -0.2053119 -0.08112383 -0.23770723 0.14020213
-0.2873075 0.3057513 0.14651713 -0.28916213 -0.31239784 0.30769983 0.09603611 0.06698951
0.2755824 -0.014293283 -0.2412378 0.05227825 0.028764099 0.16087985 0.28635374 -0.2014095
-0.27955925 -0.3137258 -0.26904714 -0.20753431 0.2748094 -0.17098293 -0.29664463 0.29900065
0.26342073 -0.15559244 -0.30196184 0.059170157 0.05085814 0.1275295 0.27355376 -0.21035767
0.3095601 -0.23607175 0.101780504 0.0059220493 -0.16311955 -0.2438827 -0.24128787 0.214484
-0.16445605 -0.14048263 -0.05708754 -0.028724521 0.30698445 -0.004653603 -0.3032816 0.31846365
-0.28706878 -0.33216476 0.27698067 0.22866556 -0.09612088 -0.11956863 -0.051781446 0.10407162
0.31792524 0.051598877 -0.2634369 -0.041663527 -0.19670042 -0.2934706 -0.10663268 -0.101315856
0.30294582 0.16560102 0.15825737 -0.16621923 -0.04124239 0.16042149 0.25517294 -0.056504816
00000000: a054 cb3d b85c 0d3e 3066 053e ca7a 703e
00000010: df4e a5be 1b91 21be 5940 8e3e cb0b 60be
00000020: 2eee 27be 4a7f 0f3e c2de 2f3e 8808 83be
00000030: 4cac 93be e2d9 403e 2f64 a13e 8665 52be
00000040: b62f 62be 1899 89be 34b7 ec3d 531d 72be
00000050: 9c71 8dbd 7d59 953e 0e23 49be 785c 2e3d
00000060: 9a91 763e f008 87bd d47c e43d 9307 78be
00000070: dec0 9cbe 054d 823e 4065 22be 3c06 bc3d
00000080: 2e62 7fbe 41f8 8f3e b0cf 9b3c 60d7 22be
00000090: 9cb8 f83d ee44 55be 0631 1cbe 8091 43be
000000a0: 60cf 733c 8e3e 67be f073 993c 3672 733e
000000b0: d0ba 183e 6de5 913e d064 b23c 3362 6abe
000000c0: 9376 5abe 5cc5 fa3d 66e5 e1bd 9aa7 5b3e
000000d0: 9bc3 37be fa6a 323e 026b 523e 9e37 3b3e
000000e0: 4083 93be 121a 8ebe 5263 1b3e c03c ec3d
000000f0: 0035 2bbe 6639 dbbd d8a9 37be aa4f 713e
00000100: 16d3 febd 163c 22be 3669 00be 02c9 333e
00000110: e067 de3d 56b5 373e 6066 1ebc 8080 553b
00000120: 3032 a53c 3044 953d afe3 8d3e d4d9 99be
00000130: 96de 4c3e f09d e03d 9c31 a7bd beed 673e
00000140: ce9b 88be 909b b2bd e03d 14bd 4a5d 2c3e
00000150: 5620 24be 2a54 193e 578e 873e 6b29 943e
00000160: 1f82 883e 54fa 8f3d 832a 49be 0b94 99be
00000170: 563f c1bd 2b77 923e 54df 94be b48f 97bd
00000180: 4174 843e 76b9 03be 92e4 8abe 4c45 973d
00000190: 8008 283b 804c 693d 90f0 ce3c ae87 23be
000001a0: 0b8d 18be a58a 933e 9e0b 213e 063a 85be
000001b0: a941 9b3e 0b8f 52be 2868 593d 6b83 15be
000001c0: 040f a8bd 4904 8b3e 441f 953d 5b81 22be
000001d0: 3b2a 35be c326 a7be 22f1 423e 7355 48be
000001e0: 961c 9cbe a79b a43e 5441 db3d 1083 cf3d
000001f0: 561f 3a3e 10d9 893c 4e82 3c3e 8006 203b
00000200: 7de5 833e b04e 913c fbce 8abe c821 363d
00000210: 506f 813d 3658 c0bd 3725 9bbe 580a 563d
00000220: ec56 fc3d 9cad fabd ca26 703e 988a 13be
00000230: f0ff 7ebe 40c2 94bb 00ba e83d 9030 95be
00000240: 44a7 9abe fbba 7dbe 807f 81bd 13d7 17be
00000250: b8cb 3dbe a6e4 1fbe 5a72 7c3e 58d1 073d
00000260: 9027 a73c 5684 d1bd 331a 3bbe 8c91 983d
00000270: c800 04be b61d c8bd 4041 82bd 87e9 89be
00000280: f090 5cbe c2eb 3d3e 3a8f 063e b098 3abe
00000290: 9a66 2b3e 1b4e 6ebe 5df3 a63e 0685 fabd
000002a0: 81cb 853e f2a9 183e 30ee c2bd ec47 bf3d
000002b0: c8dc 71be ceae 43be 1004 023e 6efd 35be
000002c0: 20a0 b8bd f187 a43e b6fc a1be 3e39 26be
000002d0: 483d 52be 4024 a6bd 8669 73be 2691 0f3e
000002e0: f819 93be 6f8b 9c3e 9608 163e 0f0d 94be
000002f0: 9cf2 9fbe d58a 9d3e 94ae c43d cc31 893d
00000300: 2319 8d3e 602e 6abc 0b07 77be b821 563d
00000310: b0a2 eb3c b0bd 243e f59c 923e 4b3e 4ebe
00000320: 6422 8fbe aba0 a0be 8cc0 89be e083 54be
00000330: d1b3 8c3e 2616 2fbe cee1 97be 9d16 993e
00000340: 15df 863e a053 1fbe be9a 9abe 685c 723d
00000350: a050 503d 1897 023e 3d0f 8c3e 0068 57be
00000360: a97e 9e3e cbbc 71be 4c72 d03d c00d c23b
00000370: d008 27be 63bc 79be 2b14 77be b2a1 5b3e
00000380: 2b67 28be aeda 0fbe a0d4 69bd b04f ebbc
00000390: 112d 9d3e 407d 98bb ba47 9bbe ab0d a33e
000003a0: aefa 92be 8011 aabe 69d0 8d3e 4e27 6a3e
000003b0: 06db c4bd 66e0 f4bd c818 54bd 8023 d53d
000003c0: 19c7 a23e 5859 533d 34e1 86be 60a7 2abd
000003d0: d66b 49be c741 96be 3c62 dabd b07e cfbd
000003e0: b71b 9b3e 5093 293e 380e 223e 6035 2abe
000003f0: c8ed 28bd 8845 243e 07a6 823e 9871 67bd

net.0.bias f4 [128]
-0.17727578 0.2915875 -0.18725054 -0.12801549 0.2578651 0.14381269 0.017454147 -0.1472317
0.24682549 0.13753358 0.09736073 0.27997926 0.32721832 0.0667555 0.29646495 -0.2136024
0.2528167 -0.14571767 0.28089532 0.20253322 -0.10276286 -0.30619162 0.25608733 0.06934497
0.12771389 0.2634571 -0.26596376 -0.059197992 0.2148067 0.121183276 -0.31426942 0.12374893
0.2770547 -0.29320115 0.19831678 0.21998385 -0.09288101 -0.3064844 -0.2158889 -0.21539423
-0.14627807 -0.13553989 0.17486152 0.03759134 0.002973348 0.16650537 -0.12570688 -0.102461934
0.15662861 -0.32713354 0.11042181 -0.054544598 -0.1667665 -0.15990734 0.09221205 0.038350344
-0.1443628 0.0023952425 0.32061622 -0.29833615 -0.19720373 -0.064444214 0.08845115 0.108603865
-0.30336735 0.00993076 0.13356829 0.13402128 -0.15728633 0.0047982037 0.124937415 -0.07415393
-0.3277992 0.08757508 0.06592703 0.044718236 0.26209524 0.28463283 -0.22579777 0.21027729
-0.21279125 0.10834393 -0.0675039 0.112769455 0.04551956 0.07850242 -0.081644386 0.16423067
0.14719328 -0.11106312 -0.3184644 0.0879761 -0.33075547 0.043085337 -0.16020839 -0.09936997
-0.2037445 -0.16527645 -0.27257156 0.14612928 -0.00084745884 0.28752932 -0.07033205 -0.12984344
0.17059472 -0.019498438 -0.23487894 0.3029565 -0.29708773 0.048765182 -0.15510821 -0.0147461
0.28751817 0.18319884 0.2492691 0.16830412 -0.16240823 0.05624914 -0.03565681 -0.06220746
0.08769381 -0.09067881 0.28270718 -0.33019298 -0.2375623 -0.0015732348 -0.13126116 0.20716032
00000000: c887 35be f54a 953e 9bbe 3fbe 7e16 03be
00000010: e506 843e a243 133e 00fc 8e3c e8c3 16be
00000020: d2bf 7c3e 9ad5 0c3e 1065 c73d 7159 8f3e
00000030: 2989 a73e 1cb7 883d 41ca 973e 96ba 5abe
00000040: 3171 813e 0337 15be 83d1 8f3e de64 4f3e
00000050: 5675 d2bd 26c5 9cbe e11d 833e bc04 8e3d
00000060: 6ec7 023e d9e3 863e 672c 88be 9879 72bd
00000070: 4af6 5b3e f02e f83d ece7 a0be 1470 fd3d
00000080: 1dda 8d3e 761e 96be 8e13 4b3e 7243 613e
00000090: 6638 bebd 86eb 9cbe fb11 5dbe 4e90 5cbe
000000a0: ebc9 15be f8ca 0abe e60e 333e 60f9 193d
000000b0: 80dc 423b 6280 2a3e 4eb9 00be 90d7 d1bd
000000c0: 4063 203e 0c7e a7be d424 e23d 286a 5fbd
000000d0: d6c4 2abe c0be 23be acd9 bc3d 4015 1d3d
000000e0: d8d3 13be 80f9 1c3b cf27 a43e 84bf 98be
000000f0: c6ef 49be 54fb 83bd e025 b53d b46b de3d
00000100: f752 9bbe a0b4 223c 20c6 083e e03c 093e
00000110: ab0f 21be 403a 9d3b 30df ff3d 04de 97bd
00000120: 4cd5 a7be 905a b33d c004 873d 782a 373d
00000130: 5931 863e 65bb 913e 8837 67be ee52 573e
00000140: f3e5 59be 6ce3 dd3d 7c3f 8abd acf3 e63d
00000150: b872 3a3d e0c5 a03d 2c35 a7bd 162c 283e
00000160: d6b9 163e 1075 e3bd c40d a3be d02c b43d
00000170: c858 a9be 407a 303d ab0d 24be 7c82 cbbd
00000180: 66a2 50be 3b3e 29be 808e 8bbe eaa2 153e
00000190: 0028 5eba 0b37 933e 400a 90bd aef5 04be
000001a0: 62b0 2e3e 30bb 9fbc 1b84 70be 1d1d 9b3e
000001b0: e21b 98be 00be 473d b0d4 1ebe a099 71bc
000001c0: 9535 933e 7a98 3b3e 6640 7f3e ea57 2c3e
000001d0: 584e 26be 8065 663d e00c 12bd 40cd 7ebd
000001e0: d098 b33d d0b5 b9bd ffbe 903e 0e0f a9be
000001f0: 8843 73be 0035 ceba 5369 06be d621 543e

net.2.weight f4 [128, 128]
-0.006235823 -0.028309815 0.05184906 0.023816295 0.06746768 -0.0044820756 0.05745057 -0.0025753751
-0.045548603 -0.022081979 -0.049569868 0.05621522 -0.07336947 0.050210305 -0.013171963 0.010614723
0.03781461 -0.010548174 0.0018819943 0.07383261 0.0027204826 -0.032993313 -0.06676483 -0.011093207
-0.06308512 0.08046434 0.03357906 0.06770792 -0.025518462 -0.04364131 0.07558877 0.023416705
0.043144755 -0.084224015 -0.050724607 0.06759258 0.06597901 -0.062223986 -0.014003441 0.020280227
0.07558408 -0.03705609 -0.058865763 -0.06658232 0.048863642 0.024081178 -0.014899775 -0.04964059
0.07080119 0.07414035 0.07042936 0.07558098 0.05622325 -0.018692717 0.08113884 0.02799733
0.028491788 0.027374156 -0.014715664 -0.045935437 0.028597362 -0.028121095 0.072811015 0.033662125
0.036599323 -0.04308727 0.08747382 -0.012282886 0.08690589 -0.028510246 -0.016870975 -0.023679197
0.068001755 -0.058248587 -0.059734527 0.07137682 0.0020458698 -0.07341631 0.045611702 -0.01873868
-0.06611426 -0.08233001 -0.02539672 0.03286825 -0.011854194 -0.0846063 0.030368373 -0.0040626004
-0.06687933 0.087701626 0.008377686 0.05336436 -0.00068397075 -0.0031249598 0.01734031 0.014877163
0.030890517 0.027413122 -0.083229564 -0.0382926 -0.035022777 -0.0061806664 -0.01826246 -0.07922685
0.04354795 -0.08090946 0.07381981 0.05399493 -0.082314044 -0.013741739 0.07731014 -0.081496134
0.024619758 0.08616371 -0.08816795 -0.03318431 -0.032388777 -0.067202136 -0.031979162 -0.084235765
0.054293774 -0.041193716 0.027904488 -0.08265235 0.06466768 -0.029079258 0.036586024 0.043277435
-0.0030526891 0.022474825 -0.023068845 0.010909803 -0.05921016 0.07830364 -0.011541009 0.045559846
-0.051210392 -0.072715044 0.05544413 -0.023699425 0.0102935955 0.013550468 -0.07630327 -0.0763098
0.015149571 -0.0022750124 -0.0551931 -0.016316101 -0.08490348 0.04352147 -0.07794114 0.032144055
0.030248374 -0.015686288 -0.06503925 0.07793922 -0.034464784 0.017938681 -0.0059992 -0.007517077
-0.023736216 -0.010655589 0.059315376 -0.032107953 -0.05903725 -0.032578956 -0.072232746 0.06433249
-0.046534672 0.020221412 -0.020913012 0.065135084 0.046984456 0.064192586 0.080729954 -0.00056935847
0.049152724 -0.0006157458 0.027030915 -0.0771406 0.04302772 -0.0156274 0.019968376 0.0076220483
0.073415436 0.08766664 -0.054132823 0.050281264 -0.030559521 0.06812353 -0.033414852 0.038117386
0.057415046 -0.032781303 -0.07708525 -0.057717558 -0.07358219 -0.061896134 0.034413986 -0.027667299
-0.019886881 -0.009993628 0.011211261 -0.045398034 0.08779385 -0.040809244 0.061273463 -0.0802867
0.05927769 -0.07839228 0.08379608 -0.019179717 0.04716658 0.013224676 -0.0355527 0.06287777
-0.035381667 -0.05934866 0.049636684 0.026306659 0.0041701645 -0.08587433 -0.056746874 0.014064774
0.024272665 0.06855882 0.0185524 -0.023069143 0.066766195 0.0624936 0.04282809 0.06655366
0.025103524 -0.0003502518 -0.0767172 0.018471278 0.026473098 0.03525942 -0.037503984 0.0611872
0.06283329 0.06003385 -0.043814167 0.086458035 -0.004095882 -0.079395294 0.05173882 -0.036312208
0.061634086 0.08110646 -0.07821435 -0.07198094 0.055955715 -0.032613337 0.07245552 0.039546616
00000000: e055 ccbb fce9 e7bc ae5f 543d 641a c33c
00000010: 7f2c 8a3d 60de 92bb 4a51 6b3d a0c7 28bb
00000020: 2c91 3abd 44e5 b4bc c609 4bbd ee41 663d
00000030: bc42 96bd 52a9 4d3d 38cf 57bc 60e9 2d3c
00000040: 7ee3 1a3d 40d2 2cbc 40ad f63a 8d35 973d
00000050: 204a 323b ff23 07bd 00bc 88bd 48c0 35bc
00000060: c532 81bd 7dca a43d 328a 093d 73aa 8a3d
00000070: 180c d1bc 3bc1 32bd 49ce 9a3d 64d4 bf3c
00000080: 8eb8 303d a47d acbd 9bc4 4fbd fb6d 8a3d
00000090: 0120 873d 94de 7ebd b06e 65bc b822 a63c
000000a0: d3cb 9a3d 20c8 17bd 3a1d 71bd 505c 88bd
000000b0: 3e25 483d e445 c53c 301e 74bc ee53 4bbd
000000c0: 3700 913d e5d6 973d 453d 903d 33ca 9a3d
000000d0: 5a4a 663d 7821 99bc 1f2c a63d a85a e53c
000000e0: 9c67 e93c c43f e03c f819 71bc cc26 3cbd
000000f0: 0445 ea3c 365e e6bc f11d 953d 4ce1 093d
00000100: 2ce9 153d 477c 30bd 7925 b33d 283e 49bc
00000110: b7fb b13d 528e e9bc 0035 8abc e0fa c1bc
00000120: 8144 8b3d 1296 6ebd 31ac 74bd 032e 923d
00000130: 0014 063b 4a5b 96bd 56d3 3a3d dc81 99bc
00000140: ea66 87bd a39c a8bd c80c d0bc dca0 063d
00000150: 1838 42bc 1146 adbd 18c7 f83c 901f 85bb
00000160: 08f8 88bd e99c b33d 9042 093c 9694 5a3d
00000170: 804c 33ba 20cc 4cbb 440d 8e3c 58bf 733c
00000180: 1c0e fd3c 7c91 e03c 4374 aabd b4d8 1cbd
00000190: 0b74 0fbd 3087 cabb 289b 95bc b041 a2bd
000001a0: 565f 323d dcb3 a5bd d72e 973d ca29 5d3d
000001b0: 4494 a8bd 0825 61bc c754 9e3d 72e7 a6bd
000001c0: 60af c93c 9976 b03d 6691 b4bd 45ec 07bd
000001d0: 18aa 04bd 46a1 89bd 95fc 02bd cd83 acbd
000001e0: 2663 5e3d beba 28bd f497 e43c a345 a9bd
000001f0: 7d70 843d a037 eebc 3adb 153d ae43 313d
00000200: a00f 48bb 201d b83c e0fa bcbc 08bf 323c
00000210: 5a86 72bd a95d a03d 8016 3dbc f69c 3a3d
00000220: fdc1 51bd a0eb 94bd 6219 633d 4c25 c2bc
00000230: 78a6 283c c802 5e3c e444 9cbd 5048 9cbd
00000240: e835 783c 6018 15bb 2912 62bd 58a9 85bc
00000250: e0e1 adbd 9243 323d 9b9f 9fbd 7ca9 033d
00000260: 70cb f73c 8880 80bc 4c33 85bd 999e 9f3d
00000270: f22a 0dbd 24f4 923c f094 c4bb d051 f6bb
00000280: 7472 c2bc c894 2ebc aef4 723d a183 03bd
00000290: 0bd1 71bd 8371 05bd c3ee 93bd c1c0 833d
000002a0: 249b 3ebd 60a7 a53c c451 abbc 8b65 853d
000002b0: c672 403d 6777 833d bf55 a53d 0041 15ba
000002c0: 5e54 493d 006a 21ba f06f dd3c e4fb 9dbd
000002d0: d63d 303d 0805 80bc b894 a33c 60c2 f93b
000002e0: d55a 963d 918a b33d 61ba 5dbd baf3 4d3d
000002f0: f657 fabc 5984 8b3d 03de 08bd fa20 1c3d
00000300: 0a2c 6b3d b045 06bd dfde 9dbd 3f69 6cbd
00000310: 42b2 96bd cd86 7dbd aef5 0c3d 88a6 e2bc
00000320: d0e9 a2bc 50bc 23bc 70af 373c 4af3 39bd
00000330: 43cd b33d 9827 27bd e2f9 7a3d 5a6d a4bd
00000340: 2acd 723d 228c a0bd 479d ab3d c81e 9dbc
00000350: be31 413d 50ac 583c b59f 11bd 0fc6 803d
00000360: 5eec 10bd 9517 73bd d64f 4b3d 1081 d73c
00000370: e0a5 883b e1de afbd 696f 68bd f06f 663c
00000380: 78d7 c63c 9168 8c3d 34fb 973c 80fb bcbc
00000390: b7bc 883d 4af9 7f3d 826c 2f3d 494d 883d
000003a0: e8a5 cd3c 00a2 b7b9 e81d 9dbd 1451 973c
000003b0: 1cde d83c 2e6c 103d c79d 19bd 6e9f 7a3d
000003c0: bdae 803d 0ee6 753d 7c76 33bd e910 b13d
000003d0: c036 86bb 009a a2bd 16ec 533d 1cbc 14bd
000003e0: 0674 7c3d 251b a63d d82e a0bd be6a 93bd
000003f0: d231 653d 9095 05bd 8f63 943d a2fb 213d

net.2.bias f4 [128]
0.05404394 0.082516216 -0.011009745 0.0048148558 0.08683429 0.037703775 0.028528504 0.07708221
-0.059846215 -0.08591938 -0.031851016 0.017154895 0.022263303 -0.018182516 0.0031852275 -0.086870186
0.033234105 -0.045401122 0.05165904 -0.052578308 0.010286026 0.074143074 -0.076055706 -0.046611853
-0.012883782 -0.08228603 0.046559744 -0.053737145 -0.08377336 0.024923868 0.049847208 0.009455495
-0.026945375 0.03406857 -0.080343895 -0.0063815936 0.07672005 0.048904337 0.083410434 0.044430964
0.015602455 -0.019679308 0.07768249 -0.044669073 0.012402512 0.009448342 0.04178282 -0.053437166
0.029998906 0.046184786 0.036971383 -0.0077638403 0.05903139 0.04618106 -0.06217368 0.0483151
-0.026401408 0.029104665 -0.03080234 -0.07656425 0.03318356 0.065927915 0.05413056 -0.04725234
-0.035622746 0.014486156 -0.015125304 0.03807067 -0.0041110367 0.064912595 -0.07262154 -0.053613856
0.011811927 -0.06925139 -0.05095927 -0.009725407 -0.026071452 -0.061222997 -0.06489677 0.053824775
-0.075669274 0.008210018 -0.05176792 0.01909487 -0.056020673 0.050573282 -0.0071600825 0.028810143
0.07244649 0.04760208 0.05001075 -0.020405568 -0.04102824 0.031705566 0.07618605 0.077536516
0.07949787 0.0058839843 -0.024727747 0.06878186 -0.06295398 -0.02058117 0.014711201 0.02051077
-0.010914229 0.057243936 -0.06420224 0.0017003492 0.08838644 -0.028985545 -0.08746706 0.077118374
0.035879694 0.07667557 -0.044541653 0.086839415 -0.056949526 -0.057219762 -0.054145843 0.06666834
-0.02639988 -0.022185355 -0.08177447 0.027723163 0.08173903 -0.044629507 0.052765243 -0.010083124
00000000: 2e5d 5d3d 43fe a83d 3862 34bc f0c5 9d3b
00000010: 2dd6 b13d 466f 1a3d 9cb4 e93c 47dd 9d3d
00000020: 4e21 75bd 80f6 afbd 3676 02bd 6c88 8c3c
00000030: 8861 b63c 80f3 94bc 40bf 503b ffe8 b1bd
00000040: 7c20 083d 87f6 39bd 6e98 533d 5a5c 57bd
00000050: b886 283c 53d8 973d 18c3 9bbd 12ec 3ebd
00000060: 8016 53bc 9485 a8bd 6eb5 3e3d 7b1b 5cbd
00000070: 5e91 abbd 242d cc3c 962c 4c3d 38eb 1a3c
00000080: 8cbc dcbc 7c8b 0b3d 578b a4bd b01c d1bb
00000090: 671f 9d3d ea4f 483d 17d3 aa3d 3efd 353d
000000a0: 70a1 7f3c 8036 a1bc ff17 9f3d ebf6 36bd
000000b0: e833 4b3c 38cd 1a3c 7624 2b3d eee0 5abd
000000c0: 44c0 f53c 422c 3d3d 4e6f 173d d067 febb
000000d0: e6ca 713d 5a28 3d3d d4a9 7ebd 0ee6 453d
000000e0: c447 d8bc e86c ee3c 3055 fcbc b8cd 9cbd
000000f0: 7ceb 073d 3705 873d 02b8 5d3d ab8b 41bd
00000100: 28e9 11bd 5857 6d3c 20d0 77bc feef 1b3d
00000110: e0b5 86bb e5f0 843d 9aba 94bd 349a 5bbd
00000120: d086 413c acd3 8dbd abba 50bd 5057 1fbc
00000130: cc93 d5bc f7c4 7abd 99e8 84bd 5e77 5c3d
00000140: 7ef8 9abd 5083 063c 990a 54bd d86c 9c3c
00000150: ef75 65bd ee25 4f3d 209f eabb 4003 ec3c
00000160: d35e 943d 66fa 423d 12d8 4c3d 9429 a7bc
00000170: 3a0d 28bd b2dd 013d 6f07 9c3d 77cb 9e3d
00000180: c7cf a23d 70ce c03b d891 cabc 81dd 8c3d
00000190: 04ee 80bd d899 a8bc 4007 713c 3406 a83c
000001a0: 98d1 32bc 9e78 6a3d 777c 83bd 40de de3a
000001b0: f303 b53d 1873 edbc ee21 b3bd 3df0 9d3d
000001c0: 96f6 123d 1508 9d3d 4f71 36bd ddd8 b13d
000001d0: e843 69bd 455f 6abd 08c8 5dbd 6989 883d
000001e0: 9044 d8bc 10be b5bc 6079 a7bd b01b e33c
000001f0: cb66 a73d 6ecd 36bd 5e20 583d b033 25bc

net.4.weight f4 [9, 128]
0.042458035 0.038053952 0.044260614 -0.035454128 0.0626465 0.03229226 -0.022693105 -0.06762478
-0.04105281 0.07156169 0.08416534 0.08472883 0.07588335 0.041893236 0.06576831 0.06265875
0.08780684 0.025457025 0.06335121 0.07500736 0.08682538 -0.03479848 0.01430694 -0.08416217
-0.07639617 -0.024043448 -0.026530955 0.00011382997 0.0024231076 0.036919393 0.01977937 -0.027051985
0.074904986 -0.0026253387 -0.041060608 -0.00014404953 0.0037628785 -0.06207964 0.013957374 0.03285563
0.049741752 -0.05031987 0.0802026 -0.018673845 0.038641848 -0.004464023 -0.0020215437 0.07266376
-0.07285796 -0.06494634 0.01582674 -0.025540955 0.011301406 0.014049649 -0.08577761 -0.08285466
-0.060618304 0.020770207 0.06028574 -0.054551657 -0.023701668 -0.05210913 0.01712799 0.06759884
0.021198824 -0.044183563 0.08043779 -0.011435322 -0.0149369985 -0.062269427 -0.07060228 0.03724178
-0.0054895207 -0.051950943 -0.07309207 -0.05576853 0.0023291856 0.07956704 -0.084222764 -0.018643513
0.07055921 -0.05565961 -0.019391172 0.08047704 0.06062708 0.05885748 -0.07718198 -0.026407056
0.0076242164 -0.04480742 -0.0143984035 -0.081842214 -0.08725801 0.08468679 0.043355636 0.04267586
-0.08301893 -0.06913711 -0.07988046 -0.072353974 -0.06645061 -0.035913 -0.08369389 0.0187779
-0.045124386 0.06142325 -0.06563885 0.056624614 0.04104387 -0.05025196 -0.032201845 -0.04484369
-0.030656934 0.008805171 -0.049870163 0.08739982 0.0757687 -0.021099925 0.08049194 -0.037151784
0.059128366 -0.040042497 0.038569607 -0.06487778 -0.056345552 -0.044914316 0.02714578 -0.022850156
-0.074273504 0.047847383 -0.01676862 -0.071895756 -0.034062736 -0.067468956 -0.067558445 -0.078451365
0.0074895546 -0.011789948 -0.01895427 0.0817206 -0.07628237 0.003761083 -0.07158142 -0.059198998
0.059034117 -0.04782982 -0.06362902 0.06789378 -0.03011407 0.04486207 0.075253256 -0.050608333
0.04900009 0.0021899417 -0.0007165 0.041279025 0.019471236 -0.046652652 0.042817943 0.0766549
0.07211756 -0.006248057 -0.0370267 0.047361024 0.017725237 0.013789006 -0.006211117 -0.042327963
-0.04466645 0.08761815 -0.012196906 0.036647953 -0.009983532 -0.04916566 -0.040357515 -0.005964987
-0.02950998 -0.05104256 0.083037205 0.043692373 0.06091652 0.06700448 -0.066646144 -0.06199698
-0.019914962 -0.0797286 0.058386393 -0.06620196 0.017114632 -0.057670344 -0.038769852 -0.004916072
-0.06840601 -0.061000314 -0.06030742 -0.028737016 0.026087284 -0.030099813 0.05581539 -0.03289911
-0.029993962 0.081164666 -0.0024660528 0.057603084 -0.04087261 -0.05501036 -0.02944972 0.014000371
-0.024102673 -0.024658993 -0.016490847 0.06839489 0.0051477775 -0.07844095 0.08656783 -0.019397095
-0.05327981 -0.06639119 -0.038900148 -0.07669761 -0.01756242 -0.0515877 -0.07144888 0.0011130646
0.025661647 -0.004799649 0.010321371 -0.028048053 -0.026244495 0.06989839 -0.016756102 0.036991887
-0.0065655187 -0.003246136 0.07818959 0.020139106 0.06480182 0.03276895 0.06102415 0.015051797
-0.059796367 0.07224078 0.059604175 0.02228485 0.07930953 -0.04580312 -0.0137549415 0.08468094
0.051030524 -0.037986122 0.04246045 0.017907143 0.0234216 0.004498109 -0.01695776 -0.021221906
00000000: 7ae8 2d3d 76de 1b3d 9e4a 353d 5938 11bd
00000010: cf4c 803d e444 043d e4e6 b9bc dc7e 8abd
00000020: fe26 28bd ef8e 923d e15e ac3d 4f86 ad3d
00000030: bb68 9b3d 3e98 2b3d 89b1 863d 3b53 803d
00000040: 13d4 b33d 408b d03c 47be 813d 759d 993d
00000050: 81d1 b13d da88 0ebd a867 6a3c 375d acbd
00000060: 9875 9cbd c4f6 c4bc 7257 d9bc 00b8 ee38
00000070: 00cd 1e3b ca38 173d 5808 a23c 209c ddbc
00000080: c967 993d e00d 2cbb 2b2f 28bd 000c 17b9
00000090: a09a 763b 3847 7ebd 78ad 643c a093 063d
000000a0: 02be 4b3d 351c 4ebd 4341 a43d e4f9 98bc
000000b0: ea46 1e3d f046 92bb e07b 04bb bdd0 943d
000000c0: 8e36 95bd 9602 85bd 14a7 813c 443b d1bc
000000d0: 8829 393c 8030 663c 2cac afbd b4af a9bd
000000e0: e64a 78bd 4826 aa3c 2eee 763d 8f71 5fbd
000000f0: 002a c2bc 6270 55bd 0050 8c3c 4371 8a3d
00000100: 28a9 ad3c d3f9 34bd 91bc a43d 385b 3bbc
00000110: 50ba 74bc 3a0e 7fbd ee97 90bd d68a 183d
00000120: 70e1 b3bb 83ca 54bd 4cb1 95bd 8b6d 64bd
00000130: 40a5 183b 0bf4 a23d fc7c acbd 48ba 98bc
00000140: 5981 903d 55fb 63bd 3cda 9ebc 25d1 a43d
00000150: 1a54 783d 8a14 713d 9611 9ebd 9c53 d8bc
00000160: 90d4 f93b fc87 37bd 48e7 6bbc e49c a7bd
00000170: 54b4 b2bd 4570 ad3d ae95 313d e2cc 2e3d
00000180: d405 aabd c297 8dbd 5e98 a3bd 522e 94bd
00000190: 4217 88bd 8319 13bd b467 abbd 1cd4 993c
000001a0: 59d4 38bd f296 7b3d a96d 86bd 36ef 673d
000001b0: 9e1d 283d 00d5 4dbd 15e6 03bd 04ae 37bd
000001c0: 4024 fbbc 9043 103c a844 4cbd adfe b23d
000001d0: 9f2c 9b3d c0d9 acbc f5d8 a43d 782c 18bd
000001e0: 9630 723d 9a03 24bd 2afb 1d3d a4de 84bd
000001f0: 98ca 66bd 13f8 37bd d460 de3c 4030 bbbc
00000200: b51c 98bd 9efb 433d 585e 89bc 153e 93bd
00000210: 5e85 0bbd 2a2d 8abd 155c 8abd 1cab a0bd
00000220: f06a f53b a02a 41bc fc45 9bbc 215d a73d
00000230: ee39 9cbd 807c 763b 4899 92bd a67a 72bd
00000240: c2cd 713d 34e9 43bd ee4f 82bd e50b 8b3d
00000250: c8b1 f6bc 4ac1 373d 611e 9a3d af4a 4fbd
00000260: 52b4 483d 2085 0f3b 80d3 3bba 3214 293d
00000270: 2482 9f3c da16 3fbd de61 2f3d 3ffd 9c3d
00000280: 5fb2 933d 80bc ccbb 4fa9 17bd a2fd 413d
00000290: 8434 913c 48eb 613c a086 cbbb 1660 2dbd
000002a0: 2bf4 36bd 2571 b33d 88d5 47bc 2a1c 163d
000002b0: f891 23bc ee61 49bd ec4d 25bd f075 c3bb
000002c0: eabe f1bc 0112 51bd 690f aa3d c6f6 323d
000002d0: 9a83 793d a539 893d c67d 88bd 8cf0 7dbd
000002e0: b424 a3bc c048 a3bd 9226 6f3d e594 87bd
000002f0: fc33 8c3c bd37 6cbd 23cd 1ebd 0017 a1bb
00000300: 7318 8cbd 77db 79bd ea04 77bd e469 ebbc
00000310: 00b5 d53c e293 f6bc ae9e 643d 38c1 06bd
00000320: e6b5 f5bc a939 a63d 809d 21bb 36f1 6b3d
00000330: 0a6a 27bd 8b52 61bd 8a40 f1bc d061 653c
00000340: f872 c5bc a801 cabc d017 87bc 9f12 8c3d
00000350: b0ae a83b a6a5 a0bd 794a b13d a8e6 9ebc
00000360: ee3b 5abd 1bf8 87bd c355 1fbd a313 9dbd
00000370: 10df 8fbc a04d 53bd ca53 92bd 40e4 913a
00000380: 6038 d23c 6046 9dbb f81a 293c 08c5 e5bc
00000390: b2fe d6bc e326 8f3d 1844 89bc ce84 173d
000003a0: 9023 d7bb 20bd 54bb dd21 a03d c4fa a43c
000003b0: d1b6 843d bc38 063d 76f4 793d d09b 763c
000003c0: 09ed 74bd f9f2 933d 8223 743d b88e b63c
000003d0: 096d a23d 0d9c 3bbd 685c 61bc 336d ad3d
000003e0: 6205 513d 5697 1bbd 02eb 2d3d 00b2 923c
000003f0: a8de bf3c e064 933b 00eb 8abc 90d9 adbc

net.4.bias f4 [9]
-0.04669952 -0.025441721 0.069742404 -0.021753453 -0.032055017 -0.042470366 -0.021886617 -0.04865744
0.0018835515
00000000: ff47 3fbd 286b d0bc 1bd5 8e3d 4c34 b2bc
00000010: 1f4c 03bd 68f5 2dbd 904b b3bc 064d 47bd
00000020: 80e1 f63a
