Entities/pained_rep.pth (torch, 84537 bytes, 6 tensors)

net.0.weight f4 [128, 19]
00000000: 3a2f f43d 604b 773c d620 ac3d badf ac3d
00000010: a0b7 b03b 1889 81bd d13e dbbd e88c 75bd
00000020: af69 e0bd ddb1 62be 84b1 67be 5b39 513e
00000030: f10f 073e 6420 02bd 67f1 443e b4db 32be
00000040: 54cc 133d 0834 ca3c d2a6 823d 58be 02be
00000050: ebe8 543e 447a 61be 5e08 5bbe 3854 f8bd
00000060: 73ff 163e 6cd4 25be b166 1c3e f3da 09be
00000070: 7c1b 17bd f2d9 e13d 11fb 403e d499 67bd
00000080: 2058 27bd 8cdc 4ebe 6e67 e73d 2350 413e
00000090: 1484 74bd 00b3 aa3a f192 353e c095 3a3b
000000a0: c758 423e c8fe b33c 347f 783d 2818 a4bd
000000b0: 62f4 5ebe 802e ffba 888f 1ebd 444b 623d
000000c0: 85b2 0c3e 7a9b 95bd e6a0 bbbd 2471 233d
000000d0: 3dda 0a3e dcce 68be 7e9d 9b3d 46d6 f13d
000000e0: 610d 173e 79d1 3c3e 8925 5ebe e44b babd
000000f0: c199 d7bd 8ac9 953d 84ce 35be 68da 56be
00000100: fd5a 553e 4986 6a3e c79d 073e 6898 b0bd
00000110: f1dd 1bbe 30c8 82bd 00f2 06bb 9b21 24be
00000120: 0050 8c39 ec8c d1bd d412 1fbe 887e abbc
00000130: 1dce 22be ece3 cbbd 46c1 a83d bb2d f9bd
00000140: cca4 703d 5e8a 85bd 0a1c acbd 508a c6bd
00000150: d0fc 6bbd d0ba 71bc a4e9 3bbe 0022 eeba
00000160: b718 11be 0e29 fc3d 19cf 0a3e 3dc7 0b3e
00000170: 9be5 2ebe 765a 943d 53b8 1f3e df89 1c3e
00000180: e40a 0d3d 4907 133e 8093 6dbc 44ad 5cbe
00000190: ab6d 623e 2227 f33d b47e 383d 89e6 59be
000001a0: aa0c d63d cc13 f5bd d161 163e 6501 213e
000001b0: 4e6f a33d 3a75 cfbd d0a6 36be 57c7 613e
000001c0: 27ad 423e 1eb5 f7bd 7767 253e 8049 e1ba
000001d0: 5c09 babd d570 ebbd 8614 8f3d b44c 70bd
000001e0: 82da 963d 581e 833c 3cd7 5cbd 30f6 88bc
000001f0: 1cb3 613d 78b4 ea3c a000 48be f1d2 5e3e
00000200: 388d 12bd 2d57 033e b808 8a3c 4133 2c3e
00000210: 8fb7 55be a49b 12bd 2cc1 1bbe cbfb 173e
00000220: 1c40 013d f308 07be d377 dfbd f4a4 14bd
00000230: 28b8 51be 30ff f9bc c21e 4dbe ff7c 243e
00000240: f672 cd3d 3397 1d3e 51c4 f4bd 5264 1bbe
00000250: b038 263c 070a 013e cde3 04be 0077 8a3b
00000260: 2d34 36be 62e0 e43d 8011 c9bb 098e 263e
00000270: b62e bf3d b98d 5f3e 2eb9 ee3d 8742 5d3e
00000280: 7a71 69be 6c5b 65be 4176 253e cc44 b1bd
00000290: 984e e33c 863b ce3d 8a78 a9bd 78e6 cb3c
000002a0: c2df ce3d 00db 25bd 2378 2f3e 087c 46bd
000002b0: 46e4 48be 9720 0e3e 5c9e 38be 1410 513d
000002c0: 8033 7a3c 6cad 5bbe af86 563e 8734 49be
000002d0: 069b b93d 3a6a 21be e859 e9bc ec54 363d
000002e0: 6baf 5e3e 439b 453e 5341 033e 8f3d 5fbe
000002f0: e6d0 a2bd ec0a 653d 78d3 c5bd 3c95 44bd
00000300: b2e1 c03d 030f 0f3e c28b 8bbd d6d2 8e3d
00000310: b08b d6bc cc6c 0dbe ba76 a13d 61dd 153e
00000320: 787b edbc e99d 1a3e 4803 b13c c9e3 213e
00000330: 5251 f93d b410 4b3d 9108 47be 9c3a 46bd
00000340: a03b 15be 596b 0f3e c622 b73d 8403 03bd
00000350: 5548 643e 3ed0 983d 6b97 683e abd2 113e
00000360: 045b 2ebd fb3f 3a3e 1c9c 643d 7113 2cbe
00000370: 22de d13d 2422 3ebe 745d 4dbe 46bb 993d
00000380: 7c4c 20bd 2fbf f8bd 3ecd 803d d7b2 55be
00000390: 1020 943c c6a8 883d 9f8d 2e3e c8c6 65be
000003a0: 80dc c7bd 70b1 1dbe 46a7 b3bd 3a15 68be
000003b0: c268 5bbe 406e 373b 6848 dcbc 427d bbbd
000003c0: 24dd c4bd f0b2 57be 142c 733d 16cf c13d
000003d0: e461 34bd d87e b83c c37a 463e 5206 b5bd
000003e0: fc3f 0cbe a428 85bd 4376 413e a33a 323e
000003f0: c0f5 09bc e8c8 893c 3551 4a3e 684a de3c
0.1192307 0.015093654 0.084047005 0.0844111 0.0053929836 -0.06324977 -0.10705341 -0.05994883
-0.109576575 -0.22138162 -0.2262631 0.20432036 0.13189675 -0.03176917 0.19232713 -0.17466623
0.036083534 0.024683014 0.06379475 -0.12767923 0.20791976 -0.22019297 -0.2138991 -0.121254385
0.14745884 -0.16194314 0.15273549 -0.13462429 -0.036891446 0.11027898 0.18845774 -0.056543186
-0.040855527 -0.2020132 0.112990245 0.18878226 -0.059696272 0.0013023317 0.17731835 0.0028470606
0.18979178 0.021972075 0.060668185 -0.0801242 -0.21772912 -0.0019468814 -0.0387111 0.05524756
0.13739975 -0.073050454 -0.09161548 0.03990282 0.13559814 -0.2273516 0.075983986 0.118084475
0.14751197 0.18439282 -0.21694006 -0.09096506 -0.10527373 0.07313831 -0.1775456 -0.20981753
0.2083549 0.22902788 0.13243781 -0.08622819 -0.15221383 -0.06385839 -0.002059102 -0.16028444
0.00026762486 -0.10231957 -0.15534526 -0.020934358 -0.15898938 -0.09955582 0.08239989 -0.121669255
0.058750913 -0.06520532 -0.084037855 -0.0969435 -0.057614148 -0.014754012 -0.18350846 -0.0018168092
-0.14169584 0.12312518 0.13555564 0.13650222 -0.17079775 0.072438166 0.15597658 0.15286969
0.034434214 0.14358248 -0.014500499 -0.2155047 0.22112148 0.11872698 0.04504271 -0.21279348
0.10451634 -0.119666666 0.14685751 0.15723188 0.07980214 -0.10129781 -0.17837071 0.22048698
0.19011365 -0.12095092 0.1615275 -0.0017188042 -0.090838164 -0.114961304 0.069863364 -0.0586669
0.07365896 0.01600568 -0.0539162 -0.016718954 0.055102453 0.028650507 -0.19531488 0.21760155
-0.035779208 0.12826224 0.01684986 0.16816427 -0.20870803 -0.03579296 -0.15210408 0.14842145
0.03155528 -0.13187008 -0.109115265 -0.036290124 -0.20480406 -0.03051719 -0.20031264 0.16063307
0.10031693 0.15389709 -0.11951507 -0.15174988 0.010145351 0.12601481 -0.12977524 0.0042256117
-0.17793341 0.1117561 -0.0061361194 0.1626512 0.09335081 0.21831407 0.11656414 0.2160741
-0.22797194 -0.22398156 0.16158392 -0.086557 0.027747437 0.10069947 -0.08274944 0.02489017
0.10101272 -0.040492058 0.17135672 -0.04845813 -0.1961833 0.1387962 -0.1802916 0.051040724
0.015271068 -0.21452874 0.20949815 -0.19648944 0.090627715 -0.15763178 -0.028485253 0.04451458
0.21746604 0.19297509 0.12817888 -0.21800826 -0.079500005 0.05591862 -0.09659475 -0.047993883
0.09418048 0.1397057 -0.06813766 0.069738075 -0.026189655 -0.13811034 0.078839734 0.1463523
-0.028989539 0.150993 0.02160801 0.1580955 0.12173714 0.049576476 -0.19436862 -0.048395738
-0.14573526 0.14005794 0.089421794 -0.031985775 0.22293217 0.07461594 0.22714011 0.1424052
-0.042567268 0.18188469 0.05581294 -0.16804291 0.102474466 -0.18567711 -0.20055181 0.07506423
-0.03913544 -0.121458404 0.06289147 -0.20869003 0.018081695 0.06672816 0.17046212 -0.2243911
-0.09758854 -0.15399718 -0.08772139 -0.22664347 -0.2142668 0.0027989298 -0.026889995 -0.091547504
-0.09612492 -0.21064353 0.059368208 0.09463327 -0.04403867 0.022521421 0.19382767 -0.08839096
-0.13696283 -0.06501892 0.1889277 0.1740518 -0.008420408 0.016819432 0.1975754 0.027135089

net.0.bias f4 [128]
00000000: 09eb 173e 24a2 16be 8027 a13c f22b a83d
00000010: c8ea c13c d67e b2bd 9867 2cbd 195e 173e
00000020: 3c2e 253d 8257 823d 54ab 2cbd e881 bfbc
00000030: 6a66 873d 1c02 44be dda9 693e 339f 35be
00000040: 611d 2d3e eff0 0a3e fb12 07be 0452 343d
00000050: 3b4f 1d3e 7fee 263e eafa d6bd 80de d13a
00000060: 04c4 753d b291 a23d 03f2 423e 3683 28be
00000070: 8398 13be 6239 45be 6006 15be 2453 65bd
00000080: 40a1 fcbb 96d4 803d cc59 25be c068 f2bb
00000090: 4c26 5fbd 8b29 593e c054 8fbd 564f 8d3d
000000a0: 487e 76bd 54cd ebbd 8cbe 03bd cdfd f5bd
000000b0: 6245 cf3d 2243 a63d a0f2 d83b a742 f7bd
000000c0: ea43 b23d 01c1 133e e06b 2abd 185b 9bbd
000000d0: 9fe6 623e 0280 32be f081 12bd 4cc6 463d
000000e0: d224 c3bd 2916 33be 4028 30be 05fe 2c3e
000000f0: 0097 60bc b9ab 52be f510 6abe d323 583e
00000100: a46e 67bd dce4 323d 98aa a4bd f457 663d
00000110: c0e9 50bc f35d 5ebe 8533 63be 39c1 113e
00000120: c8ab fc3c 6090 c63b 716b 153e 0c49 4c3d
00000130: 8acf af3d ec31 123d a817 04bd 1f10 183e
00000140: 1011 54bc 687d eabd c5de 603e 085b d83c
00000150: 3b3e 433e 6a18 af3d c097 f8bb 74c5 7a3d
00000160: 6d51 3a3e 7e99 8b3d 0f3d 383e c0a9 84bb
00000170: 0836 bebd 4869 8d3c e115 443e 15c0 483e
00000180: 7cf8 4abe 1898 5dbe 7453 3a3d 2664 bfbd
00000190: 37a1 1b3e 9749 67be 3c64 36bd f76b 1f3e
000001a0: f783 093e 39ea 003e 00b0 3c39 cd40 2b3e
000001b0: 9a84 e83d c0d6 943c 8940 653e afb3 253e
000001c0: 4888 3bbe 60d8 ffbb c498 503d 6f9b 2b3e
000001d0: 0a94 f03d 60d5 ae3b 0584 4e3e 74c4 683d
000001e0: 7167 5d3e facc 21be 1871 c53c 6367 333e
000001f0: 4d9c 063e 2d2d 503e a8d8 c03c 874c fdbd
0.14835753 -0.14710289 0.019672155 0.08211507 0.023671523 -0.08715598 -0.042090982 0.14781989
0.040327296 0.06364347 -0.04215558 -0.023377374 0.06611331 -0.1914143 0.22818704 -0.17736511
0.16905738 0.13568471 -0.13190834 0.04402353 0.15362255 0.16301917 -0.10497077 0.0016011745
0.06000139 0.079379454 0.19037633 -0.16456303 -0.14413647 -0.19260171 -0.14553213 -0.055987492
-0.007709652 0.062905475 -0.16147536 -0.007397741 -0.054479882 0.21207254 -0.06998587 0.06899898
-0.060179025 -0.115137726 -0.03216414 -0.12011299 0.101206556 0.08118273 0.00662072 -0.1207326
0.0870436 0.14429094 -0.041606784 -0.07585734 0.22158287 -0.17431644 -0.03576845 0.048528954
-0.09528507 -0.17488922 -0.17202854 0.16893776 -0.013707876 -0.2057332 -0.22858031 0.21107416
-0.056502 0.04367529 -0.08040351 0.056236222 -0.012751043 -0.21715526 -0.22187622 0.14233865
0.03084363 0.0060596913 0.14591767 0.04987435 0.08584507 0.03569214 -0.032249123 0.148499
-0.012943521 -0.114497006 0.2195998 0.026410595 0.19066708 0.085495785 -0.0075864494 0.061223462
0.18195124 0.06816386 0.17992042 -0.004048556 -0.092876494 0.017262116 0.19148971 0.19604523
-0.19821352 -0.2164005 0.045489743 -0.09345274 0.15198217 -0.22586666 -0.044529185 0.15568529
0.13429247 0.12589349 0.00017994642 0.16723938 0.11353417 0.018168807 0.223879 0.16181825
-0.18313706 -0.0078077763 0.05092694 0.16758512 0.11746986 0.005335495 0.20167549 0.056827977
0.21621491 -0.15800849 0.024101779 0.17519908 0.13145562 0.20329733 0.02354081 -0.12368112

net.2.weight f4 [128, 128]
00000000: f61d 5e3d bf10 40bd c041 e63b 9966 a7bd
00000010: e743 0dbd 8678 d6bc 06fc 38bd 10c2 263c
00000020: bd32 5cbd b9be 06bd 6f04 6bbd b068 47bd
00000030: e086 033d 9069 9bbb 30fc ffbb 22ec 673d
00000040: 70bd 5bbd 046e ccbc ac2f 79bd b8aa 2b3c
00000050: 4288 66bd dc4c ccbc 75a6 b0bd 94e5 4abd
00000060: 31bf 8b3d 101a 64bc 7212 583d 8dd9 73bd
00000070: 610b 89bd 6011 073d 1c98 0a3d 7af7 343d
00000080: e697 a8bd ef9d 4bbd ac1d aabd eca6 fdbc
00000090: 0e78 65bd cc85 5dbd cad7 b0bd 3b5b a7bd
000000a0: cf54 09bd 117d 873d 34ae 80bc fa5c 17bd
000000b0: 6d57 a33d b8fa 823c f13d ae3d 2458 e13c
000000c0: 403e 853c 4004 f73c 1a4f 293d e046 883b
000000d0: 006a 59bc 1c01 043d 62b2 4f3d c0ab a23c
000000e0: 80de 80bb b8f6 56bc c072 c6ba 3f3b aa3d
000000f0: a83f c6bc a2fe 7f3d d0ec bdbb 9a08 21bd
00000100: 80d6 013a 4453 86bd be1b 563d 7864 233c
00000110: 3c63 f0bc b674 77bd b00d acbd 3695 94bd
00000120: 5075 023d 6e78 3a3d d88c 3d3c 8abb 573d
00000130: 00f3 833c 8cab dabc cc61 c83c 80b6 7e3c
00000140: 6230 82bd a8f9 cebc 363a 4e3d f0b3 ec3b
00000150: 0949 85bd 3ca5 97bd 3a1e 76bd 8018 03bb
00000160: b0e5 b2bb f6dd 6a3d 72a1 453d d28e 523d
00000170: 881f b1bd a93d b2bd d246 223d dff1 68bd
00000180: 373b 4bbd 70ee e4bb fa8e 1f3d 13d8 8f3d
00000190: 315f 09bd 80cc 71bb b84f 23bc 909f 7b3c
000001a0: 20c1 12bb 3db9 a53d a084 92bb e2e9 143d
000001b0: 1089 e9bb d899 2e3c 91d6 8c3d f31d 903d
000001c0: 62ac 4c3d 0402 fbbc d497 df3c a40e 5fbd
000001d0: 4eda 1c3d 716a 873d 82a3 773d c0a7 48bb
000001e0: b782 853d a229 99bd a82c 9bbd 2f2a 28bd
000001f0: 1239 3b3d 45d3 963d 6ef4 423d 3d2b 813d
00000200: a974 963d 9e53 dbbc 186e 75bd 906e 6ebc
00000210: 14cc 54bd 67e3 8fbd f0a9 85bc c018 10bb
00000220: ead3 abbd 423e a3bd 228a 80bd 45d0 9c3d
00000230: ba28 4d3d 9a59 693d 6a0c 98bd ca8a 513d
00000240: 103a 52bc 1d2a 893d 9896 693c f0ad 093d
00000250: 6dfd 91bd 10bf 0bbd c1b5 73bd a538 953d
00000260: 3607 07bd b861 703c 98d0 b9bc fd6d 9b3d
00000270: d0e8 adbd a8ed a83c 2aee 653d 58af 7ebc
00000280: 917f 803d 8645 3b3d 64fb 92bc faa3 8bbd
00000290: 8034 4d3a 5259 47bd bfd6 3abd 4172 a9bd
000002a0: f09b eb3c e0af 193c 22a4 673d 6235 633d
000002b0: 6908 67bd cec2 acbd 3b5c a83d 9822 b2bc
000002c0: 0630 093d b6be eebc aebb 343d d017 b0bd
000002d0: 8496 8c3c 46b2 7ebd c058 49bb 78f2 913c
000002e0: 30af fb3b 7883 3dbd c06c eeba d13d b23d
000002f0: b884 333c c4a1 5cbd 8890 41bc 7c27 05bd
00000300: 359a 81bd b0e7 a03c a971 49bd 8048 a53a
00000310: cdd7 a03d a559 a9bd 3a6e 353d 51e7 36bd
00000320: 1ba1 abbd e6f4 2d3d ce40 703d 1c00 a1bc
00000330: a389 ae3d 8065 0fba 45cc 913d b5ea 34bd
00000340: 2c48 87bd 450f 863d a19f 9ebd c93e 8f3d
00000350: 0678 8cbd b8ef 90bd 1c53 9ebd 172c a93d
00000360: 6f8a 923d b678 2f3d 077e a93d eede 6d3d
00000370: c766 813d e8f5 3e3c ed3a 8a3d 501e 333c
00000380: 42a0 003d 1095 d73c 1020 40bc 8a74 543d
00000390: ea0c 83bd 0c74 1fbd b0e2 fb3b 80a4 dbbb
000003a0: d728 a33d bd99 b3bd 26a9 7e3d 1095 843c
000003b0: c6c3 19bd 4480 8cbd 88f1 46bc ecd7 943c
000003c0: 51de 973d d981 973d 3ef2 163d a05e a33c
000003d0: 881f a1bd 7228 033d 4d03 803d fb9f b1bd
000003e0: f0a3 f13b 40a1 f5ba 9abf 8ebd f404 92bd
000003f0: 946a db3c 5d6f b33d fa97 2b3d 5023 39bd
0.05422779 -0.04689097 0.007026881 -0.08173866 -0.034488585 -0.026180517 -0.045162223 0.010178104
-0.053759325 -0.03289673 -0.057377275 -0.048683822 0.03211105 -0.0047428086 -0.0078120455 0.05662168
-0.05364746 -0.024954803 -0.06083648 0.010477714 -0.05628229 -0.024938993 -0.08625499 -0.04953535
0.06823576 -0.013922229 0.052751966 -0.059533644 -0.066916235 0.032975554 0.03383647 0.044181325
-0.08232097 -0.049711164 -0.08306441 -0.030963384 -0.056022696 -0.054082677 -0.086349085 -0.08171698
-0.033528145 0.066156514 -0.015708067 -0.036953904 0.079756595 0.015988693 0.08507908 0.027507849
0.016265035 0.030153394 0.041335203 0.0041588396 -0.013269901 0.03222762 0.05070723 0.019857287
-0.003932774 -0.013120346 -0.0015140399 0.083120815 -0.024200276 0.062498696 -0.0057960525 -0.039314844
0.00049529225 -0.065588504 0.05227255 0.009972684 -0.029344194 -0.06041404 -0.08401048 -0.07255022
0.03185016 0.045525007 0.011569224 0.052669086 0.016107082 -0.026693128 0.024460696 0.015546441
-0.063568845 -0.02526553 0.050348483 0.0072235987 -0.06508071 -0.07404563 -0.06008742 -0.0020003617
-0.00545951 0.057340585 0.04824967 0.051405735 -0.08648592 -0.08703167 0.03961832 -0.05687129
-0.04961702 -0.006986432 0.038954712 0.07023635 -0.033538047 -0.0036895573 -0.009967737 0.015357867
-0.0022392944 0.08091972 -0.0044713765 0.03635586 -0.007126935 0.010656796 0.06876863 0.07036962
0.049969085 -0.03064061 0.027294077 -0.05445732 0.03829413 0.06612099 0.060458668 -0.0030617565
0.065190725 -0.07478644 -0.07576877 -0.041055854 0.045708723 0.07364515 0.047596388 0.06307075
0.0734647 -0.02677327 -0.059919447 -0.014552727 -0.051952437 -0.070257954 -0.016316384 -0.0021987408
-0.08390029 -0.07970859 -0.06276347 0.07656912 0.050087668 0.056970216 -0.07424243 0.05115775
-0.012831226 0.066974856 0.014257096 0.033613145 -0.07128415 -0.03411776 -0.059499506 0.07286195
-0.03296586 0.014671735 -0.022682473 0.07589338 -0.08491671 0.020621136 0.056135334 -0.015544735
0.06274331 0.0457206 -0.017942138 -0.068183854 0.00078279525 -0.048669167 -0.045614954 -0.08273745
0.02876088 0.009380311 0.056553014 0.05547083 -0.056404505 -0.084355935 0.082207166 -0.021745011
0.033493064 -0.029143672 0.044124298 -0.08598292 0.017161615 -0.062181734 -0.0030723065 0.017815813
0.007680796 -0.046267956 -0.0018190369 0.08703197 0.010956936 -0.05386521 -0.011814244 -0.03250836
-0.06328241 0.019641727 -0.04918066 0.0012610108 0.07853661 -0.082690515 0.044294573 -0.044654194
-0.08380338 0.04246988 0.058655553 -0.019653372 0.08522346 -0.0005470142 0.071190394 -0.044169147
-0.066055626 0.06545881 -0.077452905 0.06994397 -0.0685883 -0.07076973 -0.077306956 0.082603626
0.0715531 0.04283973 0.08275991 0.05807393 0.06318431 0.011655308 0.067495205 0.01093252
0.031402834 0.026316196 -0.011726394 0.051868953 -0.063989475 -0.03892903 0.0076869354 -0.0067029595
0.07966774 -0.087695576 0.06217303 0.01618436 -0.03754022 -0.06860402 -0.0121425465 0.018169366
0.0741545 0.07397813 0.036852114 0.019942582 -0.07867342 0.032020994 0.062506296 -0.08673092
0.007374279 -0.0018740073 -0.06970139 -0.07129851 0.026784219 0.08761475 0.041892983 -0.045199692

net.2.bias f4 [128]
00000000: dbb1 9c3d d6e6 7c3d 8bdc 0abd c05d 5ebc
00000010: b8a1 83bc 8148 813d 839d 7ebd ec22 0d3d
00000020: 9bcf 8d3d b4e8 84bd a906 a03d 1526 8e3d
00000030: d30e af3d 6be5 29bd 088f e53c 203c 34bc
00000040: f283 3e3d 20ce 29bb cc83 c03c 7b75 9f3d
00000050: 2e7b 583d 7907 a13d 132a 2cbd 8804 15bc
00000060: 6055 fa3c cd33 73bd c8cb 94bd 8dbc 8d3d
00000070: 5692 0e3d 4c5b db3c a7c9 843d b479 58bd
00000080: 98d4 803c 22cf 96bd 8f29 1fbd 8a6f 2f3d
00000090: adeb b23d d01b df3b e1d1 04bd e083 273c
000000a0: c0fe e23b 661a 1c3d 6587 aa3d 9e45 f6bc
000000b0: 057f 75bd 30b7 b9bb e2e0 d6bc a283 90bd
000000c0: c757 9e3d 6aad 273d 6a88 343d 5c4f 6cbd
000000d0: be27 37bd 890f 61bd 2fa1 03bd d438 7ebd
000000e0: e8c4 85bd 2801 18bd 56e6 5a3d 64c5 f0bc
000000f0: e0f1 0d3d cc87 153d c0d7 fa3c 0218 673d
00000100: 41cd 943d b11b 49bd 4089 d0ba 7178 803d
00000110: c0d9 e6bc 8e2e 3d3d d76b 9d3d 6056 6a3b
00000120: e4e4 8cbd 0731 a53d 0419 69bd f0eb 78bc
00000130: 8c72 98bd f0fb 473c 8697 78bd 41c4 943d
00000140: 3aa6 5e3d 8b09 b43d 5010 9a3c bc94 86bc
00000150: 2083 5c3c a69c 6c3d dc32 28bd c882 d8bc
00000160: 0ed6 073d d710 0fbd a8af 3a3c df23 8a3d
00000170: f126 893d f890 aabc 8d74 4abd f216 83bd
00000180: 4046 883b 3dcf aa3d 18ec 9abc 8fcf b03d
00000190: 4074 17bb 5c55 133d 1ab9 66bd 8999 9ebd
000001a0: 1a04 673d c88c 0bbd 1ad7 b3bd d8ad 08bc
000001b0: 602d 473c 2675 353d 4b81 a23d cabb 18bd
000001c0: d744 29bd bf8f b1bd da41 7ebd 3ef2 08bd
000001d0: a884 753c e87a 923c 5776 9fbd 8e71 72bd
000001e0: 2aba 1b3d b052 503c dc60 a9bd dee1 183d
000001f0: e831 bbbc 2774 ab3d 80b6 67bb 5838 22bc
0.07651111 0.06174358 -0.033901732 -0.013572156 -0.016068324 0.06312657 -0.062161934 0.034457132
0.06924363 -0.06489697 0.0781377 0.06940857 0.08547749 -0.041478556 0.028022304 -0.011000663
0.04651255 -0.0025910214 0.023500346 0.077860795 0.05285185 0.078627534 -0.042032313 -0.009095319
0.030558288 -0.059375573 -0.07265431 0.06920729 0.034807526 0.026776932 0.06483775 -0.05285044
0.015726373 -0.07363726 -0.038857993 0.04283098 0.08736358 0.0068087354 -0.03242672 0.010224313
0.006927341 0.038111113 0.08326606 -0.030062493 -0.05993559 -0.0056675896 -0.02623028 -0.07056357
0.07731586 0.040936865 0.044075407 -0.05769287 -0.044715635 -0.054946456 -0.03213614 -0.062065914
-0.065316975 -0.037110478 0.05344232 -0.029390998 0.034654498 0.03650646 0.030620456 0.05641938
0.072657116 -0.049098674 -0.0015910044 0.062729724 -0.028180003 0.046186976 0.076865844 0.003575705
-0.06879595 0.08065992 -0.056908622 -0.015192971 -0.07443723 0.012206063 -0.06069138 0.07263995
0.054357745 0.08790883 0.018806607 -0.016428344 0.013458997 0.05776658 -0.04106413 -0.026429549
0.033163123 -0.03492817 0.011394419 0.06745123 0.066968806 -0.02082108 -0.049427558 -0.06400861
0.004158765 0.08340309 -0.018911406 0.08633339 -0.0023110062 0.035970077 -0.05632887 -0.07744128
0.056400396 -0.034069806 -0.08781262 -0.008342229 0.012156814 0.044301175 0.07934817 -0.037288465
-0.041325416 -0.086699955 -0.06207452 -0.033434145 0.014985241 0.017880872 -0.077862434 -0.059190325
0.038019337 0.012715027 -0.082704276 0.03732478 -0.022850946 0.08371764 -0.0035356581 -0.009901129

net.4.weight f4 [10, 128]
00000000: b305 a93d a9bb b3bd abf3 36bd 48e9 9cbc
00000010: 3863 77bc 90fe 8fbb f8a8 553c 6618 02bd
00000020: 2090 473b ba19 5abd a88e 16bc a8ff 8b3c
00000030: fa44 663d 7b91 49bd 4686 363d 3356 a33d
00000040: 7c45 9ebd a265 3b3d c23b aebd 40c8 a7bb
00000050: b6b5 0e3d b324 9c3d 104b 223c 10fd f23b
00000060: f210 093d 4812 bb3c c848 ba3c c019 cbbb
00000070: f001 d63b e10e 99bd 5b9b 8e3d a0dd 383b
00000080: 1548 acbd 6c56 8a3c 51b6 25bd 786f 303c
00000090: 27e4 07bd 7044 dabc d5c4 28bd 28cd 033c
000000a0: 4afa 4c3d 338b 8d3d 24f3 e63c ba41 7b3d
000000b0: b401 d23c 32ec 07bd 2868 e83c a040 d2bb
000000c0: 38c6 16bd 847e 7bbd 30a7 4bbc 407d 15bc
000000d0: e495 ff3c 3fee 8fbd b88d 2dbc f269 6a3d
000000e0: 3abf 4f3d 2c6d e93c 1081 0fbc c355 acbd
000000f0: fa68 003d 126e eabc 12a5 243d 2154 8b3d
00000100: a0f8 4fbc 8ae1 32bd f041 0e3c 4fdf 8a3d
00000110: db26 943d 1a46 40bd e847 a9bc 1c94 78bd
00000120: 3955 a23d 7e35 6d3d eafd 62bd b019 903b
00000130: 85e0 85bd d61f 653d 5a76 d6bc bc78 9bbd
00000140: b7ef b1bd 4945 883d a44e 8fbc 13d4 813d
00000150: aedd 023d 7ca2 ad3c 48cc f13c d0a9 4fbd
00000160: 51ce 42bd 9b3d a33d 0b61 873d 80c1 3c3b
00000170: 4065 483b 633a 66bd f38c 96bd b370 17bd
00000180: af52 05bd 0e73 483d d65c 01bd 7a3b eebc
00000190: 7e01 37bd 56c0 7e3d 3e10 7d3d e077 eb3c
000001a0: 3293 6f3d e0d4 003d 0ece 433d 4ad5 453d
000001b0: 8ebd 7a3d c718 b33d dfe3 a73d 1b67 973d
000001c0: 3848 083c 1646 7f3d 9099 003d 9c0c e1bc
000001d0: 1051 483c f85d f73c 3a74 723d 4d64 65bd
000001e0: 3a60 373d be97 2d3d b08b 053c 18ad 8e3c
000001f0: e7d0 18bd c636 673d b417 9ebc 25ab 8f3d
00000200: 9990 873d dd79 a33d 0008 fdba 2888 30bd
00000210: 0eac 23bd 732e b13d 758c 25bd 007a 8aba
00000220: 0ec0 70bd 597d a53d dcfd 8d3c c03c 2cbb
00000230: 7bbd abbd 2844 2fbd e715 9bbd 34e1 b43c
00000240: 182d b13c 0f8a 10bd 0567 a8bd d239 3d3d
00000250: 9fce 7ebd 2b9f 813d 00f5 a63a 3a77 89bd
00000260: fc7e 893c 0074 bfb8 08c8 9dbd 1a2f a1bd
00000270: 1758 9a3d dc37 cfbc f3df 853d 568e 6f3d
00000280: a424 32bd 599c a5bd 9968 15bd c6bf 4e3d
00000290: f7b9 4dbd 123d 513d 608a bd3b f50c 09bd
000002a0: 5eef 483d 80f9 69bc 5c83 db3c 41eb 803d
000002b0: c9d5 29bd 3a7b 553d 278a 9f3d e281 8dbd
000002c0: 084a 803c e72e 15bd 34d4 a0bd 908e 27bc
000002d0: 00fc 803a 75c4 acbd 8a21 423d 7a4b 7e3d
000002e0: c1c8 00bd 9bac 9b3d bbe7 803d 2a11 503d
000002f0: d410 94bc bb7a b43d dc71 23bd f0d0 e5bb
00000300: 1000 c9bb 5243 733d e508 4cbd b3be ab3d
00000310: 2061 a6bd 9fce 983d c673 1a3d f105 9c3d
00000320: af29 a13d cccf a5bd bc01 093d 4dbd 913d
00000330: 9820 24bd cc0c e73c 1065 aabd 4f8b aabd
00000340: d8a0 b1bc 3b7d acbd b4b1 afbd 3566 68bd
00000350: 34d3 883c e6aa 81bd d046 f4bb d6db b3bd
00000360: a839 003c 92d6 543d a8d5 34bc da06 273d
00000370: b04a 5fbc f0ce 693c 6db4 a43d 746d fbbc
00000380: c6d8 273d 8bc0 9a3d b821 35bc d230 353d
00000390: 70c0 a03b e3e8 a93d 7145 9d3d d229 793d
000003a0: ebef a83d a0e5 9cbd 94f5 8ebc 104b a43c
000003b0: ff5c b43d fe3a 6dbd 7613 49bd 0098 4339
000003c0: 0193 a8bd eeb7 393d 6985 a73d 4ade 703d
000003d0: 7cbe acbd 5f07 ae3d d68a 7ebd 1611 7cbd
000003e0: bc08 cabc 4293 273d 3242 193d d55f ab3d
000003f0: d20d 2c3d d030 b13c 73b9 8f3d 10a6 51bc
0.0825304 -0.08776028 -0.044665974 -0.019154206 -0.015099339 -0.00439436 0.013040774 -0.03176155
0.0030450895 -0.05324719 -0.009189285 0.01708968 0.056218125 -0.049211007 0.044561647 0.079754256
-0.07728097 0.04575122 -0.08507492 -0.005120307 0.03484126 0.07624187 0.009905592 0.0074154213
0.033463426 0.022835866 0.022739783 -0.006198138 0.0065309927 -0.07473541 0.069632255 0.002820827
-0.08412186 0.016886912 -0.040457074 0.010768764 -0.033176567 -0.026643962 -0.04120334 0.0080445185
0.05004338 0.06911316 0.02819211 0.06134198 0.025635578 -0.033184238 0.028369978 -0.0064163953
-0.03681013 -0.06139995 -0.012429997 -0.0091241 0.031199403 -0.07027864 -0.01059287 0.057229944
0.050719477 0.02849444 -0.008758798 -0.08414795 0.031350113 -0.028616939 0.040196486 0.06803156
-0.012693554 -0.043672122 0.008682713 0.06780874 0.072339736 -0.046941854 -0.02066417 -0.060688123
0.07926411 0.057912342 -0.055417933 0.0043975934 -0.06536964 0.055938564 -0.026179481 -0.07591388
-0.086883 0.0665384 -0.017493553 0.06339278 0.03194969 0.021195643 0.029516354 -0.050699055
-0.04756004 0.07970735 0.06610306 0.0028801858 0.0030577928 -0.056208026 -0.07351103 -0.036972713
-0.032549556 0.04893785 -0.031582676 -0.029081095 -0.044679157 0.062195145 0.061783068 0.028743684
0.058489986 0.031453013 0.04780393 0.04829911 0.06121593 0.0874496 0.0819776 0.07392713
0.008318 0.0623227 0.03139645 -0.027471833 0.012226358 0.030196175 0.059192874 -0.056003857
0.044769503 0.04238104 0.00815098 0.017416522 -0.0373086 0.05644872 -0.019298412 0.07015065
0.06619377 0.07982228 -0.0019304752 -0.0430986 -0.039959006 0.086514376 -0.040417153 -0.0010564923
-0.058776908 0.08080549 0.017332964 -0.0026281327 -0.0838575 -0.04278961 -0.07572537 0.022080041
0.021627948 -0.035287913 -0.082227744 0.04619772 -0.062208768 0.06329187 0.0012737811 -0.06712194
0.016784184 -9.1291964e-05 -0.077041686 -0.07870312 0.07536333 -0.02529519 0.065368555 0.05848535
-0.043491974 -0.080864616 -0.036476705 0.05047586 -0.050226178 0.05108363 0.005784318 -0.033459622
0.049056403 -0.014280677 0.026796035 0.06294871 -0.041463647 0.05211947 0.07790022 -0.06909539
0.0156603 -0.036421683 -0.078529745 -0.010226861 0.0009840727 -0.08435909 0.047395267 0.0620837
-0.031441454 0.07601281 0.06294199 0.05079762 -0.01807443 0.088124715 -0.039903507 -0.0070134327
-0.0061340407 0.059390374 -0.04981317 0.08385982 -0.08123994 0.07461285 0.037708066 0.07618321
0.07869279 -0.08096275 0.03344892 0.071161844 -0.040070146 0.028204344 -0.083200574 -0.08327352
-0.021683142 -0.08422323 -0.08578816 -0.056738097 0.016702272 -0.063314244 -0.0074547306 -0.08782165
0.007826246 0.051962443 -0.011037268 0.04077802 -0.013628647 0.014270529 0.08042226 -0.03069184
0.040978216 0.07556256 -0.011055402 0.04423601 0.004905753 0.08296373 0.076792605 0.0608309
0.08248886 -0.07660985 -0.017451085 0.020055324 0.088068 -0.057917587 -0.049090825 0.00018653274
-0.08231164 0.045341425 0.08179743 0.05880574 -0.084347695 0.084975 -0.062144123 -0.061539732
-0.024662368 0.04091192 0.037416644 0.08367888 0.042005368 0.02162972 0.070177935 -0.01279594

net.4.bias f4 [10]
00000000: d3df 913d cf82 a83d 1a00 1b3d 403b 80bd
00000010: 18c2 7cbd 346f 053d afd7 9d3d a017 1d3c
00000020: 41f3 8bbd 0f14 963d
0.07122769 0.08228075 0.037841894 -0.06261301 -0.06170854 0.032576755 0.07707154 0.009588152
-0.068335064 0.073280446
