Entities/pained_nav.pth (torch, 73785 bytes, 6 tensors)

net.0.weight f4 [128, 4]
000000 28 3d 0f be b4 4f d8 3d ec 1f d7 3e c9 6e 47 bc
       -0.13988173 0.10562077 0.42016542 -0.012172409
000010 90 72 9c be 08 fd f3 be 60 c2 98 bc 54 b6 63 3e
       -0.30556154 -0.47653985 -0.018647373 0.22237521
000020 57 9c a7 be 1d 65 0a 3f b7 38 da 3e 93 62 18 be
       -0.32736465 0.54060537 0.42621395 -0.14881353
000030 f0 7a c7 bd 74 50 eb 3e dd 94 83 be 7f 09 27 3f
       -0.09740245 0.45959818 -0.2569951 0.65248865
000040 6b d2 b1 bc 2e 5c 3c be 1f d5 8a 3e 52 d4 db be
       -0.02170678 -0.18394539 0.27115723 -0.42935425
000050 2d 21 7b be c6 f9 8f 3e ab c3 a7 be 6b e3 3c bc
       -0.24524374 0.2812025 -0.3276647 -0.01152883
000060 70 65 1d 3d 68 93 6d be 38 e6 26 be 68 2a 5b be
       0.038426816 -0.23200762 -0.16298759 -0.21402895
000070 00 ce 72 bb 78 bf c2 bd b6 13 c3 be 88 19 78 be
       -0.0037049055 -0.09509176 -0.38100976 -0.2422849
000080 30 31 b7 bd 4e aa 15 3f 38 3d 73 bd 34 21 a5 bd
       -0.08944929 0.5846299 -0.059384555 -0.080629736
000090 50 bf 51 3e cf 88 45 3e da c7 80 3e 85 1b ea be
       0.20483136 0.1929047 0.25152475 -0.4572412
0000a0 33 7b 93 3e 5b 62 66 3e 46 79 4d 3e 94 b1 1e 3e
       0.2880493 0.22498457 0.20065793 0.15497428
0000b0 4f a4 8f be f9 51 fe 3e 93 b0 76 3e a8 a7 4d 3e
       -0.28055045 0.49671915 0.24090795 0.20083487
0000c0 1a 6a d4 3e bf fb a4 be 60 18 d8 be a5 8d 81 bd
       0.414872 -0.32223317 -0.42206097 -0.06325845
0000d0 9a 12 83 be c5 97 3e 3e 79 59 56 3e 9c 5b df 3e
       -0.2560013 0.18612583 0.20932569 0.4362458
0000e0 38 0e c5 be 00 51 66 bc e0 19 ed be d8 0c ed 3d
       -0.3848741 -0.014057398 -0.46308804 0.115747154
0000f0 d6 d7 41 3e e8 e9 03 3e 35 e2 39 3e 04 f5 a6 3e
       0.18929991 0.12882197 0.18152697 0.32608807
000100 70 ea 6a be b4 8b 57 be ac d0 42 be 40 6e f6 bd
       -0.22940993 -0.21049386 -0.19024915 -0.12032747
000110 f9 c5 f9 3d 6d 24 38 3e 40 22 b3 3d 3f 13 0b be
       0.121959634 0.17982645 0.08746767 -0.1358156
000120 53 92 68 3e d7 a8 f0 be 13 cd 9f be 1a 83 76 3d
       0.22712068 -0.47003815 -0.31211147 0.060183622
000130 18 20 4a 3e da b7 ce 3a 78 46 d4 bd 54 2c b7 3e
       0.19738805 0.0015771345 -0.10365003 0.35776007
000140 14 bb 3a be 65 15 34 bd 84 6e fb 3e 53 71 db be
       -0.18235427 -0.043965716 0.49107754 -0.42859897
000150 36 11 4a be 61 b1 a4 3d 87 fd d9 3e 3f 74 a8 3e
       -0.19733128 0.08041645 0.4257624 0.3290119
000160 16 ec f0 be e4 ed 9d be 88 95 26 3e 70 ab 7a be
       -0.4705512 -0.3084556 0.16267979 -0.2447946
000170 c5 7b 91 be 67 48 3b 3e 6c 3e 5f 3e 2d 54 0b 3f
       -0.2841474 0.18289338 0.21801156 0.5442532
000180 69 84 97 bc 29 90 f3 bd 96 b6 93 3e 37 fe 82 bd
       -0.018495755 -0.11892731 0.2885024 -0.06396144
000190 8f fa 81 3e 00 de ac 3e 2c c6 b1 be aa aa fe bd
       0.25386474 0.33763123 -0.34721506 -0.12434895
0001a0 38 0a 6d 3e c3 dd 8b 3e ff 7b 69 be 4a d1 ce be
       0.2314843 0.27317628 -0.22801207 -0.4039405
0001b0 33 32 1b 3e 29 d3 6d 3e 0c 9d e0 be 6d 94 0f 3e
       0.15155868 0.23225082 -0.43869817 0.14021464
0001c0 07 0e 4f 3e 81 cb a5 be 11 19 98 be 2c 25 85 be
       0.20220195 -0.32381824 -0.29706624 -0.26004922
0001d0 37 49 e6 3d e9 2d 8a 3e 77 0f db be 8b 51 ca be
       0.112444334 0.26988152 -0.42785236 -0.39515337
0001e0 8c 9d bd 3d d6 ed ad 3e 73 0e 41 3e 3d 39 26 be
       0.09258565 0.33970517 0.18853168 -0.16232772
0001f0 82 82 e6 be 36 8c d8 be f4 5e ba 3e c4 34 4f be
       -0.45021445 -0.42294472 0.36400568 -0.20234972
000200 c1 86 76 3e 00 cd 94 3e bf 04 b9 bc a8 52 f4 3c
       0.24074842 0.29062653 -0.02258527 0.02982457
000210 18 f9 ab 3e f4 a2 fb 3d 5a 59 ab 3d a6 ee 30 be
       0.3358848 0.1228694 0.08366652 -0.17278537
000220 b8 39 8a 3d a4 9c 95 be d8 43 98 be 98 0f 90 bd
       0.0674929 -0.2922107 -0.2973926 -0.07034224
000230 a7 9c b5 3e 22 cd c0 be b7 a7 79 3e 95 05 d6 bc
       0.3547108 -0.37656504 0.24380384 -0.026125709
000240 70 92 e0 3e 79 a1 cb be 07 60 c6 3e 6a ef ce 3e
       0.43861723 -0.3977163 0.38745138 0.40417033
000250 e9 80 e5 be 9c 6f d9 3e 56 98 fe bc b6 8c 9d 3e
       -0.44824913 0.42467964 -0.031078499 0.30771416
000260 a0 9d 56 3d d8 a7 c2 3e dc 0e e9 bd e7 0b f2 be
       0.052396417 0.3801868 -0.11379787 -0.47274706
000270 38 29 b6 be 80 66 6f bd f0 be e9 3d 00 92 db ba
       -0.35578322 -0.05844736 0.114133716 -0.0016751885
000280 e7 c9 a1 be c0 83 b5 3e 90 d2 b9 3e 0c 18 ce 3d
       -0.31599352 0.3545208 0.3629346 0.1006318
000290 2b db d9 3e 51 8f 5d 3e 6a 85 fe be e3 4c 34 be
       0.42550024 0.21636702 -0.49711162 -0.17607455
0002a0 d3 16 93 3c 38 6c d0 3d 3f 3b 8e bd df e4 af be
       0.01795522 0.10176891 -0.06944894 -0.34354302
0002b0 67 81 67 3e f5 0c 0b 3e b6 80 87 be ff 91 91 3e
       0.22607957 0.13579161 -0.26465386 0.284317
0002c0 74 73 8a be df f4 bf 3e 47 63 ee 3d be 35 0b 3f
       -0.2704121 0.3749151 0.116400294 0.5437888
0002d0 0b b4 46 3e b3 dd 1f be fa a2 93 3c fa 10 e7 be
       0.19404618 -0.15611915 0.01802205 -0.4513014
0002e0 f6 7b 58 3d 51 38 e2 3e 36 ad eb be 87 75 11 3f
       0.052852593 0.4418359 -0.46030587 0.5681996
0002f0 c1 37 c2 3e 3b a6 de 3c 4e d1 3d be e2 ae 0b be
       0.37933162 0.027178874 -0.18536875 -0.13640931
000300 af 56 21 3e 25 6f 9a be 6e dd 08 be 47 0e 67 be
       0.15755723 -0.30162922 -0.13365719 -0.2256404
000310 7e 2e be be f6 51 b3 be 3c 85 77 be de 2e e3 3e
       -0.37144846 -0.3502347 -0.24171919 0.44371694
000320 a3 1a 03 3e 67 aa ca 3e 51 fb f5 be f2 cc 8c 3e
       0.1280313 0.39583132 -0.48043302 0.2750011
000330 b8 53 9c bd b4 2b a1 be 40 ee db be 38 d5 85 be
       -0.076331556 -0.31478655 -0.42955208 -0.26139235
000340 60 a4 a7 3e b1 4f 9d 3e 0d 67 df be 8a 39 35 3e
       0.32742596 0.30724862 -0.4363331 0.1769773
000350 37 12 41 3e 27 99 d7 bd 77 30 f1 bc e5 3c 3f be
       0.18854605 -0.10527258 -0.029442055 -0.18675573
000360 e5 f4 2a be cd 97 b3 3e 61 f4 90 bc 63 84 fe 3e
       -0.16694982 0.35076752 -0.017694654 0.49710378
000370 cf 38 4e be fd f6 e3 bd 05 19 9d 3d 69 49 ed 3d
       -0.20138858 -0.11131094 0.07670788 0.115862675
000380 70 5b 9b be d3 16 07 3f 92 e5 62 3e 6f fc c8 3e
       -0.303432 0.527692 0.22157887 0.39255092
000390 ef 79 6a bd df 23 8c bd d2 98 e2 bd a2 27 28 3f
       -0.05724519 -0.06842779 -0.110643044 0.65685475
0003a0 b6 fc bc bd 98 97 ed 3e 47 2f 33 be 35 b5 ed 3e
       -0.09227888 0.4640472 -0.17498504 0.46427312
0003b0 f4 32 93 3e 5d 72 dc be 89 c2 1b bd 82 4e db ba
       0.28749812 -0.43056002 -0.03802732 -0.0016731771
0003c0 20 65 97 be ea df e5 3e 5f 03 23 3e d7 38 03 3f
       -0.2956934 0.44897395 0.15919255 0.51258606
0003d0 55 2e 54 3e be 06 88 be 34 c9 a4 3e 62 3a 89 3d
       0.207208 -0.26567644 0.32184756 0.06700589
0003e0 ed 62 3b be 02 7b f6 3d ff 94 28 3e 6e 20 c2 3e
       -0.18299456 0.12035181 0.16463087 0.37915367
0003f0 19 fe b6 3e 6d 75 d7 be 63 8d 8d be 94 ce 8c 3e
       0.35740736 -0.42081776 -0.27646932 0.27501357

net.0.bias f4 [128]
000000 98 00 00 3e 78 97 ee 3d cc 2c 07 3f dc ff 10 3e
       0.12500226 0.11649984 0.5280273 0.14160103
000010 4b 12 09 3f f0 81 d6 bc d4 7f 9c be 16 27 ec 3e
       0.5354354 -0.026185006 -0.30566275 0.4612357
000020 42 16 7c 3f f7 a8 3d bf 07 03 6e 3d 67 40 88 3e
       0.9847146 -0.74085945 0.058108356 0.26611635
000030 a2 ec 81 be c8 92 5a 3f 40 31 90 bc 9b 98 2d bf
       -0.2537585 0.8538022 -0.01760161 -0.6781098
000040 60 4f 20 be d8 64 37 be 38 10 7b 3e 35 08 e1 3d
       -0.15655279 -0.17909563 0.24517906 0.109878935
000050 45 4b cd 3d d3 c2 8e bd cc 5a d5 3e d3 1a a3 3e
       0.10024122 -0.069707535 0.41670835 0.31856403
000060 07 d0 7c 3e 15 1f 6d bd 5e 88 27 bf b3 b2 51 3f
       0.24688731 -0.05789097 -0.65442455 0.819133
000070 3b 73 96 be cf 2c 96 3d e2 27 53 be 7c 31 f0 3e
       -0.2938479 0.07332765 -0.20620683 0.46912754
000080 0b 3f 14 bf d5 95 c6 be d2 b7 f5 3e 2c 07 d5 3d
       -0.57908696 -0.38786188 0.47991806 0.104017586
000090 3e 70 9c 3e 8c f4 dd be 86 6e ed be d6 bb 97 be
       0.30554384 -0.43350637 -0.46373385 -0.29635495
0000a0 18 48 6e 3f fc 8b 81 bf 73 af c6 be e7 ef c2 3e
       0.93078756 -1.0120845 -0.38805732 0.38073656
0000b0 8d 62 7b 3f b7 a9 02 bf 98 ab 2f 3f b0 db 5c 3c
       0.9819725 -0.51040214 0.68621206 0.013480112
0000c0 f2 f9 44 be 24 28 fc be bd ba a6 be ac d5 b4 3e
       -0.19235972 -0.49249375 -0.32564345 0.3531927
0000d0 a9 a1 26 bf 9f 85 23 3d 4a c3 5a 3f 50 6b d6 3d
       -0.65090424 0.039922353 0.8545424 0.10469687
0000e0 3b 04 8d 3f 64 69 16 3f 78 f5 7b 3e ef 76 c2 be
       1.1016916 0.58754563 0.24605358 -0.37981364
0000f0 07 a3 19 3e 65 7d 81 be 6b 2f 4e 3f 28 32 39 bf
       0.15003596 -0.2529098 0.80541104 -0.7234216
000100 b8 1e eb 3e a8 49 d0 3e a6 d3 08 bf 57 f2 83 3e
       0.45921874 0.40681195 -0.5344795 0.25770828
000110 3c f9 15 bf e4 63 01 3f 57 2f 18 bf 80 8c 21 bf
       -0.58583426 0.50543046 -0.59447235 -0.6310501
000120 96 8c d2 3e cd 46 c0 be 98 01 e3 3e 15 27 40 3f
       0.41122884 -0.37554017 0.44337153 0.75059634
000130 c4 79 ea be 96 0b c4 be d8 7b 9b be f4 4e 5d 3e
       -0.45796025 -0.3829009 -0.30367923 0.2161215
000140 9b 5b 66 be 54 37 a2 3e 8c 92 80 be e8 24 dc 3e
       -0.22495882 0.31682837 -0.25111806 0.42996907
000150 1a 52 c2 be fe 47 61 be 32 e1 a3 3d 18 d2 11 3d
       -0.37953264 -0.22000119 0.08001937 0.03560075
000160 60 f1 8f 3d d6 c2 97 3e 7b 0f bc 3e fc d0 31 3e
       0.070284605 0.29640836 0.3673056 0.17364877
000170 da 43 4b 3e d0 5e 36 3f d3 6a f2 be 3c 3e d9 3e
       0.19850102 0.7123842 -0.47347125 0.42430294
000180 a3 c8 65 be 4e f0 18 3f 76 a6 dc be 4a 3a d1 be
       -0.22439818 0.59741676 -0.4309575 -0.40864784
000190 6c 3a 23 bf f9 bc 86 3d bf b5 9d 3d 0c 9d 18 3e
       -0.6376102 0.065790124 0.07700681 0.14903659
0001a0 fc fc ad ba b4 7c f7 be 6e 66 4e 3e 2b fa 18 3f
       -0.0013274248 -0.48337328 0.20156261 0.59756726
0001b0 5a 8a 36 3f 8d 8c d6 be b7 3b 1d 3e 09 2b c2 3e
       0.7130486 -0.41904107 0.1535481 0.37923458
0001c0 cf 6f 27 3e f2 31 98 3e ab dc 21 3f d1 cb 64 3f
       0.16351245 0.29725605 0.6322734 0.893735
0001d0 84 7b 69 3f c7 37 06 be d8 ec f6 3d c6 21 3b bd
       0.91204095 -0.13107215 0.12056893 -0.045686506
0001e0 1c 07 7b 3d 30 4f 91 bd f4 e7 0e be bc a4 dc 3e
       0.061286077 -0.07095182 -0.1395567 0.43094432
0001f0 e0 f5 17 bf 0f 11 82 3e 06 a9 67 3e 4e d5 94 3e
       -0.5935955 0.2540364 0.22623071 0.2906899

net.2.weight f4 [128, 128]
000000 51 be 07 3e ec ac 80 3c 31 54 6f 3e 95 77 59 3e
       0.13256194 0.015707456 0.2337196 0.21237023
000010 11 dc c4 3d de 73 e0 bc fb 84 8e bd c9 aa aa 3d
       0.09612287 -0.027399 -0.06958958 0.08333356
000020 30 f7 b1 3e 35 e2 e0 bc a5 1a b9 3c 84 59 92 3e
       0.34758902 -0.027451614 0.022595713 0.2858392
000030 1f da a8 3c 9c 99 a1 3e 42 27 46 3d 79 9a c6 bd
       0.02061182 0.31562507 0.048377283 -0.09697432
000040 69 67 b2 3d 5d a6 aa 3a ef e2 10 bd b2 b8 2f bd
       0.0871113 0.0013019551 -0.03537267 -0.04290075
000050 77 39 d0 bd c9 68 9b 3d e1 60 a2 3d b3 73 b4 3e
       -0.101672105 0.075883456 0.079286344 0.35244521
000060 68 d0 8c 3c 00 2c 53 3d 87 5b 89 bd 24 7b 56 3e
       0.01718922 0.051555634 -0.067069106 0.20945412
000070 1c 64 00 bd 89 7e 38 3d 05 fc 3b bd 90 72 90 3b
       -0.03134547 0.04504255 -0.04589464 0.004408188
000080 93 55 32 bb 95 4c 32 3d 6c f3 a9 bd 78 1a 22 3c
       -0.002721165 0.043530066 -0.08298382 0.009894006
000090 25 d4 8a bd 14 7d 03 bf f2 4d 20 3d a0 1f 8c bd
       -0.067787446 -0.5136273 0.039136834 -0.068419695
0000a0 42 5c 8d 3e b2 7a ab bd bd b3 20 3d c4 b6 5e 3d
       0.2760945 -0.08373012 0.03923391 0.054373518
0000b0 1e 23 b1 3e 3e 03 d9 3b 7b 5d 6d 3e ce 80 9a bd
       0.34597105 0.006622701 0.23180191 -0.07544099
0000c0 ac 43 68 bd ce a4 9b bd 16 d9 86 3d 02 80 9d bd
       -0.056705162 -0.075997934 0.065843746 -0.07690431
0000d0 7d e8 8e bd d9 b1 a6 bd 8a 27 b2 3e ba 41 d0 3b
       -0.06977937 -0.081393905 0.3479579 0.0063554915
0000e0 de 37 59 3e 01 4c a8 3e 78 48 91 3e 51 c2 1d bd
       0.21212718 0.32870486 0.28375602 -0.038515393
0000f0 7f 1b 5e 3e f4 99 cb bc 92 f2 ad 3e b5 e5 e7 3b
       0.21690176 -0.024853684 0.3397413 0.0070769438
000100 8f 94 3c 3d 9a 0d 35 3d c1 2b 83 3c 35 e6 fc 3d
       0.046040114 0.044202425 0.016012074 0.12348596
000110 03 f7 b0 3c 56 de 3d bd 03 74 f9 3b fe 80 8a 3c
       0.02160216 -0.046354614 0.0076127066 0.016907211
000120 b9 45 9f bc a0 1f f0 bc c0 08 85 3a f6 78 87 3e
       -0.019442426 -0.029311955 0.0010149702 0.26459473
000130 3b d3 06 bd 23 a2 ab 3d ba 0e 0b 3d b8 82 29 3d
       -0.03291629 0.083805345 0.03394959 0.04138443
000140 bb 23 80 bd 9b 49 24 bf 62 08 a7 bd f2 ee 33 bd
       -0.06256815 -0.64174813 -0.08155896 -0.043929048
000150 a4 49 50 ba 17 eb 4a bd 6b 2c db bb d2 39 08 bf
       -0.00079455436 -0.049540605 -0.0066886446 -0.53213227
000160 5b 9b b0 3d be ff 97 bd 2b 7c a1 3e f4 1f b3 bd
       0.08623382 -0.07421826 0.31540045 -0.08746329
000170 d6 df 7c bd f9 40 8c 3e 8f 16 cf bd 18 ae b3 3c
       -0.061736904 0.2739332 -0.101117246 0.0219336
000180 b6 f8 ad 3c e0 84 86 3d b0 3a fc 3c 69 fd 86 3d
       0.021236759 0.06568313 0.030789703 0.06591303
000190 90 2f 47 bd f4 b8 a3 bd 19 7f e6 3c 0b 6b 83 3d
       -0.048629344 -0.079942614 0.028136777 0.06416901
0001a0 72 1d bc 3c 04 8b 97 bc 9a 1a 46 3c f9 d8 8a 3d
       0.02296326 -0.018498905 0.012091303 0.067796655
0001b0 4a 00 04 3e 30 95 e6 3b b9 cd 15 3e e6 47 97 3d
       0.12890735 0.0070368275 0.14629258 0.073867604
0001c0 37 d2 7a bd 76 0d 55 3d 48 d0 b2 3b 5e e9 6a 3e
       -0.061235633 0.05201479 0.005456958 0.22940585
0001d0 e6 5d 87 3e d6 c2 77 3c 75 4b ad 3d 1d 95 65 bd
       0.26438826 0.015122136 0.08461658 -0.05605041
0001e0 38 3d cc bc b0 ec ff bc e1 ad b9 bc 38 5c 29 3d
       -0.024931535 -0.031240791 -0.02266592 0.041347712
0001f0 95 88 4a 3d d3 22 b6 3e 59 8a 1d bf b9 24 96 bd
       0.04944666 0.35573444 -0.61539227 -0.07331223
000200 e2 11 83 bd 4c 95 8b bd e3 d4 4c bd 8a 8f 47 bd
       -0.06399895 -0.068155855 -0.050007712 -0.048720874
000210 aa 14 49 bd a0 02 5b 3c 66 09 55 bd 8a 75 4b bd
       -0.049091972 0.013367325 -0.052010916 -0.04967264
000220 12 55 64 bd 2a f7 cb bd 1e f6 4f bd b3 5f d0 bc
       -0.055745192 -0.09959252 -0.050771825 -0.025436258
000230 76 f9 3c bd 6c 47 2a 3d c1 b5 90 3d a3 40 49 3d
       -0.046136342 0.04157202 0.07065917 0.049133908
000240 39 d9 9e bd 04 f2 8a 3d 30 34 0a 3d 2b 68 b4 bd
       -0.07756276 0.06784442 0.033741176 -0.08808931
000250 4a 22 33 bd 9e 0c a4 3b 4a c3 36 3d 92 43 bb bd
       -0.043733872 0.005006387 0.044619836 -0.091437474
000260 d4 1a 8e 3d 33 bf 95 3d 80 72 bf 3c 94 1e cb 3b
       0.06938711 0.07311859 0.023370028 0.0061987136
000270 2a 09 69 3d 1d 39 9c bd 42 e9 57 3c a7 d5 ac 3d
       0.056893505 -0.07628081 0.013178172 0.084391885
000280 f6 30 5f bd 27 e4 9b bd 00 e4 99 39 35 79 94 3d
       -0.054490052 -0.07611876 0.00029352307 0.07249681
000290 a8 d5 a2 bc e7 0c 37 3d 39 78 a4 3d 62 03 36 3d
       -0.01987727 0.04469004 0.08030743 0.04443682
0002a0 e7 d7 3c bd 5d 92 80 3d 70 7e 12 bc 8a da bf bc
       -0.046104338 0.062779166 -0.008941278 -0.023419637
0002b0 56 8b 81 3d e8 4b 0c bc d3 26 8e 3d 91 61 b9 bc
       0.06325404 -0.008563019 0.06940999 -0.022629531
0002c0 48 b3 12 bc ec 5f b4 bd 0f 83 af bd 10 65 ba 3c
       -0.008953877 -0.08807358 -0.08569919 0.022753268
0002d0 41 2e 47 bd e0 4d ea 3c 30 71 2e 3d 38 08 cb bd
       -0.048628096 0.028601587 0.042588413 -0.09913677
0002e0 f9 d7 91 3d 62 e1 6e bc 58 cf 7c 3d 52 e9 ec bc
       0.07121272 -0.014580103 0.061721176 -0.02891985
0002f0 52 63 57 3d 9d f0 c8 bd 18 44 21 3d a2 13 22 bd
       0.052584954 -0.09811518 0.03937158 -0.039569505
000300 00 4b 97 bd a8 5b 2b bd db 0b 40 bc b2 93 70 3d
       -0.07387352 -0.041835457 -0.011721577 0.058734603
000310 46 d0 2a bd 00 70 9e bd 83 b8 9f 3d f1 a8 b3 3c
       -0.04170253 -0.07736206 0.07798865 0.021931143
000320 f2 d6 ae bd 3a 89 c0 bd d2 b5 5c 3d 71 d9 fc bc
       -0.08537091 -0.09401174 0.053884335 -0.030865403
000330 b6 3c 9e bd 00 d6 7f bb 30 4c e1 3c 81 03 25 3d
       -0.077264234 -0.0039037466 0.02750215 0.040286545
000340 40 9d 14 3d a8 f2 07 3d 66 7f 2f bd 32 cb a7 bd
       0.036282778 0.0331904 -0.042846106 -0.08193053
000350 f8 73 26 3d 15 39 a0 3d 22 a2 ba bd 32 2b 6c 3d
       0.04063794 0.078233875 -0.09112956 0.05765838
000360 6f 09 03 bd 31 b2 52 bd 31 8b 47 bb 5c bd 40 bd
       -0.03199142 -0.051439468 -0.0030447955 -0.047055587
000370 ce b4 60 bd 5f 8f bd 3c d3 17 f0 3c cd 50 9b bd
       -0.05485993 0.023139654 0.029308235 -0.07583771
000380 00 49 2c ba 6e 94 32 3d 6b 1e a1 3d 33 a5 91 bd
       -0.0006572157 0.043598585 0.0786713 -0.071115874
000390 b0 9a aa bd a2 a2 9e bd 54 89 a0 bd c8 30 dd 3c
       -0.083302855 -0.077458635 -0.07838693 0.0270008
0003a0 da 13 b8 bd 78 29 d8 bc 1e 10 a3 bd 89 01 88 3d
       -0.089881614 -0.026386961 -0.079620585 0.06640918
0003b0 ee 94 f9 bc d4 55 69 bd f8 fb 87 3d 77 12 7e bd
       -0.030466523 -0.056966618 0.06639856 -0.06202933
0003c0 05 d3 2d 3d 0b 67 a9 3d 77 51 cb bd 11 73 ae bc
       0.042437572 0.08271607 -0.099276476 -0.021295102
0003d0 80 65 80 3c 04 26 c3 bd 90 07 b6 3b f2 2a 1c bd
       0.015673399 -0.09528735 0.0055551007 -0.038126893
0003e0 a2 fe 4b bd 9a 75 7f 3d 63 23 7d bd ab de c8 3b
       -0.049803384 0.062368013 -0.061801326 0.0061300597
0003f0 4a e5 ee bc 70 69 44 3d ec 68 ba bd 90 f4 0e bc
       -0.029162068 0.047952116 -0.091020435 -0.0087253

net.2.bias f4 [128]
000000 f3 f9 09 3f a0 c5 a6 bd 65 6c f2 3c b0 bf 1b 3c
       0.5389702 -0.08143163 0.029592702 0.009506151
000010 1d bd d6 3e a0 22 a7 3b ea ae 3b bd a3 b0 db bd
       0.41941157 0.005100563 -0.045821108 -0.1072705
000020 cf 6a 6c 3d e7 93 c2 bc a5 c0 87 bb c5 5e f4 3c
       0.057719048 -0.023752166 -0.004142838 0.029830346
000030 64 25 b8 3d 59 d0 82 3d da 6e 2d bd 00 81 da 3e
       0.08991507 0.063873954 -0.042342044 0.42676544
000040 72 02 3f bc 31 f2 09 3d 48 7e 6f 3c 2b 6d 81 3c
       -0.011658298 0.033678237 0.01461751 0.015799126
000050 cc 46 8b bd e1 38 3d 3c 5b a4 83 bd c9 72 ac bd
       -0.06800613 0.0115492055 -0.06427833 -0.08420331
000060 44 93 b5 3d c9 68 20 bd d1 c1 87 3d b4 2a bd 3c
       0.08865979 -0.03916243 0.066287644 0.023091651
000070 b1 31 e9 3c 8c a4 ac 3d 9d e3 b3 bd 65 73 08 3d
       0.028466078 0.08429822 -0.08783648 0.033313174
000080 9c b2 d2 3d 6a ef 93 3d 39 89 82 3d 7c 2c 8c 3d
       0.10287973 0.07223399 0.063738294 0.06844422
000090 90 e7 ce 3e ef aa 69 3d 0d 8a af bd 03 b7 77 3d
       0.40411043 0.05704778 -0.08571253 0.060477268
0000a0 5a ae 26 3d 21 2a 53 3d 6c df ac bd 1e 79 e5 ba
       0.04069362 0.05155385 -0.08441052 -0.0017507409
0000b0 5f db a6 3c 1a 68 1c 3d ba 79 60 3d ab b2 52 be
       0.020368276 0.038185216 0.054803587 -0.20575969
0000c0 50 88 40 bc 74 f9 c0 bd 55 d3 bf 3c c6 f2 90 bd
       -0.011751249 -0.094225794 0.0234162 -0.07077555
0000d0 98 5a 8b 3e 46 2a 13 3f 90 73 09 3e a6 ae 43 bd
       0.27217555 0.5748638 0.1342299 -0.04777398
0000e0 e9 0d 9a 3d 77 69 81 bd 8b 63 e0 bd 1c fd c9 3e
       0.075221844 -0.06318944 -0.10956486 0.3945092
0000f0 32 96 9f 3d d9 ae 36 bc e3 a6 10 3f 88 2f a0 bc
       0.07792319 -0.011150085 0.5650465 -0.019553915
000100 ef a4 ad 3d 57 b7 57 bc eb 25 05 bd 8d 2d 21 3d
       0.08478724 -0.01316627 -0.032506865 0.03935008
000110 85 24 a2 3c 40 82 85 3e 37 0e 28 3e cb 92 94 3d
       0.019792804 0.26075935 0.16411673 0.07254561
000120 ac c9 bc 3c 82 18 8b 3e e4 80 78 bd 9c aa 50 bc
       0.023045383 0.27167135 -0.060669795 -0.012735989
000130 00 3f b4 3b 00 57 65 3d 22 60 7d 3d 62 2f 60 3d
       0.0055006742 0.055991173 0.061859258 0.054732688
000140 85 aa 8c 3c be 95 95 bd 56 1e 6d bd 05 bc 98 3d
       0.017171154 -0.07303952 -0.05789026 0.07457737
000150 6b 01 45 3c a4 a7 dd 3c c0 7b f2 3c b2 5a 54 3d
       0.012024264 0.027057476 0.029600024 0.051844306
000160 6e bb 3a bc 56 59 d8 3d a8 19 11 3f 83 e5 12 bd
       -0.011397226 0.105639145 0.56679773 -0.03586341
000170 16 a9 f2 3e c0 81 4e be 5b 39 33 bd fc 01 bf bd
       0.47394627 -0.20166683 -0.04375587 -0.0932655
000180 74 1b d8 3c 52 85 1e bc 1d b1 f5 3c d9 bd 9c bc
       0.026380278 -0.009675341 0.02999168 -0.019133495
000190 ce 1e 0a 3d 01 25 3f bd 8f 53 b3 3e c0 88 87 bd
       0.033720784 -0.04666615 0.35024688 -0.0661788
0001a0 8e a4 8e bd ae 95 0a 3e 86 26 8d bd 8c b2 a3 3c
       -0.0696498 0.13533661 -0.068921134 0.019982599
0001b0 e8 4e ca 3d 45 51 43 3e 75 3e 33 3d 59 bd 6e bd
       0.098783314 0.1907397 0.043760736 -0.058286045
0001c0 e6 70 14 3b 43 8b b9 3c 80 3f 14 bc e2 8f bc 3c
       0.00226503 0.022649413 -0.009048343 0.023017827
0001d0 8d bf 37 3e 60 94 b4 3b d7 8b 8b 3d 87 a2 cb 3e
       0.17944165 0.0055108517 0.06813782 0.39772436
0001e0 87 1b 69 bd 3e ef cc bd 5a af 76 3d 60 08 35 3d
       -0.056911018 -0.10006569 0.060225822 0.04419744
0001f0 8d 9e b4 bd 28 78 88 bd d9 b0 f0 bc 38 d8 d6 bd
       -0.08819304 -0.06663543 -0.029381203 -0.10490459

net.4.weight f4 [4, 128]
000000 3e 84 27 3e 2e d8 7e 3d 76 16 8c 3c 48 83 62 3d
       0.1635904 0.062217884 0.017100554 0.05530098
000010 d0 06 0f 3e aa c5 5c bc bd 56 20 3d ee be 29 ba
       0.13967443 -0.013474861 0.03914522 -0.0006475289
000020 b9 ed b9 3b 94 c3 68 3d e9 c9 b4 bc 7f 44 54 3d
       0.0056740907 0.056827143 -0.022068935 0.051823135
000030 4e af a2 b9 12 51 0d bc 08 3d 8c bd e9 4d 2a 3e
       -0.0003102966 -0.008625286 -0.06847578 0.16631283
000040 ab 87 e0 3c c3 22 8c 3d a9 ab 52 bd 2d b0 9b 3d
       0.027408442 0.06842568 -0.05143324 0.07601962
000050 14 44 0a 3c c4 87 f5 bc 24 8a 98 3c 45 36 8a 3d
       0.008439083 -0.029971965 0.018620558 0.06748632
000060 f4 ec c8 3c 15 44 aa 3d bc f9 06 bd 57 3b 1c bc
       0.02452705 0.08313767 -0.03295301 -0.009535632
000070 5d 35 15 bb d4 9a 84 3c 30 f9 38 3d 3c b7 54 bc
       -0.0022767403 0.016187109 0.04515952 -0.01298314
000080 ac c6 11 3d ed 7c 2d bc 0e 60 0f 3d e1 ca a6 bc
       0.03558986 -0.010588867 0.035003714 -0.020360412
000090 42 5e 61 3e e0 50 07 bb 08 46 d1 bc 2a 13 4a bd
       0.22008613 -0.002064757 -0.025546089 -0.049334683
0000a0 d2 1d 1d 3d 07 46 fb ba 9a ee a9 3c bf bc af bd
       0.038358517 -0.001917065 0.020743657 -0.08580922
0000b0 e3 46 95 3d 1c 7e c9 bc 8c d6 bd bc c8 22 df be
       0.07288911 -0.024596266 -0.023173593 -0.43581223
0000c0 7e 1b 20 3d ce 87 76 bd 68 f1 a2 3b 5c b1 84 3d
       0.03908872 -0.060188107 0.0049726255 0.06479141
0000d0 0d df 05 3e 0d ec d6 3e d7 4c d7 3c 76 a8 54 bc
       0.13073368 0.41976967 0.026281757 -0.012979617
0000e0 27 9d 3e bd 5e fc 08 3d 99 3a 04 be 05 5a 2f 3e
       -0.04653659 0.0334438 -0.12912978 0.17124183
0000f0 da 4a 8a 3d 79 0b 05 bc b8 d1 c2 3e 45 e6 2d bd
       0.06752558 -0.008120411 0.38050628 -0.04245593
000100 7c 36 9e 3c c2 c1 3a 3d 86 33 f7 3c 4d 37 80 3c
       0.01931309 0.045594938 0.030175935 0.01565137
000110 eb 46 43 3d bb ab fd 3d 15 69 8a 3d 98 a3 f7 bc
       0.047675055 0.123862706 0.06758324 -0.030229375
000120 78 9d 84 bd b3 01 47 3e 52 97 27 3d da e8 b0 bc
       -0.06475347 0.19434242 0.040915795 -0.021595407
000130 9f 55 c8 bd 08 f6 28 3d fe ac 8e bb 45 e1 2b 3d
       -0.09781956 0.04125026 -0.0043541184 0.04196288
000140 f5 cf 22 3c 3d 9a 8c 3d 1a 3e 26 3c e5 cf 9b bd
       0.009937276 0.06865356 0.010146642 -0.07608012
000150 86 27 c1 bc 78 27 14 bc 87 a8 53 bd ce 7d 03 3d
       -0.023578417 -0.009042613 -0.051674392 0.0321024
000160 ad 3f 76 bd 80 88 aa 3c 2e fb e9 3e 8e 93 67 bd
       -0.06011932 0.020817041 0.45699447 -0.056537203
000170 c7 00 61 3e ae ad 9c bd 22 96 60 bd 41 08 7d bc
       0.21972953 -0.07650314 -0.054830678 -0.015443862
000180 28 89 6c 3c 31 5c 81 3d 25 f0 b4 bc 8d ed 13 bd
       0.0144369975 0.06316412 -0.022087166 -0.036115218
000190 1c f0 94 3a 4f f7 55 bd 0a 4a 8e 3e 16 e4 02 3d
       0.0011363062 -0.052237805 0.27790862 0.0319558
0001a0 4b ec 8a 3d 6d 38 75 3d fd 33 c3 bc af 0e ac 3d
       0.067833506 0.059868265 -0.0238285 0.08401238
0001b0 a5 c6 67 3d 86 bf bc 3d bd b3 a8 bd 94 6c 2e 3d
       0.056585927 0.09216218 -0.08237407 0.042584017
0001c0 25 6c fc bc 7b b4 4a 3d ab 72 67 bb b7 a2 be 3c
       -0.030813286 0.049488526 -0.003531615 0.023270948
0001d0 3d a9 69 bc 6f eb 3f bb a6 80 1c bd 77 f9 3a 3e
       -0.014261541 -0.0029284616 -0.038208626 0.18259226
0001e0 f3 cf ee bc ec 5d 07 bd 10 66 04 3d 69 3f 38 bd
       -0.029151892 -0.033048555 0.032323897 -0.044982348
0001f0 3f a9 08 bd 77 6d 9b 3d b8 30 3d bc 56 c9 00 bd
       -0.03336453 0.07589238 -0.01154726 -0.03144201
000200 62 a5 ee 3d 3b 6c 5f bd a6 de 1e bc 14 90 9e 3c
       0.11652638 -0.054546576 -0.009696638 0.019355811
000210 7e f9 88 3e 3f 9a 52 bd 27 c6 16 bd 9e 5e 59 bd
       0.26752847 -0.05141663 -0.036810067 -0.05306875
000220 25 08 50 3d 14 f2 09 bd 53 6b 9f bd 91 b5 8d 3c
       0.050789017 -0.03367813 -0.07784142 0.017298492
000230 82 65 7b 3d 7c af 6d bd de df 93 bd 21 ba 43 3e
       0.061376102 -0.058028683 -0.07220434 0.19113971
000240 1b 83 85 3d 51 e4 22 bd 41 b6 d7 bc 04 d6 28 3d
       0.06519147 -0.03976852 -0.026332023 0.041219726
000250 f8 4a b6 bc 0d 85 ce bb 39 6b 64 bd 4f c4 68 bd
       -0.022252545 -0.006302482 -0.055766318 -0.05682784
000260 03 64 08 3d e2 63 e3 bc bf 59 95 3a db 26 79 bc
       0.033298504 -0.027757589 0.0011394544 -0.015207018
000270 eb 9d 5a 3d c6 4b de 3b d9 eb f7 bc 64 df 8f 3c
       0.05337326 0.0067839352 -0.030263828 0.017562576
000280 cc 23 21 3d 3b 23 c6 bc 84 a2 e9 bc e7 26 40 bd
       0.03934078 -0.024186721 -0.028519876 -0.0469121
000290 a3 32 a1 3e e9 d2 b2 bb 1b b0 7c bd e6 1d 53 bd
       0.31483945 -0.0054572714 -0.061691385 -0.051542185
0002a0 c8 fb 3c bd e1 37 f6 bc ad 9b 9c bd 25 9c b3 3d
       -0.046138555 -0.030055942 -0.0764688 0.087700166
0002b0 4e b9 11 3d 30 c2 de 3b 6f 6b 9e 3d b5 13 b6 be
       0.03557711 0.0067980513 0.07735335 -0.3556191
0002c0 06 99 73 3d ac 3c 79 bd 72 93 4d bd 60 32 87 bd
       0.059472106 -0.060848877 -0.050189443 -0.06601405
0002d0 9a 26 22 3e f7 2f 8f 3e cc 6a dd 3c 3a 5a 4b 3d
       0.15835038 0.27966282 0.027028464 0.049646594
0002e0 c3 bf 84 bd 6c 6c a8 bc 9e 7b ee bc 19 a4 16 3e
       -0.06481888 -0.020559512 -0.02911168 0.14711036
0002f0 84 bd 25 3c ab d0 37 bd fd 82 cc 3e 09 89 3a bd
       0.010115985 -0.044876736 0.39943686 -0.045540843
000300 9a f4 8b 3d fd 18 e7 3b 24 6d fe bc 46 5b 3c bc
       0.068337634 0.0070525394 -0.031057902 -0.011496371
000310 02 8f 34 bd c3 0a 38 3e d2 79 11 3d 17 a8 59 bd
       -0.044081695 0.17972855 0.035516568 -0.05313882
000320 b1 54 38 bd e4 ec 02 3e 3e af e5 bc c9 11 52 bc
       -0.045002643 0.12785679 -0.028037664 -0.012821623
000330 c9 3e bb bd c2 3e 5a 3c 4b be 62 3d 97 eb 49 3c
       -0.09142835 0.013320627 0.05535726 0.012324235
000340 d5 ab d1 3c a7 c8 02 bc c9 50 a2 3d cf df 88 3d
       0.025594631 -0.00798241 0.07925565 0.06683313
000350 fa ff 53 bd 10 b0 3c bc bf 49 48 3d 3c 00 0c 3d
       -0.05175779 -0.011516586 0.048898455 0.03417991
000360 86 ac 86 3d b9 4e 8c 3d 08 aa b7 3e c1 cd 50 bd
       0.06575875 0.06850953 0.3587191 -0.050977472
000370 40 0a 86 3e d2 35 30 bd b7 70 a2 bd 5f 1a ca 3c
       0.26179695 -0.043020077 -0.07931655 0.024670778
000380 b4 56 74 bc 4c 8f 85 bd 33 78 9c bd a0 6a 29 bc
       -0.01491325 -0.06521472 -0.07640114 -0.010340363
000390 bc b2 a4 3c a8 6a 05 3d 43 d6 98 3e 4e ff dc bc
       0.020104758 0.03257242 0.2985097 -0.026977208
0003a0 bf f8 0d 3d 1f 21 b6 3d 47 94 fd 3b b4 fe f1 3c
       0.03466105 0.08893036 0.0077386233 0.029540397
0003b0 4b de 75 bc 3b 99 e1 3d 05 50 0b 3c eb 9f ad bc
       -0.015006612 0.110155545 0.008502965 -0.021194419
0003c0 48 70 88 3a ce 7f 59 3d 89 4e 0a 3d 08 29 d6 bc
       0.0010409439 0.0531004 0.033766303 -0.026142612
0003d0 75 03 0e 3d b0 68 56 3d cc 59 5e bd ca 76 30 3e
       0.034671266 0.05234593 -0.054284856 0.17232814
0003e0 01 c3 be bc 7e 0a e9 bc ab 0c 14 3c 8b 4f 6b bd
       -0.023286344 -0.028447386 0.009036223 -0.057448905
0003f0 58 91 4c bd f4 0d 8b bd 19 07 19 bd 69 10 a2 3c
       -0.049943298 -0.06789771 -0.037360284 0.019783216

net.4.bias f4 [4]
000000 f1 a6 6b 3d 20 ee 01 3e 34 cd cb 3d 18 40 b5 bc
       0.057532255 0.12688494 0.09951249 -0.022125289
