Entities/pained_nav.pth (torch, 73785 bytes, 6 tensors)

net.0.weight f4 [128, 4]
0	0x3d62183b	0.05519889
1	0x3d6b65db	0.057470184
2	0xbec922e5	-0.39284435
3	0xbda06f90	-0.07833779
4	0xbe5047cc	-0.20339888
5	0x3e178a30	0.14798808
6	0xbeca2384	-0.3948022
7	0xbefdf354	-0.49599707
8	0x3ef1f421	0.47256568
9	0x3f0a2dde	0.5397624
10	0xbf042e18	-0.51632833
11	0xbf38c682	-0.721779
12	0xbe74bef5	-0.2390097
13	0xbe52b6d9	-0.20577563
14	0xbe7bc42f	-0.24586557
15	0x3e52aaa6	0.2057291
16	0xbea879b4	-0.32905352
17	0x3e033d24	0.12816292
18	0xbe7123d4	-0.23548824
19	0xbe875992	-0.26435524
20	0x3fb609d5	1.422175
21	0x3e892f4e	0.26793903
22	0xbe868801	-0.26275638
23	0xbe50a90e	-0.20376989
24	0xbfd143f2	-1.634886
25	0x3f2e5b3f	0.6810798
26	0x3f139a1b	0.5765702
27	0xbe30f0c8	-0.17279351
28	0x3e6f0547	0.23341857
29	0x3f3636ca	0.7117735
30	0xbf27dbbd	-0.6556967
31	0x3e6f1cd3	0.2335084
32	0xbed7937e	-0.42104715
33	0x3e853d51	0.26023343
34	0x3e57b515	0.21065171
35	0xbf45a693	-0.772073
36	0xbef15c2c	-0.47140634
37	0xbdff6010	-0.12469494
38	0xbecfd4de	-0.40592092
39	0xbe94e5d4	-0.29081595
40	0xbef6c68b	-0.4819835
41	0x3de8a020	0.113586664
42	0xbe9aec1b	-0.3025826
43	0x3e1917d1	0.14950491
44	0xbb338f00	-0.0027398467
45	0x3e1a5538	0.15071571
46	0xbe965574	-0.2936207
47	0xbea72c5e	-0.32651037
48	0x3e77fc63	0.24217372
49	0xbe7efc0c	-0.24900836
50	0xbf352ac2	-0.7076837
51	0xbe4ead5a	-0.20183316
52	0x3f086aae	0.5328778
53	0xbe7ffe61	-0.24999382
54	0xbeb5ff35	-0.3554627
55	0x3f242259	0.6411491
56	0x3ece9080	0.4034462
57	0x3f5043b3	0.813533
58	0x3f21eb83	0.6324999
59	0xbeb282cd	-0.34865418
60	0xbc450ed0	-0.012027457
61	0xbdfc34f2	-0.12314786
62	0xbedf4baf	-0.4361243
63	0x3db83681	0.08994771
64	0x3f8db61d	1.1071202
65	0x3f69d8fa	0.91346705
66	0xbe8ad83f	-0.27118108
67	0xbf44e08a	-0.7690512
68	0x3eabe876	0.3357579
69	0xbe8c1354	-0.27358496
70	0xbe793f2c	-0.24340504
71	0xbeccea50	-0.40022516
72	0xbdd63d23	-0.1046088
73	0x3ea73ceb	0.32663664
74	0xbea41d07	-0.32053396
75	0xbf06ec4c	-0.5270431
76	0x405e1f12	3.4706464
77	0x3f85f947	1.0466698
78	0xbf1218d5	-0.5706914
79	0xbd6e774d	-0.058219243
80	0xbe3acd22	-0.18242314
81	0x3e81149e	0.25211042
82	0xbe62f7cd	-0.22164841
83	0xbe800318	-0.2500236
84	0x3fa6171b	1.2975801
85	0xbe04cafe	-0.1296806
86	0xbe463623	-0.19356589
87	0x3d90ab78	0.07063955
88	0x3e870f9c	0.26379097
89	0xbf624b33	-0.88395995
90	0xbd7e5527	-0.062092926
91	0x3dad717e	0.084689125
92	0x4061f404	3.5305185
93	0xbe480658	-0.1953367
94	0x3de8fa3a	0.11375852
95	0x3e81a10c	0.25318182
96	0x3e9dae06	0.30796832
97	0xbe768917	-0.24075733
98	0xbe3874b0	-0.18013263
99	0xbec5ce9c	-0.38634193
100	0xbec358f9	-0.38153818
101	0xbe91c384	-0.2846948
102	0xbe6b59b2	-0.22983435
103	0x3e896e0e	0.26841778
104	0x4013f6ab	2.3119304
105	0xbefd78aa	-0.49506122
106	0x3e99d409	0.30044582
107	0xbe2ba661	-0.16762687
108	0x3fdb4126	1.7129257
109	0x3e7b1f0f	0.24523567
110	0xbe825c02	-0.2546082
111	0xbdf1be5e	-0.11803888
112	0xbca48a04	-0.020085342
113	0xbee3e53a	-0.44510823
114	0x3df6fdb0	0.12060106
115	0x3dd1888d	0.10231123
116	0x3e66bf6c	0.22533959
117	0xbea18bcc	-0.3155197
118	0xbedddc46	-0.43332118
119	0xbef2a4fc	-0.47391498
120	0x4046a94c	3.104083
121	0xbe3826ea	-0.17983595
122	0x3eede1db	0.46461377
123	0xbf1fb2be	-0.62382114
124	0x3f95fa4d	1.1717011
125	0x3e465bfe	0.1937103
126	0xbeb36081	-0.35034564
127	0x3eb66620	0.3562479
128	0x3f43ae50	0.76437855
129	0x3f3869f5	0.7203668
130	0xbebf5d5f	-0.37375924
131	0xbdb6e560	-0.089304686
132	0xbf2e2e2d	-0.6803921
133	0xbd754c3b	-0.059887152
134	0xbe99c9a5	-0.30036655
135	0x3eafcbd6	0.34335202
136	0x3f9714a9	1.180318
137	0xbe1d2676	-0.15346703
138	0xbe98a96b	-0.29816756
139	0x3e665f7b	0.2249736
140	0xbefd621e	-0.4948892
141	0x3dbfc1e7	0.09363156
142	0xbe028645	-0.12746532
143	0x3c88ad28	0.01668413
144	0xbf2a3725	-0.66490394
145	0x3b05971e	0.0020384262
146	0x3ea3b903	0.3197709
147	0x3dee9bd1	0.11650813
148	0xbe12e76c	-0.14346093
149	0xbeac0168	-0.33594823
150	0xbe19c654	-0.15017062
151	0x3d90b9f8	0.07066721
152	0xbeb98d22	-0.36240488
153	0x3d79e8d0	0.061013043
154	0xbe51d2b0	-0.20490527
155	0xbe90edaa	-0.28306323
156	0xbdd383a0	-0.1032784
157	0xbd017a31	-0.03161067
158	0x3f051fec	0.52001834
159	0x3f0c2d89	0.5475698
160	0xbea41372	-0.32046086
161	0x3e4e3d70	0.20140624
162	0xbef60482	-0.48050314
163	0xbefad644	-0.48991597
164	0xbeb6b028	-0.35681272
165	0x3ea19576	0.31559342
166	0xbef50e36	-0.47862405
167	0xbe9e0d4c	-0.3086952
168	0x3fb606ee	1.4220865
169	0x3d914d97	0.07094877
170	0xbeeb84d2	-0.4599977
171	0x3e6123de	0.21986338
172	0x3f23b36a	0.6394564
173	0x3e63aa0e	0.2223284
174	0xbed548b6	-0.41657037
175	0x3ea6f9a5	0.3261234
176	0x405fd87e	3.4975886
177	0xbecb5c99	-0.39719084
178	0x3e9d1aae	0.30684417
179	0xbe8fa2c0	-0.28053856
180	0x3e09640c	0.13417071
181	0xbef2d556	-0.47428387
182	0xbe533efc	-0.20629495
183	0x3dddcc28	0.10829955
184	0x3fc68b11	1.551119
185	0xbed34ef1	-0.41271165
186	0xbead8591	-0.33890966
187	0x3eaf9986	0.34296817
188	0x3f96334d	1.1734406
189	0x3e76b2f7	0.24091707
190	0xbed30f70	-0.41222715
191	0x3ee649cb	0.44978175
192	0x3f2055cf	0.62630934
193	0xbe386c83	-0.18010144
194	0xbedc1f9a	-0.4299286
195	0x3f34a22b	0.7055995
196	0xbfad7676	-1.3551776
197	0x3f167083	0.5876543
198	0x3ea9ef73	0.33190498
199	0xbe58d9b3	-0.21176796
200	0xbecd30be	-0.4007625
201	0xbed7640a	-0.4206851
202	0xbdd244a0	-0.102669954
203	0xbdaa81f8	-0.08325571
204	0xbee344d6	-0.44388455
205	0xbe876a25	-0.2644817
206	0xbeb5c8ee	-0.3550486
207	0x3e916c97	0.2840316
208	0x3ec91e86	0.392811
209	0x3f154c92	0.5831996
210	0xbdfb8d61	-0.12282825
211	0xbed6c919	-0.419503
212	0xbe0e559c	-0.13899845
213	0x3d8ba920	0.068193674
214	0xbe9f2ac2	-0.3108731
215	0xbee27800	-0.44232178
216	0xbe3c0e2d	-0.18364783
217	0x3ec598ab	0.3859304
218	0xbedea808	-0.43487573
219	0x3e93cbfe	0.2886657
220	0xbeca9161	-0.3956404
221	0xbe9cca51	-0.30623105
222	0xbe9c84d3	-0.30570087
223	0x3ea6e4fe	0.32596582
224	0x3e98ccbe	0.29843706
225	0x3f521747	0.8206677
226	0xbe9f75fb	-0.311447
227	0xbe8cd375	-0.2750508
228	0x3f2febae	0.68718994
229	0x3effd0ab	0.4996389
230	0xbf2184fa	-0.6309353
231	0x3ef52fd2	0.47888047
232	0x3e870afe	0.26375574
233	0xbf0d1cef	-0.55122274
234	0x3d835b2a	0.064138725
235	0xbeb926c6	-0.36162394
236	0x401cd357	2.4503992
237	0x3e93e9d4	0.28889334
238	0xbddf5033	-0.10903969
239	0x3db7dd38	0.08977741
240	0x3da32eb6	0.07967894
241	0xbf0fe9bb	-0.5621602
242	0xbec6ceb2	-0.3882957
243	0x3eb98c7d	0.36239997
244	0xbfbbe0e3	-1.4678005
245	0x3f4aeebc	0.7927053
246	0x3ee66dbd	0.450056
247	0xbed2a0b4	-0.41138232
248	0xbeaae4ca	-0.33377677
249	0xbe9e18cb	-0.3087829
250	0xbeae486d	-0.3403963
251	0x3e60e823	0.21963553
252	0x3fed3412	1.8531516
253	0x3be9fea2	0.0071409503
254	0xbe80ddd4	-0.2516924
255	0xbd083e4a	-0.03326253

net.0.bias f4 [128]
0	0xbef5bd38	-0.47995925
1	0x3ead6f14	0.33873808
2	0x40f4b623	7.6472335
3	0xbe9ff752	-0.31243378
4	0x3ee408d2	0.4453798
5	0x410fcee2	8.9880085
6	0xc0b28df6	-5.579829
7	0x40f4c4e4	7.6490345
8	0x3fc949aa	1.5725605
9	0x3d765920	0.06014359
10	0x3e9bed56	0.3045451
11	0x3e0b4284	0.13599592
12	0x403abc0e	2.917728
13	0x40bb780b	5.8584037
14	0x40c67b13	6.2025237
15	0x3fd1d487	1.6392983
16	0x40f55054	7.6660557
17	0x3e9881ca	0.2978652
18	0x4025194f	2.5796697
19	0xbfd62b9b	-1.6732057
20	0xbee523e3	-0.44753942
21	0x41033b36	8.201956
22	0x4046d304	3.1066294
23	0x3fa80db2	1.312918
24	0xbefe384d	-0.4965233
25	0xbeb62c5b	-0.35580716
26	0xbdd71400	-0.105018616
27	0x408095d3	4.018289
28	0xc096f68a	-4.717595
29	0xbecc1170	-0.39857054
30	0x3f8bf3f2	1.0933821
31	0x40dd0349	6.906651
32	0x41025fd3	8.148395
33	0x3f067354	0.52519727
34	0x409b01da	4.843976
35	0xbee99d03	-0.45627603
36	0xc0951c70	-4.6597214
37	0x3ba72c80	0.0051017404
38	0x3d0ed970	0.034875333
39	0xc03ea8c4	-2.9790506
40	0xbdad6c90	-0.08467972
41	0xbea47ad0	-0.32124949
42	0x40fb4792	7.8524866
43	0x40f4d06d	7.6504426
44	0x402da76a	2.7133431
45	0x3ec9c478	0.39407706
46	0x4105cf88	8.363167
47	0x40dc5b46	6.886142
48	0x40d52d7e	6.6618032
49	0xbf8d00e8	-1.1015902
50	0xbeb98b46	-0.3623907
51	0xbef995b4	-0.48747027
52	0x40806178	4.011898
53	0x3e95b3ee	0.29238838
54	0x40b164b9	5.5435452
55	0x3d4d0692	0.050055094
56	0x40f77a2d	7.733664
57	0x40e37f74	7.1093082
58	0xbd9e7f7f	-0.07739162
59	0xc003ad14	-2.0574389
60	0xbe6eaebd	-0.23308845
61	0xc014bb91	-2.3239481
62	0x3ea02f8c	0.31286275
63	0x410bc7de	8.736296
64	0x40db3ddb	6.8513007
65	0x410a7b46	8.655096
66	0xc0462082	-3.0957341
67	0x4106c8b2	8.423998
68	0x4118c04d	9.546948
69	0xbd006390	-0.03134495
70	0x3ff5fde8	1.9218111
71	0x3d7adcd2	0.061245747
72	0x410be89f	8.744292
73	0xc03081fa	-2.7579331
74	0x40d86077	6.7617755
75	0x3f04c1d1	0.5185824
76	0xbed5da20	-0.4176798
77	0x409a7677	4.826961
78	0x3f2d7bb4	0.6776688
79	0xbe28ccec	-0.16484421
80	0x40f91775	7.7841134
81	0x40427237	3.0382211
82	0xbf6a5d0d	-0.91548234
83	0x3f99d726	1.2018783
84	0xc075c2b3	-3.8400085
85	0xbe3657b4	-0.17806894
86	0x3ef1be34	0.47215426
87	0xbfe4e1d7	-1.7881421
88	0x3f96fb61	1.1795465
89	0xbf72b92a	-0.9481379
90	0xbf5c3612	-0.86020005
91	0xbd67fe80	-0.056639194
92	0x40352268	2.830225
93	0x4078de33	3.888562
94	0xbe93d114	-0.2887045
95	0xbe99db11	-0.30049947
96	0x3ef8f3be	0.4862346
97	0xbfc8706d	-1.565931
98	0x40e095fc	7.0183086
99	0x3eeaafbc	0.458372
100	0xc01e3db6	-2.4725165
101	0x4102ccbc	8.174984
102	0x4100ac0a	8.042002
103	0xbec3bee9	-0.3823159
104	0xbea66038	-0.32495284
105	0xbf87cee0	-1.0610008
106	0x40f22ead	7.5681977
107	0xc08a960b	-4.330816
108	0x402cd06e	2.7002215
109	0x41013c98	8.077293
110	0x40a73be5	5.2260613
111	0xbd9f26b0	-0.07771051
112	0x3ee20db4	0.4415108
113	0xc005fb0d	-2.093448
114	0x408cca35	4.3996835
115	0x3d54c15e	0.05194222
116	0x3fbbb980	1.4665985
117	0x3e85e8a4	0.26154053
118	0x3d7a1f61	0.06106508
119	0x3d94f8c9	0.072740145
120	0xbe94d3ce	-0.29067844
121	0x3f8f4dc4	1.1195607
122	0xc01b0bee	-2.4226031
123	0x40e1fac0	7.061859
124	0xbedfeed4	-0.437369
125	0x3ecce084	0.40015042
126	0xbf03057a	-0.5118023
127	0x40279067	2.6181886

net.2.weight f4 [128, 128]
0	0xbcdb3e3c	-0.026763074
1	0xbd664af0	-0.05622381
2	0x406e1432	3.7199826
3	0xbd72de3e	-0.059293978
4	0x3d1434e8	0.036183268
5	0x400a2885	2.158723
6	0xbf4fcc0b	-0.8117072
7	0x40a2242b	5.066915
8	0xbe776def	-0.2416303
9	0xbce873a8	-0.028375462
10	0x3e8f0d7b	0.27939972
11	0x3d824305	0.06360439
12	0xbd92d7e4	-0.07170084
13	0x3fd9b785	1.7009131
14	0xbf074156	-0.5283407
15	0x3db1a359	0.08673734
16	0x406e3883	3.7221992
17	0xbd6ba77d	-0.057532776
18	0x3f1301fc	0.574249
19	0xbf0b8d44	-0.5451243
20	0x3c4cf220	0.012508899
21	0x3fce7594	1.6129632
22	0x3f9e5a8d	1.2371384
23	0xbe64970d	-0.22323246
24	0x3d89327f	0.066990845
25	0xbd1fe079	-0.039032433
26	0xbdb60e0f	-0.088894
27	0x3f872838	1.0559149
28	0xbe94c4df	-0.2905645
29	0xbd44e900	-0.04807377
30	0x3f00347d	0.5008009
31	0x3ffb8315	1.9649378
32	0x40672a74	3.6119661
33	0x3f233dbb	0.6376607
34	0x3fbb2576	1.4620807
35	0x3da1c502	0.078989044
36	0xbf55ff12	-0.8359233
37	0xbd934b6b	-0.07192119
38	0xbc607178	-0.013698928
39	0xbf290119	-0.660173
40	0x3ca9b828	0.020717695
41	0xbda7e80a	-0.08198555
42	0x3fa5e43e	1.2960279
43	0x40249301	2.5714724
44	0x3e71bc61	0.23607017
45	0xbd8da07c	-0.069153756
46	0x3fbb9daf	1.4657496
47	0x3fc1c4cf	1.5138186
48	0x3fffb51c	1.9977145
49	0xbf47c363	-0.7803251
50	0x3d59553a	0.053059794
51	0xbd5e674d	-0.054297734
52	0x3f6d1a7e	0.9261855
53	0x3d66d19a	0.056352235
54	0x408e442d	4.4458222
55	0xbc5806d8	-0.013185225
56	0x40828b48	4.079502
57	0x403b5094	2.926793
58	0xbde580c1	-0.112061985
59	0x3f054136	0.5205263
60	0xbb3360e6	-0.0027370988
61	0xbf51a964	-0.81899095
62	0xbd62a28b	-0.055330794
63	0x3ffecae9	1.9905673
64	0x40aa91d2	5.3303003
65	0x3fa7b81a	1.3103058
66	0xbf5c52f0	-0.8606405
67	0x3f41044e	0.75397193
68	0x3fca3405	1.5797125
69	0x3d26522e	0.040605716
70	0xbe522fd5	-0.20526059
71	0x3e049e62	0.12951043
72	0x3fdd7b29	1.730321
73	0xbf58ad6a	-0.8463961
74	0x4019e48e	2.4045749
75	0xba6f4776	-0.0009127775
76	0xbd9f6718	-0.077833354
77	0x3fc8fac9	1.5701534
78	0xbde5042e	-0.11182438
79	0xbd2baa93	-0.04191072
80	0x3e406832	0.18789747
81	0x40213233	2.518689
82	0x3e3e5d91	0.1859038
83	0x3ea3ada7	0.31968424
84	0xbf493a24	-0.7860434
85	0x3d9f5a6b	0.07780918
86	0xbd4632d5	-0.04838832
87	0xbfdbfeab	-1.7187093
88	0x3e8b2480	0.27176285
89	0x3e46cf5c	0.19415039
90	0x3e727f6d	0.23681422
91	0x3d434f46	0.047683023
92	0xbe0482fc	-0.12940592
93	0xbefb1e95	-0.4904677
94	0xbd0dc723	-0.03461374
95	0x3dcf189a	0.10112114
96	0x3d908293	0.07056155
97	0x3cecbade	0.028897699
98	0x40776110	3.8652992
99	0xbcef901a	-0.029243518
100	0xbf35633c	-0.70854545
101	0x40335f12	2.8026776
102	0x3fe68716	1.8009975
103	0x3ea17be2	0.31539828
104	0xbcb36aaf	-0.021901457
105	0xbff29a6b	-1.8953375
106	0x4081324d	4.03739
107	0xbf5beec7	-0.8591122
108	0x3f97e46d	1.1866585
109	0x3f32cb9e	0.69841945
110	0x3f887c56	1.0662944
111	0x3cc4aca0	0.024008095
112	0xbdabefca	-0.083953455
113	0xbf4229d1	-0.75845057
114	0x3f7552bf	0.95829386
115	0x3d5e82d8	0.054324
116	0x3e6c0785	0.23049743
117	0xbd960cfc	-0.07326695
118	0xbce4782f	-0.02788934
119	0xbd6288cc	-0.05530624
120	0xbcb61f20	-0.022231638
121	0xbcd3e8ab	-0.02586778
122	0xbee67587	-0.4501154
123	0x403e48a2	2.9731832
124	0xbd98bfc2	-0.0745845
125	0x3d2d868a	0.042364635
126	0x3f313dc5	0.6923488
127	0xc06194a3	-3.524697
128	0xbda534f0	-0.08066738
129	0xbd009c70	-0.03139919
130	0xbcbb97cf	-0.022899536
131	0xbdb18bc6	-0.08669238
132	0x3c5f5478	0.013630979
133	0x3c11875a	0.008882368
134	0xbd10daf1	-0.03536505
135	0xbb8098b0	-0.003924452
136	0xbde9be7b	-0.114132844
137	0x3da45bbd	0.0802531
138	0xbdc4fef5	-0.09618942
139	0xbd183089	-0.03715566
140	0x3d37a6a2	0.044836648
141	0xbc38145a	-0.011235321
142	0x3d288ea0	0.041151643
143	0xbd373ee1	-0.0447377
144	0x3d03ef90	0.032210886
145	0x3da538ad	0.08067451
146	0xbc9e235c	-0.01930397
147	0xbd5a6a71	-0.053324167
148	0xbc2af640	-0.010434687
149	0xbc16e8ac	-0.009210747
150	0xbd16f0a4	-0.036850587
151	0xbd28fc74	-0.041256383
152	0xbd6749ca	-0.056466855
153	0xbcc4899f	-0.023991404
154	0x3cf7b5b1	0.030238004
155	0x3b6d834b	0.0036241587
156	0xbd42df29	-0.047576103
157	0xbd9e409b	-0.07727166
158	0xbd27dbd0	-0.040981114
159	0xbb92996e	-0.0044738567
160	0x3d6bf3af	0.05760544
161	0x3cd74139	0.026276218
162	0x3ded6c87	0.115929656
163	0xbd44a0f6	-0.048005067
164	0xbd281ac9	-0.04104117
165	0x3d896543	0.06708767
166	0x3d8ba029	0.068176575
167	0x3cc1d6c0	0.023661971
168	0x3d498572	0.04919953
169	0x3d75ce1a	0.060011007
170	0x3cdf9e53	0.027297175
171	0xbd37ecb3	-0.04490347
172	0x3d539704	0.05165769
173	0x3d8c9abf	0.06865453
174	0xbc69479f	-0.014238267
175	0xbd76d188	-0.06025842
176	0x3ced15b9	0.028941022
177	0x3bfb1bf4	0.0076632444
178	0xbcb689dc	-0.022282533
179	0x3d5a551e	0.05330383
180	0xbd3d5f3f	-0.046233412
181	0x3cc358b0	0.023846
182	0x39179174	0.00014454668
183	0x3d00bb72	0.03142876
184	0x3d41f9f1	0.047357503
185	0x3c415c9d	0.011801866
186	0x3d32a51f	0.043614503
187	0x3a798123	0.0009517839
188	0xbdab08f9	-0.08351321
189	0xbdf1040a	-0.117683485
190	0xbd92fe1d	-0.071773745
191	0xbbb0fadd	-0.005400999
192	0xbd2a945c	-0.041645393
193	0x3d095258	0.033525795
194	0xbc9c25d3	-0.019061005
195	0xbd0493fb	-0.032367688
196	0xbd4c7c1c	-0.049923047
197	0xbd89afad	-0.067229606
198	0xbde43942	-0.111437336
199	0x3da358fd	0.079759575
200	0xbca635b8	-0.020289287
201	0x3c359a45	0.011084144
202	0xbd504d45	-0.05085494
203	0xbda08507	-0.07837873
204	0x3d65a706	0.05606749
205	0x3df8f7a6	0.1215661
206	0xba9470bf	-0.0011325105
207	0x3c12ade0	0.008952588
208	0x3bb3603f	0.00547412
209	0xbd9ca6c7	-0.07648998
210	0xbd092927	-0.03348651
211	0xbd0b0156	-0.03393682
212	0xbe03ec56	-0.12883124
213	0x3cc3f330	0.023919672
214	0xbca72b94	-0.020406522
215	0xbd4d618d	-0.05014186
216	0xbd85d72e	-0.06535183
217	0xbda0b8af	-0.078477256
218	0x3bb71415	0.0055871108
219	0x3d83617b	0.06415077
220	0xbd512fa6	-0.05107083
221	0x3cb28c21	0.021795334
222	0x3d55effe	0.052230828
223	0xbd9f5a6a	-0.07780917
224	0xbbadb3d0	-0.0053009763
225	0x3c819170	0.01581642
226	0x3d4669b3	0.048440646
227	0xbd7f471b	-0.06232367
228	0xbd3cd9b1	-0.046106044
229	0xbd953400	-0.07285309
230	0xbd03ceb1	-0.03217954
231	0x3ccd9eeb	0.025100192
232	0x3c352377	0.011055819
233	0xbd6d04b3	-0.05786581
234	0xbc1fe341	-0.009758771
235	0xbdb929fc	-0.09041211
236	0x3d7c5d53	0.06161244
237	0xbdc82eb3	-0.09774532
238	0xbd8f251a	-0.069894984
239	0x3cc5dcb4	0.024153091
240	0x3d0b8a38	0.034067363
241	0xbdf27f6a	-0.118407086
242	0xbd3750bb	-0.044754725
243	0xbbb93b55	-0.005652825
244	0x3cb2b596	0.021815103
245	0xbda3e0c1	-0.08001853
246	0xbcd579fc	-0.026059143
247	0xbd3d8a68	-0.046274573
248	0xbc7ce5a0	-0.015435606
249	0xbd1eff8a	-0.03881792
250	0xbd2963e0	-0.041355014
251	0x3bc7461c	0.0060813557
252	0x3c8078ec	0.01568266
253	0x3da597b5	0.080855764
254	0xbdcaaac1	-0.0989585
255	0xbcc341d8	-0.023835108

net.2.bias f4 [128]
0	0x4099d53d	4.80728
1	0xbd77fbe7	-0.060542967
2	0x3df836ab	0.12119802
3	0xbdbbbf75	-0.09167377
4	0x3f63275f	0.8873195
5	0xbd7f8c5c	-0.062389717
6	0xbdd9d617	-0.106365375
7	0xbdaa0d61	-0.08303333
8	0x3ccd2356	0.025041264
9	0xbd2a87c3	-0.04163338
10	0x3d08aeeb	0.03336994
11	0x401bb828	2.433115
12	0xbdaba067	-0.08380204
13	0xbd460137	-0.048341002
14	0x3c97170f	0.018443612
15	0x3f4fee53	0.8122303
16	0x3c5e7506	0.013577705
17	0xbb46225a	-0.0030232877
18	0xbda7b2c5	-0.081883945
19	0xbd10297f	-0.035195824
20	0xbd8d4c3c	-0.06899306
21	0xbe06d14a	-0.13165775
22	0x3e0dec28	0.13859618
23	0xbd9dea39	-0.0771069
24	0xbde468ea	-0.11152823
25	0xbac9bc02	-0.0015391114
26	0xbd0ea063	-0.034820925
27	0x3d26b346	0.040698312
28	0x3fe317c7	1.7741631
29	0xb9a749dc	-0.00031907752
30	0xbc406ade	-0.011744229
31	0x40047360	2.069542
32	0x3fafb846	1.3728111
33	0xbc317b62	-0.010832639
34	0x3d0889ff	0.03333473
35	0x3d4ede05	0.050504703
36	0xbd93b1a3	-0.07211616
37	0x4049fb93	3.1559799
38	0x40a2bc00	5.085449
39	0x3c5620fe	0.013069389
40	0xbdb381c6	-0.08764987
41	0xbc8da96a	-0.017292697
42	0xbce3ae46	-0.027793061
43	0x40ac2ed8	5.380718
44	0x408399ab	4.1125083
45	0x4040c5d2	3.012074
46	0x3fa14a43	1.2600788
47	0x40aa72fd	5.3265367
48	0x3f61c6ac	0.88193774
49	0x3fe9dd4c	1.827066
50	0x3d10eed3	0.03538401
51	0xbd7f659a	-0.062352754
52	0x3c62affe	0.013835905
53	0xbd93ebd3	-0.07222714
54	0xbe9f0b1e	-0.3106317
55	0xbd8dd264	-0.069248945
56	0xbd2c417e	-0.042054646
57	0x40a2a744	5.082918
58	0xbd1b27ed	-0.037879873
59	0x4057d671	3.3724635
60	0x3e5c891d	0.2153668
61	0xbcdb4605	-0.026766786
62	0xbd578f94	-0.05262716
63	0x3cde503d	0.02713787
64	0xbdf01882	-0.117234245
65	0xbe0f846e	-0.14015362
66	0xbbd7848a	-0.006577079
67	0xbdb469aa	-0.08809216
68	0xbda4dcf2	-0.080499545
69	0xbc90faf4	-0.017697789
70	0xbbb95064	-0.0056553353
71	0x3da964ad	0.082711555
72	0xbdd695f4	-0.1047782
73	0xbd9c8d0d	-0.07644091
74	0x3b0fe1f2	0.0021954742
75	0xbe154773	-0.14578037
76	0xbd874b34	-0.06606141
77	0xbd23cb22	-0.039988644
78	0x3d93e88d	0.0722209
79	0x3cbeea2a	0.023305018
80	0xbcb3f01c	-0.021965079
81	0x3b8ef7b0	0.0043630227
82	0x40197c69	2.3982184
83	0xbdc72b22	-0.09725024
84	0x3f64c8f8	0.89369154
85	0x3fe8b557	1.818034
86	0xbf3de13c	-0.74171805
87	0x3c7f0cc7	0.015567011
88	0x409dd34c	4.932043
89	0x40be1e93	5.941232
90	0x401cad89	2.4480917
91	0x403e5672	2.9740262
92	0xbd09ce7b	-0.03364418
93	0xbc884a85	-0.016637096
94	0x3f5fb6df	0.87388414
95	0xbefa395c	-0.48871887
96	0xbd0ee310	-0.034884512
97	0x40605c63	3.5056388
98	0x3dec5146	0.11538939
99	0xbad265ac	-0.0016052029
100	0x3c8901eb	0.016724547
101	0xbea87b03	-0.3290635
102	0xbd6e50a1	-0.058182362
103	0xbdf1c551	-0.11805213
104	0x3ffb5460	1.9635124
105	0xbdfc7ed1	-0.12328876
106	0xbd0a46b2	-0.033758827
107	0xbd928304	-0.071538955
108	0x3c06b01f	0.0082207015
109	0x3a256e58	0.0006310693
110	0x3d73ef62	0.059554465
111	0xbf3a2085	-0.7270587
112	0xbd14d80e	-0.03633886
113	0x3d44cbaf	0.04804581
114	0xbd79cdd4	-0.06098731
115	0xbddaf75d	-0.10691712
116	0x408942ca	4.289403
117	0xbd9c04e5	-0.07618121
118	0xbd8d15c1	-0.06888915
119	0x3e11117f	0.1416683
120	0x3acc64c0	0.0015593991
121	0xbd59317e	-0.053025715
122	0x3c842b7a	0.016134012
123	0x3fa7eaca	1.3118527
124	0x408cfe61	4.406052
125	0x40a6ed5b	5.216474
126	0x4005b37e	2.0890803
127	0x40c08894	6.016672

net.4.weight f4 [4, 128]
0	0x3fd5fbf0	1.671751
1	0xbd6aee65	-0.057356257
2	0xbcc77c30	-0.02435121
3	0xbcea1cf5	-0.02857826
4	0xbea29450	-0.31753778
5	0xbd32c029	-0.04364029
6	0x3cd323e2	0.025773946
7	0xbd40b55b	-0.047047954
8	0xbbd29a74	-0.0064271037
9	0x3aa87a43	0.001285382
10	0xbd198651	-0.03748161
11	0x405e9d22	3.4783406
12	0x3ce86f8b	0.0283735
13	0x3b5972e8	0.0033180062
14	0x3ca266c9	0.019824402
15	0x3ea25fcf	0.3171372
16	0xbc61a86b	-0.013773064
17	0x3d0f28fe	0.034951203
18	0x3d3eab0a	0.046549834
19	0x3d813413	0.063087605
20	0xbd3e17ea	-0.046409525
21	0x3d3cb294	0.046068743
22	0xbe191a55	-0.14951451
23	0x3c3edd48	0.011649437
24	0x3d1dbf28	0.03851238
25	0xbd46b184	-0.048509136
26	0xbcb890ad	-0.022529924
27	0x3cc4f246	0.024041306
28	0x3eabdcb7	0.3356683
29	0xbcda2abe	-0.02663171
30	0x3ccb7582	0.024836306
31	0x3f9fc44d	1.2481781
32	0x3ec9ecee	0.39438576
33	0x3c9fc81f	0.019504605
34	0x3d2a6c74	0.041607335
35	0xbccc4053	-0.024933016
36	0xbc8cfce9	-0.01721044
37	0x403dbf43	2.9647987
38	0x408d738e	4.420356
39	0x3c77b5be	0.015119014
40	0xbd681089	-0.056656394
41	0x3e1b3656	0.15157446
42	0xbba89ef9	-0.005145904
43	0x40989925	4.7686944
44	0x3f3762bb	0.71635026
45	0x3f67e0a2	0.9057714
46	0x3e82976b	0.25506148
47	0x402a0be3	2.6569755
48	0x3ef61a9f	0.48067185
49	0x3e944003	0.28955087
50	0x3cc23431	0.023706527
51	0xbda3f70d	-0.080061056
52	0xbd3f97c2	-0.046775587
53	0xb906841c	-0.0001282845
54	0xbe080ef7	-0.13286959
55	0x3c19359c	0.00935116
56	0xbc1d6970	-0.009607658
57	0x403fe2cf	2.9982183
58	0xbd401c02	-0.04690171
59	0x400630cb	2.096728
60	0x3c3577e1	0.011075945
61	0xbc60a345	-0.0137108015
62	0x3d1afa04	0.03783609
63	0xbd0cbfb1	-0.0343625
64	0x3cce1e2b	0.02516087
65	0xbd575543	-0.052571546
66	0x3cbf257e	0.023333307
67	0xb96ef5c2	-0.00022789
68	0x3cd9dafa	0.026593674
69	0xbd720693	-0.0590883
70	0xbd8d6231	-0.06903494
71	0xbc935b44	-0.017987855
72	0x3da5d7a1	0.080977686
73	0xbd39ab22	-0.04532922
74	0xbd143f15	-0.036192972
75	0xbdc2fb5a	-0.09520598
76	0x3cc439b7	0.023953302
77	0xbc357fed	-0.011077863
78	0xbd55d15b	-0.05220161
79	0x3c6e4f9e	0.014545349
80	0x3ce10ee0	0.027472913
81	0xbc91bbd7	-0.017789764
82	0x3f49ca4a	0.78824294
83	0x3da2ee2c	0.07955584
84	0x3eb799c1	0.35859492
85	0x3f44cf1e	0.76878536
86	0xbdc2b93f	-0.09507989
87	0x3e59d7d4	0.21273738
88	0x408c25cc	4.379614
89	0x4050cf75	3.2626622
90	0x4024c74b	2.5746639
91	0xbfcd98fe	-1.6062315
92	0xbd141256	-0.0361503
93	0x3c3c5c96	0.011496684
94	0x3c1f26a9	0.009713807
95	0xba11aab2	-0.00055567466
96	0x3da082ab	0.07837423
97	0x3fe6df6b	1.8036932
98	0xbdae68a0	-0.085160494
99	0x3d7ab25a	0.061205246
100	0xbd73760d	-0.059438754
101	0xbddf9a8d	-0.1091815
102	0x3b515ee8	0.0031947438
103	0x3c815d3f	0.015791534
104	0x3f281b7d	0.65666944
105	0x3c7f8260	0.015595049
106	0xbd480409	-0.048831973
107	0x3da3396e	0.07969938
108	0x3c366ed4	0.011134822
109	0x3c3cd230	0.011524722
110	0x3db3ef4b	0.08785876
111	0xc037f0b2	-2.8740659
112	0x3c251a92	0.010077136
113	0x3cb2c9a3	0.021824664
114	0x3d8bdcf4	0.06829253
115	0xbd99b884	-0.07505897
116	0x3fb6ee15	1.4291407
117	0x3b4d6f3b	0.0031346816
118	0x3d523866	0.051323317
119	0xbe90a718	-0.28252482
120	0xbd999cf2	-0.07500638
121	0xbd1d20d3	-0.03836138
122	0x3d24dc7c	0.040249333
123	0x3eb28947	0.3487036
124	0x4089c272	4.304986
125	0x401d10dd	2.4541543
126	0x3f183aec	0.5946491
127	0x403df115	2.9678395
128	0x3fee3171	1.8608838
129	0xbd606a00	-0.05478859
130	0x3d1009ab	0.03516547
131	0xbe15c071	-0.14624192
132	0xbdbffbaa	-0.09374173
133	0x3cc7df76	0.024398547
134	0x3cd82894	0.026386537
135	0x3cca8026	0.024719309
136	0x3d2d4387	0.042300727
137	0xbdaba8b0	-0.08381784
138	0x3c5b2691	0.013375894
139	0x40818e0c	4.0485897
140	0xbcf82ae7	-0.030293895
141	0xbd8816b7	-0.066449575
142	0x3d5030a3	0.050827634
143	0x3e811ebf	0.2521877
144	0x3b8873b0	0.0041641816
145	0x3d05933d	0.03261112
146	0x3d3a73a9	0.04552046
147	0xbd13d1a9	-0.03608862
148	0xbd05bbdd	-0.032649864
149	0xbb2673b0	-0.0025398545
150	0xbf52ed4f	-0.82393354
151	0xbca2c3fa	-0.01986884
152	0xbd90d7d8	-0.07072419
153	0x3cc97ca4	0.024595566
154	0xbbe5e00d	-0.0070152343
155	0xbc09e88a	-0.008417258
156	0x3ef6d835	0.48211828
157	0x3ce28b4e	0.027654316
158	0x3d1c6933	0.038186263
159	0x3f96129b	1.1724428
160	0x3f011974	0.50429463
161	0xbd063288	-0.032763034
162	0xbb8412b1	-0.0040305485
163	0x3d239a76	0.039942227
164	0x3d326397	0.043552008
165	0x40813876	4.038142
166	0x407bfc63	3.9372795
167	0xbcab9c6c	-0.020948611
168	0xbd290315	-0.041262705
169	0x3b5ca94f	0.0033670252
170	0x3dc796f8	0.09745592
171	0x409ee3a7	4.9652896
172	0x3fa5d553	1.2955726
173	0x402ce0ab	2.7012126
174	0x3e2921b5	0.16516764
175	0x3fd85ea4	1.6903882
176	0x3e632320	0.22181368
177	0x3ea7571c	0.32683647
178	0x3c1777c8	0.009244867
179	0x3d51a3b3	0.051181506
180	0xbc413516	-0.011792442
181	0x3cf96bd3	0.030446922
182	0xbe6f4777	-0.23367105
183	0x3b4d6ba8	0.0031344686
184	0xbd69c695	-0.05707415
185	0x4046b0a8	3.1045322
186	0xbd8049b7	-0.0626406
187	0x3fd3f090	1.6557789
188	0x3caf90f4	0.021431424
189	0xbd784213	-0.06060989
190	0x3d38e2a5	0.04513802
191	0x3caa14e0	0.020761907
192	0xbd69aea4	-0.057051316
193	0xbdbf9a9f	-0.093556635
194	0xbd455e7a	-0.048185803
195	0x3da6cad2	0.08144154
196	0xbd9e3c4b	-0.07726344
197	0x3d54675e	0.05185639
198	0x3d9ff4a6	0.07810335
199	0x3aaa46df	0.0012991092
200	0xbc0616ec	-0.008184176
201	0xbd2b04d0	-0.041752636
202	0xbe3dbce8	-0.18529093
203	0xbdd494c6	-0.10379939
204	0x3ba3c379	0.0049976674
205	0xbc34d8d0	-0.01103802
206	0xbd97b8e6	-0.074083135
207	0x3c75ae60	0.0149951875
208	0x3a4b7780	0.00077616423
209	0xbd1ca2fc	-0.03824137
210	0x40567c8b	3.3513515
211	0x3e1d86d8	0.1538347
212	0x3e80eabc	0.25179088
213	0x3e807c11	0.25094655
214	0xbe0a81ea	-0.13526121
215	0x3e2a3e6c	0.16625375
216	0x4034db91	2.8259013
217	0x408baec9	4.365086
218	0x4056ff40	3.3593292
219	0xc0d797b2	-6.7372675
220	0xbccea7e7	-0.025226546
221	0x3ddd457d	0.108042695
222	0x3eb74731	0.35796502
223	0xbf5672a0	-0.83768654
224	0xbd047d63	-0.03234614
225	0x3fc514a3	1.5396923
226	0xbd02732d	-0.03184812
227	0x3c9ae036	0.01890574
228	0xbdb94965	-0.09047202
229	0xbd92a9c2	-0.07161285
230	0x3d9790dd	0.07400677
231	0x3c0eba66	0.008711433
232	0x3f0b14e8	0.54328775
233	0xba888b45	-0.0010417482
234	0x3b3f4075	0.0029182706
235	0x3cac4cbb	0.021032682
236	0x3d02657c	0.031835064
237	0xbdc0d5c2	-0.09415771
238	0xbd1a4d1e	-0.0376712
239	0xbffff32b	-1.9996084
240	0x3d89a3e7	0.06720715
241	0x3d53b94b	0.05169038
242	0xbd90a7fc	-0.070632905
243	0xbd94945c	-0.0725486
244	0x40020485	2.0315259
245	0xbbe01d3a	-0.0068394216
246	0xbd00d6f3	-0.03145499
247	0xbd450676	-0.048101865
248	0xbdb0cbc3	-0.086326145
249	0xbdd47283	-0.10373404
250	0x3cce8a87	0.02521254
251	0x3e9e3676	0.30900925
252	0x3fee193f	1.8601454
253	0x4073f691	3.8119242
254	0x3ed4176a	0.41424114
255	0x40087d1e	2.1326365

net.4.bias f4 [4]
0	0x41becd6d	23.850306
1	0x41b897d0	23.074127
2	0x41bbc974	23.473366
3	0x41b982df	23.188902
