Entities/pained_nav.pth (torch, 73785 bytes, 6 tensors)

net.0.weight f4 [128, 4]
-0.13364036 0.14657693 0.3277882 -0.06214648 -0.36408937 -0.06534201 -0.46579114 0.4006796
-0.51655936 0.14439188 -0.3310362 0.05516435 -0.44348693 0.36987746 -0.02491051 -0.46340042
-0.12493744 0.07928174 -0.38142973 0.3550189 0.32241267 0.18710183 0.12147229 0.009807446
-0.19836026 0.12772429 -0.16126335 -0.12807107 -0.44857255 0.3892804 0.41815773 0.43167004
0.04513217 0.1806716 0.24140011 -0.3072413 -0.014510989 -0.16745532 -0.47480512 -0.20660561
-0.006726712 0.17328218 0.21823594 0.012630588 0.16600724 0.28948313 -0.26972649 0.25185028
-0.05504024 -0.32972276 -0.06862664 -0.11162454 -0.39998263 -0.013326261 0.24101363 0.23831894
0.020167172 0.10328311 -0.22748882 -0.1580072 0.07028282 0.016852736 -0.4029678 -0.42265844
-0.32128245 -0.14466757 -0.069839895 -0.39616573 -0.024496377 -0.3199011 -0.24603522 -0.21515912
-0.08619402 -0.52425337 -0.04858085 0.31171188 0.14805593 0.042629868 -0.07380491 0.16330098
0.2394101 -0.43302292 -0.16430366 -0.41135162 0.33176237 -0.1411614 -0.50273514 -0.059816908
-0.007953321 0.47054625 -0.32558146 0.44193858 -0.25657016 0.37501895 0.20027544 0.3270564
0.19875315 -0.43534783 0.046424426 0.07020169 -0.45084566 -0.4276963 -0.44370496 0.17027289
-0.04112059 -0.05040568 -0.19955403 -0.47975814 -0.44645128 -0.14960356 0.30943277 -0.34855735
0.4359418 -0.08853333 0.25690997 -0.21899985 -0.0090325475 -0.46517354 -0.3930382 0.21536893
0.14693916 -0.13062757 -0.24128896 -0.22041285 -0.34500498 0.3287192 -0.45366538 -0.38144034
0.2605162 -0.28014252 0.26098064 0.06696191 0.12997533 -0.45003968 0.11053506 -0.13728732
-0.08331078 -0.11450703 0.16214225 -0.39430916 -0.4131239 0.13620347 -0.17320415 0.07055812
0.12915869 0.18395439 -0.2985116 -0.5479412 -0.5493944 -0.34519163 0.35050836 -0.08859712
0.016796887 0.09159911 -0.42900842 -0.2709784 0.1106738 0.34605005 0.3658241 0.26701587
0.2081891 -0.45949185 0.08128037 0.15111502 0.19906525 -0.42064285 0.3441875 0.22970127
0.09383522 -0.17734501 -0.029840631 -0.37394047 0.1383713 -0.1176084 -0.345864 -0.017140338
-0.39515206 0.277817 0.31525582 -0.48818108 0.0306284 0.060749438 -0.2547445 0.2823872
-0.32124776 -0.19354391 -0.22432667 0.122517645 -0.08191977 0.2874063 -0.13228618 0.36367175
-0.35745332 0.009736188 0.43616262 0.46576634 -0.39104292 0.03221658 -0.37433678 0.20878099
0.00514025 0.3694206 -0.11127553 0.14808357 0.032393303 -0.17320557 -0.23448473 0.42329925
-0.32618934 -0.29780543 -0.19758657 0.41368684 -0.3919205 -0.18690836 0.1445821 -0.22970247
-0.38305378 0.45960927 0.39046147 -0.11819227 0.2876315 -0.5214674 0.18647957 -0.45476404
0.3301439 -0.059313353 0.27293575 -0.32938504 0.073933005 -0.006111324 -0.2657779 -0.28088582
0.27658233 -0.05597074 -0.30079493 0.13732404 -0.21060258 -0.48972428 0.063272834 -0.41394764
-0.1535107 0.0368805 -0.06072283 -0.080619685 0.03781624 0.40438047 -0.04897663 0.20734496
0.31061497 0.27600196 -0.25837094 -0.42197713 -0.15114358 0.3635161 0.41728064 -0.17454927
00000000: 05d9 08be 4318 163e dbd3 a73e 4f8d 7ebd
00000010: ec69 babe 08d2 85bd 2d7c eebe e025 cd3e
00000020: 3c3d 04bf 77db 133e 947d a9be 03f4 613d
00000030: b810 e3be 9460 bd3e 2011 ccbc d242 edbe
00000040: 33df ffbd 775e a23d c24a c3be 0ac5 b53e
00000050: 4613 a53e 9f97 3f3e 77c6 f83d 69af 203c
00000060: f41e 4bbe 28ca 023e 3822 25be 1025 03be
00000070: 4dab e5be c34f c73e c518 d63e db03 dd3e
00000080: 83dc 383d fa01 393e 9731 773e bb4e 9dbe
00000090: 80bf 6dbc 6879 2bbe a819 f3be 6c90 53be
000000a0: c06b dcbb e270 313e 3e79 5f3e 87f0 4e3c
000000b0: cdfd 293e 2237 943e 9719 8abe 85f2 803e
000000c0: e071 61bd 6cd1 a8be 208c 8cbd 689b e4bd
000000d0: 86ca ccbe 6456 5abc 47cc 763e e109 743e
000000e0: a035 a53c 1886 d33d d4f2 68be a4cc 21be
000000f0: 70f0 8f3d c00e 8a3c cc51 cebe b066 d8be
00000100: 227f a4be bc23 14be 3808 8fbd 3cd6 cabe
00000110: a0ac c8bc 14ca a3be a8f0 7bbe ac52 5cbe
00000120: 7e86 b0bd 7835 06bf b7fc 46bd b398 9f3e
00000130: f99b 173e a89c 2e3d 0727 97bd 5f38 273e
00000140: ec27 753e 2eb5 ddbe 383f 28be ae9c d2be
00000150: c2dc a93e 9d8c 10be 40b3 00bf 9302 75bd
00000160: a54e 02bc 70eb f03e 9db2 a6be c645 e23e
00000170: 2a5d 83be 7c02 c03e 0115 4d3e f073 a73e
00000180: f285 4b3e e9e5 debe 8a27 3e3d e7c5 8f3d
00000190: 3ed5 e6be 02fb dabe 4c2d e3be 045c 2e3e
000001a0: 106e 28bd 3076 4ebd e457 4cbe dca2 f5be
000001b0: 4395 e4be ad31 19be f96d 9e3e 1c76 b2be
000001c0: c333 df3e f650 b5bd b489 833e 7f41 60be
000001d0: 40fd 13bc 3a2b eebe 4e3c c9be ac89 5c3e
000001e0: 3877 163e 3cc3 05be 7414 77be e8b3 61be
000001f0: 7ea4 b0be e24d a83e d446 e8be 264c c3be
00000200: 6162 853e d76e 8fbe 419f 853e 5323 893d
00000210: 4118 053e 9a6b e6be 3560 e23d 0c95 0cbe
00000220: d89e aabd a982 eabd 9e08 263e e4e2 c9be
00000230: fa84 d3be ec78 0b3e 6e5c 31be c780 903d
00000240: 2d42 043e 8a5e 3c3e 83d6 98be e045 0cbf
00000250: 1da5 0cbf f5bc b0be d575 b33e 6872 b5bd
00000260: a099 893c 5098 bb3d fea6 dbbe aebd 8abe
00000270: f2a8 e23d 792d b13e 4c4d bb3e 4eb6 883e
00000280: 862f 553e 8442 ebbe 5376 a63d e5bd 1a3e
00000290: c3d7 4b3e 805e d7be 5839 b03e cf36 6b3e
000002a0: ae2c c03d ee99 35be 5774 f4bc 2075 bfbe
000002b0: 35b1 0d3e acdc f0bd 1615 b1be e569 8cbc
000002c0: 5f51 cabe 083e 8e3e 3669 a13e dff2 f9be
000002d0: 69e8 fa3c 67d4 783d df6d 82be 0e95 903e
000002e0: 967a a4be 6030 46be e4b5 65be 88ea fa3d
000002f0: 8dc5 a7bd eb26 933e 0776 07be 2f33 ba3e
00000300: 1f04 b7be 8884 1f3c b550 df3e ed78 ee3e
00000310: c736 c8be 88f5 033d 12a9 bfbe afca 553e
00000320: 8b6f a83b b224 bd3e 6de4 e3bd 38a3 173e
00000330: d7ae 043d cd5c 31be c41c 70be aeba d83e
00000340: 4a02 a7be f479 98be 2254 4abe c3ce d33e
00000350: cea9 c8be e864 3fbe 540d 143e 2037 6bbe
00000360: a01f c4be e851 eb3e 91ea c73e ca0e f2bd
00000370: 7044 933e e37e 05bf 80f4 3e3e d5d6 e8be
00000380: 9f08 a93e 8ff2 72bd 3cbe 8b3e 28a5 a8be
00000390: 306a 973d 8041 c8bb 0a14 88be 44d0 8fbe
000003a0: 339c 8d3e 9341 65bd cb01 9abe ac9e 0c3e
000003b0: 34a8 57be 24bd fabe 3095 813d f2f0 d3be
000003c0: e931 1dbe 0210 173d 81b8 78bd ef1b a5bd
000003d0: 34e5 1a3d f50a cf3e b89b 48bd 3d52 543e
000003e0: ed08 9f3e 2150 8d3e 3249 84be 630d d8be
000003f0: 62c5 1abe c81e ba3e cfa5 d53e 0bbd 32be

net.0.bias f4 [128]
0.029568208 -0.22863069 0.08041167 0.3994292 0.09757519 -0.025848286 0.39536673 0.18074457
-0.3304689 0.023162842 0.035340093 0.45241782 -0.41616565 -0.39215907 -0.34752578 -0.2447719
-0.2563355 0.4341941 0.1194331 0.062875524 0.41981822 0.37295857 0.26592478 -0.1899125
0.16552022 -0.117753744 -0.2156986 0.072455145 0.28821382 -0.14408743 -0.11232567 0.23047763
-0.11118701 -0.071396664 0.37489435 0.25517395 0.3656194 0.089080654 0.1441266 -0.20667335
-0.4054201 -0.08970012 -0.067043185 0.18663627 0.18987887 -0.17862616 0.35113573 0.3707146
0.11086859 -0.5544677 -0.5139052 0.10660304 -0.23999363 -0.44986945 0.21147749 0.16768791
-0.46934953 -0.4186259 0.28497437 -0.21800095 0.34611633 0.39873338 -0.22321683 -0.46737912
0.18289489 0.37058485 -0.25778294 -0.22498444 -0.29382163 -0.063826285 0.12745112 0.2605869
0.073662326 -0.12505786 -0.3835872 -0.49486142 0.07151604 -0.15304048 0.16492565 -0.48889
-0.48933235 0.153674 0.16441412 -0.10789148 0.016509043 0.22802448 0.33869576 0.065680444
-0.14954075 0.29612824 0.0059966207 0.28379512 0.2915002 -0.5354739 0.4484497 -0.24862128
0.2436873 -0.22421902 -0.24492306 0.38122898 -0.3773981 -0.48285204 0.058444493 0.30309704
0.095708966 0.35041088 -0.38029876 -0.28346694 0.45478028 -0.018920753 0.4191284 -0.2860109
0.2359071 0.43476173 -0.04710579 -0.2131322 0.08033992 0.133882 -0.18253435 0.23574212
-0.19220866 0.24269164 -0.19914153 -0.11212586 -0.22995006 0.05891639 -0.19308095 -0.44855857
00000000: 0739 f23c 2a1e 6abe e0ae a43d fc81 cc3e
00000010: 80d5 c73d c9bf d3bc 826d ca3e 1b15 393e
00000020: 3833 a9be 00c0 bd3c c6c0 103d 4fa3 e73e
00000030: aa13 d5be 13c9 c8be e6ee b1be 7ca5 7abe
00000040: 683e 83be b04e de3e 5799 f43d e2c4 803d
00000050: 6af2 d63e 6df4 be3e 4b27 883e 6c78 42be
00000060: 227e 293e e028 f1bd 18e0 5cbe 5d63 943d
00000070: c390 933e a88b 13be 000b e6bd 5402 6c3e
00000080: 04b6 e3bd 6a38 92bd 27f2 bf3e 29a6 823e
00000090: 7732 bb3e eb6f b63d ec95 133e 2ea2 53be
000000a0: 3993 cfbe b2b4 b7bd f04d 89bd 941d 3f3e
000000b0: 9b6f 423e c7e9 36be 10c8 b33e 4ece bd3e
000000c0: 120f e33d 98f1 0dbf 4b8f 03bf b252 da3d
000000d0: e4c0 75be 4a55 e6be 8e8d 583e 61b6 2b3e
000000e0: 954e f0be 2256 d6be 29e8 913e a43b 5fbe
000000f0: 2936 b13e c826 cc3e f492 64be 514c efbe
00000100: cc48 3b3e 4cbd bd3e 20fc 83be 5262 66be
00000110: ca6f 96be 5bb7 82bd 8c82 023e a56b 853e
00000120: 46dc 963d 2b0f 00be 8b65 c4be 7a5e fdbe
00000130: 0077 923d a5b6 1cbe 45e2 283e ca4f fabe
00000140: c589 fabe b85c 1d3e 2d5c 283e 35f6 dcbd
00000150: f93d 873c 407f 693e 8869 ad3e 7883 863d
00000160: 3621 19be 1f9e 973e 4d7f c43b 984d 913e
00000170: 843f 953e d114 09bf 339b e53e 9496 7ebe
00000180: 2a89 793e ac99 65be 1ccd 7abe 7230 c33e
00000190: 533a c1be 6238 f7be 7e63 6f3d 892f 9b3e
000001a0: 1003 c43d 0e69 b33e 85b6 c2be 9422 91be
000001b0: f6d8 e83e b2ff 9abc ff97 d63e 0570 92be
000001c0: a191 713e 1799 de3e 00f2 40bd 543f 5abe
000001d0: 4289 a43d 5d18 093e 49ea 3abe 6266 713e
000001e0: 59d2 44be 2884 783e c2eb 4bbe 3ea2 e5bd
000001f0: 0778 6bbe 5052 713d 03b7 45be 78a9 e5be

net.2.weight f4 [128, 128]
0.034356624 0.019881126 -0.07916995 0.06899015 -0.06679776 -0.0043916972 -0.07456908 -0.094846874
-0.00085880375 -0.059899017 -0.036376484 -0.086075544 0.06650794 -0.086439356 0.0076077506 -0.057014305
-0.05451131 0.017059043 -0.0060480037 -0.0676396 -0.044925157 -0.04852031 -0.0222355 -0.0035511625
0.053242315 -0.041152246 -0.019994825 -0.067994565 0.009633517 -0.057634097 -0.046725493 -0.07978171
0.0628782 -0.009888273 0.07861217 0.094709456 0.089189954 -0.09498264 0.032850184 -0.009217875
0.024167474 0.008443558 0.008090554 0.07190693 0.047065455 -0.008767339 -0.087585926 0.05920214
-0.09276142 0.050132897 -0.06940403 -0.061847493 0.045861624 -0.0011090487 -0.035966218 -0.07403285
0.05060631 0.084660046 -0.012119702 -0.08824076 0.041953374 0.05052298 -0.018207438 -0.0032008775
-0.025796225 0.049996324 -0.091626026 0.056553733 0.0349202 -0.03507904 -0.06145017 0.036293812
-0.032199696 -0.07387845 -0.08827707 -0.078976646 -0.0108753 -0.01911654 0.02494562 -0.012307755
0.009324387 -0.072367266 -0.059203107 -0.0879542 -0.0016036157 -0.010557719 -0.009430155 0.009078339
-0.08799341 -0.0617068 0.05234472 0.070572816 0.028228916 -0.021362735 -0.06811508 -0.013472919
-0.04766755 -0.020716503 -0.07008429 -0.08434955 0.04898781 0.043634277 0.07181421 0.01428405
-0.011037499 -0.07176488 -0.04731868 0.021466509 -0.023027144 -0.07410837 0.0077733328 0.055285018
-0.009306858 -0.04524104 0.050917856 0.0063712522 0.05244507 -0.0838885 -0.07337777 0.032973338
-0.04548339 -0.066880405 0.053401258 0.05500623 0.028289314 0.088158466 -0.006361408 -0.020984812
0.00814266 -0.0142029375 0.07698608 -0.06927677 0.014657117 0.061164677 -0.068557024 0.0060185273
0.024906471 0.0033388808 0.03507112 -0.055972792 0.032160982 0.07653356 0.025409207 -0.013267279
-0.05860927 -0.06992828 -0.03116225 -0.002844308 0.075191624 -0.05868592 0.05996287 0.056340307
0.06332945 -0.04694183 -0.08194987 0.029273577 0.07501072 -0.019845836 -0.05603904 0.0006430745
-0.054044873 0.04668473 0.017001174 -0.0025751442 0.039850798 0.07154175 -0.033831686 -0.016608339
0.08144804 0.048021525 -0.02611303 0.04454649 -0.08871866 -0.03538836 -0.021419838 0.035747334
-0.030282825 -0.06669937 -0.05424665 0.032524895 0.08765916 0.08787093 0.0335691 -0.018142393
-0.011395177 -0.0243387 0.03238589 0.019633278 0.076904245 -0.017670033 0.056985203 0.052971154
0.021675944 -0.04184922 -0.04878473 -0.025030812 -0.08152939 -0.06725946 0.0567526 -0.07846958
-0.03667069 0.05148577 0.070670724 0.006119609 -0.07819724 0.008645522 -0.05531766 -0.047112875
-0.027015023 -0.08698767 -0.0484949 0.03752219 0.009684111 0.050613187 0.05626846 -0.06559416
-0.05166645 -0.0393166 -0.090782344 0.076535426 0.08391511 -0.080127075 -0.08874772 -0.08408145
-0.040987127 0.046840616 0.0035276562 0.056626964 -0.029365236 0.04418833 -0.028827433 -0.04428873
-0.061075788 -0.0048888624 -0.058104265 -0.05426786 0.015344933 -0.06541631 -0.041360237 -0.011073519
0.01864356 -0.040027525 0.01873815 0.07936203 -0.09288595 -0.046546537 -0.07901641 0.012579415
0.031748887 0.072723486 0.06553544 -0.018915707 -0.03449536 -0.026905883 -0.086131796 -0.016213968
00000000: 88b9 0c3d bedd a23c db23 a2bd b54a 8d3d
00000010: 44cd 88bd 3ae8 8fbb acb7 98bd 143f c2bd
00000020: 5821 61ba ac58 75bd 82ff 14bd 6048 b0bd
00000030: 5135 883d 1e07 b1bd 704a f93b d587 69bd
00000040: 4047 5fbd 68bf 8b3c 552e c6bb a186 8abd
00000050: 7103 38bd 3cbd 46bd 3927 b6bc 9fba 68bb
00000060: 9d14 5a3d 428f 28bd 30cc a3bc bc40 8bbd
00000070: e6d5 1d3c bb11 6cbd 3b63 3fbd 9864 a3bd
00000080: 49c6 803d 6c02 22bc 6bff a03d 08f7 c13d
00000090: 39a9 b63d 4286 c2bd ea8d 063d 9206 17bc
000000a0: defa c53c d956 0a3c 3e8e 043c f143 933d
000000b0: b5c7 403d e3a4 0fbc 4060 b3bd f17d 723d
000000c0: b3f9 bdbd 2758 4d3d b323 8ebd cc53 7dbd
000000d0: 66d9 3b3d 805d 91ba 5051 13bd 899e 97bd
000000e0: 9048 4f3d 3f62 ad3d b791 46bc 92b7 b4bd
000000f0: 4dd7 2b3d 2ff1 4e3d c427 95bc d0c5 51bb
00000100: 9b52 d3bc f2c8 4c3d 6da6 bbbd e3a4 673d
00000110: 7c08 0f3d 0aaf 0fbd 2cb3 7bbd d2a8 143d
00000120: d4e3 03bd 964d 97bd 9cca b4bd 82be a1bd
00000130: 502e 32bc 4a9a 9cbc c25a cc3c 77a6 49bc
00000140: 50c5 183c 4a35 94bd f57e 72bd 5521 b4bd
00000150: 6a30 d2ba 48fa 2cbc f080 1abc 50bd 143c
00000160: e435 b4bd 45c0 7cbd 6b67 563d 7b88 903d
00000170: 5440 e73c e700 afbc eb7f 8bbd 85bd 5cbc
00000180: 0d3f 43bd a8b5 a9bc 5a88 8fbd 75bf acbd
00000190: 71a7 483d dbb9 323d 5413 933d a607 6a3c
000001a0: a0d6 34bc 77f9 92bd 3bd1 41bd 88da af3c
000001b0: 6ca3 bcbc 21c6 97bd 71b7 fe3b 8b72 623d
000001c0: cb7b 18bc ab4e 39bd 3e8f 503d f0c5 d03b
000001d0: a4d0 563d bccd abbd 1647 96bd 0d0f 073d
000001e0: cb4c 3abd 98f8 88bd 47bb 5a3d 364e 613d
000001f0: febe e73c 6d8c b43d 5c73 d0bb 57e8 abbc
00000200: cb68 053c 70b3 68bc e1aa 9d3d fbe0 8dbd
00000210: 6824 703c d087 7a3d a067 8cbd 1137 c53b
00000220: a808 cc3c 20d1 5a3b bca6 0f3d ba43 65bd
00000230: 3cbb 033d a1bd 9c3d f826 d03c 005f 59bc
00000240: 4610 70bd 8f36 8fbd fa47 ffbc 9267 3abb
00000250: 11fe 993d a660 70bd a09b 753d 18c5 663d
00000260: dfb2 813d 1446 40bd 55d5 a7bd 24cf ef3c
00000270: 389f 993d bc93 a2bc 3189 65bd 0094 283a
00000280: 285e 5dbd 7d38 3f3d 0c46 8b3c c0c3 28bb
00000290: 973a 233d 7b84 923d 1893 0abd 360e 88bc
000002a0: 3bce a63d 38b2 443d feea d5bc 6176 363d
000002b0: 21b2 b5bd 63f3 10bd a878 afbc cc6b 123d
000002c0: b013 f8bc ae99 88bd bc31 5ebd d338 053d
000002d0: a586 b33d adf5 b33d c17f 093d 5b9f 94bc
000002e0: d6b2 3abc f461 c7bc 11a7 043d f8d5 a03c
000002f0: f97f 9d3d bfc0 90bc 5169 693d 48f8 583d
00000300: c091 b13c 166a 2bbd 7fd2 47bd 6b0d cdbc
00000310: e1f8 a6bd 54bf 89bd 6a75 683d a9b4 a0bd
00000320: 0134 16bd bee2 523d d0bb 903d 0087 c83b
00000330: e025 a0bd f3a5 0d3c c594 62bd 6ef9 40bd
00000340: 9c4e ddbc 9726 b2bd 97a2 46bd deb0 193d
00000350: 1baa 1e3c c64f 4f3d c279 663d 3b56 86bd
00000360: 33a0 53bd 710a 21bd 18ec b9bd 9bbe 9c3d
00000370: afdb ab3d aa19 a4bd 5dc1 b5bd e532 acbd
00000380: 1ee2 27bd f2db 3f3d 4030 673b adf1 673d
00000390: 5d8f f0bc d3fe 343d 8227 ecbc 1968 35bd
000003a0: 9b2a 7abd c032 a0bb bdfe 6dbd fa47 5ebd
000003b0: 5069 7b3c fdf8 85bd 5a69 29bd b46d 35bc
000003c0: 61ba 983c e7f3 23bd c080 993c 8f88 a23d
000003d0: fd3a bebd 95a7 3ebd 5bd3 a1bd e419 4e3c
000003e0: 1f0b 023d 0df0 943d 7237 863d 1df5 9abc
000003f0: 024b 0dbd ba69 dcbc de65 b0bd 28d3 84bc

net.2.bias f4 [128]
-0.041143626 0.059322003 -0.013915616 0.0730372 -0.053090498 -0.08272448 -0.11553316 0.04168526
-0.08197434 0.039006766 -0.04770206 -0.042452175 -0.09861608 -0.048881352 0.050537854 0.03880758
-0.09841072 -0.048325498 0.05708698 0.076069996 -0.04473474 0.031114709 -0.027724834 0.031820565
-0.04371796 -0.082935385 -0.04171996 -0.064523585 0.0140137635 -0.0061608776 -0.11823389 -0.11199662
-0.09214233 0.012249056 -0.050104056 0.026110256 0.0088545075 0.0038714418 -0.080767415 -0.013019728
-0.076249324 -0.032663956 0.039983194 0.051113017 0.020792611 -0.11209523 0.032048732 0.0062308013
-0.096888885 0.025066193 0.04540568 0.052805323 0.015763177 -0.009329803 -0.044487685 -0.024894303
0.0021781644 -0.006807546 0.039778683 0.007788051 0.070246704 -0.018201822 -0.06526027 -0.024319815
0.028851107 -0.08175603 -0.12204514 -0.012973489 0.06332196 -0.10226959 0.033817396 -0.04207932
-0.12667471 -0.03710792 -0.023085967 -0.15538901 0.07262204 -0.027191631 -0.044269636 -0.07544824
0.013542234 -0.020949677 -0.044014826 -0.039848693 0.06497829 -0.019713294 -0.058397744 -0.10171848
0.016073782 -0.08308864 0.052430894 0.07117956 0.006912628 -0.052877862 0.09293943 0.06341729
-0.064778544 -0.062326003 -0.081881136 0.03225182 -0.05079174 0.009312191 -0.023142695 0.03363737
-0.066979446 0.009126216 -0.0038173473 -0.0113946935 -0.039038345 0.046777114 0.020369064 -0.05800266
0.023777263 -0.0799168 -0.020929396 0.057973385 -0.030491758 -0.08278938 0.017127136 0.066111945
-0.08908883 0.0400964 -0.077351496 0.034400064 -0.0029119472 0.033753812 -0.018606197 -0.026569836
00000000: 3886 28bd a1fb 723d 53fe 63bc 8794 953d
00000010: 6c75 59bd 746b a9bd a69c ecbd 2abe 2a3d
00000020: 2ae2 a7bd 8fc5 1f3d 3c63 43bd 55e2 2dbd
00000030: 3af7 c9bd d037 48bd c800 4f3d b2f4 1e3d
00000040: 8f8b c9bd f5f0 45bd 0ad4 693d 96ca 9b3d
00000050: c63b 37bd 46e4 fe3c 311f e3bc 4856 023d
00000060: 9b11 33bd 07da a9bd 8ce2 2abd f124 84bd
00000070: fc99 653c 30e1 c9bb 9c24 f2bd 7c5e e5bd
00000080: 1eb5 bcbd 44b0 483c e939 4dbd 2de5 d53c
00000090: 7f12 113c 04b8 7d3b 6369 a5bd b250 55bc
000000a0: 9b28 9cbd a4ca 05bd 6bc5 233d e25b 513d
000000b0: 4455 aa3c 2f92 e5bd 8845 033d c02b cc3b
000000c0: ae6d c6bd 9e57 cd3c 4efb 393d 654a 583d
000000d0: c721 813c 08dc 18bc b838 36bd 23ef cbbc
000000e0: 89bf 0e3b d611 dfbb f9ee 223d e832 ff3b
000000f0: 81dd 8f3d fd1b 95bc 2da7 85bd 593a c7bc
00000100: 2859 ec3c b56f a7bd cdf2 f9bd c28e 54bc
00000110: f2ae 813d b872 d1bd 1c84 0a3d 5d5b 2cbd
00000120: 04b7 01be 79fe 17bd c81e bdbc 4c1e 1fbe
00000130: ddba 943d fcc0 debc 1454 35bd 9b84 9abd
00000140: 3fe0 5d3c a89e abbc e448 34bd 6238 23bd
00000150: 5613 853d c67d a1bc 7932 6fbd c751 d0bd
00000160: 2aad 833c 602a aabd c7c1 563d 97c6 913d
00000170: 5483 e23b 7596 58bd 0757 be3d ede0 813d
00000180: 9daa 84bd 8d49 7fbd 4cb1 a7bd 7c1a 043d
00000190: 000b 50bd 2992 183c c095 bdbc 57c7 093d
000001a0: 852c 89bd 2086 153c 762c 7abb cfb0 3abc
000001b0: ace6 1fbd 5c99 3f3d 06dd a63c 3294 6dbd
000001c0: 89c8 c23c 6bab a3bd 2074 abbc 8075 6d3d
000001d0: dac9 f9bc 7a8d a9bd 354e 8c3c b365 873d
000001e0: 3474 b6bd 1f3c 243d 766a 9ebd 15e7 0c3d
000001f0: 5ed6 3ebb 7041 0a3d 066c 98bc fca8 d9bc

net.4.weight f4 [4, 128]
0.0021749295 -0.049540967 0.07483443 -0.03704042 0.018059628 0.030695045 0.0015339627 -0.06867452
0.0039386493 0.014050674 0.0035474135 -0.021553908 0.00010490032 -0.0004199031 0.024203569 -0.0373777
0.046656407 0.01612226 -0.0117364945 -0.01826987 0.019251332 -0.07299467 -0.01754505 -0.028285801
-0.007144548 -0.00018621515 -0.013859551 0.025514219 -0.041909687 -0.082757264 0.017705316 -0.012034507
0.020193346 0.05312523 -0.0014789551 0.06497529 -0.0021910556 0.0020524468 0.0008339385 -0.0076425658
-0.0017051919 -0.020989344 -0.057370592 -0.0040968126 0.015110279 0.012813945 -0.009945888 0.02846004
-0.024941094 -0.06548842 0.029109549 0.0080458885 0.05622288 -0.003243737 0.000587286 0.043472447
-0.0028965357 0.024490995 0.026365343 -0.0074010273 -0.03385987 -0.05023679 0.040214736 0.042844348
0.039390948 0.008960455 0.00040400535 -0.04096306 0.04238717 0.001010721 -0.02072811 6.637987e-05
-0.004349962 0.06708736 -0.06581487 0.03132212 -0.017146576 -0.064993985 -0.090021536 -0.023646224
0.024228595 0.0118495375 0.005806245 -0.00026510394 0.017500699 0.004447669 -0.033214916 0.008223448
-0.0056647 -0.002541922 0.0042383326 -0.019988291 0.065464035 0.015203229 -0.020355579 -0.043595392
-0.0040465817 0.024255896 0.042979535 -0.011775173 -0.07370612 -0.027398951 -0.048688404 0.083595574
-0.053934846 -0.035633124 -0.085692 -0.037147198 0.031056916 -0.0036664277 0.0002118255 -0.00083406153
-0.07106709 0.0013838245 0.0336238 0.039863884 0.0010555389 0.07860371 -0.00020064844 0.02869476
0.001566112 -0.08180439 -0.00625284 -0.022680996 -0.043853328 -0.079803616 0.052450016 -0.044266343
-0.052132886 -0.03286058 -0.06176644 0.056563117 -0.025353566 0.010716858 0.054334942 0.07822568
-0.00022419036 0.049260665 -0.06786128 -0.059619825 0.0021030467 -0.0038408132 0.046459682 -0.0017348112
-0.010653965 0.008227744 -0.01129609 -0.03559753 -0.071620435 -0.04776073 -0.042617496 0.0027130244
0.02226513 0.009232858 0.0033703845 -0.053058386 0.0012553621 -0.026998617 0.010306647 0.0015556819
0.027579552 -0.012914053 -0.059280597 0.036255438 -0.008598479 -0.012850208 -0.012571783 -0.044982266
-0.05010159 -0.014814787 -0.04937581 -0.06661254 -0.07221693 0.008483345 0.0033628226 0.020218372
-0.037184827 -0.041797977 0.0826108 -0.00095530174 0.02028816 0.07623633 -0.0019382436 -0.031230325
0.01750774 -0.04724442 0.010119238 -0.062036827 -0.005360745 0.008745576 -0.008364496 0.06716516
0.0055970186 0.043714147 0.0107349865 -0.0144267045 0.059136197 0.06426237 -0.03177643 0.0017709793
0.0053268997 0.068875395 0.029823437 -0.020678712 -0.025182005 -0.055552863 0.02619378 0.012250149
-3.179087e-05 -0.0011561655 -0.08320078 0.0015372549 -0.006901059 -0.01304669 0.03696153 0.054337062
0.054094896 -0.07188038 0.0021065436 0.015367404 -0.0005837768 -0.007488887 -0.015986534 -0.012315327
0.008672908 0.040003788 -0.029776873 0.040810473 -0.0032684095 -0.074504085 -0.057379782 -0.07431169
-0.061232563 -0.067339875 0.03548332 -0.032493897 -6.4692167e-06 0.05014153 0.046092223 0.032067142
0.071564786 -0.0195421 -0.04342575 -0.00020980269 -0.004957331 0.038733765 -0.0013878121 -0.01744356
-0.026669212 -0.0010823145 -0.011406854 0.0041393912 0.079177395 0.031732023 -0.043082044 0.028980527
00000000: 4389 0e3b 78eb 4abd cb42 993d b2b7 17bd
00000010: c9f1 933c 2d74 fb3c 3f0f c93a 3aa5 8cbd
00000020: c90f 813b cc34 663c b97b 683b d291 b0bc
00000030: eefd db38 7126 dcb9 9046 c63c 5c19 19bd
00000040: ca1a 3f3d d412 843c 6d4a 40bc b2aa 95bc
00000050: f8b4 9d3c 3b7e 95bd a3ba 8fbc a0b7 e7bc
00000060: d01c eabb c042 43b9 2c13 63bc 3203 d13c
00000070: 7ea9 2bbd a47c a9bd bd0a 913c 612c 45bc
00000080: 846c a53c d799 593d 80d9 c1ba c411 853d
00000090: d097 0fbb 5882 063b aa9c 5a3a 7d6e fabb
000000a0: bf80 dfba d8f1 abbc 6dfd 6abd 8e3e 86bb
000000b0: 1b91 773c 95f1 513c 14f4 22bc 0825 e93c
000000c0: 4451 ccbc cb1e 86bd 2677 ee3c e7d2 033c
000000d0: f649 663d e094 54bb 19f4 193a 2a10 323d
000000e0: ced3 3dbb 57a1 c83c 22fc d73c 5184 f2bb
000000f0: a6b0 0abd 18c5 4dbd 35b8 243d 8e7d 2f3d
00000100: 6758 213d dfce 123c aed0 d339 e2c8 27bd
00000110: 2b9e 2d3d 2b7a 843a ffcd a9bc 6c35 8b38
00000120: 208a 8ebb 1965 893d f2c9 86bd a04b 003d
00000130: fa76 8cbc 911b 85bd 365d b8bd bab5 c1bc
00000140: 0c7b c63c 9024 423c 5042 be3b a6fd 8ab9
00000150: a05d 8f3c c0bd 913b 5d0c 08bd a4bb 063c
00000160: f39e b9bb 6096 26bb b6e1 8a3b 7cbe a3bc
00000170: 0212 863d f716 793c bec0 a6bc 1591 32bd
00000180: 3099 84bb 4db4 c63c 4f0b 303d a8ec 40bc
00000190: 3cf3 96bd c473 e0bc 7e6d 47bd 2834 ab3d
000001a0: c9ea 5cbd 0af4 11bd 4a7f afbd a927 18bd
000001b0: 136b fe3c 7348 70bb 7a1d 5e39 eca4 5aba
000001c0: 9f8b 91bd 7261 b53a 1cb9 093d 5048 233d
000001d0: 025a 8a3a fbfa a03d 2865 52b9 4611 eb3c
000001e0: 0046 cd3a 0f89 a7bd a0e4 ccbb 7fcd b9bc
000001f0: 8c9f 33bd 1470 a3bd d4d5 563d a050 35bd
00000200: 4b89 55bd d198 06bd cefe 7cbd baae 673d
00000210: 48b2 cfbc c395 2f3c 518e 5e3d c934 a03d
00000220: a414 6bb9 8dc5 493d dbfa 8abd eb33 74bd
00000230: 45d3 093b 27b6 7bbb 824c 3e3d 9b62 e3ba
00000240: f88d 2ebc a9cd 063c 3c13 39bc b7ce 11bd
00000250: bcad 92bd c1a0 43bd af8f 2ebd ffcc 313b
00000260: 5d65 b63c 6a45 173c abe1 5c3b c053 59bd
00000270: f68a a43a 342c ddbc 36dd 283c 06e8 cb3a
00000280: 83ee e13c 7795 53bc 36d0 72bd 9580 143d
00000290: a3e0 0cbc ae89 52bc e1f9 4dbc 533f 38bd
000002a0: 5337 4dbd b8b9 72bc 4a3e 4abd 286c 88bd
000002b0: 78e6 93bd bafd 0a3c cd62 5c3b 00a1 a53c
000002c0: 1e4f 18bd 5b34 2bbd da2f a93d 376d 7aba
000002d0: 5b33 a63c cb21 9c3d aa0c feba bdd6 ffbc
000002e0: 646c 8f3c 5d83 41bd 29cb 253c 541a 7ebd
000002f0: 30a9 afbb 9b49 0f3c 3d0b 09bc e38d 893d
00000300: 3267 b73b 9b0d 333d cce1 2f3c fc5d 6cbc
00000310: cc38 723d fd9b 833d 0028 02bd 3420 e83a
00000320: 468d ae3b 8b0e 8d3d 4850 f43c 6766 a9bc
00000330: 7e4a cebc 668b 63bd 5794 d63c d9b4 483c
00000340: 3057 05b8 7a8a 97ba 2c65 aabd b77d c93a
00000350: 4722 e2bb c9c1 55bc f964 173d 8a90 5e3d
00000360: 9c92 5d3d 0536 93bd f00d 0a3b 90c7 7b3c
00000370: 9908 19ba 5665 f5bb 31f6 82bc 3ac6 49bc
00000380: d018 0e3c 03db 233d a1ee f3bc e228 273d
00000390: d032 56bb 9995 98bd 1007 6bbd ba30 98bd
000003a0: ffce 7abd 7de9 89bd f556 113d 5218 05bd
000003b0: 2612 d9b6 3461 4d3d 33cb 3c3d d658 033d
000003c0: 8f90 923d c116 a0bc 33df 31bd 7bfe 5bb9
000003d0: 1b71 a2bb 4ca7 1e3d 3fe7 b5ba cce5 8ebc
000003e0: 6479 dabc 73dc 8dba d0e3 3abc bba3 873b
000003f0: c227 a23d 70f9 013d cc76 30bd 9268 ed3c

net.4.bias f4 [4]
8.21e-43 3.381087e-06 1.1285436e-24 -1.10647e-40
00000000: 4a02 0000 a2e6 6236 38a2 ae17 7034 0180
