Entities/pained_rep.pth (torch, 80441 bytes, 6 tensors)

net.0.weight f4 [128, 12]
00000000: 51f8 fc3c 630f 753e bc65 a63e 6d1e 8bbe
00000010: bc68 a8be 65f7 c6bd 4a88 833e 3831 d7bd
00000020: 6546 16bf 1b30 14be dd88 183c 0af7 48bd
00000030: c77e 7d3f 4b7e 6d3e a0b4 043f c8ac aabe
00000040: 967a 80bd 3962 00bf 9231 bfbe 4622 01bf
00000050: fe8e 63bf b192 87bf b97c f6be 7b75 16c0
00000060: 7d20 d9be c7e6 6dbd 992b 6b3e 7c4f e53e
00000070: 8c45 26be b8fa 5abe c86c e53e ec9a 1dbd
00000080: 43f3 fcbe 308e 8cbf 2d7b 573d ec02 1ebe
00000090: 9278 3c3f a06a 08bf 9fb1 8a3e 8863 a33e
000000a0: c4e5 4f3f 0d9d 313f 61e4 f23c b0c8 a03f
000000b0: e3b5 16be 97ae 153e 50ec 4ebe fe0d f1bf
000000c0: 1582 3c3f 088f 1e3f 3e1f 3b3f c7f6 bb3e
000000d0: 2345 f0bd 4306 593e 8961 453f 4d43 313c
000000e0: b670 93bd 4a43 c5be 2c88 a9bf 348d 39c0
000000f0: 0923 073d af34 593f f7dd 7cbe 5a02 eabe
00000100: 453d edbe 7b39 3bbf e47d 55bf 8440 0c3f
00000110: d246 1abe c7da 60bf 9772 b8be f016 0ebe
00000120: fef9 a03e 581b b33c 0be4 8f3d 91bd fe3d
00000130: 9180 613d 1811 93bd 0b7b 56bd 3b67 723b
00000140: d6f1 31bd af25 233d 30e4 adbc 6f81 7d3d
00000150: c6e8 47bd 6b51 bcbf 0cad 59bf d8c2 28be
00000160: e084 1dbf 3ffb dcbe 6eb8 debe fcb6 08bf
00000170: 3e62 b8be 77ba c8be e1dc 1dbf 460e 8e3d
00000180: 09f7 4c3f 8ef0 96be e94c e13e 7e47 98bc
00000190: eaab 413d 16d5 283e 9b99 133e c1ea 093e
000001a0: 88aa 1bbf 8c3a 2f3d 0e44 493d 26c4 923d
000001b0: 2fc6 a9be b95b 9f3e c5c0 913e cb08 083f
000001c0: beee 7bbe cb12 8c3d cc11 973e f097 0a3d
000001d0: 1ac6 20bf c100 f9be c8c0 5d3d 1457 0bbe
000001e0: 10df a6be ddc0 3cbf 8378 e23d 31fe a2be
000001f0: 84f7 4dbe cea5 82be 2269 e3be d9ee 54be
00000200: 0327 97bd 2137 f5bb dd3d 32bf aeec 54bf
00000210: 0bfd 8dbd 6df3 2a3f 3fce c03c 4f71 88bf
00000220: 91a8 4f3d ac3e 05be 5a64 48be 33b3 033f
00000230: 7e40 10bf 56ed 88bc ba5b 003d 93be 3a3d
00000240: 3cb4 7bbe 3984 a1be 3a15 81be f3cc 4bbf
00000250: 2a1a b5be b4c5 f13e cc44 fa3e efeb 9dbe
00000260: 5dcf c5be a554 9a3f f224 2b3d 7571 91bd
00000270: 4800 853e 7287 283f 22d3 7b3f 7f90 f2be
00000280: d5af 4bbf 114a 4fbf cb88 043f 7005 cbbe
00000290: d0f3 1cbf 5dad 2dbf f3dc 7bbf 22e8 aebe
000002a0: 9b86 00bf e85c c6bd 9f56 373d 00bb ecbe
000002b0: 4864 84be 1cea 173e d14c f83d be1b 1b3e
000002c0: ca42 0f3e 334f 80be 2278 803d c061 58be
000002d0: 0905 8c3e 433d 033d d9ce ea3d 5d7f a83d
000002e0: cb0a 373e 2452 8f3d f947 06be c16e 9ebc
000002f0: 036a 1a3e 1072 b43e 6502 353d a88c 50bf
00000300: 5372 203e fe41 2fbe 7eaa fd3d fdd9 ee3f
00000310: 1d37 633f d0af 2ebd 6592 a5bf 5149 bf3d
00000320: 43cf d8be af4b a3be c1aa 49be b756 fdbe
00000330: 4834 cabe 48d6 0dbe ca87 0c3e 8bbf 04bf
00000340: 9a62 28be 6141 af3e 9506 1d3f 71f5 ff3e
00000350: 1279 d9bc e34d d1be 317b b33c 15ba 22bf
00000360: 4b15 d13e c06f 7fbd 8b10 1f3e 1cb2 7c3f
00000370: 993c 023f a302 543e ce08 8e3e d717 a8bc
00000380: 6f96 63be 8e11 e3bd 32e2 2e3e 5731 c2bd
00000390: a734 5e3f f197 a43f c3ea 6cbe c014 813e
000003a0: 9497 4f3f b899 c13e 0881 f13e c67c 183e
000003b0: a506 93be 2579 4fbd d6b6 e0bf 65ea 69bf
000003c0: d334 83be 20b8 393e 7176 cfbe c649 39bf
000003d0: 9dde 4a3e 4109 7abe 8d5a 68be 24a2 583e
000003e0: 3d69 803e e02b 6c3f 5ed8 153e 5a66 8abe
000003f0: 0151 4c3f 4470 3a3f 93cc 3f3e b2e3 553f
0.030880125 0.23931651 0.32499492 -0.2717165 -0.32892406 -0.097151555 0.25689918 -0.105074346
-0.58701164 -0.14471476 0.0093099745 -0.04906372 0.9902157 0.23192708 0.5183811 -0.33334947
-0.062733814 -0.50149876 -0.37342507 -0.5044292 -0.88890064 -1.0591642 -0.4814203 -2.3509204
-0.424076 -0.058081415 0.2296585 0.44787204 -0.16237468 -0.21384704 0.44809556 -0.038477823
-0.49404344 -1.0980892 0.052607704 -0.15430802 0.73621476 -0.53287697 0.2708864 0.31911874
0.8120997 0.69380265 0.029649915 1.2561245 -0.14717822 0.14617382 -0.20207334 -1.8832395
0.7363599 0.61937 0.73094547 0.36711714 -0.11731937 0.21193795 0.7710195 0.010819268
-0.07199232 -0.385279 -1.3244681 -2.8992434 0.032992397 0.84846014 -0.24694048 -0.4570492
-0.46335807 -0.73134583 -0.8339522 0.54785943 -0.15066078 -0.8783383 -0.36024925 -0.13875937
0.3144073 0.021863624 0.070259176 0.12438501 0.05505425 -0.07180995 -0.052363437 0.00369878
-0.043443523 0.03983086 -0.021226972 0.061891016 -0.048805974 -1.4712347 -0.85029674 -0.16480577
-0.61530876 -0.43160436 -0.43500084 -0.5340421 -0.36012453 -0.3920476 -0.6166516 0.06936316
0.80064446 -0.29480404 0.4400399 -0.018588778 0.04728309 0.16487536 0.14414065 0.13468458
-0.60807085 0.042780444 0.049137168 0.071663186 -0.33159015 0.31124666 0.28467384 0.53138417
-0.24602792 0.06839522 0.29505765 0.033836305 -0.6280228 -0.48633388 0.05413893 -0.13607436
-0.32592058 -0.73731786 0.11058142 -0.31834558 -0.20113951 -0.25517124 -0.44416147 -0.20794238
-0.07380488 -0.0074833785 -0.69625646 -0.83173645 -0.0693303 0.6677769 0.023535846 -1.0659579
0.050697867 -0.13012189 -0.19569531 0.5144531 -0.5634841 -0.016714733 0.031337477 0.045591902
-0.24580473 -0.3154619 -0.25211507 -0.796096 -0.35371524 0.47221148 0.48880613 -0.30844066
-0.38634768 1.2057081 0.04178328 -0.07101718 0.25976777 0.65831673 0.9836904 -0.47375867
-0.79565173 -0.8097239 0.5177123 -0.39652586 -0.6130953 -0.67842656 -0.98384017 -0.34161478
-0.5020539 -0.09685689 0.044760343 -0.4623642 -0.2585776 0.148354 0.121240266 0.15147302
0.13990322 -0.25060424 0.062729135 -0.21131039 0.27347592 0.032040846 0.11465234 0.082274176
0.17875211 0.06998089 -0.13113393 -0.019339921 0.15079503 0.35243273 0.044191737 -0.81464624
0.15668611 -0.17115018 0.123860344 1.8660275 0.8875597 -0.042648137 -1.2935301 0.09340156
-0.42345628 -0.3189368 -0.19694044 -0.4948022 -0.39493012 -0.13851273 0.13723674 -0.5185477
-0.16443864 0.34229568 0.6133817 0.49991944 -0.026546989 -0.40879735 0.021909328 -0.6356519
0.40836558 -0.062362432 0.15533654 0.98709273 0.50873715 0.20704131 0.27741092 -0.02051918
-0.22225355 -0.11087333 0.17078474 -0.09482067 0.8679909 1.2858869 -0.2313643 0.25211143
0.81090665 0.3781259 0.47168756 0.14891347 -0.28716007 -0.05065264 -1.7555797 -0.9137328
-0.2562624 0.18136644 -0.4052005 -0.72378194 0.19811483 -0.24417593 -0.22690792 0.21155602
0.2508029 0.9225445 0.14633319 -0.27031213 0.798111 0.72827554 0.18730383 0.8355056

net.0.bias f4 [128]
00000000: 112c 8440 1c8a d23f e15b 7b40 d97d c33f
00000010: ea53 bc3f b500 d6be 2bbf 8e40 965c 9cbe
00000020: cdfd 76c0 be4e 6b40 3811 923e 76ab 0ec0
00000030: 7a3f 6540 eb7c 593f 5e61 8140 89fe 7740
00000040: 0c79 6ebe 5a47 2840 23ba 6340 6937 9d3e
00000050: a367 6840 c265 583f f3e3 c13e c0be 973f
00000060: 57ba 5b40 0eb2 7740 841b 4540 cbf9 5e40
00000070: 5c14 e33f 612e 6f40 5acc 7940 ea04 ad3e
00000080: 3935 183f 2ae3 1d3f 0d3f 1f40 6570 29be
00000090: 56a5 753f 2835 6540 2a86 6840 a688 7fbd
000000a0: 13fe eb3f 9ceb 923e 1fe5 44be cbb7 06c0
000000b0: e23f 72c0 ab40 6640 8bf4 8340 67da 7340
000000c0: 0004 663f 4180 7840 0203 6c40 fdc3 2e40
000000d0: 627b 443f 0d57 7940 86f9 063f 2162 4b40
000000e0: a6ce d33e 5a0e 5940 3081 773f 1fc9 053f
000000f0: 99b9 1abf df58 00bd d1a2 8e40 8f62 6a40
00000100: 75ed 79be b67d 8040 206c f2be 060e 233f
00000110: c723 5740 5f22 ac3e b14d 7640 f698 9440
00000120: db7c 00bf 0083 90bf 3dd0 9f40 990e fa3f
00000130: ef08 3940 f265 e33d 2d06 bf3e fc08 7140
00000140: 5109 473f dd9b 6b40 d2f4 46be bd60 7d40
00000150: e091 513c b38f 31c0 3895 6c3d 0765 8140
00000160: 5771 7940 6029 39be 60ee 6440 a932 babe
00000170: 4a9c 7a40 225a 2740 d32e 6640 409d f03f
00000180: 54a8 4bbe e607 8040 abe5 3d40 4c14 7340
00000190: 81d4 8cbe 4583 b03e e881 fc3e 1304 5540
000001a0: 9ba3 fa3e 64c0 6d40 055f 6bbf 444f 6240
000001b0: 4706 8040 5888 1140 2e34 303f 5028 4a3f
000001c0: 6b2a 3e40 d20f 5540 0cde 803e 2e11 35c0
000001d0: 3165 7f40 7259 7340 9c1e 02bf d47c 60c0
000001e0: 971f 46be 1a62 4e40 e56c 5d40 a216 3e40
000001f0: aa78 5c40 2952 6fc0 daf3 a0bd abec 4440
4.130379 1.6448398 3.9274828 1.5272781 1.4713109 -0.41797414 4.460836 -0.30539387
-3.8592408 3.676681 0.28528762 -2.2292151 3.5819993 0.84956235 4.0431356 3.8749106
-0.23288363 2.629355 3.558236 0.30706337 3.6313255 0.8453027 0.37869224 1.1855087
3.4332483 3.8702426 3.0798044 3.4839962 1.7740588 3.7372057 3.9030976 0.33792812
0.5945621 0.6167475 2.4882233 -0.16546781 0.9595541 3.5813694 3.6331887 -0.062386177
1.8436912 0.2869538 -0.19228028 -2.1049678 -3.785149 3.597697 4.1236014 3.8102052
0.89849854 3.882828 3.6876836 2.7307122 0.7675077 3.8959382 0.5272449 3.1778643
0.41368598 3.391501 0.966815 0.5226001 -0.6043945 -0.031334754 4.457375 3.6622655
-0.24406989 4.0153456 -0.47348118 0.63693273 3.3615587 0.33619973 3.848492 4.643672
-0.50190514 -1.1289978 4.9941697 1.9535705 2.8911703 0.11103429 0.373094 3.7661734
0.7774859 3.6813881 -0.19429329 3.9590294 0.012791127 -2.7743957 0.057759494 4.0435824
3.8975427 -0.1808219 3.5770493 -0.36366776 3.9157891 2.6148763 3.596608 1.8797989
-0.19888431 4.000964 2.9671428 3.7981138 -0.27505878 0.3447515 0.4931786 3.3283737
0.48952946 3.7148676 -0.91941863 3.536088 4.0007663 2.2739468 0.6882962 0.7896776
2.971339 3.3290906 0.25169408 -2.8291736 3.9905512 3.8023343 -0.50827956 -3.507619
-0.19347988 3.2247376 3.4597714 2.9701314 3.4448647 -3.7393897 -0.07859011 3.076945

net.2.weight f4 [128, 128]
00000000: f377 ccbd 3cc3 8abc 4170 29bd 5d2d 803d
00000010: f3c4 d83c a65a bcbd 21ad cabd 5b3f cc3c
00000020: 58e5 5dbd 1070 82bd ce5a 693d 47f5 733d
00000030: 0e11 f83c 6ff2 1a3d d0f8 233d 3eb1 08be
00000040: 97ab 45bd 069b 933d a7a9 60bc cb7b 063c
00000050: 1e67 17be 6d68 0f3d 8809 8bbd 3b23 ab3c
00000060: 4656 23be 91da 24be 0daa 2cbe d6d7 9fbd
00000070: f991 893d 5733 13bd 0800 07be bff5 c73c
00000080: 2ba6 8e3d 18b3 1ebe 8e70 99bd 03f5 efbd
00000090: 091c dbbb 050b 12be 5063 34be e046 943d
000000a0: 81bf 823d 7202 b1bc 7bb3 0bbe f2b5 dfbb
000000b0: 5d60 fabd 376b ccbd 95b1 11be 9e2c a7bd
000000c0: 5f90 7bbd d92c 15be 5f81 17be 92d7 01be
000000d0: 2c31 ccbd 661e 783d 9de1 2fbe c196 19bd
000000e0: c4b8 7a3d e835 fdbc fcf0 1c3e 435f fcbc
000000f0: abeb 86bb 4b3a d03d f925 22be 9e3e 3c3c
00000100: 3c72 57bd b0bc 9fbd e856 16bc d509 873d
00000110: 2e46 86bc 1c3a 0b3d 08e8 b53c e985 8a3d
00000120: 9d26 8fbd 03cd 53bd a5d0 19be db8f 30bd
00000130: ffcc c4bd f8a1 a33c e344 3dbe 4b62 a5bc
00000140: 1cb8 fa3c e6cb 03be 036d fd3d 536a a4bd
00000150: eae3 703d d046 b1bd 38e9 cfbd 9271 b8bc
00000160: 4a31 0bbe 90d9 6bbd 67ea 04be f532 44bd
00000170: 6118 6c3c 0412 d6bd be12 d63c 40c6 c93d
00000180: 0c43 85bd 5f3d cabd d856 093b a42a 77bd
00000190: 4af2 723d 899c 8f3d efdd 0e3c 1aae b7bd
000001a0: e760 b13c 5fca dfbd d792 0c3d 1978 46be
000001b0: fbe7 4dbe 857e fa3c fd21 15bd cbb0 a43d
000001c0: 49b4 553d 5c3e 5f3c 35cd 133e 6db8 333e
000001d0: 6988 17be 2110 13be dcc4 cc3d d053 0f3d
000001e0: 763f dabd 2e89 a2bd 8e6d ccbd 4a9e 15bd
000001f0: ef25 b13c 83f3 e83c eb85 91bc f04e 0c3c
00000200: 608a 39bd 472e 473d d46d db3b 31b9 4c3c
00000210: d0e9 d03d 1104 503d 099a 963c 88cf 3cbd
00000220: 038b 93bb a3ba 96bd 8d5e 8cbc 6e28 0e3d
00000230: 3318 953a fa58 c03c 00ce ad3b 125e 58be
00000240: f40d 9abc db9f 8fbd 2891 50bd 7941 f13c
00000250: e189 48bd 5611 6c3d b405 41bd 0c6e a3bd
00000260: 4ad6 f73b 8dc9 4fbd 1954 cabd 13a4 943c
00000270: ed90 833c e467 8c3c 54c0 06be 6710 d8bd
00000280: 3eea 27bd 78d2 c9bd 507b 7b3c 64a0 6dbd
00000290: 60a0 3e3d 0160 fdbd c9d3 1dbd ba60 dcbc
000002a0: d322 84bb 06b1 273d 0327 8cbd ffe9 adbd
000002b0: bda8 d4bd 9807 863c 2025 a4bd 597e 13bd
000002c0: 55ab be38 026e 493d c62a a9bd 7980 8ebd
000002d0: 80b6 333a 68f1 be3c 3049 05bd 087e 8d3c
000002e0: 983b ba3c b8ba 803c 6206 4c3d 660a 303c
000002f0: 48bf 13bd d84e c6bd 5038 42bd fe0a 33bd
00000300: e751 30bd a180 89bd 2e60 c2bd db2a c4bd
00000310: f9de ddbc 58c1 8abd 36d7 30ba ba86 013e
00000320: 875e b03c 8dd5 763d 3689 1bbd 10dc 1bbd
00000330: 9b1f 8bbd 393b bcbc a381 1cbe 7545 1cbd
00000340: 464f c1bd 2278 44bd 222b 84bd 664c 88ba
00000350: e02d 71bc 2349 723d 734f 4d3a 5649 5b3d
00000360: 156e 363d 0042 a739 d18a 70bc 45f2 cbbd
00000370: 8016 8b3c f8ac 203d a63c cd3c 70e4 d7bd
00000380: bde7 f43c a2fd 87bc 5fa2 b83c 01f7 853b
00000390: d1e2 debd 824e 233d dd11 8cbd ebb1 e6bc
000003a0: 2ef9 55bc 4e2b af3a b60f f03c 1e40 d9bd
000003b0: 097e 85bd 116f c6bd 692e 6b3d e47a 3abb
000003c0: a139 febd 135e de3c 3845 33bc 65c8 7ebd
000003d0: e96d d0bb f4f6 083d d77c 26bd 72d6 87bd
000003e0: 125d 12bd 608e c2bd 914e 92bd f5ad 2a3c
000003f0: e83d 36bd 37c0 90bd bb37 babd 1a35 923a
-0.09983816 -0.016938798 -0.04136682 0.06258652 0.0264611 -0.09196977 -0.09896303 0.024932554
-0.054173797 -0.063690305 0.056971364 0.059560087 0.03028157 0.03782886 0.040032208 -0.13348863
-0.048259344 0.07207303 -0.013712323 0.0082082255 -0.1478543 0.035011698 -0.06788927 0.020890823
-0.1595088 -0.16099001 -0.16861744 -0.07804839 0.06717295 -0.035937633 -0.13183606 0.024409173
0.06965288 -0.15498006 -0.07492171 -0.11716654 -0.0066866917 -0.14262016 -0.1761601 0.07240081
0.06384183 -0.021607611 -0.13642685 -0.0068271095 -0.12225411 -0.09981387 -0.14227898 -0.08162807
-0.06141698 -0.1456789 -0.14795445 -0.1267989 -0.09970316 0.060575865 -0.17175908 -0.037497286
0.061211362 -0.030909494 0.15326303 -0.030807143 -0.0041174493 0.101673685 -0.15834798 0.0114895385
-0.052599177 -0.07799661 -0.0091759935 0.06593672 -0.016390886 0.033990964 0.022205368 0.067638226
-0.06989787 -0.051709186 -0.15020998 -0.04310594 -0.096094124 0.019974694 -0.1848331 -0.020188471
0.030605368 -0.1287075 0.12374308 -0.08028092 0.058811106 -0.086560845 -0.10151905 -0.022515092
-0.13593021 -0.05758053 -0.12980042 -0.04790016 0.014410109 -0.10452655 0.026131984 0.09852266
-0.06506929 -0.09874987 0.0020956304 -0.0603434 0.059313096 0.070122786 0.008719905 -0.08968754
0.021652652 -0.10927271 0.034319725 -0.19381751 -0.20108025 0.030577907 -0.036409367 0.08041533
0.052173886 0.0136257075 0.14433749 0.17550822 -0.1479813 -0.14361621 0.099984854 0.03499204
-0.106566355 -0.07936321 -0.099818334 -0.03652791 0.021624533 0.028436428 -0.017764052 0.008563742
-0.04529798 0.048628118 0.006696442 0.012495325 0.10200846 0.050785128 0.018383997 -0.046096355
-0.0045026555 -0.07359817 -0.01713493 0.034706526 0.001137501 0.023479927 0.005304098 -0.21129635
-0.018805481 -0.07012912 -0.05091968 0.029450165 -0.048959617 0.05763372 -0.04712458 -0.07979974
0.007563387 -0.050729323 -0.098793216 0.018144643 0.016060317 0.017139383 -0.13159305 -0.105500035
-0.040994875 -0.09854597 0.015349224 -0.05801429 0.046539664 -0.12371827 -0.038532052 -0.026901592
-0.0040324717 0.040940307 -0.068433784 -0.08491897 -0.10383747 0.016361043 -0.080148935 -0.036009166
9.091819e-05 0.049177177 -0.082601115 -0.06958098 0.0006855503 0.02330847 -0.0325405 0.01727201
0.022733495 0.015714034 0.049810775 0.010744667 -0.036071092 -0.09683007 -0.047416985 -0.043711655
-0.04304686 -0.06713987 -0.09491001 -0.095784865 -0.02708386 -0.06775159 -0.0006745936 0.1264905
0.02152945 0.06026225 -0.03797265 -0.038051665 -0.06793138 -0.022977458 -0.15283827 -0.038152177
-0.09438948 -0.04796613 -0.064535394 -0.0010398745 -0.01472041 0.05915178 0.0007831968 0.053536735
0.044538576 0.00031901896 -0.014681534 -0.099583186 0.016978502 0.039227456 0.025053333 -0.10541618
0.029895658 -0.016600434 0.022538362 0.004088283 -0.108831055 0.039869793 -0.06839345 -0.02816101
-0.013059897 0.0013364346 0.029304367 -0.106079325 -0.0651818 -0.09689153 0.057417307 -0.0028454596
-0.124133356 0.027144467 -0.010941796 -0.06220283 -0.0063607586 0.033438638 -0.0406464 -0.06632699
-0.03573329 -0.09499812 -0.071438916 0.010417451 -0.044492632 -0.07067912 -0.09092661 0.0011154742

net.2.bias f4 [128]
00000000: 4516 023d 8485 ddbd c80c 5c40 6e1e 04bd
00000010: d65d 9a3d 819a 1e3d 88c5 15be df94 b83c
00000020: 2d86 66bd 8355 ac3d f8fd 333d ec84 f0bd
00000030: 35b0 a1bd 3f3d acbd 5d40 bb3d aa2d 1a3c
00000040: f9ca 1b40 0e3b 6940 cd76 b13c c6f0 5640
00000050: 98b0 6d40 6aee b03d f469 7240 c467 3dbd
00000060: 0a28 3b40 7a41 9fbd 4998 83bd e62d 093d
00000070: 4b13 643b f606 2fbd 286b 9cbd 6a01 903e
00000080: 8135 b83e 8b14 0bbd 55a4 173c d220 7040
00000090: 106b a43b c4e9 c7bf 787a f3bc 2368 12be
000000a0: 3b8f abbd 22d7 2fbe cc8f 03bd e5ed 7240
000000b0: 7ae4 15bd 419b 8dbd b0cf 653c e8a6 4840
000000c0: b7a1 5440 67be 87bd ad43 983e 333b adbd
000000d0: 2619 723c 0d08 28be 352f d13f 71d0 263d
000000e0: 6312 3abe 9265 fbbc d5c8 00be 2fb2 dfbc
000000f0: 77e4 d53c 3199 fdbc a5c2 bbbc 76fa fcbd
00000100: d95e 93bd a568 4bbd b0e2 6c40 db34 d2bd
00000110: ab5c cabd c4b9 5abe 34e1 a3bc 0a29 6e40
00000120: b2a2 9abd a2f8 a2bd 48d6 9cbd 1330 c9bd
00000130: c987 a3bd b714 d3bd 89c5 e5bd eb93 3b3f
00000140: 3d81 35bd 4135 9fbc dc42 123f a812 6740
00000150: e52b 7a3d d7ce 4f3e 8a0e 7bbe 177d 9fbd
00000160: 1845 94bd 0666 01be 7916 173e 8263 1c3c
00000170: 0c8e 83bc 173c 6540 895a 6640 ede2 0cbe
00000180: c7d1 6640 d75c d0bd 648c 5b40 95b9 ea3d
00000190: 2d83 7dbc 1636 6dbd f5b2 98bc 8653 f73c
000001a0: d156 42bd 9b28 6540 26b3 4ebd fc8f 1d3c
000001b0: d173 423e c863 01bd 99b5 0abe 2cf9 a1bd
000001c0: 857e abbd 12c5 75bd 90f6 d3bd 17e3 b0bd
000001d0: 32bf 87bd 8a33 8fbd 3423 1c3d b67c e3bd
000001e0: 0930 6a40 b65b 8e3b 342e 3cbe a96a 03be
000001f0: caa7 a6bd d353 50bd 2aef 7a40 aaf2 08be
0.03175952 -0.10816482 3.43828 -0.032255583 0.07537429 0.038721565 -0.14626133 0.022531925
-0.056280304 0.084147476 0.043943375 -0.11744103 -0.07894937 -0.08410119 0.09143136 0.009410301
2.4342635 3.6442294 0.021663094 3.3584456 3.7139034 0.08639224 3.7877169 -0.046241537
2.9243188 -0.077761605 -0.064255305 0.033491038 0.0034801539 -0.042731248 -0.07637626 0.2812608
0.3597832 -0.03395514 0.009255488 3.7520032 0.0050176457 -1.5618215 -0.029721484 -0.14297538
-0.083769284 -0.1717191 -0.032119557 3.79577 -0.036594845 -0.06914378 0.014026567 3.1351871
3.3223703 -0.06628113 0.29739133 -0.08458557 0.014776504 -0.16409321 1.6342531 0.04072613
-0.18171076 -0.030688081 -0.12576611 -0.027306644 0.026109917 -0.030956836 -0.022919962 -0.12352459
-0.07195825 -0.049660344 3.701336 -0.10263988 -0.09880956 -0.21359926 -0.020004846 3.7212548
-0.07550563 -0.07957579 -0.076580584 -0.098236226 -0.07984883 -0.103066854 -0.112193175 0.7327258
-0.044312704 -0.019434573 0.5713327 3.6105137 0.061077017 0.20293747 -0.24517265 -0.07787531
-0.07239741 -0.12636575 0.14754666 0.009545209 -0.016058944 3.5817926 3.5992758 -0.1375844
3.6065538 -0.10173958 3.4304438 0.11461178 -0.015473169 -0.05791291 -0.01864002 0.030191194
-0.047446076 3.5806034 -0.050463818 0.009616848 0.18989493 -0.0315893 -0.13545837 -0.07908854
-0.08373741 -0.060002394 -0.103497624 -0.08637064 -0.066282645 -0.06992252 0.03811951 -0.11107771
3.6591818 0.004344429 -0.18377 -0.12833656 -0.08137472 -0.05086119 3.9208474 -0.13373819

net.4.weight f4 [9, 128]
00000000: 6bd9 1e3e 5899 42bd 3a88 213f 34f7 53bb
00000010: 187e d4be ae3a 1c3d ac63 9abe 9234 76bd
00000020: 20df b6ba a3bb 8dbe 3ed1 53bd 6f31 97bd
00000030: 8716 cc3b c7c3 1f3d 89be 473d 20a9 9cbd
00000040: a71f 1a3f 9f8e 203f d1c5 5ebd 5a96 3c3f
00000050: f448 1e3f ec2c b9bd 4790 2c3f 2420 8d3d
00000060: b8c1 233f 00a8 863d c79c 1dbc 06ef fe3b
00000070: 2230 5d3c b492 d23c 412e 343d fd10 77bd
00000080: 0ba9 263e 90f0 b43a ba0b 093c 002b 193f
00000090: 40b3 453d dde3 1bbf 4065 b13c d809 9a3d
000000a0: 1116 b13d d516 1cbd 4092 b1ba 4841 363f
000000b0: 1366 953d 7027 c6bc 60bd 93bb f55e 103f
000000c0: 91c6 113f 4010 373d 4bd7 2ebe f4fe e7bc
000000d0: e9a2 9c3d fa3e 21bd ceda 363f 1c4a 2b3c
000000e0: 0d9b 2d3d 1a33 123e 9dfb 083e 6db4 a0bd
000000f0: 0017 eb3c a45d 733d cb31 513c 9df4 d13d
00000100: cf36 3f3d 5178 223c 412c fe3e 0046 8dbc
00000110: 2720 1f3d e94a 073e 7e68 1fbd 4641 263f
00000120: 48e8 423c 8e03 11bc d9e2 ad3d 3422 7a3d
00000130: c8d5 583b 37d8 34bb 1503 0dbd f406 013d
00000140: f82f a43d 3c3c 7dbd d591 07bf f509 263f
00000150: 3c4f a93b c773 f6bb 6727 96bb 4f1e a4bc
00000160: 2b27 4fbc 06ec acbc 6960 dc3d 0b83 93bd
00000170: 8261 003d 1800 113f 2801 1b3f fdcf 3c3e
00000180: 6cde 163f 0e85 77bc f367 0d3f be52 57bd
00000190: 9dc8 b3bc 6eaa afbb c7c1 36bc 2e63 993d
000001a0: 9ee0 48bc a88f fd3e 997c c8ba 4291 cfbd
000001b0: 4067 093d dcb0 d2bc 70a7 64bd bb09 073d
000001c0: 72a2 8fbc 867c 083d e334 d7bc c48b 7b3c
000001d0: 249d 7d3b 39ba eabc 4170 b6bc 7b2c 833d
000001e0: b768 213f 365e 153d 2fb1 a23d 8021 4abd
000001f0: d14c b33d f23d a5bd 62c5 093f f0ed c73c
00000200: 3786 f6bd 3174 30bc f116 af3e 1cd0 663d
00000210: 801f 8e38 50a1 a1bd a042 193e a708 6dbd
00000220: b510 35bd 1b07 1fbf fe07 9cbc 74a9 a0bc
00000230: 6628 60bc aabb da3d 7791 38bd acfb 85bd
00000240: b382 623f fca4 1f3f d2b1 86bb 0481 4e3f
00000250: a91f 163f 91b2 adbd cdac 693f 20b9 fa3d
00000260: 0a45 123f 1064 a03d d99d d53c 650a 293e
00000270: 250b f13c da36 373d fe82 17bd 9a47 7339
00000280: b7dc 253e 4819 b03b 4719 ae3c 3a87 2b3f
00000290: 37eb c2bb 32d1 64bf eb94 a33d 82e3 b7bd
000002a0: 6659 e43d 5484 1c3e 116f ae3d 2cf8 3d3f
000002b0: 18d2 613e a0c9 adbb c896 af3c 8553 0e3f
000002c0: ff9e e83e e88c c5bc 8a7d 36be 3a66 263d
000002d0: b9d2 613d 8ead 3c3d 5e9b 8e3f 8a34 2bbd
000002e0: 6433 2f3e 50b1 943e 30c6 933e 7964 593d
000002f0: 69b9 373c d1ea 3a3d 76f8 c4bd df01 9abe
00000300: 36d6 54bd 2b90 853d 17fc 073f f732 023c
00000310: e7f6 9ebd 5f51 f8bd 264b 4ebd a70d 0e3f
00000320: 1281 11bd e5c7 8e3d cb44 833d 0008 a73d
00000330: 8732 88bd 58c5 3abc a03e a0bb 8743 52bf
00000340: 8fca 00bc 0113 c8bd c197 11bf ca61 1a3f
00000350: e0fe a43b bf40 693d 9073 513a 5747 a33d
00000360: e46f 5cbd efe4 c9bd 8af4 1f3e 60f3 113b
00000370: 486f 45bc bcb5 043f 5a70 2a3f 96c4 993d
00000380: 8d33 173f 47a3 263d 9999 d63e 5984 07bd
00000390: 03ad 92bd 07ab 483d ddb5 a73d ee2c 85bc
000003a0: 626e 293d 7ddc 303f cd66 3dbb eeae e23d
000003b0: 37e9 853c d434 64bd 6bb5 94bd 6ebb b93d
000003c0: b252 fe3c 006a f4ba 0be5 04bd 966a 36bd
000003d0: eb1f a63d e850 9e3d 3c7c c53d f14c 89bd
000003e0: fd7c 0a3f 1d7f 29bc 3c3c 70bd 55c4 0b3d
000003f0: d77a c5bd a791 023d 9ae8 163f af6f 553d
0.15512626 -0.04750952 0.6309849 -0.003234339 -0.41502452 0.0381419 -0.3015417 -0.06010873
-0.0013951994 -0.27682218 -0.05171322 -0.073824756 0.0062282714 0.039005067 0.048765693 -0.076494455
0.6020455 0.6271762 -0.05438787 0.7366692 0.6183007 -0.09041771 0.6740765 0.06890896
0.63967466 0.06575012 -0.009619898 0.0077799587 0.013500245 0.02570472 0.043989424 -0.060318936
0.16275422 0.0013804603 0.008364612 0.5983124 0.04826665 -0.60894567 0.021654725 0.07521409
0.08646787 -0.03810771 -0.0013547614 0.7119336 0.0729486 -0.024188727 -0.0045086592 0.5639489
0.56943613 0.04469323 -0.17074315 -0.028319813 0.0764826 -0.0393667 0.7142762 0.010454681
0.042384196 0.14277306 0.13377233 -0.078469135 0.02869749 0.059415475 0.012768219 0.102517344
0.04668313 0.009916381 0.49643138 -0.017245293 0.038849022 0.1321217 -0.03891801 0.6494335
0.0118962005 -0.008850945 0.084905334 0.061067775 0.0033086408 -0.0027594694 -0.034426767 0.03150077
0.08016962 -0.061825022 -0.529569 0.64858943 0.005166916 -0.007521126 -0.004582334 -0.020033984
-0.012643616 -0.021108638 0.10760576 -0.07202729 0.03134299 0.5664077 0.6054864 0.18438716
0.5893314 -0.015107406 0.5523674 -0.052569143 -0.021946246 -0.005360893 -0.011154599 0.0748962
-0.012260584 0.49523664 -0.0015295922 -0.101351276 0.033545732 -0.025719099 -0.055823743 0.032968264
-0.017533515 0.03332188 -0.026270336 0.015353147 0.00386984 -0.028653251 -0.022270324 0.06404968
0.6305041 0.0364668 0.07943951 -0.049348354 0.08754886 -0.08068456 0.5381681 0.02440545
-0.12037318 -0.01076989 0.3419719 0.056350812 6.776955e-05 -0.07892096 0.14966822 -0.05786958
-0.044205386 -0.6212022 -0.01904678 -0.019612052 -0.013681507 0.10680325 -0.0450606 -0.06542143
0.8848068 0.6236112 -0.0041105533 0.8066561 0.5864206 -0.084813245 0.912793 0.12242341
0.57136595 0.078315854 0.026076244 0.16507871 0.02942426 0.044730045 -0.03699016 0.0002320096
0.16197477 0.0053741075 0.021252288 0.67003214 -0.00594845 -0.89381707 0.07987388 -0.089789405
0.11149864 0.15284854 0.08517278 0.74206805 0.220528 -0.0053035766 0.021434203 0.5559619
0.45433804 -0.02411504 -0.17821327 0.040624835 0.0551326 0.046063952 1.1141164 -0.041798152
0.17109448 0.2904153 0.28862143 0.053074334 0.011213639 0.045634095 -0.09617703 -0.30079553
-0.0519621 0.065216385 0.53119034 0.007946721 -0.07761937 -0.12124895 -0.050364636 0.5548958
-0.03552348 0.069717206 0.064096056 0.08155823 -0.06650262 -0.0113995895 -0.004890278 -0.8213429
-0.007860794 -0.0976925 -0.56872183 0.60305464 0.0050352663 0.056946512 0.00079899374 0.07972591
-0.053817645 -0.09858119 0.15620628 0.0022270307 -0.012050457 0.51839805 0.66577685 0.07508199
0.59063035 0.040683057 0.4191406 -0.0330852 -0.071619056 0.04899123 0.081889845 -0.016256776
0.041365035 0.6908644 -0.0028900385 0.110685214 0.016346557 -0.055714443 -0.07261165 0.090689525
0.031045292 -0.0018647313 -0.032444995 -0.044535242 0.081115566 0.077302754 0.096428365 -0.067041285
0.54096967 -0.010345248 -0.058651194 0.034122784 -0.096425705 0.031877186 0.5894867 0.052108463

net.4.bias f4 [9]
00000000: f7a6 0e40 809d 2f40 4531 fe3f caa3 0c40
00000010: 9748 8840 02b6 fc3f 1459 f93f 2f8e c33f
00000020: 8bc3 b53f
2.2289407 2.743988 1.9858786 2.197497 4.258861 1.9743044 1.948031 1.5277766
1.42003
