Entities/pained_rep.pth (torch, 80038 bytes, 6 tensors)

net.0.weight f4 [128, 12]
000000 4f c3 18 bf 97 2d bd bd 7f fe e7 be 85 d0 db 3d
       -0.5967302 -0.09237211 -0.45311353 0.10733131
000010 77 51 82 be 0e 56 82 3c 95 54 27 be ac fd eb 3d
       -0.25452778 0.015910175 -0.16340859 0.115229934
000020 b6 38 ce 3d d2 b5 a1 be a0 78 1d 3e 6e 5e 8a 3d
       0.100694105 -0.3158403 0.15378046 0.06756292
000030 84 57 5e be 7d ff 0e 3d 95 9d 2f 3d 8b 1c 11 3e
       -0.21713072 0.03491162 0.04287489 0.14171045
000040 4e 66 09 3e a2 50 c3 bd a6 8e 0d 3d cb 99 2e be
       0.13417932 -0.09536864 0.03455987 -0.17050855
000050 af 04 39 be 12 5e 12 bd 8f ff 12 be 00 99 75 be
       -0.18068193 -0.035734244 -0.143553 -0.23984146
000060 94 06 a8 bd 7b 69 e7 3e 66 0b 77 bc 72 33 aa 3d
       -0.0820438 0.45197663 -0.015078401 0.08310594
000070 af 45 98 be 4a 22 f6 bd 33 7a c0 3c 17 1d 1b be
       -0.29740664 -0.12018259 0.02349577 -0.15147816
000080 94 32 ce bd 14 c6 8e 3e e1 5f 43 3d 33 68 4c 3d
       -0.10068241 0.27885497 0.04769886 0.04990406
000090 79 db 82 3e 3c 6c f1 3d 55 7d c3 3e 04 00 ac be
       0.2555807 0.11788222 0.38181558 -0.33593762
0000a0 96 3a 8c 3e f5 bc 92 3d 82 04 17 3e f2 d8 21 be
       0.27388448 0.07164947 0.14747813 -0.15805414
0000b0 83 ba b4 3c 23 2a c0 3e dc 0f 71 3e 52 ba 47 bd
       0.022061592 0.37532148 0.23541206 -0.048761673
0000c0 3d 44 f0 bd c9 07 b5 be 82 a7 ac bd 34 f3 b2 3e
       -0.117317654 -0.35357502 -0.08430387 0.34951174
0000d0 41 77 c3 be ac f0 d7 be af 6f d4 3d 56 74 58 be
       -0.3817692 -0.42175806 0.103728645 -0.21138129
0000e0 18 bb 2a bc fb 0d ae be bd da b6 be 67 1b 80 be
       -0.010420583 -0.3399504 -0.3571376 -0.25020906
0000f0 c8 1a b6 bd 76 05 88 3e 0b 6c fa be b9 35 31 bf
       -0.08891827 0.26566666 -0.48910555 -0.692226
000100 97 9d 0c 3e 2f 75 1b bf 28 95 d8 bd c3 e0 19 bf
       0.13731991 -0.6072568 -0.10575324 -0.60108584
000110 05 41 ba be 0d 7e 3e be 2c 17 01 be 54 15 64 3c
       -0.3637773 -0.18602772 -0.12606496 0.013921101
000120 6c c7 0c 3d 89 25 17 be 99 a5 1a bd 27 0f cd 3d
       0.03436987 -0.14760412 -0.037755582 0.10012656
000130 67 b9 69 bd da 6e c2 bd 19 88 8c 3e 98 1f c6 bd
       -0.05706158 -0.094937995 0.27447584 -0.09673995
000140 25 b1 f6 3c 1a 6f 01 bf ac 54 50 3e 97 1e 5a be
       0.030113766 -0.5056015 0.203448 -0.21300732
000150 17 a6 09 3e d7 a5 5b 3e 69 58 a8 3e 83 91 22 bd
       0.13442264 0.21449982 0.32879952 -0.039689552
000160 e7 6f 97 3d fd 56 b6 3e 8a 32 21 bf 53 b6 41 3e
       0.073943906 0.35613242 -0.6296774 0.18917207
000170 f4 1a 3c be 44 6c 12 3e 30 67 b2 be 96 f9 8a bf
       -0.18369657 0.14299113 -0.3484435 -1.0857418
000180 ab 40 a7 bc 66 dc 96 3e 71 e9 c6 bc c5 f1 ab 3f
       -0.020416578 0.29465026 -0.024281235 1.3433157
000190 6f 51 91 3e 27 26 12 3e 0f cb 8f 3e d2 6d 69 be
       0.2838244 0.14272366 0.2808461 -0.227958
0001a0 80 66 2d 3e e4 fc b4 3d 70 6b 19 3c 9f cd a4 be
       0.16933632 0.088372976 0.009363994 -0.32188126
0001b0 43 98 19 be db 55 35 bf 60 b4 36 be 5c 31 0a 3c
       -0.1499949 -0.7083413 -0.17842245 0.00843462
0001c0 1e 63 aa be 82 85 55 be 65 7f 95 bd 6a 86 80 3e
       -0.33278745 -0.2085171 -0.07299689 0.2510255
0001d0 96 51 70 be b3 29 db 3c 1d 92 c3 bd 26 9f ad bd
       -0.23468623 0.026753282 -0.09549353 -0.08477621
0001e0 d0 f9 8d 3c 4d 5f 8f 3d d8 bf b2 be 3e 75 99 be
       0.017331034 0.07000599 -0.3491199 -0.2997226
0001f0 23 60 ae 3e 6e b8 95 3e 7e fa 9f bd 0b 7f f1 3e
       0.34057721 0.2924227 -0.078114495 0.4716724
000200 56 11 9a bd 43 3f 3b bf d1 15 e7 3c e1 f7 32 3d
       -0.07522838 -0.73143405 0.028208645 0.043693427
000210 7d 68 b9 be 9e 48 98 3e 31 d0 3b 3d c1 fb 57 be
       -0.3621253 0.29742903 0.045852844 -0.2109213
000220 f8 3d 06 3e c0 7a 59 3e 35 2d a9 3e 9b 15 82 be
       0.13109577 0.21238232 0.33042303 -0.2540711
000230 9c 9b 8d bd 5e d7 a8 be 42 06 12 3e bf 28 6c be
       -0.06914446 -0.32976812 0.142602 -0.23062418
000240 16 ef 5f 3d ae 4d 81 bd d9 e4 64 3d e3 8f 89 3f
       0.05467137 -0.06313644 0.05588231 1.0747036
000250 2c 9b ce bd c1 df 0a be 9a 76 c9 bc ef e1 34 be
       -0.100881904 -0.13561918 -0.024592686 -0.17664312
000260 53 08 a9 be 9e 4c dc be 11 5b ba 3b af da 83 bb
       -0.33014163 -0.43027204 0.0056871255 -0.004023872
000270 d5 23 5e be 99 d0 a5 bd 8a a7 c9 be 90 4c 35 be
       -0.21693356 -0.080964275 -0.39385635 -0.17704988
000280 e9 04 ff bc cd 60 c5 bd 27 17 cb 3d 89 78 91 3e
       -0.031130271 -0.09637604 0.09916525 0.28412274
000290 da 73 a7 be 7b 5c f6 bd c3 e9 c0 be 07 1b 7f bc
       -0.32705575 -0.12029358 -0.37678346 -0.015570409
0002a0 f5 ec 36 be 60 10 91 3e e0 3d 20 bd 42 1e 99 be
       -0.1786383 0.28332806 -0.03912151 -0.29905897
0002b0 9e b9 35 3d 7d b2 97 be 0c 7c 05 3e bf e7 c1 be
       0.04436647 -0.29628363 0.13035601 -0.3787212
0002c0 49 fa a0 be 2c 36 b5 be da 61 ce be 6f 04 c2 3a
       -0.31440952 -0.35392892 -0.4030903 0.0014802347
0002d0 b4 0a c0 3e cd f1 37 be f5 85 5a bf db 5a 59 3d
       0.37508166 -0.17963333 -0.8536065 0.053065162
0002e0 f3 9b 48 3e 21 e8 8b be ed 47 3a bf 04 f8 3a 3e
       0.1959074 -0.27325538 -0.72766 0.18258673
0002f0 ec 54 bc 3e 18 25 05 bd be 71 a4 3c 39 35 37 3d
       0.3678354 -0.03250608 0.020073768 0.04472849
000300 a9 af 2e bf a5 7d 9d 3e 4e a7 69 3e 6c af c2 be
       -0.68236786 0.30759922 0.22817728 -0.3802446
000310 58 c3 1c bf b8 84 d1 3d 64 d8 a6 bd 58 29 87 be
       -0.6123557 0.10230392 -0.08146742 -0.2639873
000320 ac 68 1e 3e d5 c3 43 bd f2 76 5e 3d 59 c2 9a be
       0.15469617 -0.04779418 0.054312654 -0.302264
000330 a3 43 ff bc 61 c5 80 3e ab 17 d2 3d a5 f5 90 be
       -0.031160181 0.25150588 0.102584206 -0.28312412
000340 c1 b6 2f be 09 ff 15 3d f1 84 f6 be 2b 45 af be
       -0.17159559 0.036620174 -0.481483 -0.34232458
000350 e5 4f 9e 3e a4 24 98 3e 19 b1 c2 be 58 9b d3 bd
       0.3092033 0.29715455 -0.3802574 -0.10332364
000360 59 7d 42 3d a7 ae c1 be ba fd 49 3e 9c 7d c8 3e
       0.047482822 -0.37828562 0.19725695 0.39158332
000370 b5 c1 e7 3d 95 5e 2f be fd 83 9d bd 4a 33 62 be
       0.113162436 -0.17125924 -0.076911904 -0.22089878
000380 60 3d 8b be ea 99 85 be 30 a9 aa be 48 41 a1 be
       -0.27195263 -0.2609399 -0.33332205 -0.31495118
000390 ef 0f a5 be be 31 88 be 2d 50 01 be 60 e4 9f be
       -0.3223872 -0.2660045 -0.12628241 -0.31228924
0003a0 0c 21 82 be fe d7 37 be 56 45 a4 bd 31 2d a8 3c
       -0.25415838 -0.17953488 -0.08021037 0.020529361
0003b0 7a 1b 41 be 90 09 92 be f7 f7 f1 be b0 08 24 be
       -0.18858138 -0.2852292 -0.47259495 -0.16018939
0003c0 15 57 72 3e 0b 90 9f be 55 1d 56 3d 34 96 13 3f
       0.23666032 -0.31164584 0.052274067 0.57651067
0003d0 35 63 ca 3e 37 84 a8 3d dd 85 b4 be 7f 17 b1 be
       0.39528814 0.08228343 -0.3525838 -0.3458824
0003e0 8b b8 a2 bd 80 37 cb bc 7d 0a 27 3e d2 51 09 3e
       -0.07945355 -0.024806738 0.16312595 0.13410118
0003f0 dc 66 38 3e 1d 86 78 bd 24 b5 3e 3e 76 12 b8 be
       0.18007988 -0.060674775 0.18623787 -0.35951585

net.0.bias f4 [128]
000000 96 43 58 bf 10 05 85 be e7 65 91 3e 56 ff 80 3f
       -0.8447813 -0.25980425 0.28398058 1.0077922
000010 9b 74 98 3e f3 fa 33 be c3 5a 19 3f 49 0a 3b bd
       0.29776463 -0.17576198 0.59904116 -0.045664106
000020 53 73 d4 3e 8e 86 02 3f ce e6 66 3e 28 e5 51 bf
       0.41494235 0.50986564 0.22548983 -0.8199029
000030 d0 1b 9c 3e 4e 68 ca be 4d 69 56 be 3e d8 39 bf
       0.3048997 -0.39532703 -0.20938607 -0.72595584
000040 22 d6 80 3c 00 86 21 be e1 46 7a 3d 5a 23 03 3e
       0.015727106 -0.15773773 0.06110275 0.12806454
000050 3b d9 2d 3f 64 b8 dd 3e 8d 04 81 3f 41 4f 81 3f
       0.6790959 0.4330474 1.0079514 1.0102311
000060 8c 72 8a bf e2 38 e8 3d 98 39 4c be 20 75 ae 3d
       -1.0816207 0.113389745 -0.19943845 0.085184336
000070 d3 c4 72 3f b4 00 7b bb 67 da 89 be 3e 5b d1 be
       0.9483158 -0.003829998 -0.2692444 -0.40889925
000080 8e 67 16 3f 66 79 9e be 43 72 ac 3e 8b df a9 bf
       0.5875176 -0.30951995 0.33680925 -1.3271345
000090 bb da 54 bf d1 dd c1 bd 93 14 21 3c f0 1d 2e 3f
       -0.83146256 -0.09466136 0.009831565 0.6801443
0000a0 d9 11 5a be d0 f1 2b 3f a6 d4 c6 3e 7e b9 49 3f
       -0.21295871 0.6716585 0.38834113 0.78798664
0000b0 a0 ce 85 3c 34 95 2d 3f fc 28 07 3f 19 a9 8d 3f
       0.016333878 0.6780579 0.5279691 1.106723
0000c0 54 84 71 3f 3f bc f7 bc 4e c8 2c 3f 71 ac 91 bd
       0.9434254 -0.03024113 0.6749314 -0.07112969
0000d0 37 4d c5 3d 6d 1f 01 3f aa 6a 76 3e d3 05 13 3f
       0.09633868 0.50438577 0.24064127 0.5743076
0000e0 2c 99 25 bd e5 c6 1e be 28 c0 7d 3e 53 be 79 3f
       -0.04042928 -0.1550556 0.24780333 0.97556037
0000f0 b4 5c 55 bf df 3d 6a be d0 dc 45 bd e5 1a 34 3f
       -0.8334458 -0.22875164 -0.048306286 0.7035354
000100 a9 3e 22 bf 13 78 9d 3e 4b 4b 0c 3e 19 c3 47 3f
       -0.6337686 0.30755672 0.13700597 0.7803207
000110 a4 81 37 3d e4 30 70 3f 02 0b 55 3f 11 f1 50 3f
       0.04480137 0.938246 0.8321992 0.8161784
000120 6d 21 73 3f 49 58 8c bd b1 4a 5d 3f b9 f5 a2 3e
       0.9497288 -0.068527766 0.86442095 0.31828097
000130 e7 15 05 3f 23 42 27 bf 9c 96 0d 3f 6e c4 17 bf
       0.51986545 -0.6533529 0.55307937 -0.592841
000140 8b cd f1 bc 9c b1 92 3e 66 fd 1d 3f 63 09 73 bd
       -0.029516956 0.2865113 0.6171478 -0.059335124
000150 09 ce 91 3e 55 1e 2f 3e 24 6a 31 3c bc aa 80 3f
       0.28477505 0.17101415 0.010828529 1.0052104
000160 e7 68 0b 3f aa dd 92 bd 0a 2e fa be 2f 0b 77 3f
       0.54456943 -0.07171185 -0.4886325 0.9650144
000170 cb f1 38 3f 84 41 54 3f 36 a7 93 3f 2b 89 a4 3e
       0.72243947 0.8291247 1.1535404 0.321359
000180 d7 47 7a bf c9 6f d4 3e 8f a8 01 3f 29 c1 47 3f
       -0.9776587 0.41491535 0.50647825 0.78029114
000190 0c e1 9b 3f 19 3b 34 3f b1 88 65 3e f0 da 49 be
       1.2178054 0.70402676 0.22415425 -0.19712424
0001a0 92 f5 86 3f b2 17 56 3f 4b 4e 45 3f 5f a4 27 3d
       1.0543692 0.83629906 0.7707259 0.04092824
0001b0 7b 24 3a 3e 19 c7 f8 be 31 a4 9b 3d 3a 8c 19 3e
       0.18177979 -0.485894 0.075996764 0.14994898
0001c0 15 da 11 be b7 71 91 be 21 ba c5 be 8c 0b 39 3e
       -0.14243348 -0.2840707 -0.38618568 0.18070811
0001d0 67 6f 36 3e 95 6a d9 3e ad 6b e9 3d f3 fc 9d bd
       0.17815934 0.42464128 0.11397491 -0.07714262
0001e0 e6 46 80 be e6 46 2b be 23 27 96 3e 47 c3 27 3d
       -0.2505409 -0.16726264 0.29326734 0.040957715
0001f0 c3 ff 38 3f b9 eb cf 3e 02 8d 8c 3f 2c 1f 3c 3f
       0.7226526 0.4060953 1.0980532 0.73485065

net.2.weight f4 [128, 128]
000000 f4 b5 85 3c 37 67 9a bd 09 e8 8c bd bf 6d 06 bd
       0.016322114 -0.07539218 -0.06880195 -0.032819506
000010 a5 04 78 3d 0a 7f f8 ba 55 83 1c bd ff 26 31 bd
       0.060551304 -0.0018958759 -0.038211185 -0.04325008
000020 83 56 41 bd b1 65 f5 bc 41 f4 70 3d 24 2b 4a 3d
       -0.047201645 -0.029955717 0.05882669 0.04935755
000030 98 7e 50 3d 23 6d c1 bc db a8 b6 bd a1 a9 8c bd
       0.05090198 -0.02361161 -0.089189254 -0.06868292
000040 8d fe b0 3c 76 f3 1d bb 80 f4 ff 3a 5e cd 44 3d
       0.021605754 -0.0024101413 0.0019527823 0.048047416
000050 69 e2 96 bd de 82 66 bd 35 5e a5 bd 4c b1 0c 3d
       -0.07367403 -0.05627715 -0.08074609 0.03434877
000060 03 2e 5c bc 3c d5 01 bd e0 14 73 bc 8e c5 9a bc
       -0.013438704 -0.031697497 -0.01483652 -0.01889303
000070 62 fb 4f 3d 41 f6 4a 3c 77 4f 21 bd 35 b2 2a 3c
       0.050776847 0.012387813 -0.039382424 0.010418464
000080 df 74 8e 3a 05 d2 00 3c cc 64 cc bd 4c 25 16 bd
       0.001086857 0.007862573 -0.09980163 -0.036656663
000090 bf 60 0c bd 45 a6 15 bd ba 7f 77 3d 00 2d 66 bd
       -0.03427195 -0.03653552 0.060424544 -0.05619526
0000a0 7f 65 68 bd e2 32 91 3d 29 c7 c5 bd fa 20 33 3d
       -0.05673742 0.07089783 -0.096571274 0.04373262
0000b0 a9 0b 87 3d ff 98 38 bd 0c a5 9b 3d 77 79 d5 bd
       0.06594021 -0.045067783 0.075998396 -0.10423558
0000c0 e0 ce 5b bd 26 12 d2 bd c2 2e 97 3d e0 19 88 3c
       -0.05366409 -0.10257368 0.07381965 0.0166139
0000d0 9f bc 97 bd 91 56 c4 bd d1 a5 8f 3a 2e 6c 0e bd
       -0.074090235 -0.09586824 0.0010959451 -0.034771137
0000e0 22 17 7a 3d 2e b8 66 3d 7a e1 6e bd d2 08 b8 bd
       0.061057217 0.05632799 -0.0583205 -0.08986057
0000f0 d4 bf f0 3b d2 10 d5 3c 84 6c be bd 7b 26 8c bd
       0.0073470864 0.026008997 -0.092980415 -0.06843277
000100 e1 91 41 3b e8 03 65 bd 37 af 54 3d 33 33 a8 bc
       0.0029536413 -0.05591193 0.05192491 -0.020532226
000110 73 c6 b7 bd 13 f5 57 3d 94 cf ce bc c6 3d 89 bb
       -0.08973398 0.052723955 -0.025245465 -0.004188272
000120 5c 06 d8 bd e2 d2 b7 bd 50 74 af bd ba fa c4 bd
       -0.10548088 -0.089757696 -0.08567107 -0.09618135
000130 b4 24 02 bc af 20 39 3d 94 3c b3 bd bf 7d 2b 3c
       -0.007943321 0.045197185 -0.08751789 0.010466992
000140 3d e6 6b 3d ae b8 97 bd b8 04 4d bd 58 83 85 3d
       0.05759262 -0.07408272 -0.05005333 0.065191925
000150 15 7a c2 bd b8 68 67 3d af 9a 90 bd 1f b0 85 bd
       -0.094959415 0.056496352 -0.070607536 -0.06527733
000160 8c fd 5b bd f0 d9 06 3d 03 7f 8c bd f0 a7 c4 bd
       -0.053708598 0.032922685 -0.06860163 -0.09602344
000170 bc 7d 1d bd 49 52 fb bc 41 3d 36 3d 47 a1 1f 3d
       -0.038449988 -0.030678885 0.04449201 0.038972165
000180 98 51 62 3c 99 4d 1c 3d b9 92 1f 3d 38 e3 20 bd
       0.013813399 0.03815994 0.038958285 -0.039279193
000190 06 5e 42 3d 29 cc 22 3c cd 8b 18 bd 40 a6 6d bc
       0.04745295 0.009936371 -0.0372427 -0.014504969
0001a0 9a 66 b0 bd 2b 02 cd bd 3e 37 b3 bd e1 d7 38 3d
       -0.0861332 -0.10010179 -0.08750771 0.045127753
0001b0 90 a2 75 3d a2 0f 71 bd b4 10 83 3d bb 31 26 3d
       0.059969485 -0.0588528 0.0639967 0.04057477
0001c0 07 18 ac bd 29 76 67 bd e9 28 46 bc 4f 19 43 bd
       -0.0840302 -0.05650917 -0.012094715 -0.047631558
0001d0 19 f3 e8 b9 c5 ac b0 bd 31 6b df bd ab 7b 51 3d
       -0.0004443161 -0.08626703 -0.10909117 0.05114333
0001e0 7a 09 a7 bd 00 24 bb bb b4 21 08 3d 7f b4 e4 bc
       -0.081561044 -0.0057110786 0.033235267 -0.027918098
0001f0 47 d4 b4 bd f6 24 0f 3c d0 97 fc 3b 1d 50 93 3c
       -0.08829551 0.0087368395 0.007708527 0.017982537
000200 60 43 20 bd e0 c6 d1 bc 28 58 1b bd dc 01 9c bc
       -0.039126754 -0.025607526 -0.03792587 -0.019043855
000210 78 51 97 bd 2c be 34 bd 19 84 a3 bd b3 1a ad bd
       -0.07388586 -0.044126675 -0.0798418 -0.08452358
000220 ce a4 92 bd 4b 9b 8d 3d ce f1 73 bc 4d e6 a9 bd
       -0.0716034 0.069143854 -0.014889194 -0.082958795
000230 d8 c1 94 bd 11 8d 38 3d d0 90 c5 bd e0 c6 f4 ba
       -0.07263535 0.045056406 -0.096467614 -0.0018674992
000240 15 d1 b8 3c 97 f2 97 bc 1e 91 aa bd 15 f6 0d bd
       0.022560636 -0.018548293 -0.0832846 -0.03465851
000250 08 7f b3 3d 05 35 8a 3d 05 89 b7 bd dc 4c e4 3c
       0.08764464 0.06748394 -0.08961681 0.02786868
000260 25 86 9e bd 2e 7e f8 bb 85 62 a7 bc 1b ad 95 3d
       -0.0774043 -0.007583401 -0.02043272 0.07308408
000270 01 50 21 bd 44 1f 44 3d d0 84 a7 bc 8b 8b a1 bd
       -0.03938294 0.04788138 -0.020449072 -0.07887944
000280 97 56 74 bd a1 ca 78 bd 48 54 43 bd e1 5e fe bb
       -0.05965289 -0.060740117 -0.0476878 -0.0077627753
000290 04 98 37 3d 4d 02 8e bd 0a 36 f2 3c d6 65 7e bc
       0.044822708 -0.069340326 0.029566783 -0.015527209
0002a0 d2 02 40 3c 3f ce ee 39 4c cf 24 3c 71 8c 99 bd
       0.011719422 0.00045548563 0.010059189 -0.0749749
0002b0 ae fa 9f 3c eb 79 b6 bd 9a 90 40 bd a3 2b 0f 3d
       0.019528713 -0.08909973 -0.047012903 0.034953725
0002c0 5a 38 e8 bc 1c 8f 5d bd 83 21 cb bd 70 db 3f bc
       -0.028347183 -0.054091558 -0.09918501 -0.011710033
0002d0 2d a7 0b bd 88 3d 38 bd e5 43 a8 3c c2 5b 15 bd
       -0.034094978 -0.044980556 0.020540187 -0.03646446
0002e0 ff ea 5d bc 36 55 b1 bd fc 61 d4 bc d8 f4 22 39
       -0.013544797 -0.08658831 -0.025925629 0.00015540735
0002f0 aa 0d 06 bc 4e 97 75 bd 9f 72 42 3d b9 12 ff 3c
       -0.008181969 -0.05995875 0.047472592 0.031136857
000300 d4 b0 28 3d 69 49 94 bd dc fd cd 3c aa 56 86 bd
       0.04118426 -0.072405644 0.025145464 -0.065594986
000310 d1 f0 06 bd 67 9c 67 bd 4b ab ab 3c 80 32 95 bd
       -0.032944504 -0.05654564 0.020955702 -0.07285023
000320 b8 5a db bd cb 22 d3 3c 2f 5a aa bd 6f d5 05 bd
       -0.107106626 0.025773427 -0.083179824 -0.03267425
000330 5e ba d5 bc 1d 29 04 3d 53 1c 97 bd d9 43 dc 3d
       -0.026089843 0.03226577 -0.07378449 0.107551284
000340 93 76 0e 3b ef 3f 4c 3d 13 79 8f bd 65 91 c7 bd
       0.0021738156 0.04986566 -0.07005515 -0.09744529
000350 6d 9d a1 3d 85 a9 06 be 71 65 7a 3c b1 45 79 3c
       0.07891355 -0.13150604 0.015282975 0.01521437
000360 11 32 7c 3d 54 dc 59 bc 78 76 ba bd d7 93 1e bd
       0.061571185 -0.013297159 -0.09104627 -0.03871521
000370 90 64 76 39 3a 3d b4 bd f0 c4 e2 bc 01 df b0 bc
       0.0002349785 -0.088007405 -0.027681798 -0.021590712
000380 da 19 4c bc 16 01 a1 bd e0 87 aa bd 07 e0 e2 3b
       -0.012457335 -0.07861535 -0.08326697 0.006923679
000390 7d a7 24 3a 23 e9 89 bd b4 d0 15 3c 88 3e 33 bc
       0.0006281061 -0.067339204 0.009143997 -0.010940202
0003a0 c6 cf 0c 39 30 c2 89 bd 67 68 23 bd a7 db a5 bd
       0.00013428842 -0.067264915 -0.039894488 -0.08098536
0003b0 66 1b 6e bd f9 fe 9a 3b ca 1e c2 bc 34 5d 08 3d
       -0.058131598 0.004730102 -0.023696322 0.03329201
0003c0 39 fd 2d bd 59 00 6f bc 4d 49 8a 3b db 08 39 bd
       -0.04247782 -0.014587485 0.004220164 -0.04517446
0003d0 85 49 45 3c d8 e0 08 3d 05 27 ad 3c 9e 06 11 3d
       0.012041454 0.033417553 0.02113677 0.0354067
0003e0 e2 a8 9d bc 2d fb b4 bd 06 ca 8a bc fb 3e a9 bc
       -0.019245569 -0.088369705 -0.016942035 -0.020659914
0003f0 62 a7 72 3b 53 60 22 bd 30 fa 8d 3d 64 66 42 b9
       0.0037026037 -0.039642643 0.06932485 -0.00018539425

net.2.bias f4 [128]
000000 97 7e 24 3d 29 53 f3 3c b9 37 99 bd 43 bb 06 bd
       0.040159788 0.02970274 -0.074813314 -0.03289343
000010 dd 9f 21 3e 7e df 21 3f b0 31 3f 3f 1b 5f a8 3d
       0.15783639 0.63231647 0.7468519 0.08221265
000020 3d 2b 38 3f d2 d6 ef bb 7a e2 24 bd dc 22 43 3d
       0.71940976 -0.0073193097 -0.040255047 0.047640666
000030 17 4f 7c 3a 7c 1a 30 3f 55 a6 ba bd 02 ad 3d 3f
       0.00096248224 0.6879041 -0.091137566 0.74092114
000040 d9 7b 1a 3c 6c e2 dd 3d 14 da 51 bd 6a e7 ba bd
       0.009428942 0.10834202 -0.051233366 -0.0912617
000050 c7 65 31 bd 77 c9 dc ba 19 dd da 3c a0 c9 35 3d
       -0.043309953 -0.0016844709 0.026716756 0.044381738
000060 ea 8d 55 3f 8c fb 65 3f 1f 15 48 3e 7b 68 16 bd
       0.8341967 0.89836955 0.19539307 -0.036720734
000070 15 97 ad bd af af 45 3c ae ad cd bc c6 6b 29 3d
       -0.08476082 0.012065812 -0.025107231 0.041362546
000080 d4 9d 99 be 8f 45 99 bd d0 8d 68 bb a4 a1 13 3d
       -0.30003226 -0.074839704 -0.0035484917 0.036042824
000090 33 f3 54 bd 53 5f 90 bd 0c 4a 2a 3f e8 c5 11 be
       -0.051989745 -0.07049432 0.66519237 -0.14235651
0000a0 a7 17 19 3d a3 99 e6 bd 24 69 14 3e 46 81 6c 3d
       0.037376072 -0.11259773 0.14493233 0.057740472
0000b0 43 12 9c 3c f7 1b 0b bd d9 a9 ba bd 9a 89 0e be
       0.019051677 -0.033962216 -0.09114427 -0.13919678
0000c0 92 41 ee 3e 17 66 a6 bd c4 8a f0 3e de 3c 90 3c
       0.465344 -0.08124941 0.4698087 0.017607149
0000d0 fa ad bb bd 2f 38 f5 bd 01 41 81 3f 80 51 b4 3d
       -0.09164043 -0.11973607 1.0097963 0.088046074
0000e0 19 64 6b 3f 05 20 d4 bd 73 1a 80 bc 59 b7 dd bc
       0.9194961 -0.1035767 -0.015637612 -0.027064966
0000f0 82 a5 01 ba be 6d 21 3e e0 8c 62 3f 67 b3 87 bd
       -0.0004945622 0.1576452 0.8849621 -0.06626015
000100 ce 5f b9 3e ff f0 a9 bd cf 89 43 3d b2 7f ef bb
       0.36205906 -0.082979195 0.047738846 -0.0073089236
000110 59 78 d5 bd f3 bf 79 be 88 ae f1 bc 8d db c4 bd
       -0.10423345 -0.24389629 -0.029502168 -0.096121885
000120 67 a2 58 3f f9 67 18 3f c8 a0 ab 3e 69 5f 24 3e
       0.84622806 0.5953365 0.33521104 0.16052021
000130 3e e2 e4 bd eb d0 4a 3f f8 48 58 bd a1 27 64 3f
       -0.11175965 0.79225034 -0.052803963 0.8912297
000140 db b2 7f b9 28 ea b3 bd 48 46 eb bd e8 85 0d bd
       -0.00024385324 -0.08784896 -0.114880145 -0.03455153
000150 ec fb 01 be 0e ee 1d 3e 1b cd 39 3f a2 23 21 bc
       -0.12693757 0.15422842 0.7257859 -0.009835156
000160 bc 2f 46 bd 93 25 ab bb 8b ab 93 3d 60 81 62 bd
       -0.048385367 -0.005222985 0.072104536 -0.055299163
000170 e6 c4 b4 bd b5 92 f1 bd 14 fb 6a 3f e8 81 c1 bd
       -0.08826618 -0.1179556 0.91789365 -0.09448606
000180 42 59 68 3a 2e fd a6 3c dd 58 a5 bc f0 b4 e1 3c
       0.0008863398 0.020384397 -0.020183975 0.027552098
000190 4e e4 61 bd 10 50 08 bd 41 ba 03 be d7 90 1f 3f
       -0.05514937 -0.03327948 -0.12864019 0.62330383
0001a0 85 72 39 bd d7 a6 09 bc d0 40 ed 3d a2 a8 2e 3d
       -0.04527523 -0.008401594 0.11584628 0.04264129
0001b0 b1 d7 05 be 95 c6 5a 3e 1b fe d4 bd df cf aa bd
       -0.13070561 0.21364816 -0.10400029 -0.083404295
0001c0 6e 71 9a bd 68 fb 79 3f c3 b7 8f bd b7 43 a0 bd
       -0.07541166 0.9764924 -0.07017472 -0.078254156
0001d0 3c 0d 39 bd 3d 30 4b bd 17 45 c3 bd 2c 52 bc bd
       -0.045178637 -0.04960655 -0.09534662 -0.091953605
0001e0 00 f1 a7 bd 66 6c 5a 3d fb 45 b7 bd 55 55 25 3f
       -0.08200264 0.053326033 -0.089488946 0.6458333
0001f0 3b b1 0a 3d 97 c3 17 bd 2a 1f 96 bc a2 89 db bd
       0.033860426 -0.037051763 -0.018325407 -0.10719611

net.4.weight f4 [9, 128]
000000 84 af 01 3d 2f d3 86 3a 9a 23 33 3d cb 6d 65 bd
       0.031661525 0.0010286326 0.043735124 -0.05601291
000010 3f d8 8d 3e 26 36 ad 3d c3 88 11 3d c6 b9 89 3d
       0.27704045 0.084575936 0.035530817 0.067248866
000020 1f 27 a7 3d ec c3 34 bd 9c af 7e bd 9a 12 22 3d
       0.08161759 -0.04413216 -0.062179193 0.03956852
000030 94 37 d6 3b 72 f6 bb 3d fe 40 76 bd d4 d1 af 3d
       0.006537387 0.09177865 -0.060120575 0.085849434
000040 c4 bf 78 bd 0c 05 ed bc 04 19 66 bd 99 7d 4f be
       -0.060729757 -0.02893307 -0.0561762 -0.20262755
000050 c0 df 36 bc 24 ec 49 bd 6b 16 be bd 9e 90 82 3d
       -0.011161745 -0.049297467 -0.0928162 0.0637524
000060 a9 9a 47 bb ca 7a b7 3d d3 f8 cf 3d 5d 44 6f 3b
       -0.0030457175 0.08958967 0.10154881 0.0036509254
000070 a8 11 8d 3d 10 54 40 3d 65 a0 eb 3c 0f b5 ad 3d
       0.06888133 0.04695517 0.028763006 0.084818
000080 95 41 e9 bc 6f dd ab bd 90 da 92 bd dc de 33 bd
       -0.028473655 -0.083918445 -0.07170594 -0.043913707
000090 bb 8e 99 3c 8f 1b b7 bc d1 8d 4e 3d 7b 20 76 be
       0.018744817 -0.022352008 0.050428215 -0.24035828
0000a0 f9 dd 62 3d 5c 19 ae bd d4 36 70 3e 1a ad 29 3d
       0.05538747 -0.08500931 0.23458415 0.04142485
0000b0 0e 5e 66 3e fd dd 41 3c f5 00 1f 3b b0 4c 20 3d
       0.22496817 0.011832711 0.0024262045 0.039135635
0000c0 fc d6 de 3d b5 28 9a 3c 00 de e8 3d 73 5a a5 3d
       0.10880849 0.018818239 0.11370468 0.080738924
0000d0 41 04 fe 3c ba 64 3f bd f7 f1 81 3d 54 c6 04 3d
       0.031007888 -0.04672692 0.06344979 0.032415703
0000e0 d6 dc 6c 3d 9a f1 c1 3d d2 13 4e 3d 56 be 7d 3d
       0.057827793 0.0946991 0.05031187 0.061949097
0000f0 b8 be e5 bc fc fb dc 3d 75 90 cb 3d c2 c9 d4 bd
       -0.028045043 0.1079025 0.09939662 -0.10390045
000100 8c 97 49 3d 5b c1 fd 3d 52 98 44 3d 8e ff 28 3d
       0.049216792 0.12390395 0.047996826 0.04125934
000110 e2 5b 30 3c 44 f4 a6 3d bc f0 64 3d 7e eb 71 bc
       0.010764094 0.08152059 0.055893645 -0.014765618
000120 6c 02 02 3d b9 87 1a 3d 7c fc dc 3d c2 21 3e 3c
       0.03174059 0.03772709 0.10790345 0.011604728
000130 f9 ba be bb 25 3c cc 3d cd c5 b5 3c d5 9f 98 3d
       -0.0058206287 0.09972409 0.022189045 0.074523605
000140 d0 b4 1e bd 3d 7b 0d bd e9 1e 35 3d 33 cf cb bc
       -0.038746655 -0.034541357 0.04421893 -0.024879074
000150 ad d4 88 bd cc 1c 01 be e6 f5 12 3d b2 f3 18 bd
       -0.0668119 -0.12608641 0.03587904 -0.03734178
000160 fd 1d ef 3d 9a 4a 24 3e aa 41 50 3e 03 e0 09 bd
       0.11675642 0.16044083 0.20337549 -0.0336609
000170 bd 32 2f 3d 20 6b 8e bc 20 e9 6d 3c a1 b0 93 3c
       0.042772997 -0.017385066 0.014520913 0.01802856
000180 c5 c4 b5 3d df 80 13 bd 5e 44 62 3d 49 f3 41 bc
       0.088754214 -0.036011573 0.05524098 -0.011837789
000190 c4 e2 a6 bc 92 2e 28 3d e3 e2 eb 3c 15 0f ae 3d
       -0.020371802 0.041060038 0.028794711 0.084989704
0001a0 63 51 c1 bd 2b ff d1 3d 42 02 65 3d f8 ea 7b bb
       -0.094393514 0.102537476 0.055910356 -0.0038439613
0001b0 16 18 06 bd 54 93 64 bc e6 f9 b1 bd e9 cb 3d bc
       -0.032737814 -0.013951141 -0.086902425 -0.0115842605
0001c0 98 fd 47 bc 26 d4 82 3d 3d d5 e7 bc 6e b8 18 be
       -0.012206458 0.0638812 -0.028299922 -0.14914104
0001d0 68 28 37 3e 6f 70 f7 3b c7 83 b7 bd 1d a3 03 bc
       0.17886508 0.007551245 -0.089606814 -0.008034495
0001e0 4c 53 bf bd 1a a6 17 3b c8 41 28 3e 0f 83 56 3d
       -0.093420595 0.0023139776 0.16431344 0.05237108
0001f0 5c a9 a9 3d 10 3d f7 3d 31 da ce bc 16 91 57 3e
       0.08284256 0.120721936 -0.025250526 0.2105144
000200 c1 43 6a bc b2 50 94 3d 2b d0 af bd 8e f3 2f bd
       -0.01429838 0.07241954 -0.08584627 -0.04295688
000210 1b 0c 8c bc 8a c1 4a 3c 5d cc e9 3c 5a 39 0e bd
       -0.017095616 0.012375245 0.02853983 -0.034722663
000220 a0 98 44 3d f0 f0 64 bd 2e e1 15 3d 9d c1 d6 ba
       0.047997117 -0.05589384 0.0365917 -0.0016384606
000230 98 77 1f bd 45 68 68 3d d7 65 d5 3c 5b 34 9b 3d
       -0.038932413 0.056740064 0.026049538 0.075783454
000240 65 2f 47 bd b1 d4 2b 3e 06 50 ff bc f0 67 2d 3e
       -0.048629183 0.16780354 -0.031166088 0.1693418
000250 d6 30 9d bc cf 9b 82 bb 0d ca a5 3d 16 10 85 bd
       -0.019188326 -0.003985859 0.08095179 -0.06497209
000260 d8 9c 10 3d c0 a9 b7 3d c0 8f df be e3 63 20 bd
       0.035305828 0.08967924 -0.4366436 -0.03915776
000270 48 92 ca 3c 80 0a 56 bc 4b 1b 34 3d 93 f9 b6 bd
       0.024727955 -0.013064027 0.04397134 -0.08934321
000280 65 4f 1d bd 4f 15 c4 3d 07 ed fc bd 81 d4 01 3d
       -0.038405795 0.09574377 -0.12349897 0.0316968
000290 47 99 2d bd 52 9b 98 3d 66 0d a9 3d 16 1c 67 bd
       -0.042382505 0.074515 0.08254509 -0.05642327
0002a0 44 07 88 bb f6 9a 7b bd e6 8d af 3a 3c b6 8f bc
       -0.0041512568 -0.06142708 0.001339373 -0.01754295
0002b0 9e 14 81 bd e0 6a 04 bd 8e d8 7e 3d cc 0a df bd
       -0.063027605 -0.032328486 0.06221824 -0.10890731
0002c0 dc 6e 08 b9 ca bf 20 3d 0e 47 86 3d 18 e3 a3 3c
       -0.00013011269 0.039245404 0.06556521 0.020005748
0002d0 cb dd 24 3e 9a 2e 3b 3d 50 d3 9a 3d 86 f0 7f 3c
       0.16100232 0.04569874 0.07559836 0.01562131
0002e0 20 db 93 3d 34 1b 7a bc 08 05 73 bd 3f 15 0c bd
       0.07219529 -0.015265275 -0.05933097 -0.03419995
0002f0 8f 39 40 3d 44 c7 82 bd e0 e4 a1 3d 16 7c bd bd
       0.046929892 -0.06385663 0.079049826 -0.09252183
000300 ad cb 5c 3d 46 e4 16 3e c8 73 cb bd 0c 0e c9 3c
       0.053905178 0.14735517 -0.09934193 0.02454283
000310 ed fb 34 3c 76 cc 03 bd ca 58 8f 3c 27 b2 05 3d
       0.011046392 -0.03217741 0.017498393 0.032640602
000320 b8 40 af 3d ec ef 5a 3d 15 1e 90 be c2 fd 47 bb
       0.08557266 0.053451464 -0.2814795 -0.0030516242
000330 5d 13 ee bc 1d c7 bb 3d 9b 6a 79 3d 8e e9 c6 3d
       -0.029061968 0.09168837 0.060892683 0.09712516
000340 b2 cd 29 bc c1 f3 42 bd 64 1e 59 bd 0a 18 ab 3d
       -0.010363983 -0.047595743 -0.0530075 0.083541945
000350 9e 0d ba bb a0 95 fd ba 8b 82 07 3c 55 5f 0b 3d
       -0.005677893 -0.001934696 0.00827087 0.034026463
000360 67 19 08 3e bf b8 ff 3d fc 94 c3 bd 61 7f 39 3b
       0.1329094 0.124864094 -0.09549901 0.0028304684
000370 60 af 8c bd 75 6c 40 ba 47 0c bf 3d 0d c4 99 bd
       -0.068693876 -0.000734038 0.093285136 -0.07508097
000380 24 61 9c 3d 2a 2f b1 3c 37 95 e0 3d e8 9f 7a bd
       0.076357156 0.021628935 0.109659605 -0.061187655
000390 ab 03 be 3d 4a bd db ba af d0 65 bc b7 6a 65 3d
       0.09278043 -0.0016764787 -0.014026805 0.056009974
0003a0 12 55 a3 3d 42 60 6a 3c a3 00 e6 bc 41 78 c7 bb
       0.0797521 0.014305176 -0.028076475 -0.0060873334
0003b0 55 cd 74 bd 8f 45 2c bd 92 c6 35 be 6c 40 65 bc
       -0.059766132 -0.042058524 -0.1775153 -0.01399241
0003c0 61 ca 4c bb f1 1a 9e 3d 86 07 87 3c 18 7e 10 bd
       -0.0031248557 0.077199824 0.01648308 -0.035276502
0003d0 fe b1 6f 3d af 7e 61 3d 2e 30 b8 3d 5e 7a c6 bb
       0.058519356 0.055052456 0.089935645 -0.006057068
0003e0 5d f5 ed 3c ce 66 05 bd b0 2f 07 3e 9e 18 5c 3d
       0.029047662 -0.032568745 0.13201785 0.053734414
0003f0 2f 55 88 3c e9 3a 8f bd 27 69 04 bd 52 10 b6 3d
       0.016642181 -0.06993658 -0.032326844 0.088898316

net.4.bias f4 [9]
000000 1e b2 e6 3e 0a 36 1d 3f 18 6d ce 3e e0 76 00 3f
       0.45057768 0.6141058 0.40317607 0.5018139
000010 ea 29 90 3f 77 e8 ac 3e 3a 23 a5 3e 6a ac b2 3e
       1.1262791 0.33771107 0.32253438 0.34897166
000020 ca 5f 9f 3e
       0.3112777
