Entities/pained_rep.pth (torch, 80038 bytes, 6 tensors)

net.0.weight f4 [128, 12]
000000 01 24 a0 3d f0 91 58 be a8 37 0d 3e 45 f6 5f be
       0.07819367 -0.2114942 0.13790762 -0.21871288
000010 4f a5 21 3e 68 a4 49 3e ee df 76 3d 6c 00 67 be
       0.15785716 0.19691622 0.06027215 -0.22558755
000020 5f 6f 19 bc 6e 0c 39 bd 25 cd eb bd eb 31 65 3e
       -0.009364932 -0.04517787 -0.115137376 0.22382323
000030 a4 89 84 be ff 40 5b 3e 94 75 28 be 1a f5 f3 3c
       -0.2588626 0.21411513 -0.16451102 0.02977996
000040 ea 6c 14 be dc a8 ad 3d 8a f1 88 bd 4b 76 b1 3d
       -0.14494672 0.08479473 -0.06686695 0.08665141
000050 e8 fa d2 3c 52 c9 81 bb f6 8c 28 3e ce 8b b3 3d
       0.025754407 -0.003960767 0.16460022 0.087669
000060 36 e3 2c be d7 73 81 be c0 46 04 3e 15 93 1d be
       -0.16883549 -0.2528369 0.12917614 -0.15388139
000070 87 f2 79 be 7b ca 52 be 9b f5 14 3e e2 75 91 3d
       -0.24408923 -0.20585053 0.14546816 0.071025625
000080 63 e0 04 be ee 3b b6 3d d9 58 87 be 25 21 32 3e
       -0.12976222 0.088981494 -0.26434973 0.17395456
000090 8b 7d 7e 3e 88 c7 70 be eb f6 47 be c6 b8 50 3e
       0.24852578 -0.23513615 -0.19527785 0.20382985
0000a0 69 96 91 3e 6f c4 16 be d0 26 57 3d 76 98 2e 3e
       0.28435066 -0.14723371 0.05252725 0.17050347
0000b0 4d 29 6e 3e 10 3d e7 3c 1c af a2 bd 0c ef 5a be
       0.23257942 0.028227359 -0.07943556 -0.21380252
0000c0 35 c2 a7 bd 20 89 aa bd 67 1e 7f 3b 66 eb c9 bd
       -0.08191339 -0.08326936 0.0038928033 -0.09859352
0000d0 b4 a4 53 3d 63 e0 20 3e f0 1f bf bd d3 e6 0f 3e
       0.051670745 0.15710597 -0.093322635 0.14052896
0000e0 b3 36 63 be 8b 36 7a 3e 6b e9 bd bc 0f 7f 7f 3e
       -0.22188835 0.24434869 -0.023182591 0.24950813
0000f0 93 68 64 3e 0d a9 45 be 24 22 a0 bd 02 0c b2 3d
       0.22305517 -0.19302769 -0.07819012 0.086936966
000100 4a a5 6d be 4b 38 3f 3e af 6d bf bc b7 4c 38 3e
       -0.23207584 0.18673818 -0.02336773 0.17998014
000110 c6 54 90 3e 26 e1 77 be 2c b6 f7 bd 42 ac 19 3e
       0.28189677 -0.24206981 -0.120952934 0.15007117
000120 ab d1 88 bc 67 5e 6e 3e 07 f2 ed 3d 62 0a da 3d
       -0.01670154 0.23278199 0.11618429 0.106465116
000130 ab d0 52 be 15 2b 3f be a8 69 85 3d 5c 94 69 3e
       -0.20587413 -0.18668778 0.06514293 0.22810501
000140 82 db 1f 3e b4 b5 5d bd 1f 91 05 3e 0d 5b 86 be
       0.1561108 -0.054128364 0.1304364 -0.2624134
000150 58 58 5e 3d 54 d9 80 be a0 ab 88 bd 3f 88 68 3e
       0.05428347 -0.25165808 -0.0667336 0.22708224
000160 fe 6f d8 3c 79 c7 60 3e 48 38 ee bd 8c 6a 53 be
       0.02642059 0.21951093 -0.116318285 -0.20646113
000170 5b 3c 59 3e 16 1b 2f 3d e4 0a 18 3e 64 cb d0 3d
       0.2121443 0.04275044 0.14847904 0.10195044
000180 44 0f 41 bd 83 27 38 3c 53 86 1b be 00 60 2b 3e
       -0.0471337 0.011239889 -0.1518796 0.1673584
000190 09 6f 1f 3c ea b3 5a be ad ae d0 bd 52 bc 16 be
       0.009731063 -0.21357694 -0.10189567 -0.14720276
0001a0 f1 39 6b 3e 43 87 19 be c1 99 6f 3e b5 af 52 bd
       0.22971322 -0.14993005 0.23398496 -0.0514371
0001b0 df ae 4c 3d 11 cf 8b bd 1e 09 85 3e bc ca 35 be
       0.049971458 -0.06826604 0.25983518 -0.17753118
0001c0 b1 4d 63 3e ca 97 06 be a5 d0 63 3e d1 4a a9 3d
       0.22197606 -0.1314384 0.2224756 0.08266223
0001d0 cc f2 ca 3d 70 20 9c 3d c0 4f 82 be 8d 23 1b 3d
       0.09909591 0.076233745 -0.2545147 0.0378757
0001e0 da f2 2a be 1c 71 94 3e 2b 4b 29 3e 85 e1 4e 3e
       -0.16694203 0.28992546 0.1653258 0.20203216
0001f0 47 a7 80 3e 75 d8 7c be 74 45 d1 3d 33 a1 a8 bd
       0.25127622 -0.24691947 0.10218325 -0.08233871
000200 81 b1 c0 bd 5a 6d 72 be 3c d5 46 3c b7 11 c8 3d
       -0.09408856 -0.23674527 0.0121358 0.09769004
000210 c5 fc 95 3e 00 8a eb 3d 93 ea db bd 5c f8 aa 3d
       0.2929441 0.11500931 -0.10738101 0.08348152
000220 e8 2d 65 3e dd 5d 87 bd dd c8 86 be 9e 6d 77 bd
       0.22380793 -0.066097 -0.26325122 -0.060407273
000230 9d 8a 4c bd 30 50 81 37 3b b3 36 be ed 45 bb bd
       -0.04993688 1.5415339e-05 -0.17841808 -0.09144197
000240 8c 80 88 be 59 40 8e be a9 e7 88 be 95 44 8f be
       -0.26660573 -0.27783468 -0.26739243 -0.2798201
000250 5a 75 28 be b5 e0 89 be 5d 5f 41 3e 90 81 82 bd
       -0.16451016 -0.2692925 0.18884034 -0.06372368
000260 13 07 3a be b8 b6 64 bd bd 65 cf bd 4a f2 62 bd
       -0.18166761 -0.055838317 -0.10126827 -0.055406846
000270 4b 7a 15 3d 50 55 45 3e 6d 6c ee 3c ae a8 8d 3e
       0.03649358 0.19270825 0.029104436 0.27667755
000280 95 e0 13 3d 24 df 61 be b1 1c 20 be 61 9c 0a be
       0.03610285 -0.22057778 -0.15635945 -0.13536216
000290 42 6c 79 3e ef 92 44 bd 41 a1 53 3e 36 e2 33 3e
       0.24357703 -0.04799169 0.20666982 0.17566761
0002a0 a4 9d 74 be c5 72 19 3b e3 51 43 3e 65 24 e8 3d
       -0.2388826 0.0023414355 0.19074206 0.11335067
0002b0 68 96 09 be eb 32 aa bd ae 14 d5 bd 7c 47 27 be
       -0.13436282 -0.08310493 -0.10404335 -0.16335863
0002c0 90 2e 29 3c 63 5f 64 3e df 7d b2 3d e7 9a 7f be
       0.010326043 0.22302012 0.08715414 -0.24961434
0002d0 1f bc ef 3d df ef 41 be ad f1 69 3e 1f 3b d4 bd
       0.11705803 -0.1893916 0.22846098 -0.10362839
0002e0 aa b5 58 3e 3d a9 14 be c3 a9 fe bc 6d 96 27 3e
       0.2116305 -0.14517684 -0.031086808 0.16365977
0002f0 3e ca f2 3b 6a e3 6b be fb 91 4a 3e 29 d6 6a be
       0.007409363 -0.2303597 0.1978225 -0.22933258
000300 7a e1 2c be c8 6e 5f 3e 84 51 fa 3d 52 67 43 be
       -0.16882887 0.21819603 0.12222579 -0.19082382
000310 74 a9 3c 3e 80 4e 1a 3b c0 1f 1d bc a6 91 8a be
       0.18424016 0.0023545325 -0.009590089 -0.27064246
000320 00 48 21 3d 60 16 e3 bd 00 cb a3 ba 36 d2 8b be
       0.039375305 -0.11088252 -0.0012496412 -0.27308816
000330 c8 bf 0a bd a0 1c 78 3e 3e ca 15 3e b4 7a ea 3d
       -0.033874303 0.2422967 0.1462793 0.11449185
000340 7c 25 49 3e c1 3a 8d be 70 b7 fb 3d 14 b4 73 3e
       0.19643205 -0.27583888 0.12290847 0.23799163
000350 80 ee 9a bb a0 ba 47 3c f0 05 a2 bc 50 66 93 be
       -0.0047281384 0.012190491 -0.019778222 -0.28788996
000360 a5 30 08 bd 01 6f 28 3e fa f5 83 3e 48 57 7b 3e
       -0.033249516 0.16448595 0.25773603 0.24545014
000370 1b 4f 92 3e 97 19 80 3e 69 9a 50 bd 1d fc 47 3c
       0.28575978 0.25019524 -0.050928507 0.012206105
000380 c2 39 90 be 17 c6 8e 3e ac 03 a9 3c e4 a5 b6 3d
       -0.28169066 0.27885506 0.020631634 0.0891836
000390 50 80 4f be b1 8f 8e be 6b 6a 93 be 65 06 60 3d
       -0.20263791 -0.27844003 -0.28792128 0.0546936
0003a0 c8 41 74 3e d0 44 f1 bc 19 dc af 3c 43 e2 7b 3d
       0.23853219 -0.029451758 0.021467255 0.061495077
0003b0 eb 83 9b bd 88 6b 92 3e 8b 67 10 3e 81 cf dc 3d
       -0.07593521 0.28597665 0.14101999 0.10781766
0003c0 0c ca da bd c3 cc b3 3a 3e ba ba 3d 50 d7 0a be
       -0.10683069 0.001371764 0.09117554 -0.13558698
0003d0 88 99 c0 bd e2 d7 58 be 94 09 1f 3e 19 ff e6 bd
       -0.09404284 -0.21176103 0.15530998 -0.11279125
0003e0 e3 47 1b 3c da 63 90 3e bf 1f ad 3d bd 1a 71 3e
       0.009477588 0.2820118 0.08453321 0.23545356
0003f0 ca 19 1d 3e 80 ea 13 be 65 0a 85 3d 4a d0 5f be
       0.15341869 -0.14444923 0.06496123 -0.218568

net.0.bias f4 [128]
000000 36 9a 2a be a0 ef 74 3e b2 a3 47 bd ef 04 e0 bb
       -0.1666039 0.23919535 -0.048740096 -0.0068365256
000010 ae 2e 11 bd 3a 29 ff bd 46 42 17 3e ec c4 58 3d
       -0.035444908 -0.12459035 0.14771375 0.052922174
000020 ec c1 86 3e b9 74 69 3e d7 aa cf 3d 76 cf 62 be
       0.26319826 0.22798432 0.10140007 -0.22149453
000030 c8 e7 aa bd ce 86 12 3e 18 67 2f be 19 bd 68 3d
       -0.0834499 0.14309236 -0.17129171 0.056820963
000040 3e e4 30 be 1c 9c 0d 3e 1b b7 8f 3d 79 d0 22 3e
       -0.17274567 0.13829082 0.070173465 0.15899839
000050 6b 62 8e bd 36 6a 8a bd 9a b0 07 be c4 cb af bd
       -0.069523655 -0.067585394 -0.13250962 -0.08583787
000060 2b 48 da bd 6a dd 4b bc 70 63 fe 3c c7 7f 29 3e
       -0.10658296 -0.012442926 0.031053275 0.1655265
000070 cf 0f 8b 3e 0a a2 48 be e2 ac 84 3e eb 34 46 3e
       0.27160498 -0.19593063 0.2591315 0.19356124
000080 70 7a d0 bd a9 90 47 be af fc 4a bd 8d e3 5a 3c
       -0.10179603 -0.19488777 -0.049557384 0.013359916
000090 3b 0e f7 3d 66 bd 04 3e 67 89 23 be a6 bb 6e be
       0.12063261 0.12962875 -0.15970384 -0.2331377
0000a0 9a 99 a3 bd e0 4d 3c be 7e a0 09 3d 88 3d 96 b9
       -0.079882815 -0.18389082 0.033600323 -0.00028656074
0000b0 30 40 c6 3c 24 8c 57 3e 0e 8d 1f 3e 6a f3 12 3e
       0.024200529 0.21049553 0.15581152 0.14350668
0000c0 89 86 84 3e 2a 28 0e be 86 66 6d 3e 29 61 65 3e
       0.25883892 -0.13882509 0.23183641 0.22400345
0000d0 c6 11 45 3e d0 1e 55 3e a2 86 d6 bd d0 d9 ff 3c
       0.19245061 0.20812535 -0.10474898 0.03123179
0000e0 5a b2 71 3c ea 3e 26 bd 6a 6b bd bd 5f 8b 94 3c
       0.014751995 -0.040587343 -0.09249003 0.018132864
0000f0 e0 42 5e 3c 6d 00 16 3e b1 d0 23 be 47 72 17 be
       0.013565749 0.146486 -0.15997578 -0.14789687
000100 43 e7 5b 3e 77 4a 27 3e dc 57 3a 3d 77 0a 04 3e
       0.21474938 0.16337 0.045493945 0.12894617
000110 3f 6b 02 be a6 a2 2a 3d 18 d0 fb bd bf 06 7b be
       -0.12736224 0.04165902 -0.1229555 -0.24514292
000120 af c1 84 be f1 03 3a be 76 cd 0c bb 0b 78 cd 3c
       -0.2592902 -0.18165566 -0.002148477 0.025081655
000130 08 61 4e bd 61 ab 87 be a2 54 4a 3e 75 70 7d 3b
       -0.050385505 -0.2649794 0.19758847 0.0038671766
000140 f8 42 8e 3e 6e 70 35 be f8 0b 2b be 24 93 85 3e
       0.27785468 -0.1771867 -0.16703784 0.26088822
000150 ee 62 54 3e e3 c7 44 bd 79 b9 53 3d a3 b2 0f be
       0.20740864 -0.04804219 0.051690552 -0.14032988
000160 45 69 d6 3d 82 89 50 bd c0 e1 27 3e ec 1b 60 3e
       0.10469297 -0.050912388 0.1639471 0.21885651
000170 37 8e 93 3d b8 21 39 3e fc 64 08 3e d7 5e 13 be
       0.0720486 0.18079269 0.13319772 -0.14391647
000180 da a2 ab 3d 0e b1 7e 3e e3 6e 64 be dc 5e 74 be
       0.08380671 0.24872229 -0.22307925 -0.23864311
000190 41 08 09 3e 80 c0 c1 3d fa 6f 88 be 14 56 49 be
       0.13382055 0.094605446 -0.2664793 -0.19661742
0001a0 e8 22 94 3e b8 26 5a 3e 1d 90 4b 3e 8b bb 8b 3e
       0.2893288 0.21303833 0.19879194 0.2729152
0001b0 de 96 60 3e 7b 36 38 bd dc 5b 76 3e 86 bd c2 bd
       0.21932551 -0.04497383 0.24058479 -0.09508805
0001c0 ed 40 00 3e e8 a6 5d 3e 85 da 4f be 5a 15 3d 3e
       0.12524767 0.21645701 -0.20298202 0.18465176
0001d0 c6 7d 24 be 1f 1d b2 bc a0 49 f5 bd 28 f3 cf bd
       -0.16063604 -0.021742402 -0.119769335 -0.101538
0001e0 3c 1f 5b 3e 9c 24 2f 3e 23 7c 88 3e 75 67 a9 3d
       0.21398634 0.17103809 0.2665721 0.08271686
0001f0 00 9b 3a 3e 55 cb 19 3e e3 2a bd bd 2f 12 15 be
       0.1822319 0.15018971 -0.092366956 -0.14557718

net.2.weight f4 [128, 128]
000000 a3 26 5b 3d 27 a5 cf 3c 5f 51 aa 3c a8 11 b4 3c
       0.053503644 0.025347305 0.020790754 0.021981075
000010 fa 56 27 3d db 62 92 bd 28 47 53 3c 11 5f 92 3d
       0.04085443 -0.071477614 0.012895383 0.07147039
000020 c5 28 44 bd 92 09 ed 3c 50 2e 9e 3d cd e2 74 3d
       -0.047890443 0.028935228 0.07723677 0.059786607
000030 60 a7 8c bd 52 36 c9 3c 96 3a 40 3d eb a9 82 bd
       -0.06867862 0.024562035 0.046930872 -0.063800655
000040 98 cd 5d 3c 46 bd 66 3d 34 fb 59 3d ad 84 47 bd
       0.013537787 0.05633285 0.05321808 -0.048710514
000050 90 b1 a6 bd 3b 91 25 3b 45 c0 95 3c 63 07 b8 bd
       -0.08139336 0.0025263566 0.018280158 -0.08985784
000060 dd f8 a3 3d 31 40 d6 bb 28 87 8c bd 28 15 5d bd
       0.08006451 -0.006538414 -0.068617165 -0.053975254
000070 b9 74 43 bb 28 b7 3c bc 96 49 73 3d fe 85 53 bd
       -0.002982421 -0.011518277 0.05939635 -0.051641457
000080 a3 62 70 bd a2 ff 8a bc 65 86 8c 3c 80 64 e2 3b
       -0.058687817 -0.016967598 0.017153928 0.006908953
000090 9c c1 97 3c 16 50 ac bb 98 44 66 bc b4 88 2c 3d
       0.018524937 -0.0052585704 -0.01405444 0.042122558
0000a0 6a 25 80 bd e3 4e 89 3d 06 b6 85 bc 1f 84 a1 bb
       -0.06257136 0.067044996 -0.016322147 -0.00492908
0000b0 5b 53 9a 3d 85 69 9d bc c1 cb 4e bd 0c 26 a9 bc
       0.0753543 -0.019215355 -0.050487284 -0.020648025
0000c0 df a8 a2 bd eb cf 39 3d 9f cf 2a bd 3b 8e 0d 3d
       -0.07942366 0.0453643 -0.04170191 0.03455947
0000d0 f5 a2 e3 3b ff 87 48 3c f5 ab ab bd da 21 68 3d
       0.006946916 0.012239455 -0.083824076 0.05667291
0000e0 cf c2 55 3d 83 bd 9d 3d 54 05 3f bc a1 55 a6 bd
       0.052187737 0.07702162 -0.011658985 -0.08121801
0000f0 10 20 5e 3c fd 9b 70 3d f2 52 8a bd cb d2 20 bd
       0.013557449 0.058742512 -0.06754102 -0.039263528
000100 20 76 78 3c 0c 8f 05 3b a0 20 12 bb 95 ee 19 bd
       0.015164882 0.0020379452 -0.0022297278 -0.037581045
000110 59 96 92 bd 7b 25 3d 3d 52 61 ea bc 1c 0b a2 bd
       -0.07157583 0.046178322 -0.028610859 -0.07912275
000120 75 26 6d 3d 9b ab b2 3c 89 da 9a 3d bb 57 72 bc
       0.057898004 0.021810343 0.075612135 -0.014791424
000130 04 96 8f 3c 2b 24 34 bd 15 5a a3 3d d3 1f 05 bd
       0.017527588 -0.043979805 0.07976166 -0.032501053
000140 88 65 62 3c 49 0b a0 bd 57 39 79 3d d2 1c 5c 3d
       0.013818152 -0.078146525 0.0608457 0.053738423
000150 19 51 2a bd 57 9d 27 bc 89 a1 a2 bb 94 4f 6b bd
       -0.041581247 -0.010230384 -0.004963104 -0.05744894
000160 22 79 6e bc 73 5c 7b bd db b7 18 bc 8c ad 9b bc
       -0.0145552475 -0.061367463 -0.009321178 -0.019003652
000170 ba c2 40 bd 10 3f 44 bd 8b b0 01 bc ab f3 28 bd
       -0.047060706 -0.047911704 -0.007915626 -0.041248005
000180 c4 ac 8d bd ba 74 4f bd 5f b9 3b bd 36 f6 46 ba
       -0.06917718 -0.05064843 -0.04583108 -0.0007589789
000190 f8 13 2c bd c7 0b a3 3d d0 b6 11 3c 8c 21 87 bc
       -0.04201123 0.07961231 0.008893684 -0.016495489
0001a0 c0 6d 2c bd b4 d3 91 bc cb f4 b2 3d e8 a1 37 bc
       -0.042096853 -0.017801143 0.08738097 -0.011208035
0001b0 b6 b7 4f bc 35 05 d8 ba c7 02 81 3d 90 d4 dd bb
       -0.012678077 -0.0016481044 0.06299358 -0.006769724
0001c0 e1 06 56 3d ba 0b 8e bd 44 ee 1f 3d e3 06 41 3c
       0.052252654 -0.069358304 0.039045587 0.011781427
0001d0 39 7a 67 bd ec 48 98 bd 00 17 84 bc 3b b0 a2 bd
       -0.056513045 -0.07435784 -0.016124249 -0.079437695
0001e0 32 e2 a6 bb 00 b4 f7 3c 32 53 17 3d 0d fa 57 bd
       -0.0050928826 0.030237198 0.036944576 -0.0527287
0001f0 20 e2 15 bc a9 ed 0c bd 87 c7 98 bc 5e de 00 bd
       -0.009148151 -0.034406338 -0.01864983 -0.031462066
000200 b3 f1 38 3d f0 78 7e bd 74 0e d0 3b dc e8 52 3d
       0.045152377 -0.062127054 0.006349379 0.051491603
000210 d8 26 87 3d e4 79 04 3d a9 9f 98 3d 47 54 8b bd
       0.06599206 0.032342806 0.07452328 -0.06803184
000220 5d 9a 2c bd 9b cf 54 3d 7a 51 1d bd 70 4d b6 3b
       -0.0421394 0.0519558 -0.03840778 0.0055634305
000230 1f 59 54 bd 3b 53 78 ba 1b 83 92 bd 9e 2a 2b bc
       -0.051842805 -0.00094728515 -0.07153913 -0.010447172
000240 62 68 0d 3d 25 32 97 bd 5a cd c8 3c a4 05 53 3d
       0.034523375 -0.07382611 0.024511982 0.05151905
000250 9e f1 fa bc 71 39 20 bd c1 07 20 3d 5e b6 23 bc
       -0.03063279 -0.03911728 0.039069895 -0.00999221
000260 e6 a5 05 3d fa bd 63 bd 1a 03 7a 3d ee 33 46 bc
       0.032628916 -0.055601098 0.061038114 -0.012097342
000270 8a 7f 91 bc 8a 89 43 3d 0c 32 0b 3d e4 bf d9 bb
       -0.01776101 0.04773859 0.033983275 -0.0066451896
000280 84 aa ef 3c e3 69 99 3d 9c ea 11 3d 3f 9a 6e bc
       0.029256113 0.074908994 0.03562413 -0.014563142
000290 c7 24 fa 3c 96 3d 94 bd 5e 3b 8b bb 66 60 86 3d
       0.030535115 -0.07238309 -0.0042490205 0.06561355
0002a0 30 44 de bb 09 36 40 bd 5f bf 08 3c dd f5 85 3d
       -0.006783031 -0.046926532 0.008346408 0.06541035
0002b0 1c 9d e3 3c e1 de 1e 3d e1 c4 03 3d 7c ad da 3c
       0.027784877 0.038786773 0.03217018 0.026694052
0002c0 bc 17 0f 3c a6 48 9e 3d aa 7d e5 bc 23 2f 89 bd
       0.008733686 0.077287 -0.028014023 -0.06698444
0002d0 b0 80 a6 bd 03 7d f9 3b 7a 3c e8 3c 98 5c d1 bc
       -0.08130014 0.0076137795 0.02834915 -0.025556847
0002e0 d1 26 e1 bc 89 38 2a bd 6d 17 88 bc 3c a2 12 3d
       -0.02748433 -0.041557822 -0.016612733 0.03579925
0002f0 40 98 50 3c f3 b7 ba bc ad be 6d 3d 45 c8 b2 3d
       0.012731612 -0.022792792 0.05804317 0.08729605
000300 8a 5d eb 3c b7 8e 81 bd 5e aa 63 bd 5d 1a 8c 3c
       0.028731126 -0.06326049 -0.055582397 0.017102415
000310 70 63 31 3d 78 5d 8a bd d0 45 e5 bb 4c 2c 45 3d
       0.04330772 -0.06756109 -0.0069968477 0.048137948
000320 ee ff e3 bc 3c 67 98 bd da ed 5e 3c 92 0b b6 bb
       -0.027831998 -0.074415654 0.013606513 -0.0055555785
000330 69 63 af 3d 90 df fc bb d4 0b 0e 3d 28 c6 2e 3d
       0.08563883 -0.0077170804 0.03467925 0.042669445
000340 e5 ad af 3c 60 b5 d7 3c eb a2 87 3d 5b 29 8d 3c
       0.021445224 0.026331604 0.06622871 0.017231634
000350 e6 f9 32 3b 9c a1 a9 bd a4 d1 e9 3c d1 f4 06 bd
       0.0027309596 -0.08282778 0.028542347 -0.03294832
000360 84 16 85 3c 7c 84 3a bc e5 ca 4d 3d 3c 6e 0e 3d
       0.016246088 -0.011384126 0.050242323 0.034773096
000370 37 f9 9f bd 90 a9 86 bd f6 27 11 3a 98 6e 66 bd
       -0.07811206 -0.0657531 0.00055372657 -0.056257814
000380 55 61 a6 3d 21 37 cf 3b 13 f4 89 bc 23 42 0c bd
       0.08124033 0.0063237105 -0.016840016 -0.03424276
000390 35 78 8a 3d 15 f6 f6 3b c8 3f c8 3c e8 1e df 3c
       0.06761209 0.0075366595 0.024444476 0.027236417
0003a0 29 3e a2 bd 1a b7 a4 bd ce cc ef 3b 2d 35 72 3d
       -0.07922012 -0.08042736 0.007318116 0.059132744
0003b0 fb 12 45 bd 6e 93 ea 3b 7e 9b 49 3d ce 52 3d bd
       -0.048113804 0.0071586883 0.049220555 -0.046221547
0003c0 5e ad 73 3b 60 69 4b bd c7 37 57 3b 68 15 9a bd
       0.0037182192 -0.04966104 0.0032839642 -0.07523614
0003d0 9a 98 4f 3d a1 6e 15 bd 40 85 93 3a 8e 5b 74 3d
       0.05068264 -0.036482457 0.0011254922 0.059657626
0003e0 20 cd 99 3d ca 42 92 3d c2 10 b5 bc e5 3f 74 3d
       0.075098276 0.07141645 -0.022102717 0.059631247
0003f0 1d 94 b8 3d bc 09 93 bd 6e 41 43 3d d7 d3 25 3c
       0.09012625 -0.07179591 0.04766982 0.010121307

net.2.bias f4 [128]
000000 52 96 8c bd 8f 24 06 3b 6e 72 a1 bd 0f 84 4f 3d
       -0.06864609 0.0020468568 -0.07883154 0.05066305
000010 1b 64 8f 3d 48 c8 d0 38 f6 3a 99 bc 32 4b 17 3d
       0.070015155 9.955518e-05 -0.018704873 0.036936946
000020 45 a1 89 bd b4 e5 9f bd f4 1d 9d bd 45 37 87 3d
       -0.06720213 -0.07807484 -0.07671729 0.06602339
000030 d2 eb 91 3d d2 77 80 3d 6e 4a 0a bc d8 b2 cc bc
       0.07125057 0.06272854 -0.008440597 -0.024987623
000040 78 94 6d bd a3 03 ff bc 12 0d 8d 3d 88 bb 2f 3d
       -0.05800292 -0.031129664 0.068872586 0.042903453
000050 4a c2 b2 bd 1a 8f a8 bd 1e af 83 3d e9 94 8b bd
       -0.08728464 -0.082304195 0.06429885 -0.06815512
000060 73 33 7d bd 29 04 50 bb fa f9 ae 3d e5 a6 94 bd
       -0.061816644 -0.003174076 0.08543773 -0.07258395
000070 c8 3f 38 bd b4 eb 67 bd 7c 91 8d bd 4d 5c ab 3d
       -0.0449827 -0.05662127 -0.069125146 0.08367214
000080 f6 e1 cb 3c 66 6d a3 bd 1d 1b c7 3c 70 b0 a0 3c
       0.02488802 -0.079798505 0.02430492 0.019615382
000090 7c f3 f8 bc bd cd 69 bb 56 f3 be 3b 27 1c ad 3d
       -0.03038954 -0.0035675608 0.0058273477 0.08452635
0000a0 89 be 7d 3d 0b 66 3f bd 99 45 65 bd 05 7d 9d 3d
       0.061949287 -0.046728175 -0.055974577 0.07689861
0000b0 28 0a af bd f4 60 b1 3c ad 1e 2a 3d c4 ed 94 3d
       -0.08546859 0.021652676 0.04153316 0.07271913
0000c0 1a 63 9e bd 68 ea 71 bd 2c ca 2a 3d a8 78 a3 bd
       -0.07733746 -0.059061438 0.041696712 -0.07981998
0000d0 b6 a6 1e bd 63 7f e9 bb c0 05 bd bc ec 48 d6 3c
       -0.038733207 -0.0071257814 -0.02307403 0.026157819
0000e0 d9 0e e2 3c 8f fe ff bc 31 75 71 3d ef fd b0 3d
       0.02759497 -0.031249313 0.058949653 0.08642184
0000f0 ff 25 e5 3c c4 37 61 bd a2 25 3e 3d 18 8a 24 3d
       0.02797222 -0.054984823 0.04642261 0.04017076
000100 d7 de d4 bc 6d f6 56 bd 17 9a b5 3b 5e 75 41 bd
       -0.025985165 -0.052481104 0.0055420506 -0.04723107
000110 30 60 3f 3d 17 89 0c bd 99 ec b0 3d dc 0d ac bd
       0.04672259 -0.034310427 0.086388774 -0.08401081
000120 33 70 ac bd 85 69 aa bb 2e 6c b4 3d 94 d2 03 3d
       -0.08419838 -0.005200567 0.08809696 0.032183245
000130 a0 8a 89 3d 0e cd 5c 3d 67 0b 4e 3d 02 04 1b bd
       0.06715894 0.053906493 0.050303843 -0.03784562
000140 bd 38 aa bd fa 47 89 3c 24 ef 6b 3d 9a c7 bb bc
       -0.08311603 0.016757954 0.05760111 -0.022922326
000150 c6 c2 89 3d c4 e3 20 bd c1 ee 7e bc 07 f6 fa 3b
       0.06726603 -0.039279714 -0.015559853 0.0076587233
000160 e3 d0 a2 3d d8 23 7a bd 1e f8 0f bd c1 87 a5 bc
       0.07949998 -0.06106934 -0.035148732 -0.020206334
000170 b7 d0 43 bd 43 07 e0 bc 4c a3 6b 3d 54 c2 9f 3d
       -0.047806468 -0.027347213 0.05752878 0.07800737
000180 43 bc 8d bc 5b 11 9b bd e7 88 95 3a a1 7a 82 bd
       -0.017301684 -0.0757167 0.0011408598 -0.06371046
000190 7d 39 72 3c 32 9d b1 3d 7b a2 f4 bc dc 50 89 bd
       0.014784214 0.08672561 -0.029862633 -0.06704876
0001a0 db 1a b5 bc 49 13 3e bd 14 27 5f 3d 73 52 81 3d
       -0.022107532 -0.04640511 0.054480627 0.06314554
0001b0 70 8e e7 bc 93 9f f6 3c bd 9f 2e 3d f6 45 9b 3c
       -0.028266162 0.030105388 0.042632807 0.018954258
0001c0 73 76 74 3d 08 30 0b 3d e8 25 4a bd 06 37 b9 3d
       0.059683274 0.033981353 -0.049352556 0.09043698
0001d0 2c 7a 83 3d 3e da c3 bc 69 1f 3d 3c fc 6c b0 3c
       0.06419787 -0.023907777 0.011543133 0.021536343
0001e0 4d 98 a4 bd c7 fb 93 3d 5a a5 15 bd 4e 52 69 3d
       -0.080368616 0.07225757 -0.036534645 0.056963257
0001f0 5e aa 87 bd cc 84 6e bd 9d 1b 88 bd 2d eb 3b bd
       -0.06624292 -0.058232114 -0.06645892 -0.045878578

net.4.weight f4 [9, 128]
000000 c4 92 89 bd 65 6b 99 3d 2b 9d 63 bd 82 79 12 3d
       -0.067174464 0.07491187 -0.05556981 0.03576041
000010 07 5a cf bc f8 72 ce 3c f1 e2 84 3b 10 96 15 bd
       -0.025311483 0.025201306 0.004055374 -0.036520064
000020 9d d6 25 bd bb 5a ab 3d 8e 5b 34 bd c1 d6 5f 3d
       -0.040487874 0.08366915 -0.044032626 0.054648165
000030 6d 72 90 bd 69 4f 2e 3c 27 97 a5 3c 34 a3 8e 3d
       -0.07053075 0.01063905 0.020213677 0.06964722
000040 61 96 82 bd a2 08 ad 3d af a5 b7 3d 08 9a 0c 3c
       -0.06376339 0.08448912 0.089671485 0.008581646
000050 61 6a a1 3d ac c6 33 bc 9e 35 41 3d 39 6e 08 bd
       0.07881618 -0.01097266 0.047170274 -0.03330824
000060 00 bc 85 3b 8c e6 5d bd 60 e2 e9 3c ea 96 00 bc
       0.0040812492 -0.054174945 0.028550327 -0.007848481
000070 56 55 51 bd 09 fd 40 3d 4a bc 93 bd 1f 7b 5b bb
       -0.051106773 0.047116313 -0.07213648 -0.0033490134
000080 96 ab 54 bd ff fd 19 3c ca 7f a1 3c 71 93 f6 3c
       -0.05192145 0.009398936 0.019714255 0.030099602
000090 d3 97 96 bd 58 77 67 3b f3 55 05 3d 0e 2a a5 bd
       -0.07353177 0.0035318937 0.03255267 -0.08064662
0000a0 ef 6a ff 3c 3a 7a 0d 3c 67 81 b4 3d 00 c0 e4 ba
       0.03117892 0.008635098 0.08813744 -0.001745224
0000b0 b0 e9 80 bd 23 c9 5b bd 79 79 8e bd 96 47 71 3d
       -0.06294572 -0.053658616 -0.06956763 0.05890616
0000c0 b9 e8 57 bd 0f 4d 80 bd 6e 80 2c bd 10 3a db 3c
       -0.052712176 -0.06264698 -0.042114668 0.026761085
0000d0 c0 9f 02 3b fd ce b6 3c ba 3a 6d bd 32 81 38 bd
       0.0019931644 0.022315497 -0.057917334 -0.045045085
0000e0 39 b6 a4 bd 4c de c5 bc 88 68 6e bd 30 b4 d2 3c
       -0.08042569 -0.024153851 -0.058205158 0.025720686
0000f0 e6 1f e1 bc e2 a1 64 bd 70 bc 93 bc 48 1d 96 bd
       -0.02748103 -0.055818446 -0.01803419 -0.07329804
000100 a1 26 86 3d 5e 8b 15 bb a4 6b 41 3d f7 07 98 bd
       0.06550337 -0.0022818665 0.047221795 -0.07423394
000110 63 8d b1 3d 00 3c 77 39 80 33 dd bc ac 62 c3 3c
       0.086695455 0.00023578107 -0.027002096 0.023850761
000120 47 94 25 bd 12 ca a5 bd dc 0b 87 3d 3a 77 a3 bc
       -0.04042461 -0.080951825 0.06594059 -0.019954313
000130 70 4f b8 3c 7b cd 88 bd 5c 5d 85 bd c2 cc e8 bc
       0.022498816 -0.06679817 -0.065119475 -0.028417949
000140 1d 41 d3 3c 19 43 96 bd d0 a5 a8 bd c8 31 83 bc
       0.025787884 -0.073370166 -0.08234751 -0.016014948
000150 48 50 17 bd 7d e1 70 bd d9 70 78 bd 10 8b 26 bd
       -0.036941797 -0.058808792 -0.060654495 -0.040659964
000160 3a 8b 26 3d 40 59 4f 3b 48 0e 9a bd 1f f2 c6 bc
       0.04066012 0.003163889 -0.07522255 -0.024285374
000170 84 2c 81 bd 33 05 b1 3d 36 87 25 3c 07 69 9f 3c
       -0.06307319 0.0864357 0.010103038 0.01945926
000180 fd 52 bb bc cc a3 92 bd 27 f1 01 bd 6e ba b7 3d
       -0.02286672 -0.07160148 -0.03172412 0.089711055
000190 57 e4 ac 3d 6a 1f 2d 3d d8 7b 40 bc 0b 83 96 bd
       0.0844199 0.042266287 -0.011748277 -0.07349213
0001a0 3a 32 7c 3d 52 be aa 3c a5 c7 5e bd 9f 2f ce 3c
       0.061571337 0.020842705 -0.054389615 0.025169192
0001b0 e0 bd fe 3b fc 19 a0 bd 85 9f 02 bd db cd 44 bd
       0.0077740997 -0.07817456 -0.03189041 -0.04804788
0001c0 93 fc 93 3d 44 41 4c bd 58 31 b5 bc 05 7c 7f 3d
       0.07225909 -0.04986693 -0.022118255 0.062374134
0001d0 3e 69 98 3c 1d 47 93 bd 68 d8 b4 3d b8 b4 73 b9
       0.01860487 -0.07191298 0.08830339 -0.00023241609
0001e0 9a 82 06 bc b8 bd c4 3c d8 d0 9c 3d fc ba 78 bd
       -0.008209849 0.024016246 0.07657021 -0.060725197
0001f0 50 02 16 bc d9 6b 96 3d b3 c4 4e bd e4 a1 8f bd
       -0.009155825 0.07344789 -0.050480556 -0.070133
000200 9c 31 93 bd 9f 62 29 bd 98 74 ab bd 75 01 77 3d
       -0.071871966 -0.041353818 -0.08371848 0.060304124
000210 ab 72 70 3d 56 55 84 3d 35 57 3c bd 22 47 43 3d
       0.058703106 0.06461589 -0.045981605 0.04767526
000220 6b 32 a2 3d 52 b7 0f 3d e8 24 a7 3c 8a 2a 9f bd
       0.07919773 0.035086937 0.02040334 -0.077717856
000230 3d a7 a0 bd 12 ab 22 3d 55 b6 03 3d 3e f4 a5 3b
       -0.07844398 0.039713927 0.032156307 0.0050645163
000240 57 a5 a5 3c 20 7c b1 bb f4 ed ee bc 97 01 a6 3d
       0.020220442 -0.005416408 -0.0291662 0.08105772
000250 93 da a0 3d 56 2d 59 3d c3 e3 86 3d 84 5b 9e 3c
       0.0785419 0.05302175 0.06586411 0.019330747
000260 e8 d7 53 3d be c1 58 bd de 07 85 bb 53 5e 41 bc
       0.051719576 -0.052919142 -0.0040597757 -0.011802274
000270 4e cd 32 3d a3 74 39 3d 36 f2 13 3d a1 fb 81 3d
       0.043652825 0.04527725 0.036119662 0.063468225
000280 eb 04 8d 3d 6f 8a ac bd 2b ba b3 bd 4c 19 4d 3d
       0.06885704 -0.084248416 -0.08775743 0.050072953
000290 b4 50 e6 bc 3e 2b 4c 3d b7 b1 b0 bd 1f 59 ea bc
       -0.028114654 0.049845926 -0.086276464 -0.02860695
0002a0 70 c4 5b 3d 1b 70 2f bd fd f9 86 3d f2 a9 38 3d
       0.053654134 -0.04283152 0.0659065 0.045083947
0002b0 41 16 54 bd db b9 87 3d 8e 2a 1b 3d 82 a9 20 3d
       -0.051779035 0.06627246 0.03788238 0.039224155
0002c0 bf ba a9 bd 3a 7d 40 3d ca 7f b7 3c 73 71 88 bd
       -0.08287572 0.046994425 0.022399802 -0.06662264
0002d0 95 51 ac 3d c6 33 ae bd dc f6 a1 3c 2f 83 b4 3d
       0.08413998 -0.08505969 0.019771032 0.08814084
0002e0 74 b8 06 bd 7d d5 8e 3c 2f 62 95 3d 20 62 5c bb
       -0.032890752 0.017435784 0.07294118 -0.0033627823
0002f0 6a c1 a0 bd 85 3d 2b bd e5 fe a9 3d 1e f7 ad bd
       -0.07849391 -0.041806716 0.083005704 -0.084943995
000300 80 da aa bb 38 78 d2 bc 02 90 8b 3d 2d 9d 1e bd
       -0.0052140355 -0.02569209 0.06814577 -0.038724113
000310 85 6f 51 bd 80 3b ad 3c 05 1b 1d bd 51 3b 83 3d
       -0.051131744 0.021146536 -0.038355846 0.06407798
000320 e4 f9 9d 3c 60 53 0b 3d af c7 af 3d bb 0d f6 3c
       0.019284196 0.03401506 0.085830085 0.030035844
000330 de 97 4c 3d 4c d7 05 3d 03 f8 a5 3d b1 27 42 3c
       0.04994952 0.032676026 0.08103945 0.0118502835
000340 6c f5 90 bd 05 46 42 bd 5e c2 1f bd 4f 22 12 3d
       -0.070780605 -0.047430057 -0.039003722 0.03567725
000350 6a 89 5d 3d b4 36 4a bd ac a6 99 bd 47 e9 37 bc
       0.054086126 -0.049368575 -0.07502493 -0.011225051
000360 c4 44 8e bd 24 b9 e5 bc 77 56 94 3d a8 1b c3 bc
       -0.0694671 -0.028042383 0.07243054 -0.023816898
000370 b2 60 64 3b fc 2d 4e bd 55 2f ed bc 28 65 33 3d
       0.0034847674 -0.050336823 -0.028953234 0.043797642
000380 75 52 ce 3c 24 16 81 3d b2 a7 77 3d da 1d 91 3d
       0.025185803 0.06303051 0.06046266 0.07085772
000390 c7 de 9a 3d 59 fd ae bc 11 55 9d bb 11 56 40 3c
       0.07562023 -0.02136104 -0.0048014005 0.01173927
0003a0 c1 10 38 bd 5e 97 84 bc 02 5a a0 bd 44 59 72 bd
       -0.044937853 -0.016185459 -0.07829668 -0.05916716
0003b0 c2 28 4c bd f2 d0 1e bc 58 ef 59 bc 82 c8 32 bd
       -0.049843557 -0.009693371 -0.013301693 -0.04364825
0003c0 80 88 05 bd c7 ed 8e 3c 82 07 57 3d c6 35 26 3c
       -0.03260088 0.017447365 0.052497394 0.0101446565
0003d0 7a 14 db 3c 7f 13 a4 bd 51 b1 7c 3d 95 a5 33 3d
       0.026743162 -0.08011531 0.06169254 0.043859083
0003e0 8e 91 e9 bb 60 eb 77 3c 2d 6a 46 3d 77 dd 9e 3d
       -0.007127947 0.015131801 0.0484411 0.07757085
0003f0 05 3d ac 3d c5 cd a9 3c 68 c4 96 3d 76 fe 71 3d
       0.08410076 0.020728001 0.0736168 0.059080563

net.4.bias f4 [9]
000000 76 fa 40 bc f5 67 43 3c 62 61 67 bd a7 16 88 bc
       -0.011778465 0.011926641 -0.056489356 -0.016612364
000010 53 69 4c 3d 6a 80 90 bc aa e5 9d bc 8e 94 a0 bb
       0.049905133 -0.017639358 -0.019274551 -0.0049005216
000020 2d 0e aa 3d
       0.08303485
