Entities/pained_rep.pth (torch, 80441 bytes, 6 tensors)

net.0.weight f4 [128, 12]
00000000: f4a2 143e 960e 0bbe 78cb 8dbd 706f 713e
00000010: 64d4 d83d 5477 dbbd f725 80be 3dfa 25be
00000020: 8823 7abe d028 673e ce0b 513e 3c23 78be
00000030: b0e1 7c3e d84a 7e3e e997 10be 88e6 d13d
00000040: 1c96 f73d 58ef 7b3e b987 83be e8fd 853d
00000050: 22f1 fabd 343f ca3d 8c88 5e3e 6032 18bd
00000060: 88f3 2b3e 8a1a 63be fed0 4fbe 68ad f73d
00000070: b8c6 81be ea9b 73be fc0e 913e b4e1 2c3e
00000080: 6c53 d63d 4cf1 4abd 38a7 0b3d c0a3 5ebc
00000090: 8a0a 1bbe b85c fd3d 381a b3bd 5ed9 2d3e
000000a0: 6a68 bbbd 2e93 833e d492 243e 0a84 bdbd
000000b0: 00ac 4b3a 206a 27bc 60fe 3c3e 40c4 7abe
000000c0: 88b9 0dbd f4df 813e d4de 9dbd 0516 3cbe
000000d0: a84f 19be 3e2b 78be 43ae 5abe b76b 81be
000000e0: b450 ee3d 908e 76bd 2cd1 9f3d 34b6 86be
000000f0: 78dc 043e b8c1 883e 92a7 36be 4819 86be
00000100: 0003 173e 08a1 91be 7ce1 8c3e 8035 963d
00000110: 9275 453e a2ff 0d3e 44c9 833e ce1d 8b3e
00000120: 38e7 85be e7e6 16be ac23 45bd 1eb9 b4bd
00000130: c83c f63d 1c8a 3d3e 9cd1 3ebd b004 dabd
00000140: c096 b9bd 3fe0 6fbe 2877 243e 62d6 103e
00000150: 1f96 66be 8c65 f13d 5000 a13c 089e c43d
00000160: c832 6fbd efc8 86be 3886 59be 1a08 32be
00000170: 2024 653e d429 b43d 0607 043e da89 013e
00000180: c842 a3bd 9465 873d b602 99bd 1472 2dbe
00000190: 05c7 5fbe 228b 043e 9c45 c63d 58f5 dc3d
000001a0: d027 013d 34f6 adbd 9661 36be d264 cfbd
000001b0: 84a2 763e 56bc 503e 26c8 913e 20d8 debd
000001c0: 0825 8f3d e0bd 57bc f59e 6dbe 300c 4d3d
000001d0: d019 803c e0dd 2c3c da73 913e 9856 163e
000001e0: d42d 7dbe ac84 7ebe ac75 5f3e a677 00be
000001f0: 3c6e 25bd ac5c 47be f1c4 8dbe 4ce1 9c3d
00000200: e83d b53d 239f 38be 87fd 85be b09c b73c
00000210: 93c8 86be b87e a3bd 8cc6 673e 3837 61be
00000220: f4af b9bd 23cd 86be 005c 67be 704e 8f3d
00000230: 1667 803e 2c26 6bbe 7003 24be 383b 6bbd
00000240: 866d b7bd a0ab 693e a061 6cbc 603f fbbc
00000250: 0037 133c 26ef ffbd e4f5 8c3d f640 083e
00000260: d870 053d d26d 88be f89a 883e 48c9 693d
00000270: b008 09be 0cb0 49be ecc4 f33d 503d 98bc
00000280: 0c26 4c3e b874 383e 18ac 5ebe 3a88 223e
00000290: 754c 50be 5615 7dbe 98b2 503d e78a 50be
000002a0: 0202 3c3e f4e0 2a3e eb89 43be 89f7 91be
000002b0: 00a1 72bd 2cdc b6bd 0ade 03be 6cc3 7c3e
000002c0: 1a8c 5fbe d823 813e 2001 643e 5c9b 8a3e
000002d0: ac84 763e 6478 663e 1c64 d03d 66df 8e3e
000002e0: 5216 303e e040 3f3d e0a8 59bd 7aa9 57be
000002f0: c0d1 2f3e f46d 203e beb9 933e 9c29 81bd
00000300: 106e a03d 7dc9 1abe bcfb 87bd a0ab 51bc
00000310: fc50 223e d02c 61bd dc86 5b3e ee3f 363e
00000320: 88a7 07bd f2f3 3cbe a097 e83d c8df 2d3e
00000330: d015 e33d 8cbb 583e 684c d73d ec73 4fbd
00000340: 3808 483e 1414 453e f407 7a3e d4f9 4fbd
00000350: 9a8e 1c3e 2881 0b3d e6f1 6abe 988e 9fbd
00000360: 2fda 25be a2bc b7bd 4eaa 853e a0be 6e3e
00000370: 4c25 9dbd 821a 423e 70e5 e7bc 6eb0 863e
00000380: 84ae 41be e6f9 1ebe 18ab 173e 1654 093e
00000390: e689 513e 0083 003d 4aa5 273e 04d5 833e
000003a0: 3039 383d 89ad 81be 4870 83be 1ae3 9bbd
000003b0: 80ee 93bb c444 8c3e 40a3 c0bc b800 07bd
000003c0: d086 e43c 6890 98bd 48f2 433e d4ef fa3d
000003d0: 6c72 ccbd e5f5 8cbe 4eda 133e b213 86be
000003e0: d843 923e 8a25 04be 009e efba f4b7 123e
000003f0: 105a 44bd 5401 8dbd c0ef cebb 4050 7b3c
0.14515287 -0.13579783 -0.06923574 0.23577666 0.10587385 -0.107161194 -0.25028965 -0.1620874
-0.24427617 0.22574162 0.2041466 -0.24232191 0.24695468 0.24833238 -0.14120449 0.102490485
0.12089178 0.24603021 -0.25689486 0.065425694 -0.12253024 0.09875336 0.21731776 -0.037157416
0.16792119 -0.22178093 -0.20294568 0.120936215 -0.25346923 -0.23789945 0.28331745 0.16882974
0.1046513 -0.049546525 0.03409502 -0.013588846 -0.15140739 0.123712 -0.08745235 0.1697745
-0.09150775 0.25698227 0.16071635 -0.092537 0.00077694654 -0.010218173 0.18456411 -0.24488926
-0.034600765 0.25366175 -0.07708517 -0.18367775 -0.14971793 -0.24235246 -0.21355538 -0.25277492
0.11636487 -0.060194552 0.07803568 -0.26310885 0.12974727 0.26710296 -0.1783736 -0.26191163
0.14747238 -0.2844317 0.2751578 0.07334423 0.19283131 0.13867047 0.2573949 0.27171177
-0.26152968 -0.1473652 -0.048129722 -0.08824371 0.12023312 0.18509716 -0.046586618 -0.10645425
-0.090619564 -0.23425387 0.1606108 0.1414428 -0.22518204 0.11786947 0.01965347 0.096004546
-0.05839804 -0.26325175 -0.21242607 -0.17385903 0.22377062 0.087970406 0.12893304 0.12650242
-0.07971722 0.06611171 -0.0747122 -0.16938049 -0.21853264 0.129437 0.09681246 0.10788983
0.03153211 -0.08494225 -0.17810664 -0.10126652 0.24085432 0.20384344 0.28473014 -0.10881066
0.06989485 -0.013167828 -0.23205169 0.05006045 0.015637308 0.010550946 0.284087 0.1468147
-0.24724513 -0.24855298 0.21822232 -0.12545642 -0.04038833 -0.19468945 -0.27689317 0.076601595
0.08849698 -0.18029456 -0.2616999 0.022413582 -0.263249 -0.07983154 0.22634333 -0.2199372
-0.090667635 -0.26328382 -0.22593689 0.06997383 0.25078648 -0.2296378 -0.16016936 -0.057429522
-0.08956437 0.22819376 -0.0144275725 -0.030669868 0.008985281 -0.12496786 0.068828374 0.1330603
0.03257832 -0.26646286 0.26680732 0.057076722 -0.1338222 -0.19696063 0.11902794 -0.018583924
0.19936389 0.18013275 -0.21745336 0.15872279 -0.20341666 -0.2471517 0.05095157 -0.20365487
0.18360141 0.16687375 -0.1909558 -0.28509167 -0.059235573 -0.08928713 -0.1287767 0.24683923
-0.21830788 0.2522266 0.22266054 0.27071655 0.24074048 0.22506863 0.10175344 0.27904814
0.17196015 0.04669273 -0.053139567 -0.21060744 0.17169857 0.15666944 0.28852648 -0.063067645
0.07833493 -0.15115924 -0.066398114 -0.012797266 0.15851206 -0.054974377 0.21438164 0.17797825
-0.033118755 -0.18452433 0.11357045 0.16979897 0.11088145 0.21165293 0.1051262 -0.05064766
0.19534385 0.1924594 0.24417096 -0.050775364 0.15288773 0.03405872 -0.2294384 -0.077908695
-0.16196512 -0.08971526 0.26106495 0.23314905 -0.076731294 0.18955424 -0.028307647 0.2630648
-0.18914229 -0.15525016 0.14811361 0.13410982 0.2046276 0.03137493 0.16371647 0.25748456
0.044976413 -0.2532771 -0.256716 -0.076116756 -0.0045145154 0.27396214 -0.023515344 -0.03295967
0.027896315 -0.07449418 0.19135392 0.12252775 -0.09982762 -0.27531353 0.14438745 -0.261869
0.28567386 -0.12904945 -0.0018281341 0.14327985 -0.047937453 -0.06885019 -0.0063152015 0.015338957

net.0.bias f4 [128]
00000000: 3c78 1a3e 78da 893d 0079 7bbb c0c4 a33c
00000010: a40e b23d 300a b23c 81ea 59be b01a cfbd
00000020: af3b 00be 3441 813d c607 253e 981f ed3d
00000030: a8dc 103e d863 38be 0869 5fbe a00d 6a3e
00000040: a0ed a33d ebc0 68be 1475 ebbd e047 913e
00000050: 74e1 7e3e 7992 79be 804e 36bc d39c 71be
00000060: e4bc 3ebd 0451 37be 203c b3bc fc9a 793e
00000070: 45c5 8bbe a2ea 1d3e e875 26be 18d3 17be
00000080: 2000 4a3e 2c5c f3bd 88dc 863e 7685 8e3e
00000090: 846b cabd 1cfc bebd 1aa1 a0bd 8abd 38be
000000a0: 641e 173e f0bb 09bd e01b 093c 20e4 0ebd
000000b0: 12da 193e 0099 f5bc dc51 7d3e 002d 73be
000000c0: 8676 193e f4ce 913e 5c89 d83d fe2d febd
000000d0: d503 60be f455 463e 7812 f13d 94b7 193e
000000e0: 728f 033e bc1b 8cbe c848 0d3d 8ada 503e
000000f0: 4c1f 5abd 150a 93be 2fdd 50be 361c 3ebe
00000100: 1583 6cbe 96cb 503e d4b9 b03d 26d3 553e
00000110: e41f 593e b8db 03bd 667e 8a3e 7c58 8dbe
00000120: fe7d 9fbd 541c 34be 1111 85be 047e 803e
00000130: 9212 83be b042 6b3e f512 06be f40c 62be
00000140: 1840 e63d 7398 7fbe 3605 473e 1e47 263e
00000150: f7b9 29be e0ef 2c3d be8a 87be ca34 8ebe
00000160: 4efb 1ebe 6838 753e 1295 2cbe 6c8e 8dbe
00000170: ac3f b1bd a833 36be fc69 6f3e 8688 8f3e
00000180: 5239 3a3e 60f7 f8bc dac1 7cbe 2c83 9a3d
00000190: 7a1e 2abe 105d 913e 583c f43d a084 4f3c
000001a0: d851 9cbd 44a8 4c3e 68dd 183e 56f2 1e3e
000001b0: 74da 3c3e 7c91 42be c44b 513e 39df 07be
000001c0: 72f6 383e 9a1e 02be dc60 b33d 403c 10bc
000001d0: dcea 123e d410 613e 2016 48bd 88b7 b43d
000001e0: 1cb5 66be 785d 7fbe ccce 88be 0b40 66be
000001f0: 3a31 123e 502b f5bd ea9c 3e3e 50d2 723e
0.15084928 0.06731123 -0.0038371682 0.019991279 0.08694199 0.021733373 -0.21280862 -0.10112512
-0.12522767 0.06311265 0.16116247 0.11578292 0.14146674 -0.18006837 -0.2181741 0.2285676
0.08004308 -0.22729842 -0.1149694 0.2837515 0.24890691 -0.24372281 -0.011127114 -0.2359498
-0.04656686 -0.17901999 -0.021879256 0.24375528 -0.27298942 0.15421537 -0.16255915 -0.1482662
0.1972661 -0.11882815 0.26340127 0.27836198 -0.09883788 -0.0932543 -0.07843228 -0.18041053
0.14757687 -0.033626497 0.008368462 -0.034885526 0.15024593 -0.029980183 0.24738258 -0.23747635
0.1498662 0.28478205 0.10573074 -0.12411116 -0.21876462 0.19368726 0.11771101 0.15011436
0.12847689 -0.2736491 0.034493238 0.20395866 -0.053252503 -0.2871863 -0.20396875 -0.18565449
-0.23096879 0.20390162 0.08629194 0.20881328 0.21203572 -0.032191962 0.2704956 -0.2760657
-0.07787703 -0.17588931 -0.25989583 0.25096142 -0.25600106 0.22974658 -0.13093169 -0.22075254
0.11242694 -0.24960499 0.19435582 0.16238067 -0.16574846 0.04222095 -0.2647304 -0.2777465
-0.15525553 0.23947299 -0.16853741 -0.27647722 -0.086547226 -0.17793143 0.23380274 0.28033847
0.18185928 -0.030391395 -0.24683324 0.0754455 -0.16613188 0.28391314 0.11925572 0.012665898
-0.07632798 0.19986063 0.1492821 0.15522131 0.18442708 -0.1900081 0.20439059 -0.13268746
0.18062761 -0.12706986 0.08758709 -0.008803427 0.14347404 0.21979076 -0.048849225 0.08824068
-0.22530025 -0.24937999 -0.26720273 -0.22485368 0.14276591 -0.11971152 0.18614545 0.2371304

net.2.weight f4 [128, 128]
00000000: 29aa 93bd 80cd 64bd f8ee 173c aaeb 393d
00000010: 8c9e f4bc 00a5 013b 2077 6fbb c093 cc3a
00000020: fefd 3d3d 4149 a63d 35d6 833d d39b 923d
00000030: d0ef 0e3c ba11 5d3d 3814 8bbd 8e4a 2e3d
00000040: 7ce8 ad3c 867c 753d db17 af3d 97d7 b23d
00000050: f3f1 9a3d d006 34bd e0eb 0bbb b210 573d
00000060: 0a24 79bd 9c9d 61bd cae2 223d a481 80bd
00000070: b438 52bd a6b5 72bd 3341 a23d 9092 cb3b
00000080: b8fd 2abc a220 283d 104f ca3c 40f4 22bd
00000090: 12a1 86bd 30f5 a33c 377c a43d 8982 8d3d
000000a0: 28b1 00bc d05f 0ebc ce49 533d ee9e 403d
000000b0: 787b c83c 259a 51bd 3cda aebd 8084 52bb
000000c0: 8a7d a5bd 5047 b0bd b87a 113d 181c 6bbc
000000d0: b678 533d b98e 9c3d 62d6 7a3d 147a f63c
000000e0: 0061 323a c229 673d 82af 2b3d a889 69bc
000000f0: 98b1 12bc faf1 6b3d 6091 c13c 141d 9b3c
00000100: d54d 90bd 8697 ebbc 1a11 153d d526 b23d
00000110: f978 a13d f84d c3bc ea89 1d3d 3ac4 6dbd
00000120: f01a 47bc 08e1 a7bd 362b 1d3d d15c 1cbd
00000130: cc5d cb3c 3692 a7bd 5f36 19bd e000 023b
00000140: 993e ac3d 8c6b 72bd 57bc 8a3d ce4c e0bc
00000150: 5eaf 423d 006e fe3b 50da 5cbd 2b95 2cbd
00000160: f96f 0cbd 5ebf 0b3d e675 a6bd be70 293d
00000170: 4ab6 5f3d 6db2 2abd 3ab9 223d ee37 233d
00000180: e0c1 ecbc b54e 03bd 36e4 243d 9273 80bd
00000190: 0fc9 2fbd c0d9 fd3b 9f8f 8b3d 35fb a03d
000001a0: 6060 513c c8af 05bd f039 03bc 8485 ef3c
000001b0: c8dc f23c c68c 97bd 1a90 6b3d 0088 e3b8
000001c0: 12db 6f3d 9884 67bc c8f5 06bc 8847 4fbc
000001d0: 1daf a2bd 0ae5 8dbd 1ef8 613d 9cdb e2bc
000001e0: f9b0 973d f02a 89bd 0098 c1b8 d084 55bc
000001f0: ca4d 603d e121 19bd 457c 90bd 81b1 35bd
00000200: 2d0f a6bd 3b3c 8b3d c4c7 73bd ae7e 33bd
00000210: 1029 8a3c e6e8 f1bc a079 43bb ef6f a23d
00000220: 2592 823d 2cfd ff3c 5d16 b33d bd54 62bd
00000230: dfb6 853d 607c b83b 60ae dcbb d266 0b3d
00000240: c83f 483c 789a 10bc aefe 0f3d 41b3 903d
00000250: f6d4 94bd 8803 51bc c038 a0bc 2281 80bd
00000260: e067 a83c d044 ff3c f8f6 8a3c 300e c93b
00000270: c80c 3ebc fc96 cc3c c869 17bd 084b bcbc
00000280: 9094 7abc ed3c 9e3d 9b30 af3d 6089 003c
00000290: 9bd7 b03d b84f 8b3c b076 af3c 5408 16bd
000002a0: 4e0f 453d 37c0 943d 59d2 a83d ebd4 2ebd
000002b0: 0774 ad3d 30d7 973c e24d 19bd 908a ab3c
000002c0: 9a40 643d 86ec 7c3d edd1 87bd 8095 24ba
000002d0: 82f0 06bd 1860 88bd d5e8 12bd 0e42 5c3d
000002e0: b879 afbd 9056 9d3b 4d15 9dbd 7308 963d
000002f0: f27a 7dbd dabe a1bd e038 8d3b 5226 99bd
00000300: 2053 353b c969 833d fb54 23bd d8cd 91bd
00000310: 1493 a93c 20eb 1cbb 2a74 193d 6c3c c5bc
00000320: 06fb 70bd c0f1 a1bb eeca 573d 2e18 513d
00000330: 7aec 763d 58dd 093d ad7a b1bd 00f1 35bb
00000340: 303e e4bb 8326 3abd 7019 ab3b edbc af3d
00000350: 3e76 a6bd 560e 053d 60fc 19bc 91c6 4cbd
00000360: 0a56 87bd fcca efbc be15 153d c035 0fbd
00000370: 72ef 4cbd 5f23 b23d 1dfc 9abd 07cc 2ebd
00000380: e321 0fbd c884 88bd eeae 7c3d c0e5 fabb
00000390: 95c9 7abd 80c9 59bc 9e68 a3bd 5a8a 4d3d
000003a0: 7cfc 9fbc 30ee d73b 23d4 b23d 3812 883c
000003b0: c0f9 c4bb 9787 a6bd 609b 503b b2e6 643d
000003c0: fe16 1ebd 6ff7 76bd 9be7 90bd 0274 173d
000003d0: 652f 51bd 7067 813b 76de 493d 10b5 893b
000003e0: 1a5c 443d 28ad 6c3c caf1 283d 9012 d83b
000003f0: 8afc 633d f0a5 4fbc 26bc 82bd dd7c 0abd
-0.0721019 -0.055860043 0.009273283 0.045390762 -0.029860757 0.0019782186 -0.003653951 0.0015607998
0.046384804 0.08119441 0.06437341 0.07158627 0.008724168 0.053971983 -0.06790966 0.04255157
0.021229021 0.059933208 0.08549472 0.08732527 0.075656794 -0.04395181 -0.002135031 0.052506156
-0.060825385 -0.05508195 0.039767064 -0.06274727 -0.051323608 -0.059255265 0.07922592 0.00621254
-0.010436468 0.041046746 0.024695903 -0.039783716 -0.065736905 0.020014375 0.080315046 0.06909663
-0.007854737 -0.008689836 0.051584058 0.047026567 0.024472937 -0.051172394 -0.08537719 -0.0032122433
-0.08080585 -0.08607352 0.035517424 -0.01434996 0.05162879 0.0764441 0.061239608 0.030087508
0.0006804615 0.056436308 0.041915424 -0.014254011 -0.008953474 0.057603814 0.02362889 0.018934764
-0.07046095 -0.028758775 0.036393262 0.08698813 0.07884402 -0.02384089 0.038461603 -0.058048464
-0.0121524185 -0.08197218 0.038371287 -0.038174454 0.024825 -0.081821844 -0.037405368 0.0019836947
0.08410377 -0.059184596 0.06774204 -0.027380373 0.047530524 0.007764578 -0.053919137 -0.042134445
-0.034286473 0.03411805 -0.08127956 0.041367285 0.054617204 -0.041674066 0.039727427 0.03984826
-0.02890104 -0.032057483 0.0402567 -0.06272043 -0.042916354 0.007746905 0.06814503 0.07860414
0.012779325 -0.03263834 -0.008009419 0.02923847 0.029646292 -0.07399897 0.057510473 -0.000108495355
0.05855853 -0.014130734 -0.00823731 -0.012651332 -0.079435565 -0.06928451 0.055168264 -0.027692609
0.07406802 -0.06697643 -9.231269e-05 -0.013032153 0.054761685 -0.037385825 -0.070549525 -0.044358734
-0.08108363 0.067985974 -0.059516683 -0.043821983 0.016865283 -0.02953 -0.0029827133 0.07931506
0.06375531 0.031248651 0.087445 -0.055256594 0.065290205 0.005630061 -0.0067346543 0.034033604
0.012222238 -0.008825891 0.03515499 0.0706544 -0.072671816 -0.01275719 -0.01955831 -0.0627463
0.020557344 0.031160742 0.016963467 0.0061357245 -0.011599727 0.024974339 -0.036966115 -0.022984996
-0.015294209 0.077264644 0.08554193 0.007845253 0.086348735 0.017005786 0.0214189 -0.036629036
0.0481103 0.072632246 0.08243246 -0.042683523 0.08469396 0.018535227 -0.03742779 0.020940095
0.05572567 0.061749004 -0.06631837 -0.0006278381 -0.03294421 -0.066589534 -0.035866577 0.053773932
-0.08568138 0.004801579 -0.076700784 0.0732583 -0.061884828 -0.0789773 0.0043097585 -0.07478012
0.0027667955 0.06416661 -0.039875966 -0.0711934 0.020700015 -0.0023943856 0.0374643 -0.024076663
-0.058833145 -0.004942149 0.052683763 0.05104845 0.060284115 0.033658355 -0.08665977 -0.0027762055
-0.006965421 -0.045446884 0.0052215382 0.085809566 -0.08128022 0.032484375 -0.00939855 -0.049994055
-0.066082075 -0.029271595 0.036397688 -0.03496337 -0.05003304 0.08698153 -0.07567618 -0.042675044
-0.034944426 -0.06665951 0.061690263 -0.007656783 -0.0612274 -0.01329267 -0.079789385 0.05018077
-0.019529574 0.0065896735 0.08731868 0.01661025 -0.006011218 -0.081313305 0.0031830892 0.05588407
-0.038596146 -0.060294565 -0.07075425 0.036975868 -0.05107059 0.0039490983 0.04928442 0.0042024925
0.047939397 0.014445581 0.041246213 0.0065940097 0.055660762 -0.01267384 -0.06383543 -0.033810485

net.2.bias f4 [128]
00000000: a8b6 a2bd b0ad 64bc 30f1 bc3b 67fe 813d
00000010: ee8f fabc 18a9 743c 5cb7 953c 30ee c53c
00000020: 3818 d7bc a035 cc3c 7ec4 fcbc b62f 253d
00000030: 1188 813d 21e5 2cbd 4081 dd3c 530a 843d
00000040: 5fba 993d 6026 2e3b bc10 063d 9270 613d
00000050: c93a b33d aba5 ac3d 93e1 a9bd b2b5 383d
00000060: 3221 e6bc 7cd2 a63c 7251 5d3d 0d6f 8d3d
00000070: a87b 93bc 0c5e 90bd 0605 283d 6e93 93bd
00000080: 5ce4 843c c096 e53a 6845 bc3c 09d9 3cbd
00000090: e6cc 1c3d bc19 a6bd c3b5 7abd 6929 a13d
000000a0: 9069 d5bb 4c3f f6bc 40b8 ad3c d139 a23d
000000b0: 8e2b 733d a9ca 85bd 4af9 783d 1536 0dbd
000000c0: b906 933d 0c78 c73c d8c8 26bc f78e 1abd
000000d0: e83e 2bbc 8480 993c f139 3fbd 9520 b2bd
000000e0: 260c 203d ebcf 863d 4855 a23c 40b6 1bbd
000000f0: 8bf0 823d 0080 89bd 96a9 163d aaed 6f3d
00000100: 1c82 85bc d9f3 8e3d 7ed0 183d 8089 c0ba
00000110: ac80 b1bc b87b 1abd 3134 a13d 8064 1cba
00000120: 5062 d73b b8a9 2cbd 4e6e 3cbd c06f 43bb
00000130: b7c8 9abd e04d f93b c909 27bd f72e afbd
00000140: 00cb d2bc 66ad 67bd ec29 0ebd 5f3f 96bd
00000150: 023a 58bd 2929 af3d 9034 e1bb 3ccd a63c
00000160: c7f2 12bd de12 773d 3077 da3b 6857 183c
00000170: 4f5f 9dbd 10bd 94bc 1b40 953d 64be 1bbd
00000180: c2a4 1d3d f093 78bc 4487 ddbc 12af 693d
00000190: 7d32 a33d c40c 8d3c 6023 c83b 0647 293d
000001a0: a802 a4bc 8e79 603d 1891 b43c f52d 3cbd
000001b0: 0096 87bb d6e4 1cbd 67e5 99bd 7d6a a63d
000001c0: 4508 9ebd 5630 693d 2870 b3bc d897 e83c
000001d0: 6a5b 1f3d 6c59 e4bc f29a 7ebd aacf 5c3d
000001e0: 4a62 1d3d e201 83bd a2f7 4c3d ee3e 303d
000001f0: b8f5 90bc 9076 bbbc 5786 8b3d bc50 a9bd
-0.07944995 -0.013957426 0.0057660565 0.063473515 -0.03058621 0.014932893 0.01827591 0.024161428
-0.026256666 0.024927914 -0.030855414 0.040328704 0.06324781 -0.0422107 0.02703917 0.06447282
0.075062506 0.0026573166 0.032730803 0.055038996 0.08751447 0.08430036 -0.08294978 0.045095153
-0.028092 0.020364039 0.05403275 0.06905947 -0.0180033 -0.07049188 0.041020416 -0.07205854
0.016222171 0.001751624 0.022982314 -0.04610542 0.038281344 -0.08110377 -0.061208498 0.078692265
-0.006512828 -0.03005948 0.021206021 0.07921184 0.05936771 -0.06532795 0.060784616 -0.034475405
0.071790166 0.024349235 -0.010179721 -0.037734 -0.01045201 0.018738039 -0.046686117 -0.08697621
0.039074086 0.06582626 0.019816056 -0.038015604 0.06393536 -0.06713867 0.036782824 0.058576263
-0.016297393 0.06980104 0.03730821 -0.0014689416 -0.0216678 -0.037715644 0.07871283 -0.00059659034
0.006572999 -0.042154044 -0.046003632 -0.0029821247 -0.075578146 0.0076081604 -0.040780816 -0.0855388
-0.025731564 -0.05656185 -0.03470795 -0.07336306 -0.052789696 0.085527726 -0.006872721 0.020361535
-0.03587606 0.060320728 0.0066670403 0.009298183 -0.07684194 -0.018156558 0.07287618 -0.038023368
0.038487203 -0.01517199 -0.027042039 0.057051726 0.07968614 0.017218001 0.0061077327 0.0413275
-0.020020798 0.054803424 0.022041842 -0.045942266 -0.0041377544 -0.038304172 -0.07514458 0.0812578
-0.07716421 0.056930862 -0.021904066 0.028392717 0.03890554 -0.02787467 -0.062159486 0.05390898
0.038423814 -0.063968435 0.05004085 0.043028764 -0.017695293 -0.022883683 0.06812733 -0.08267352

net.4.weight f4 [9, 128]
00000000: f04a 1dbc 4830 b4bd f19b a33d 012c 64bd
00000010: 7340 9dbd f6a4 283d 419c ac3d 650c 97bd
00000020: 1c64 afbd a637 7c3d 5442 c23c 9435 e5bc
00000030: eeb0 173d 8ecb 073d 9f94 27bd 7fbb 8e3d
00000040: 8907 ae3d 71d2 b23d 31d6 983d 4044 9a3c
00000050: 00b2 beba c27e 603d 2433 963c 988a 3a3c
00000060: 16e1 353d 0699 96bd b9ff 923d 2805 17bc
00000070: 574e 9e3d 21f0 a2bd 040f 93bd bc6f 843c
00000080: 1c41 ff3c 51e3 a93d f4bc c13c 746c 93bc
00000090: a77c 58bd 18ec 77bc 6ba1 a53d 87bb 9fbd
000000a0: 2e3e e3bc 5ef1 e3bc 9158 883d 5d9b 9cbd
000000b0: 7069 f5bb b634 5dbd 91fb 82bd 0864 503c
000000c0: e0f2 1cbc b0b2 c53c df92 7cbd 5106 8a3d
000000d0: 9a95 5e3d a01a db3c 44bf e93c a2ca 3e3d
000000e0: 8574 43bd 3097 99bd 692c b23d d0f2 cbbc
000000f0: 6810 383c b374 23bd 0408 e0bc 9072 f9bb
00000100: da88 0a3d 8be4 ae3d 88b3 31bc 500f ce3c
00000110: 2ad3 163d 5fc4 853d 11a3 ad3d e065 06bc
00000120: fe89 673d 98d8 96bd 0daa 85bd b0c6 10bc
00000130: 0afb 653d dc67 9fbd e8d1 073c 3059 acbc
00000140: 4b46 8e3d 586b 54bc f081 973b 788e 993c
00000150: a865 88bc 6f42 a33d e126 803d 60a1 4ebc
00000160: 17ca a9bd de25 75bd be43 123d dc47 8cbc
00000170: 68cf afbc c493 8fbd 044a a1bd 4198 aa3d
00000180: 9ec9 253d c046 91bd be20 8fbd 8dfd 81bd
00000190: 9aaf 433d eea2 82bd 2ef1 3a3d 20df c5bc
000001a0: 4fe7 a5bd 17eb 8ebd b8d5 4abc 80a1 15bd
000001b0: 38a6 143d 142b d3bc 1d58 993d 0029 093a
000001c0: 58d5 8dbd 2416 a1bc 7130 08bd e265 3e3d
000001d0: bd41 1ebd e868 4a3c 2bf4 66bd 9998 92bd
000001e0: 9b4b 4ebd 5b1c 963d 193d 33bd 1f3d 63bd
000001f0: f9a6 83bd 00b8 5ab8 84db 81bc df2b 8a3d
00000200: 4ef6 793d 0606 8abd 0603 603d 6ef4 0b3d
00000210: f246 7a3d 95e3 a93d 0830 fb3c 4054 90bd
00000220: d0dd 3abc 0038 b1ba 1c16 c73c 84a0 df3c
00000230: 34d1 a6bc 4996 b2bd 4ffb 5fbd 8085 05bc
00000240: 48d2 103c f6a9 723d 1256 773d 940f a5bc
00000250: cb20 15bd 7716 19bd 8aff 5d3d 5c0a a43c
00000260: 3f4f 51bd 1100 9b3d 8012 9cbd 7ed6 03bd
00000270: 7296 86bd 1ad0 a5bd 3c71 c83c 385c 42bc
00000280: 40a7 f43a 4853 f0bc 46ee 1f3d 863a 283d
00000290: dcbb 63bd 0397 31bd 60db 173c a149 b43d
000002a0: 06af 183d 7597 9abd a40e 0fbd 80a5 c4ba
000002b0: c63f 3fbd 002c 42ba 4949 953d 73bf 9a3d
000002c0: 15de 8b3d 983d 523c a0d5 a9bc b278 11bd
000002d0: 3dd0 8b3d 10e3 08bd d90a a9bd 00f0 9a3b
000002e0: 62d7 453d c201 253d 0007 463b 9285 483d
000002f0: 9ee7 3f3d 5f91 9b3d 26fe 35bd 9fb6 b0bd
00000300: 9ca5 88bc 4cfe ccbc a813 c9bc 5c2e a1bc
00000310: 4bf3 a83d c89b c53c 869f 5e3d cb61 b43d
00000320: 4a29 773d 901d 06bc ef6e 10bd 9ad1 f6bc
00000330: 7d9a 05bd 0358 8ebd 7974 963d 1482 32bd
00000340: e06e 343c 00d2 c339 3af8 493d 317f a73d
00000350: 40af f8bc 863b 9abd 3cf5 00bd e306 843d
00000360: 8cb2 cabc eeaf e4bc ebc8 ab3d 19ef 7dbd
00000370: b022 c0bb c4e8 edbc 9097 38bc b4d7 97bd
00000380: 8840 f43c fbd7 a0bd 0457 6abd 44e0 903c
00000390: 3e4c 643d c1c5 943d 9877 de3c 6044 01bc
000003a0: c1be 883d 02c2 673d f112 9c3d ec2f 8f3c
000003b0: 77a0 55bd d031 6fbc 406d db3c 4403 ec3c
000003c0: c0f5 bebb f3e0 a8bd 9cc8 abbc ac4d ad3c
000003d0: 8087 83bc 8061 a23c 4f8b 2dbd a475 ca3c
000003e0: 955e 01bd ac00 913c 1325 b13d 9313 943d
000003f0: fc3e 8f3c 3403 39bd 21b5 a23d 80cf 253c
-0.009600386 -0.087982714 0.07988728 -0.055706028 -0.07678308 0.041172944 0.084282406 -0.07375411
-0.08564016 0.061576508 0.023713268 -0.02797965 0.037033968 0.03315311 -0.04091322 0.06969356
0.08497531 0.08731545 0.07462729 0.018831372 -0.0014548898 0.054808386 0.018334933 0.011385582
0.04440411 -0.07353406 0.071776815 -0.009217538 0.07729786 -0.07955957 -0.071805984 0.01616656
0.031158976 0.0829531 0.02364967 -0.01799605 -0.052853253 -0.015131973 0.08087429 -0.0779944
-0.02773961 -0.027825054 0.06657518 -0.07646821 -0.007489376 -0.054005347 -0.06395639 0.012719162
-0.00957939 0.024133056 -0.061663505 0.06739486 0.05434189 0.026746094 0.028533585 0.046579964
-0.047718544 -0.0749954 0.08699877 -0.024896055 0.01123438 -0.039906215 -0.027347572 -0.007612534
0.033821918 0.08539685 -0.010846026 0.025153786 0.036822475 0.065315954 0.08478368 -0.008203
0.056528084 -0.07365531 -0.06526575 -0.008836433 0.056147613 -0.077834815 0.008289792 -0.021038622
0.06947001 -0.012965046 0.004623644 0.018744692 -0.016650036 0.079716556 0.062574156 -0.012611717
-0.08290499 -0.059850566 0.035709135 -0.017124109 -0.021461204 -0.07010606 -0.078754455 0.083298214
0.04047548 -0.070935726 -0.06988667 -0.06347189 0.04777489 -0.063787326 0.045640163 -0.024154246
-0.08100759 -0.069784336 -0.012380056 -0.03653097 0.03629133 -0.025777377 0.074875094 0.0005232245
-0.06925458 -0.019663878 -0.033249322 0.04648388 -0.03863691 0.012354113 -0.0563852 -0.07158012
-0.05036507 0.07329627 -0.04375944 -0.05547821 -0.06428332 -5.2146614e-05 -0.015851744 0.06746649
0.06102591 -0.0673943 0.054690383 0.034168653 0.061102815 0.08295361 0.030662552 -0.070473194
-0.011405423 -0.0013520718 0.024302535 0.02729822 -0.020363428 -0.08720071 -0.054683026 -0.008149505
0.008839197 0.05924412 0.060384817 -0.02014903 -0.036408227 -0.03737494 0.05419878 0.020024471
-0.051100966 0.07568372 -0.07620716 -0.032186978 -0.06571664 -0.08096333 0.024468057 -0.011862807
0.0018665567 -0.029336587 0.039045595 0.041071437 -0.05559908 -0.043356907 0.009268612 0.08803106
0.03727629 -0.075484194 -0.03492607 -0.0015002936 -0.04669168 -0.0007407069 0.07289369 0.07556047
0.06829468 0.012832068 -0.020731747 -0.035515495 0.06826828 -0.03341967 -0.08254022 0.0047283173
0.04830111 0.04028488 0.0030216575 0.048955508 0.046851747 0.07596087 -0.044431828 -0.08628582
-0.016680531 -0.025023602 -0.024545506 -0.019675426 0.082495295 0.024122134 0.054351352 0.08807715
0.06034211 -0.008185759 -0.035262045 -0.030129243 -0.032618035 -0.06950381 0.07346434 -0.043581083
0.011012763 0.0003734976 0.049308993 0.08178557 -0.030357003 -0.075308844 -0.031483874 0.06446626
-0.02474334 -0.027915921 0.083879314 -0.0619956 -0.00586351 -0.029041655 -0.011266604 -0.07414189
0.029815927 -0.07853695 -0.05721189 0.017685063 0.055736773 0.07264281 0.027156636 -0.007889837
0.066770084 0.056581505 0.076208 0.017478906 -0.052154984 -0.014599279 0.026785493 0.02881015
-0.0058276355 -0.08246031 -0.020969681 0.0211552 -0.016055822 0.019821882 -0.042369183 0.024714299
-0.03158434 0.017700516 0.086496495 0.07230296 0.017486088 -0.04516907 0.07944704 0.010120273

net.4.bias f4 [9]
00000000: f0a3 9abd 5cf9 c83c f863 65bd b10f 87bd
00000010: dbfa 9f3d 1022 8a3b 5004 c2bb f4dd a0bd
00000020: e28b 653d
-0.075508 0.024532966 -0.05600354 -0.0659479 0.07811519 0.0042154863 -0.0059209242 -0.07854834
0.056041606
