Entities/pained_rep.pth (torch, 80441 bytes, 6 tensors)

net.0.weight f4 [128, 12]
00000000: 9e01 373e 6b93 78be df64 823e f383 5cbe
00000010: ddd9 56be 4d4e 993d cf95 393e 870c 693e
00000020: 53fb 40be 98e2 6dbc 85d5 f93d 3dcc 353e
00000030: a0e2 f6bc d517 8ebc 7379 0ebe e1fa 783e
00000040: 0538 533d 4e4f d23c 10ad 80bd 9831 8fbd
00000050: d125 ec3d bfeb 77be e825 243e 1a5b 893d
00000060: a0cb 023e db6f 0d3e 1982 34bd c154 72bb
00000070: 2250 13bd 6dc2 a33e 6bd3 76be ee26 3cbe
00000080: 9b79 9ebd 9377 9dbe d122 013d 4cd2 273d
00000090: 52ed 923d 2603 7b3e e06e 31be 68dd 7bbe
000000a0: 4b42 36be 2276 88be 24c7 573d 40be c13d
000000b0: f71f 7bbe 45f7 843e 521e a2bc c9c8 12bc
000000c0: 8c9d ccbd a906 04be d0de 4abe a4c6 81be
000000d0: a04b 573e 3032 5c3e 1c37 e53d c0fa 7e3c
000000e0: f546 82be 8474 ae3d f319 2cbe 6a06 bdbd
000000f0: e1c6 973d efbb a4bb 6c2f 863e 169e ab3d
00000100: e34c 4cbe 0e2b 9bbd 3a3a 1b3d 7149 75be
00000110: d979 80be 02bc 36bd 1e11 28be 8b66 883d
00000120: 1525 633e 1414 fb3d 3543 31be facb 90be
00000130: 38b1 1c3e caef 1b3e 28a8 86bd 92b4 843e
00000140: f0b3 853c ac9f d73d 509b cabd eaec 3dbe
00000150: 30b5 cd3d 704b 89bc 708d b7bd 003a 0c3b
00000160: b287 803e b8e7 033e 840e 913d aaea 063e
00000170: dfe2 4abe 3080 2ebe 65b2 8ebe b081 cebd
00000180: 607e 4bbe ae92 dabd ea5f 54be 4263 f5bd
00000190: 12c3 f8bd 2a1d 8ebe 0511 52be 40c0 ad3d
000001a0: 29dd 7c3d c0d6 9cbe 625f 8bbd 9ff3 8e3d
000001b0: f1e3 833d e5a5 57be 05f2 743d 49df 97be
000001c0: 4cbe ac3d e09c 39be e8b6 d13d a302 2fbd
000001d0: ee6a 6c3d 75c1 2dbe 0b0d 183e d4ed 1abe
000001e0: bb1f 863e 726e 4abd 6449 2ebe abc0 b23d
000001f0: b0d8 8abe 2528 d6be a4e9 b1bc efc8 96be
00000200: 594d 75bd f7a8 84be 663c 643e b577 163e
00000210: de42 a1bd cb4c cf3d 2a56 15be fed8 df3d
00000220: 0d58 32be 3364 3fbe f944 203d e6ea 7d3d
00000230: 23c3 4a3e 84a1 3f3e c57e 743d 07d1 28be
00000240: 00fe c5ba dc46 403e 686a 803e 44e1 a23d
00000250: ccff 33be 3070 eb3c 0480 163e 2412 783e
00000260: f835 2e3d a8e4 04bd c82d 31be 8a95 d5bd
00000270: 69b6 07be 43a6 8c3c 18bf 37bc eea2 eb3d
00000280: 5f78 663e 8bd8 563d bf28 82bd e27c 0abe
00000290: b8db 803e b479 18be f8e1 3d3e 49e4 1fbe
000002a0: 1cc3 593e 6843 debd ab17 84be 9a49 b03d
000002b0: 6c26 7cbe 63b4 2fbe 969e 22be ad87 0fbd
000002c0: bd6a 703e 733b 65bd 3c2a 4f3c d018 98be
000002d0: 308d d03c 3a8d 1c3e e898 7cbe 92f4 dabd
000002e0: 7087 8bbc 30d7 61be d416 8e3d 4041 f23b
000002f0: e8b1 583d b4c8 d13d e080 e0bd 0e30 23be
00000300: b5c5 26be a0ed 4ebc ecbf 3c3e aa91 573e
00000310: c08e 4b3c 4e89 2cbe 9599 82be 2865 7a3e
00000320: 9680 6fbe 084e 203e e6f5 cbbd 5883 29be
00000330: 03f5 8fbe cea8 4b3e a41f 343e f85c 47bd
00000340: 00c2 93ba e081 d93d 24ee 33be b46a 823e
00000350: 28ea 313d 28ec 51bd e2d2 bbbd 3024 ad3c
00000360: a6d3 253e f2b8 ebbd ab15 87bd 05b1 4b3d
00000370: f69a 97bd 4a5e 3abe 997f 54be 8d0b 3cbd
00000380: 5d4e 2ebd 0f21 fa3b 1b82 75be 10f0 223e
00000390: 842a b43d 11c4 febd 4801 50be c078 803e
000003a0: 73cc 6ebe 0999 073e 586f 49be f8f9 08be
000003b0: 6d86 9d3d d894 133d a372 34bd c6db 053e
000003c0: ff07 653e 3cdd 86be 1045 ba3d 472c 303e
000003d0: 50ce 16be c0ec c03d cc0c 5d3e 8980 363e
000003e0: f56c 39be 56cf 0f3e 39b1 1f3e b94a 9ebd
000003f0: 5639 0dbe ecc4 babd b028 f43d 6c79 a83c
0.1787171 -0.24274985 0.25467584 -0.2153471 -0.20981546 0.07485638 0.18123554 0.22758685
-0.18845873 -0.014519356 0.12198929 0.17753692 -0.03013736 -0.017345348 -0.13913517 0.24314453
0.051567096 0.025672581 -0.06283009 -0.06991881 0.115306504 -0.24211024 0.16030085 0.06706829
0.1277299 0.138122 -0.044069383 -0.0036976787 -0.035965092 0.31984273 -0.24104087 -0.18374225
-0.07738038 -0.3075529 0.031527344 0.04097204 0.071741715 0.2451292 -0.17327452 -0.24596179
-0.17798726 -0.26652628 0.05268015 0.094601154 -0.24523912 0.25969902 -0.019789848 -0.008959004
-0.09990987 -0.12893166 -0.19811559 -0.25346863 0.21024942 0.2150352 0.11192152 0.015562713
-0.2544476 0.08518317 -0.16806774 -0.09229739 0.0741098 -0.0050272862 0.26208055 0.08379762
-0.19951205 -0.075765714 0.037897326 -0.23953797 -0.25092962 -0.044612892 -0.1641278 0.066601835
0.22182114 0.12259689 -0.17310794 -0.28280622 0.15301979 0.15228191 -0.06575042 0.25919014
0.016321152 0.10528502 -0.09892905 -0.18547407 0.100443244 -0.016759604 -0.08962524 0.0021396875
0.25103527 0.12881362 0.07082847 0.13175455 -0.19813107 -0.17041087 -0.2787048 -0.1008333
-0.19872427 -0.10672508 -0.20739713 -0.119818226 -0.12146582 -0.27756625 -0.20514305 0.084839344
0.061734352 -0.3063259 -0.06805302 0.06980061 0.06439961 -0.21059377 0.05980112 -0.2966254
0.08434734 -0.1812625 0.10239965 -0.042727124 0.057719164 -0.16968329 0.14848725 -0.15129787
0.26196083 -0.049421735 -0.17020184 0.08728155 -0.27118444 -0.41827503 -0.021717854 -0.29450175
-0.059888218 -0.2591016 0.22288665 0.14694102 -0.07874082 0.10122069 -0.1458365 0.1093006
-0.17416401 -0.18690567 0.039128277 0.061991595 0.19801001 0.18713957 0.05969121 -0.16485988
-0.0015105605 0.1877703 0.25081182 0.07953122 -0.17578048 0.028740019 0.14697272 0.2422567
0.042531937 -0.032444626 -0.1730262 -0.10428913 -0.13253178 0.017169124 -0.011214994 0.11505686
0.22506855 0.052452605 -0.06355428 -0.13524202 0.25167632 -0.14890176 0.18543231 -0.15614428
0.21265835 -0.108527005 -0.25799307 0.086077884 -0.24624032 -0.17158656 -0.15880808 -0.0350415
0.23478217 -0.0559649 0.012644347 -0.2970643 0.025457948 0.15288249 -0.24667704 -0.10691179
-0.017032355 -0.22054744 0.06937948 0.0073930323 0.05290404 0.10243359 -0.10962081 -0.159363
-0.16286357 -0.012629896 0.18432587 0.2105166 0.012424171 -0.16849253 -0.255078 0.2445265
-0.23388895 0.15654767 -0.09959011 -0.1655401 -0.28116617 0.19888613 0.17590195 -0.048672646
-0.0011273026 0.10620475 -0.17571312 0.25472033 0.0434362 -0.051250607 -0.09171082 0.02113542
0.16194019 -0.11509885 -0.0659593 0.049729366 -0.07402603 -0.18200031 -0.207518 -0.045909453
-0.0425552 0.0076333354 -0.23975413 0.15911889 0.08797172 -0.124397404 -0.20312989 0.25092125
-0.23320179 0.13241972 -0.1967138 -0.13376606 0.07691655 0.03603062 -0.04405464 0.13072118
0.22366332 -0.26340663 0.09095204 0.1720439 -0.1472714 0.094201565 0.21586913 0.1782247
-0.1810797 0.14043936 0.15594949 -0.07729096 -0.13791403 -0.09119591 0.11921823 0.020565711

net.0.bias f4 [128]
00000000: 6464 1bbe 484a 7dbe 9b68 433e 10ac 803d
00000010: 5ec4 093e 44df eb3d 77d8 8abe 745b 363e
00000020: fb88 6e3e d7c8 9dbe 57f8 2bbd 6dbe 0cbe
00000030: d0f1 5ebd 3bea 79be 2e8d 353e 2c7e edbd
00000040: a023 af3d 9c36 7f3e c03c 7cbe 11f3 1abe
00000050: e11a bbbd 43ac cd3d c11d 533d 4e97 4bbe
00000060: 3831 98bd f03e f13d dc89 72bd f4a0 7cbe
00000070: a3a5 8cbe 7ae3 8dbe 0e60 ec3d ab26 943c
00000080: 6fcf 61be 0d9c 573e c05a 49be 48e4 903e
00000090: acad 25be 1131 94be 2c1b 61be 64c2 37bd
000000a0: cc63 89be 7d90 533d b1d1 b8bc 707f 03bc
000000b0: a158 8ebd 6640 3ebe abfc 86bd e4d7 833e
000000c0: e79a 1dbe 3eca 413e adbe 38be c398 753c
000000d0: 0b7d 5c3e f014 b3bd cadf 043e 82e6 4d3e
000000e0: edfb 0dbe 6b4a 813e 8cee 473d 5cb9 89be
000000f0: 28cb 093e a904 793e ae8e 873e 1f89 77be
00000100: 409a f63d 5bcb 743e 4938 1cbd debe 76be
00000110: faa2 9bbe dcd9 393e 92a0 78bd 4ace f0bd
00000120: aa3a 7bbe f530 293e 0a60 debb 296a 173e
00000130: 8a25 643e 2409 3dbd ada1 9f3d a341 43be
00000140: 35af 64be d0c0 113e c1de 153e 3402 56bd
00000150: aad1 853e 9f3b f8bd 411a 22bd 84fb 7c3e
00000160: 5a62 08bd 9499 af3d 6ba0 0a3e f454 e3bc
00000170: c095 863c 0904 24be 061b 473e db25 16be
00000180: 723f 5cbe b3e0 8bb9 e2e9 683e 88a5 103e
00000190: 1cc9 603b 84ce 553d 90dd a3bd b38a f73d
000001a0: 00b9 783e 43f6 77bd 79d4 2a3d 28d6 c0bd
000001b0: b3f8 85be fcac f9bd 141b 82bd 42d5 c33d
000001c0: 173f bbbd 8ed0 c7bc 19ff 3bbd 1b32 833e
000001d0: eb7e e5bd a595 36be 7f87 1c3e e0e2 223e
000001e0: bc50 22be 9ef8 aabd 3fb8 ea3b fae2 353e
000001f0: cb5a 8a3e e840 ac3d f024 15be b597 7f3e
-0.15175015 -0.24735367 0.19082873 0.06282818 0.13453814 0.11517194 -0.27118275 0.17808324
0.23294441 -0.3081729 -0.041984882 -0.13744517 -0.05442983 -0.24405758 0.17729637 -0.11596331
0.08551717 0.24923176 -0.2463255 -0.15131785 -0.09135986 0.10042622 0.051542047 -0.19881937
-0.07431263 0.117795825 -0.059213504 -0.24670774 -0.2747012 -0.27712613 0.115417585 0.018084845
-0.22051786 0.21055622 -0.19663525 0.28299165 -0.16179532 -0.28943685 -0.21983021 -0.04486312
-0.2683395 0.051651467 -0.022560926 -0.008025989 -0.06950498 -0.18579254 -0.06591161 0.2575065
-0.15391122 0.18924806 -0.18041487 0.0149900345 0.21532075 -0.08744228 0.12975994 0.20107463
-0.13865633 0.2525209 0.04881148 -0.2689923 0.13456404 0.24318184 0.26476043 -0.24173401
0.120411396 0.23905699 -0.038139615 -0.24096248 -0.3039778 0.18149513 -0.060700007 -0.117580965
-0.24534097 0.16522582 -0.006786351 0.1478659 0.22279945 -0.046151295 0.07794509 -0.19068007
-0.22332461 0.14233708 0.14635755 -0.052248195 0.26136523 -0.12120747 -0.03957582 0.2470532
-0.03329692 0.085742146 0.13537757 -0.02775047 0.016428828 -0.16017164 0.19443902 -0.14662878
-0.21508577 -0.0002667956 0.22745469 0.14125645 0.0034299558 0.0521989 -0.08001244 0.12087002
0.24289322 -0.060537588 0.041706536 -0.09415847 -0.26166305 -0.12191197 -0.06352821 0.0956216
-0.09142893 -0.024391439 -0.045897577 0.25624165 -0.11205848 -0.17830522 0.15286063 0.15906858
-0.1585111 -0.08348201 0.007163077 0.17762366 0.27022395 0.084108174 -0.14564872 0.24960215

net.2.weight f4 [128, 128]
00000000: a52d 43bd 91d0 9bbd 76b7 76bd 39d8 65bd
00000010: 4ef1 71bd 9ec7 2abd e037 813b 7b52 8f3d
00000020: 20d7 8abd d11e 54bd 8cbb c3bc 1f8d 6abd
00000030: 542d a6bc 0e87 27bd dd54 823d 50c1 b4bb
00000040: 8cac 023d 68b4 2bbc 401c 7f3c 181e 9b3c
00000050: b053 37bc 5a65 4b3d 300d 663c 289e c3bc
00000060: 1664 5f3d 318f 993d 4046 a03c a98d b33d
00000070: 782e b6bc 3267 93bd 4891 7c3c 68da 06bc
00000080: 7383 12bd 5c81 75bd a0a3 433b 20b3 663b
00000090: 3072 dd3b a933 1ebd 80ff 96bc 3ee7 3b3d
000000a0: c473 bdbc c07a 11bd f47a b9bc 0845 d23c
000000b0: b055 7cbc 80f0 133c 39fb 69bd e1c8 b2bd
000000c0: a0b4 96bb 7632 593d c7ad b43d 0619 6b3d
000000d0: 9e70 213d 9e13 68bd 709f 8fbc a352 aa3d
000000e0: bdb3 af3d 3e41 67bd 3d8d 9abd 0a6a 523d
000000f0: 3660 96bd e02d 12bb d2eb 663d 3aa5 6b3d
00000100: d20c 4b3d 1515 41bd 41a2 8dbd 334c 8c3d
00000110: d6af 78bd e298 84bd faba 0fbd 3652 763d
00000120: 2bc3 af3d fe0b 75bd fee0 9cbd 19bc 12bd
00000130: 5ae2 09bd 3f9d a83d e3bd 77bd b0e2 2bbc
00000140: 59c3 813d b6b4 63bd 9cb4 d13c f4c5 57bd
00000150: 8c21 b83c 9cfb e83c ba28 2ebd 1e4e 94bd
00000160: 00b1 74bc 709a a1bc 68b7 b83c 88c3 3c3c
00000170: c4ce d6bc 0e7e 283d 8fa8 58bd 006c 633b
00000180: 90e1 f63c 1567 9e3d 7c0d 9a3c 5055 8dbb
00000190: 2065 27bb 908c 0abc c4b8 d13c a0b9 803c
000001a0: 045d 0e3d 04e0 83bc 68c8 03bd 38ff 20bd
000001b0: 681a 0fbd 6ecc 3f3d 21b9 44bd 30f6 b83c
000001c0: e109 81bd 4991 12bd 9e3a 443d 845f 84bd
000001d0: 27c1 8e3d cccf ed3c ae2d 1a3d 8902 4dbd
000001e0: f008 5b3c 5fda 8c3d 1065 93bb dc25 aebd
000001f0: 2199 abbd 4b58 17bd 3040 b53c 27b2 64bd
00000200: e2db 2d3c 20f3 b0bd cafe 8cbd ac18 64bc
00000210: f6eb 75bd 53f4 b5bc 9eab b9bc 53b8 b43d
00000220: 090f ae3d 04c1 bcbd 2050 8bbd 794f 983d
00000230: 94d1 c5bc 50d2 77bd a32a 323d 68c5 3cbc
00000240: f058 ab3b d853 f33c da01 b3bd 5786 573d
00000250: ae0a edba 3d19 3c3d c0dd 0b3c 0859 a63c
00000260: 7e72 4c3d 545f 793c 2e36 a9bd 087b 573d
00000270: 40c6 493d 9073 cabb 0d21 803c a7dc 30bd
00000280: 75b6 5d3d 9f21 7b3d e2b7 3abc 4b60 b43d
00000290: d329 9dbb 206e ec3b 20cc 0fbc f9f6 a2bd
000002a0: b407 0f3d 7cdf d7bd eb89 b13b d1eb b8bc
000002b0: 40dc 87bd 1188 9b3d 7a2a d9bd d037 92bd
000002c0: 6aa5 673d 503c 693b 3c52 81bd e886 c5bc
000002d0: 030c 1f3d e824 aa3c 102b aabc 5ab4 a3bc
000002e0: 229c 89bd efac 163d 1abc 63bb 1bdf 893d
000002f0: 8aaa 423d 26f3 8dbd ff13 19bd 4e0e 0f3c
00000300: 9fd7 06bd 0297 00bc 927f b3bd c1d4 acbd
00000310: 7cee aabd cb34 c2bd 44fc 843b 4aaa b2bd
00000320: 342e a9bd 58e5 bcbd 4cfe bfbd 634f 11bd
00000330: 5f12 4a3c a9f7 99bd 5c11 83bd 607c 20bc
00000340: 4ee3 5e3d 60a7 72bd 694d 4bbd 56e8 93bd
00000350: 29ef 30bd f728 b2bd b2e3 b8bc eb82 c0bd
00000360: b629 adbd e6d6 7fbd 7939 1e3d d0a0 a03d
00000370: f325 933d b6c7 613d 1a89 323d 0629 f73b
00000380: 9df7 ad3a e736 84bc 9b4f 413d 3b48 adbd
00000390: bc2b c1bc f807 013d 59a9 cfbc 1485 8b3d
000003a0: bc10 c2bc d7f1 0d3d 00fa cdbb 9a01 f73c
000003b0: 183b f83c 3c51 41bd 1b99 6dbd c45d 903d
000003c0: 8241 633c 30ad 233c 7129 82bc 3d9d 7fbd
000003d0: bb1f 843d 8af0 4b3d af19 6e3d aa7f 3d3d
000003e0: f6af 47bd aa0f 80b8 f28c cfbd 01e1 8cbd
000003f0: aed0 a8bd 8afd 5b3d f604 8cbc c31f aabd
-0.047650952 -0.0760814 -0.060233556 -0.05611441 -0.059068017 -0.041694276 0.0039434284 0.06998154
-0.06779313 -0.0517872 -0.02389314 -0.05726349 -0.020285286 -0.040900283 0.06363843 -0.0055162087
0.031902835 -0.010480024 0.0155707 0.018935248 -0.011189386 0.049657203 0.01404123 -0.023879126
0.05453881 0.07498015 0.019564748 0.08767254 -0.022238955 -0.07197417 0.015415497 -0.008230783
-0.03576989 -0.05993782 0.0029852167 0.0035201982 0.006757997 -0.038623486 -0.018432379 0.045874827
-0.02312649 -0.035517454 -0.022641636 0.025667682 -0.015401289 0.009029508 -0.05712435 -0.08729721
-0.004599169 0.05302664 0.08822208 0.05739691 0.03941404 -0.056659333 -0.01753208 0.08316543
0.08579204 -0.056458704 -0.0754647 0.051370658 -0.073425695 -0.0022305176 0.05637724 0.05753062
0.049572773 -0.047139246 -0.06915713 0.06850471 -0.060714565 -0.064744726 -0.035090424 0.060136996
0.08582147 -0.05982589 -0.07660101 -0.035823915 -0.03366313 0.08233117 -0.060483824 -0.010491058
0.06336088 -0.05559226 0.025598817 -0.052679017 0.022476934 0.02844029 -0.04251931 -0.07241462
-0.014934778 -0.019726962 0.022548392 0.011521228 -0.02622164 0.04113584 -0.052895125 0.0034701824
0.030136853 0.07734505 0.018805258 -0.0043131486 -0.0025542453 -0.008456364 0.025600798 0.015713513
0.034756675 -0.01609803 -0.032173544 -0.039305896 -0.034937292 0.04682582 -0.048028115 0.022578329
-0.063007124 -0.035783086 0.047907464 -0.06463531 0.06970435 0.02902975 0.03764122 -0.050051246
0.01336883 0.068775885 -0.0044981316 -0.08503315 -0.083788164 -0.036949437 0.022125334 -0.05583396
0.010611506 -0.086401224 -0.06884535 -0.013921898 -0.060039483 -0.02221123 -0.022664841 0.088242196
0.084989615 -0.09216502 -0.06802392 0.07437033 -0.024147786 -0.060503304 0.043497693 -0.011521675
0.005229108 0.029703066 -0.087405875 0.05261835 -0.0018084848 0.045922507 0.008536756 0.020306125
0.049913876 0.015220482 -0.08262287 0.052607566 0.04926133 -0.006178327 0.01564076 -0.04317918
0.054129083 0.06131136 -0.01139638 0.08807429 -0.0047962456 0.0072152764 -0.008776695 -0.079572625
0.034919456 -0.10540673 0.0054180524 -0.022573384 -0.06633806 0.07594312 -0.10603805 -0.07139552
0.056554236 0.0035588928 -0.06314513 -0.02411218 0.038829815 0.020769551 -0.020772487 -0.01998346
-0.06719233 0.036786016 -0.0034749568 0.06732007 0.04752592 -0.069311425 -0.037372585 0.008731438
-0.032920476 -0.007848503 -0.087645665 -0.08439017 -0.083462685 -0.09482726 0.0040583927 -0.08723886
-0.08260766 -0.09223431 -0.09374675 -0.0354761 0.012333482 -0.075179406 -0.063997954 -0.009795278
0.054415993 -0.059241652 -0.04963437 -0.07222049 -0.04319683 -0.0869922 -0.022569511 -0.093999706
-0.08455221 -0.062460802 0.03862903 0.078431726 0.071849726 0.0551221 0.04358778 0.007542732
0.0013272647 -0.01613946 0.04719506 -0.084610425 -0.023580424 0.03150174 -0.025349306 0.06812492
-0.02368962 0.034654465 -0.006285906 0.03015213 0.030301616 -0.04719661 -0.05800734 0.070491344
0.013870599 0.009990022 -0.015888901 -0.062405813 0.064513646 0.049789943 0.058129963 0.046264328
-0.048751794 -6.106433e-05 -0.10134305 -0.068788536 -0.082429275 0.05370859 -0.01709221 -0.08306839

net.2.bias f4 [128]
00000000: 8e49 2b3d e712 a8bd f16c ceb9 2840 adbd
00000010: 5ea5 1c3d f94c 0ebc aaa1 443d d150 d53b
00000020: 2326 1e3d 4992 803d 7021 033d c7d5 653d
00000030: 88c4 a1bd 3742 8a3d ca0b 373d 4484 01ba
00000040: 57e8 c43c 8b25 79bd a249 2dba ede7 683d
00000050: 33f0 94bc 4b23 8ebc 9fa1 993c eb2d bdbd
00000060: cbe6 fcbb a0c3 733d 775d aeba c758 b33d
00000070: fa2b 91bd cb62 a23d 01d4 943d 4ec3 3cbd
00000080: 250f cb3b 6ccf 86bd e2c5 6d3d 66b5 49bd
00000090: 3449 4d3d 5e0f 47bd 4098 7cbd 289b ecbc
000000a0: e820 ce3b 250f fc3a e616 babd 0972 963d
000000b0: b08c 6a3c b9e5 4d3d f4d0 87bd 0183 76bd
000000c0: 47b3 4e3d 2f61 87bd efa4 473a ef13 1f3c
000000d0: aa49 373d 8d5e a33d 314c 043d 5b4f a4bd
000000e0: 78f2 a0bd 88fb 50bc 9899 7e3d 7009 97bd
000000f0: 275a 01bd 0411 8d3d 58c1 6c3d 489f 48bd
00000100: cea4 7dbc 3252 03bd 95a3 99bd abf2 b7bd
00000110: cad5 a23d 64d7 613d a980 59ba 0f19 5ebd
00000120: 8a1a a8bd 277a 64bc d5e8 483d 8b56 b3bd
00000130: 90c9 52bd 138a 30bd 673f 95bd 80e7 533d
00000140: 2dd5 7cbd d783 a3bd b6f6 6b3d 0037 bebd
00000150: cae9 03bc f3cf 82bd e6ec 92bd d537 9b3d
00000160: c59e a0bd b6f9 6ebd 92f8 723c a7fa 90bd
00000170: 7d27 90bd 94b3 d2bc 1e3b e8bc 7fed 8abd
00000180: 261c b23d 3d95 dd3c 412d 7ebd 2650 683d
00000190: d278 463d 9fd1 4cbc cd16 52bd ed27 0cbd
000001a0: 0da8 6dbc 9b3f 86bd d352 ad3d 4fbf 8e3d
000001b0: b548 b9bc 0ae3 c3bc df33 733c 7ef3 d03c
000001c0: 82a6 a2bd 8a9b 7b3d 5118 acbd baa6 2c3c
000001d0: 8079 82bd 4f40 9d3d 3b4b b63d e029 9f3d
000001e0: 0a27 5a3d e170 053d 71a7 c4bd 90f1 bebb
000001f0: e620 7b3d e2c5 803d 5ccb 4fbd e0e8 c3bd
0.041818194 -0.0820673 -0.0003937255 -0.084595025 0.038243644 -0.008685344 0.048005737 0.006509878
0.03861059 0.06277902 0.03201431 0.056112077 -0.078988135 0.06750911 0.044688977 -0.00049406686
0.02403657 -0.06082682 -0.00066103984 0.056861807 -0.018180942 -0.017350813 0.018753825 -0.09237274
-0.0077179424 0.059512734 -0.0013303001 0.08757167 -0.07088466 0.079289995 0.07266999 -0.046084695
0.0061968737 -0.06582531 0.058050044 -0.04924526 0.05011864 -0.04859864 -0.061668634 -0.028882578
0.006290544 0.0019230588 -0.09086399 0.07345969 0.014315769 0.05026791 -0.066316515 -0.06018353
0.05046394 -0.06610333 0.00076158246 0.009709342 0.044747986 0.079770185 0.032299224 -0.08022948
-0.07858747 -0.012755282 0.062158197 -0.07374847 -0.031580117 0.06888011 0.057801574 -0.048980027
-0.015481187 -0.03206081 -0.07501904 -0.08981832 0.07950933 0.055137053 -0.0008297065 -0.054223116
-0.08208187 -0.013945139 0.04905017 -0.08756741 -0.051461756 -0.043100428 -0.07287484 0.051734447
-0.061726738 -0.07984131 0.05760833 -0.09287834 -0.008051345 -0.063873194 -0.07174091 0.075790085
-0.07842783 -0.05834361 0.014829772 -0.07079058 -0.07038782 -0.025720395 -0.028348502 -0.0678358
0.08696775 0.027048701 -0.062054876 0.05671706 0.048455067 -0.012501149 -0.051291276 -0.034217764
-0.014505398 -0.065551005 0.08463063 0.06970083 -0.022617677 -0.023911972 0.01484391 0.025506731
-0.07941915 0.06142763 -0.084030755 0.010537798 -0.063708305 0.076782815 0.08901068 0.07771659
0.053259887 0.032578353 -0.096022494 -0.0058271363 0.06131067 0.06287743 -0.050731048 -0.09565902

net.4.weight f4 [9, 128]
00000000: 4ccd 98bd 3848 58bc 2755 be3c 4bb4 7dbd
00000010: 10b7 cf3c 0087 f1bc 29c4 b13d aa9d 323d
00000020: 9ab2 f8bc 3833 80bc ff31 873d 9c61 90bd
00000030: 0ca8 4bbc 5021 80bd f4bd 1fbb bc9e 6b3c
00000040: 7dd2 5fbd 1549 acbc 67b0 163d dbaf 96bd
00000050: bc6b 7ebd c075 d53c 3f65 b2bb ce70 f43c
00000060: d5b1 143d fc7c 0fbc 2812 15bd c82d b73c
00000070: ae95 f2bc 71d1 6c3d 2390 79bd d829 923c
00000080: 6bc6 5cbd e303 b4bd afb4 333d a941 943d
00000090: 589a 33bd 2046 fe3b c8e1 503d b4d8 7ebd
000000a0: 6120 b0bc 5725 b2bc f38b 1c3d 14a2 a6bd
000000b0: 23bc 15bd 0408 2b3b 077d bbbc 5d5e 873d
000000c0: 51c0 513d 8b2d 983d 0133 813d 98c4 61bd
000000d0: 9858 86bd 004f 073c a50b 6e3c 7360 1d3d
000000e0: 422b 173d fa92 05bd 3779 6a3d ff0c a5bc
000000f0: b3c8 a13d 6315 913d aaba 55bd eff4 5c3d
00000100: daa0 4c3d e845 79bc 821d d5bc 4611 173c
00000110: df26 35bc c4c4 1cbd 5659 66bd 1887 b23c
00000120: c2f1 5bbc 6d97 97bd d647 27bd 8e68 2bba
00000130: 0fdf 953d 36a7 ab3c 2a1f 2bbd 1f4c 6dbc
00000140: e9f3 5f3d 1d60 afbd 1fde 83bd c994 233d
00000150: 786c 503a 29e6 89bd 8936 11bd fcbd 053d
00000160: 8205 25bd 0dea b4bc 5475 ee3c 53bb f7bc
00000170: 0098 af3c 6e36 a6bd c195 98bd d104 fdba
00000180: 17d5 0fbd 0857 833d c8f6 a23b 9194 6ebd
00000190: e803 65bc ba5a 5f3d 434b 733d 747c 99bc
000001a0: 7c88 973a 503f 9e3c 5b7e aebc 24b7 be3c
000001b0: 3876 eebc 9e08 263d 59c9 59bd a42e 0e3d
000001c0: 5990 943d 564f 0e3d e5ba 01bd 72e1 36bd
000001d0: 1df8 56bd ff6f 503d 1424 d8bc 4d33 b8bb
000001e0: d097 c0bb 0d53 3d3d c52f 963d f699 c4bb
000001f0: 5a38 e6bc 2ae0 7ebd 80b6 cabc e762 983d
00000200: c089 75bd 905f 26bd ab67 283d ce2e 88bd
00000210: f627 433d b062 4b3d ac1b c6bc 891d 54bd
00000220: 650f 93bc 29d2 5ebd 1235 54bd b881 a8bc
00000230: 7530 96bc eea9 423d 744f a83d 8a24 6dbd
00000240: 9f09 43bd c785 9fbc 7c78 4bbd fe68 e7bc
00000250: e550 753d 589a a1bd 7035 033d 32b6 88bd
00000260: 5ff6 fb3c dcfb 8c3d b08b c43c 000a 893a
00000270: be30 f5bc 12f9 8d3c 044d 423d b9cc 6f3c
00000280: 8dac 8a3b 04ac 70bd bed2 8d3d 2ad6 433d
00000290: 5f31 5b3d c84e e7bc b061 b93b 4791 35bd
000002a0: 521d 8c3d 5e54 823d b549 343c 22bc 9b3c
000002b0: 79d5 85bd 9503 993d ac1a 88bd ddce 33bd
000002c0: 5cbc 903d 485d 103c b563 1ebd 210b 8f3c
000002d0: fee6 89bd 6033 f53c 52f8 d3bc 41a7 90bd
000002e0: 7a42 44bd c991 853d f6b8 e4bc 5284 573d
000002f0: f6fb e5bc 3eaf fb3c 2df5 1c3d 0286 a039
00000300: ea52 393c 0714 913c a68d 84bd 1993 febb
00000310: ba86 09bd 7ad3 c93c 7a6e e6bc ef2a 7ebd
00000320: b078 823c b483 1e3c 5723 2c3d e3c6 9e3a
00000330: 7bcb 72bd 9987 6ebd 6ae3 e1ba c849 02bd
00000340: 0d56 cdbc e113 a43d 9846 b6bc 7b3b 723c
00000350: 2aff 2a3d 3aa8 4b3c c247 453d 5c4f aa3c
00000360: 29aa cdbd 264f e7bb dc2f 7bbd a6d1 a13c
00000370: b831 8ebc 7303 5bbc 9742 90bd c21e 6c3d
00000380: cd40 11bc 8974 bfbc 6418 2f3d a6cc 8b3d
00000390: 9301 923d 65d9 36bc 569b 303d 1be0 e7bc
000003a0: e4a8 45bd 408e c13b cc07 0e3d 4206 1cbd
000003b0: 8208 5e3d bee2 f6bb c500 6fbd 205e 77bd
000003c0: db75 b3bc aea7 713d 61c7 e83c 46db ecbc
000003d0: 492c 91bd db3d be3c 935e 603d 1fb5 6f3c
000003e0: 00f4 583b 17c3 7cbd dfb4 97bd 8cce 1ebc
000003f0: beca 7ebd 4224 083d 40a3 fcbb d87c a1bc
-0.07461032 -0.013200812 0.023233963 -0.06193952 0.025355846 -0.029483318 0.08679993 0.04360739
-0.030358601 -0.015649423 0.06601333 -0.070498675 -0.012430202 -0.06256354 -0.0024374695 0.014381107
-0.054644097 -0.021030942 0.036789324 -0.073577605 -0.062114462 0.026057124 -0.0054441984 0.029838946
0.036302406 -0.008757826 -0.03639427 0.022360697 -0.029612388 0.057816926 -0.060928475 0.017842218
-0.053900164 -0.08789804 0.043873485 0.07239086 -0.043848366 0.0077598244 0.05099657 -0.062218383
-0.021499814 -0.02174632 0.038219403 -0.08136383 -0.036556374 0.0026097307 -0.022886766 0.06609795
0.051208798 0.07430562 0.06308556 -0.055119127 -0.06559867 0.008258581 0.014529143 0.03842206
0.03690649 -0.03261087 0.057244506 -0.020147799 0.078996085 0.07084157 -0.05217997 0.053944524
0.049958088 -0.015214421 -0.026015047 0.009220427 -0.011056631 -0.038273588 -0.05623754 0.021792933
-0.013424339 -0.07401929 -0.040839992 -0.0006538712 0.07317936 0.020953756 -0.041777767 -0.014483481
0.05467597 -0.08563254 -0.064388506 0.039936814 0.00079507334 -0.06733353 -0.0354524 0.032651886
-0.040288456 -0.02208426 0.02910868 -0.03024069 0.021434784 -0.081158504 -0.07450438 -0.0019303804
-0.035115328 0.06413084 0.0049732663 -0.058247153 -0.013977982 0.054529883 0.059397947 -0.018736102
0.0011561061 0.0193173 -0.021300485 0.023280688 -0.029109105 0.04053556 -0.053170536 0.03471245
0.07254095 0.03474363 -0.031672377 -0.044648595 -0.052482713 0.050888058 -0.02638439 -0.00562135
-0.0058774725 0.04622178 0.0733333 -0.005999799 -0.028103042 -0.0622255 -0.024745226 0.07440739
-0.05994582 -0.04061848 0.04111449 -0.06649552 0.04764553 0.049654663 -0.024183117 -0.05178598
-0.017951677 -0.054399643 -0.051808424 -0.020569667 -0.018333653 0.04752534 0.082182795 -0.057896174
-0.047616597 -0.01947297 -0.04967545 -0.028248306 0.0598916 -0.07890767 0.032033384 -0.06675376
0.030757127 0.06883976 0.02399239 0.0010455251 -0.029930469 0.01733068 0.04743673 0.014636212
0.0042319954 -0.058757797 0.069249615 0.047811665 0.05351388 -0.028235808 0.005657397 -0.044328
0.0684153 0.06363748 0.011003901 0.019010607 -0.06534857 0.07471386 -0.06645712 -0.043898452
0.07067177 0.0088113025 -0.038669307 0.017461361 -0.067335114 0.029931724 -0.025875244 -0.07063151
-0.04791496 0.06521947 -0.027920227 0.052616425 -0.028074246 0.03072321 0.038319755 0.00030617422
0.011311272 0.017709745 -0.0647233 -0.0077690003 -0.03357575 0.024636973 -0.028128851 -0.062052663
0.015926689 0.009674955 0.04202589 0.0012113716 -0.059276085 -0.058234785 -0.0017233912 -0.031808645
-0.025065446 0.08011604 -0.022250459 0.014784689 0.04174725 0.012430245 0.048164137 0.020789795
-0.10042221 -0.007058996 -0.06132494 0.019753288 -0.017357692 -0.013367522 -0.07043951 0.05764652
-0.008865547 -0.023370998 0.04274787 0.06826143 0.071292065 -0.011160229 0.04311689 -0.028305104
-0.04825677 0.00590685 0.034675404 -0.038091905 0.054207332 -0.007534354 -0.058350343 -0.0603925
-0.021906784 0.058997802 0.028415384 -0.028913151 -0.07088525 0.023222854 0.054777693 0.014630585
0.003310442 -0.06170949 -0.07407545 -0.009692799 -0.06220507 0.033237703 -0.0077098906 -0.01971285

net.4.bias f4 [9]
00000000: 64db f23c 6df4 8a3d 25ad 0f3c 52ee fbbc
00000010: e23f c93c a8b8 293d 407c 933c cf02 e9bc
00000020: 4580 9ebd
0.02964563 0.06784902 0.008769308 -0.030753288 0.024566595 0.041435868 0.018003583 -0.028443722
-0.07739309
