Entities/pained_rep.pth (torch, 80441 bytes, 6 tensors)

net.0.weight f4 [128, 12]
000000 84 8d d9 be 1a fe 4c 3e 3c 1d d3 bb ec a9 34 bf
       -0.4249078 0.20018807 -0.006442694 -0.7057178
000010 28 7c f3 bd 5b 29 cd 3d 91 2f 57 3d c6 c7 84 bd
       -0.11888915 0.100176536 0.052535597 -0.06483416
000020 7e 40 f0 3d f6 3f ae 3d c6 f8 b6 bc e7 d8 8c be
       0.11731051 0.08508293 -0.022335421 -0.27509233
000030 56 a9 29 bf 34 41 4a 3e 13 33 07 be 96 29 e2 3e
       -0.6627401 0.19751436 -0.13203077 0.44172353
000040 c8 78 3a be bf ec c7 be b0 1b a2 3e 3d d1 aa be
       -0.18210137 -0.3904781 0.3166175 -0.3336276
000050 e6 fd d9 be a9 14 19 3e d3 60 38 3e 70 34 b3 3d
       -0.42576522 0.14949287 0.18005686 0.08750236
000060 dd c2 18 be 2d ee 54 3e 40 ce b6 3e 30 dc c7 3e
       -0.14918084 0.20793982 0.3570423 0.39035177
000070 55 46 04 3a eb 03 cc 3e 6a fd 91 bd bb 22 76 3d
       0.00050458807 0.3984674 -0.07128413 0.060091715
000080 01 5a f4 be a3 bf 05 3f 41 d0 fb 3c a5 bf 16 be
       -0.47724918 0.5224554 0.030738952 -0.14721544
000090 b9 38 8e be f4 46 5b 3c bd 80 20 bd 22 ae 8d be
       -0.2777765 0.013383616 -0.039185274 -0.27671915
0000a0 93 f3 bb 3d fc 15 39 3d 44 94 19 3e ef 18 1f 3f
       0.091773175 0.04518698 0.14997965 0.6214742
0000b0 78 52 8a 3d 2e 2f c8 3e 23 37 8d 3d 7b aa c0 3d
       0.06754011 0.39098495 0.06895282 0.094075166
0000c0 c5 4b c0 bd 43 77 a7 bd df 50 a2 be 1a 73 34 bd
       -0.09389452 -0.08177044 -0.31702325 -0.044055082
0000d0 cd 4d 8b 3e 65 5e 59 bd 96 44 3d 3e 5c 6c dd 3d
       0.27207795 -0.053068537 0.18483195 0.108116835
0000e0 04 3c 43 be 9d 2e c7 3e 90 30 2c bc 5b cf 70 be
       -0.19065863 0.3890275 -0.010509625 -0.235166
0000f0 17 60 98 bf 90 2c d2 3e be 23 26 3e 51 f2 1c bf
       -1.1904324 0.41049623 0.16224572 -0.61307245
000100 8e ce 84 3e 17 5b cf 3c da d6 d8 3d 03 f9 b2 bd
       0.2593884 0.02531199 0.10587855 -0.087389015
000110 6e 7e 17 3f d4 eb af 3e 6a ef 6e 3e 6e a4 19 bc
       0.5917729 0.3435961 0.23333517 -0.009377582
000120 54 b5 bc bd 1a 75 47 be 80 a0 cb 3b 02 8a 38 be
       -0.09214273 -0.19478264 0.0062142015 -0.18021396
000130 f4 4c b9 3d 2a 73 0a be dc 57 bb 3d 50 42 b3 3d
       0.09047881 -0.13520494 0.09147617 0.087528825
000140 f0 7a c1 3c a0 3b 26 bc c4 1d 55 bd 1b 70 65 be
       0.023618191 -0.010146052 -0.05203034 -0.22406046
000150 2f 2d 8f be 1d 05 d1 ba 84 75 a0 3d c4 b1 42 3e
       -0.2796416 -0.0015946958 0.07834914 0.19013125
000160 f7 93 5a be b8 93 01 3d d0 a1 c8 3d d0 c2 13 3d
       -0.21345507 0.031635016 0.09796488 0.03607446
000170 c8 d4 1b 3e 82 07 67 be 19 65 b6 bd 5b 61 2a bc
       0.15217888 -0.22561458 -0.089060016 -0.010399188
000180 1f a9 12 bf 09 9d 1a 3c 3c dd 37 bb 2d bf 81 3e
       -0.5728931 0.009436854 -0.002805545 0.25341168
000190 d4 67 f6 3d f9 74 01 bc 1b 3b 36 3e 9e a7 12 3f
       0.120315224 -0.007901424 0.17795984 0.57287014
0001a0 d1 cf 5f be 6e 43 ae 3e 5b 6a 5c 3e 83 89 4b 3e
       -0.2185662 0.3403582 0.21524946 0.19876675
0001b0 a2 6d f5 3d fa 3d ca bd 1e df 2c be 6f 32 5f 3f
       0.119838014 -0.09875102 -0.16881987 0.8718633
0001c0 79 0c e4 3e 2a 1e 6d 3e c9 68 3a be cd 9a c1 3e
       0.44540766 0.23156038 -0.18204035 0.37813416
0001d0 96 5d 9f 3e c7 f9 1b be d0 1b 2a 3e 83 84 42 3e
       0.31126088 -0.15232001 0.16612172 0.18995862
0001e0 0a af 82 3f 8d 0c 02 3e 7b 6d 5b 3e 40 6c 64 bd
       1.0209668 0.127001 0.21428482 -0.055767298
0001f0 ff a4 0e be 7d 0a 4c be a0 e3 fc be 20 d2 73 be
       -0.13930129 -0.19925876 -0.49392414 -0.23810625
000200 4d 1a 85 3e e8 ff 9b be bd 16 91 3e 9c 38 d7 bd
       0.25996628 -0.30468678 0.2833766 -0.10508844
000210 3f 06 09 c0 14 2d 76 3f 37 20 b7 be 47 31 94 be
       -2.1410062 0.96162534 -0.35766765 -0.28943846
000220 91 8b 87 3f 8e f4 56 3f 2e b5 21 bc 7d 15 8c 3e
       1.0589467 0.8396691 -0.009869857 0.27360144
000230 84 f9 17 be 9b a4 11 3f 7b 61 b7 3c b1 5c 48 bd
       -0.14841276 0.56891793 0.02238535 -0.048916522
000240 53 82 af be 45 b0 c4 3d 30 15 62 be e4 b1 3a 3e
       -0.34279117 0.09603933 -0.22078395 0.18231922
000250 17 b0 ee 3d 3c 28 c7 3e dc 6f 89 bd 91 0c b7 3e
       0.1165468 0.38897884 -0.067107886 0.35751775
000260 40 79 d9 bd 71 52 a0 be 12 49 0f 3e 71 a6 04 be
       -0.1061883 -0.31312898 0.13992718 -0.12954117
000270 7e 1f 4d bf b1 a7 3f bf 12 87 25 bf 07 09 d2 be
       -0.8012618 -0.7486525 -0.64659226 -0.41022512
000280 b6 c6 10 3f de 02 13 be c9 1c 17 3e 41 bb b7 bd
       0.5655321 -0.14356562 0.14757074 -0.08971263
000290 5a 69 c1 be 34 b1 8b bf cd 9c fd bc 0d 34 da bd
       -0.3777569 -1.0913453 -0.030958558 -0.10654459
0002a0 cc bb 65 bc 62 e6 83 bd 63 1c 82 be d4 34 ef 3d
       -0.014021825 -0.064404264 -0.25412282 0.11679998
0002b0 ce b5 10 be 36 15 3f 3e ab 46 36 bc 7a 57 18 3e
       -0.14131853 0.18660435 -0.011125247 0.1487712
0002c0 8e 2e 8d 3e b2 42 de bd 96 aa 15 be b1 7f 07 3c
       0.2757458 -0.10852565 -0.14615855 0.00827019
0002d0 72 2a 1a be 2b 14 80 3c d9 f3 43 3e d1 d3 3f 3e
       -0.15055254 0.015634617 0.19135989 0.18733145
0002e0 02 69 c0 bd 6b 7a 23 bd ae de 63 be c4 14 1d be
       -0.09395029 -0.03991167 -0.22252914 -0.15339953
0002f0 f3 e6 7b be cb 8d 3c be 36 a3 90 ba d2 4e 91 bd
       -0.24599819 -0.18413465 -0.0011034969 -0.07095112
000300 2d 8c f6 3e ca 42 b7 be 05 bb c3 3e 2d 31 30 3f
       0.4815382 -0.35793144 0.38228622 0.68825036
000310 7a ba d2 3d 67 1b 99 bd 68 91 49 be cb b0 fa bc
       0.10289474 -0.0747593 -0.19684374 -0.03060188
000320 f9 ff d5 be c2 c7 b3 3e 76 00 25 3e 00 0d 2f bd
       -0.41796854 0.3511334 0.16113457 -0.042737007
000330 35 47 2c bf 1e 90 e8 bd b4 35 31 bd 3d 39 58 be
       -0.67296153 -0.11355613 -0.043264106 -0.21115585
000340 80 22 3a be 3c 95 1c 3e e3 25 c4 be 79 bc 76 3e
       -0.18177223 0.15291303 -0.38310155 0.24095334
000350 22 8c a4 3e c6 7d 84 bc b6 eb b3 bb 7c fc a7 3d
       0.32138163 -0.016173255 -0.0054907454 0.082024544
000360 26 03 7b be 48 ea 32 be 36 55 13 be f0 d9 d6 bc
       -0.2451292 -0.17472184 -0.14387974 -0.026226968
000370 74 3c 4e 3e c4 f7 75 3e 70 69 0a be 24 c9 29 3e
       0.20140249 0.24020296 -0.13516784 0.16580635
000380 f8 eb 63 3d f9 6b 6e be 86 ab c9 bd 92 06 45 be
       0.05564496 -0.23283376 -0.098471686 -0.19240788
000390 d5 57 cb bd c0 40 a1 be 33 e1 a6 bc 99 8c 0f 3e
       -0.09928862 -0.31494713 -0.020371055 0.14018477
0003a0 38 4d 38 be d6 9d 81 3d e3 7e 11 bd 81 16 fd be
       -0.17998207 0.06328933 -0.0355214 -0.49431232
0003b0 2f d0 2b bf 7d 7d 90 be 75 ce f4 bc 26 ad ce be
       -0.6711454 -0.2822074 -0.029883603 -0.40366477
0003c0 2f a2 c7 3d cc 64 74 3e a5 c0 83 3e 87 9f ac be
       0.09747731 0.23866576 0.25732914 -0.3371546
0003d0 e9 cb 5a 3e ee 0e 90 3f 3a cb 6c 3e 3e 5b 9e be
       0.21366848 1.1254556 0.231244 -0.30928987
0003e0 ca 7a ee 3e 68 21 d6 be 8f 14 bf bc 35 88 71 3e
       0.46578056 -0.41822362 -0.023325233 0.23587115
0003f0 45 1b 24 3f 74 e5 2a bf 28 61 ba be 00 78 50 3e
       0.6410411 -0.6675637 -0.3640225 0.20358276

net.0.bias f4 [128]
000000 e9 ac 94 3d 8b 5a e7 3e b6 5e ae be b3 ae 0c be
       0.072595425 0.45186266 -0.34056634 -0.13738517
000010 9e c4 91 be 6f c9 13 bf 5c 7b 65 3e 2e a7 8a be
       -0.2847032 -0.5772924 0.22410339 -0.27080673
000020 95 f2 09 bf 9a e0 ac be 04 5f 25 bf 75 fe 38 3d
       -0.53885776 -0.33765107 -0.6459811 0.045164544
000030 f8 7a ee 3e 89 9d 2d 40 72 9e 8d be 3d 41 77 3c
       0.46578193 2.7127402 -0.27659947 0.015091238
000040 6d 2f 19 bf 73 48 ed ba 68 f1 3d bd bd 6d 2d 3f
       -0.5983799 -0.0018103257 -0.0463728 0.6774557
000050 71 aa 6d 3f c8 58 8e 3c 00 fe 80 3f 86 b5 82 bf
       0.928382 0.017376319 1.0077515 -1.0211647
000060 e2 8e 2c be 21 88 72 bf c4 4d 02 3d 76 1e 94 bd
       -0.1685138 -0.94738966 0.031812444 -0.072323725
000070 bd a5 ab be bd 83 02 3b b5 a1 ea 3d 6b 4b c1 be
       -0.33524886 0.0019914948 0.114566244 -0.37752852
000080 81 01 a3 be 80 dd f3 be 4c 44 10 bf 54 32 50 bf
       -0.31837085 -0.4762993 -0.5635421 -0.81326795
000090 70 26 9f be 56 3b 97 be a2 a3 b3 be 0a 9e 56 3e
       -0.31084013 -0.29537457 -0.3508578 0.20958725
0000a0 48 0b 90 bf c5 ca 52 be b7 df 5c be a7 b7 03 3f
       -1.1253443 -0.20585163 -0.21569715 0.51452106
0000b0 33 a4 7d bf a0 2f ac be 79 fd 39 bf ab 5e 73 bf
       -0.99078673 -0.33630085 -0.72652394 -0.95066327
0000c0 4c 55 a6 be 1a f0 2b be 67 9a 29 3d 98 29 96 3d
       -0.3248695 -0.1679081 0.041407015 0.07332152
0000d0 00 4e a0 be 0f 82 93 3c 04 71 60 be a4 17 a0 be
       -0.3130951 0.018006353 -0.21918112 -0.31268036
0000e0 54 4d b3 3f a3 bf 17 bf 31 ca 2f 3e e5 81 d6 3d
       1.4007974 -0.5927679 0.17166974 0.10473994
0000f0 8a a7 b4 3d 24 d1 34 bf a8 08 76 bf 02 a2 1c 3f
       0.08821018 -0.70631623 -0.9610696 0.61184704
000100 b4 2a 50 bf 6d b6 37 be 12 d6 2f be 7b c8 1c 3e
       -0.8131516 -0.17940684 -0.17171505 0.15310852
000110 b1 5d 21 3e 2e 20 c5 be 23 ba be 3e b3 cf 61 be
       0.15758397 -0.38501114 0.37251386 -0.22051887
000120 6a 0c cf 3e 94 97 3c be f0 36 b8 3d ab c1 f6 3d
       0.4043916 -0.18417197 0.089948535 0.12048658
000130 c5 c2 39 be 7c df 0c 3e 86 8b 02 be a0 7d 33 3d
       -0.18140705 0.13757128 -0.12748536 0.043820977
000140 09 2e c5 be 27 44 a9 3f 1a 5a 27 40 ad 68 1f 3e
       -0.38511685 1.3223923 2.6148744 0.15567274
000150 69 54 1c 3d a0 e8 be 3c 73 31 25 be 2e 7e f2 be
       0.038166437 0.023304284 -0.16132145 -0.47361892
000160 bc f0 ba be f5 c9 f2 bd 8e b9 29 be bd c1 81 3d
       -0.3651179 -0.118549265 -0.1657469 0.06335781
000170 05 cc 9f be 0c 74 a6 be 6b a8 46 bf e8 53 ba 3b
       -0.31210342 -0.32510412 -0.77600735 0.005686272
000180 70 c9 0a be 35 7b d4 3e 0e 8c 8c bd 17 1c 60 3f
       -0.13553405 0.4150025 -0.06862651 0.8754286
000190 6a 37 2c bf df db b2 be 5b c0 d8 be 0f d9 e1 3d
       -0.67272055 -0.34933373 -0.42334256 0.11027729
0001a0 f3 02 bc 3e ec 9b 69 3e c6 d7 36 bf ef 68 dc bd
       0.36721 0.22813386 -0.71422994 -0.10762202
0001b0 01 32 17 bf f0 d4 df bc bb ef a6 3f ed f7 04 bf
       -0.59060675 -0.027323216 1.304191 -0.51940805
0001c0 c2 75 27 bf 33 cc 02 bf 53 57 31 3f cb 90 9b be
       -0.6541406 -0.51092833 0.6927387 -0.30383906
0001d0 f3 85 79 be 10 01 fb 3c cf 29 61 3e 19 1e 33 bd
       -0.24367504 0.030640155 0.21988605 -0.043729875
0001e0 2e 33 9c be 00 cb 88 bd 69 7c 4b be 73 0d 62 be
       -0.30507797 -0.06679344 -0.19871677 -0.22075443
0001f0 7a 88 4b 3d d6 16 a6 be c9 5c 6b 3e 49 f7 80 3f
       0.0496907 -0.32439297 0.22984613 1.0075465

net.2.weight f4 [128, 128]
000000 04 f5 5a 3d 48 87 66 bc 3c 5f b1 3c dc 0a ab bd
       0.05345632 -0.0140703395 0.021651857 -0.08351681
000010 29 be 83 3d 34 14 17 bd cf 7e 69 bd e8 97 46 3c
       0.064327545 -0.0368845 -0.0570057 0.012121178
000020 90 bd 81 bd b6 5d cb bd 2e ae 87 bc 46 b3 85 3d
       -0.06334984 -0.09929983 -0.016562548 0.06528334
000030 2a 19 65 3d 7b 03 99 bd 95 1f a0 3d e8 9c c9 bc
       0.0559322 -0.07471367 0.07818524 -0.024610952
000040 64 91 5d 3c 2a f9 7f bd 7d a7 8e 3d 8e 8d 32 3d
       0.013523433 -0.06249348 0.069655396 0.04359203
000050 4b bd a6 bd 27 77 3b bc 24 4f 8e 3c 9e f6 24 3d
       -0.081415735 -0.011441982 0.017371722 0.040274255
000060 ec 64 89 bc a0 66 b5 3d 05 07 8f bd 15 a1 a8 3d
       -0.016771756 0.08857465 -0.06983761 0.08233849
000070 b4 12 03 bc c0 99 2a bb 2a e9 ae 3c 32 cc 5f 3d
       -0.008000065 -0.0026031584 0.021351416 0.054638095
000080 45 f8 92 bd 0e 7e 5e bd ec 7c 24 bc b3 04 53 bd
       -0.0717626 -0.054319434 -0.010039549 -0.051518153
000090 88 ff a1 bd 73 dd 63 bc 12 cd 3b bc 91 0f 9e 3d
       -0.07910067 -0.013907778 -0.011462467 0.07717813
0000a0 0b e7 92 3c 5b 40 aa bc 80 2d f4 bc b1 2c 9c 3d
       0.017932435 -0.02078264 -0.029806852 0.07625712
0000b0 f6 2e 11 3c a8 c8 4b bd 78 1b 67 bd c6 0e 06 bd
       0.008861294 -0.049751908 -0.05642268 -0.032728933
0000c0 44 77 f9 3a 6d 72 94 3d 3e 39 6e 3c 28 ff 6d bd
       0.0019032736 0.072483875 0.014540015 -0.058104664
0000d0 6b 70 26 bc 2f 74 88 3c f3 0d 3a bd 52 6d 4e 3d
       -0.0101586385 0.016656963 -0.04542346 0.050397225
0000e0 a4 1d 5d 3d e9 3c 81 3d 76 fa 41 bd 66 50 c7 bd
       0.053983346 0.06310446 -0.047358 -0.09732132
0000f0 60 c3 70 3b d7 1e 5b bd 76 f9 1c 3d a7 cb 89 bc
       0.0036737546 -0.053496208 0.038323842 -0.016820742
000100 2c a5 0e bd dd 50 8e bd 1b e7 8f 3d 80 3e de ba
       -0.03482549 -0.06949017 0.07026502 -0.0016955882
000110 cf 5c a6 bc 39 41 9f bd 65 5e 1b bd 0f 42 a0 bd
       -0.020307926 -0.07776112 -0.03793182 -0.078251
000120 e2 47 d9 3c fe e1 4a 3d 9a 00 d0 3c 20 fe a1 3c
       0.026523534 0.04953193 0.025390912 0.019774497
000130 7c f1 a3 bc c6 7d 8b 3e 36 19 0a bb dd 85 ab 3d
       -0.02001261 0.27244395 -0.0021072156 0.08375142
000140 16 01 ce 3d c3 91 5b 3e 39 56 f9 be 9d 13 a0 3d
       0.10058801 0.21442322 -0.48698595 0.07816241
000150 fe 80 50 bd f6 9e 8a bd f2 c6 93 3d 12 0b 06 3d
       -0.050904267 -0.06768601 0.0721568 0.0327254
000160 68 d8 c1 bd 2d d0 a2 bb cf 71 7a bc d1 80 93 bd
       -0.09465104 -0.004968664 -0.015285923 -0.07202304
000170 25 28 e0 bc 8d b2 82 bd 39 55 18 bc af 82 56 3d
       -0.027362892 -0.06381712 -0.009297662 0.052370723
000180 9f b1 a0 3c 86 72 99 bb 40 ef c9 bc 14 4c 35 3c
       0.019615946 -0.0046828417 -0.024650216 0.011065502
000190 b8 7b fd 3c 4f 2a 86 3d 5b 4f b2 bd 61 2b 9a 3d
       0.030942783 0.065510385 -0.08706542 0.07527805
0001a0 06 27 37 be cc 80 08 bd 7b 79 18 3d 66 83 4a bd
       -0.1788598 -0.033325955 0.037225228 -0.049441718
0001b0 d4 9e f3 3c 00 d5 2b ba ee 3e 5a be 4e 26 c2 3c
       0.029738821 -0.0006554872 -0.21313068 0.023699906
0001c0 e3 84 8e bd 34 d6 a0 bd 2d 1d a7 bd 58 42 92 bd
       -0.0695894 -0.07853356 -0.08159862 -0.0714156
0001d0 2e 84 84 3c ee 64 30 3d 27 81 4a 3d c6 6f ec 3c
       0.01617631 0.043065004 0.049439576 0.028861891
0001e0 35 66 93 3d 6e 52 18 3d 11 f0 cb bd b3 64 ef bc
       0.07197229 0.037187986 -0.099578984 -0.029222822
0001f0 80 8e 56 3b da 96 b2 bd 67 38 e6 bc bf 2a e9 bb
       0.0032738745 -0.08720179 -0.028103067 -0.0071156914
000200 43 ce 81 3d a5 89 e7 bd 9b f5 ba bc 28 93 46 3c
       0.063381694 -0.113055505 -0.022822192 0.012120046
000210 1e 5e 7b bd 2a ce d7 bd 7e 05 24 3d cd a2 a9 3d
       -0.061369054 -0.105373695 0.0400443 0.08283005
000220 2f 8d 8d bd ce 2b e5 bd 63 fa a1 bb a3 86 14 3d
       -0.06911694 -0.11189996 -0.0049431785 0.036261212
000230 0b 35 6f bd 5c 6e a2 bc d8 ae d4 bc cc 50 83 3c
       -0.058400195 -0.019828014 -0.025962278 0.016029738
000240 8a 03 13 be 48 14 15 be 6c 60 a9 bd 33 cf b3 bc
       -0.14356819 -0.14558518 -0.08270344 -0.021949386
000250 c5 18 c4 bc 05 34 58 bd 18 e4 c4 3c f3 20 fa 3c
       -0.023937592 -0.052783985 0.024034545 0.03053329
000260 ca 52 1e 3d 9b 0c 03 be 3d 5d e9 bd b8 e9 81 3d
       0.038653173 -0.12797777 -0.11394737 0.063434064
000270 f0 6f 41 bc ac f7 92 3c 43 82 15 be d0 f7 f2 3c
       -0.011806473 0.017940365 -0.14600472 0.029659182
000280 bc d3 83 bd b7 b7 2b bb ed 8c bf bd 27 ca 36 bc
       -0.064368695 -0.0026202032 -0.09353051 -0.011156595
000290 7a df e1 bd 6a 7f 01 3d 86 dc ec bd 5e 55 10 bd
       -0.11028953 0.031615652 -0.11565499 -0.035237662
0002a0 02 19 53 3d cf e6 f7 bd ee 29 95 bd 56 af 3d 3d
       0.05153752 -0.1210457 -0.07283388 0.04630979
0002b0 d7 72 69 3d be f0 33 bd e2 27 71 3a 7f d5 00 3d
       0.056994285 -0.04393076 0.00091993634 0.031453606
0002c0 ec f1 c3 bd 54 af a4 bd 10 be ad bc fc 0c 39 bd
       -0.09567627 -0.08041254 -0.021208793 -0.0451784
0002d0 38 2b ad 3d 37 2f 23 bd c2 c8 3d 3d 83 4f 66 bd
       0.08455509 -0.03983995 0.046334036 -0.056228172
0002e0 59 c4 01 be 87 e1 69 bd e7 0e 10 be 83 81 65 3d
       -0.12672557 -0.057099845 -0.14068185 0.056031715
0002f0 6e 2c 88 bc a9 ad 90 bd 17 69 e9 3b 74 cc ef bc
       -0.016622748 -0.07064373 0.0071231234 -0.029272296
000300 fc 18 87 bc eb f2 3d bd 9f 47 80 3d b1 10 62 3d
       -0.016491406 -0.046374243 0.06263661 0.0551917
000310 cc f3 0c 3e d6 d1 2a bd c7 a8 02 be bb 36 c8 bd
       0.13764876 -0.04170402 -0.12759696 -0.09776064
000320 04 1b 07 be 04 50 a5 3c c3 25 13 bd 38 b1 27 bc
       -0.131939 0.020179756 -0.035924684 -0.010235123
000330 89 fb 26 bd f0 1e d3 bd eb f0 78 bc c2 96 62 3d
       -0.040767226 -0.10308635 -0.015194158 0.055319555
000340 6c 36 b2 3d ae 89 17 bd c1 0b ee 3d 47 fc 76 bd
       0.087017864 -0.036996536 0.11623336 -0.060299184
000350 5f 34 2c bb 0f d2 5e bd b9 5b fa bc d0 7e 07 bd
       -0.0026276333 -0.054399546 -0.030561315 -0.033079922
000360 58 9a 4a 3d f7 fd 9f bd 94 0c 03 3c cb bc 1d bd
       0.0494636 -0.07812112 0.007998604 -0.038510125
000370 64 63 cb 3c 8c 20 10 be 11 2d 88 3c 9d 21 05 bd
       0.024827667 -0.14074916 0.016623052 -0.03250276
000380 37 65 cb bd 0a 93 1d bd 02 c1 64 3d 6e c2 1d 3b
       -0.099314146 -0.038470306 0.05584813 0.0024072188
000390 d7 6e a0 3c cf ce f9 bd 60 1e 83 bd a7 d4 6a 3d
       0.019584103 -0.12197649 -0.06402278 0.057331707
0003a0 9c 8d c2 3d 71 47 b2 3d ac d4 04 be 80 2d b9 3c
       0.09499666 0.087050326 -0.12971753 0.022604704
0003b0 9a ad f2 bc 78 65 8f 3c 5e 92 6a 3c 89 83 e3 bd
       -0.029623795 0.017504439 0.014317123 -0.11109073
0003c0 52 cc c8 bd f9 cb 9e bc 7a 89 af bd a9 26 0f bd
       -0.09804596 -0.019384371 -0.085711434 -0.03494898
0003d0 dd 7d bf 3b fb 74 91 3d 60 2b 81 bd 15 29 d0 bd
       0.0058438615 0.071023904 -0.06307101 -0.10164086
0003e0 c9 48 e2 3c aa 53 a2 bd 30 ba a8 3c 2a a8 6c bd
       0.027622597 -0.07926114 0.020596594 -0.05777756
0003f0 6d 55 17 3d 80 2e 10 3c 80 b1 79 bd 52 96 54 bd
       0.036946703 0.008800149 -0.060960293 -0.05190117

net.2.bias f4 [128]
000000 20 ee 83 be f1 78 03 be a0 c4 87 3d 29 b4 32 3d
       -0.25767612 -0.12839104 0.066293 0.043628845
000010 9c c8 91 bd 9a 7a 73 bc 3a 59 61 bd 98 73 34 bd
       -0.07118341 -0.014860773 -0.055016734 -0.04405555
000020 d9 02 55 bd fa 7f 33 bb 5a f7 a9 3c 39 4a 6a be
       -0.05200467 -0.0027389512 0.02074783 -0.22879876
000030 48 c5 5f bd 48 83 65 3c 61 7b 04 3d 0d af e4 bd
       -0.0546315 0.014008351 0.032344226 -0.11166201
000040 d2 7d 53 3d d8 4e c2 bd e3 53 53 3c ab 42 a3 bd
       0.051633663 -0.094876945 0.012898418 -0.079717
000050 71 e6 16 3b c7 ac ab bd 7c 23 8d bd 0a 08 a5 bd
       0.0023025537 -0.08382564 -0.06891534 -0.08058174
000060 84 7c 03 be c7 03 6d 3f da 0f 0e 3f b2 32 7f 3d
       -0.12840468 0.9258389 0.5549294 0.062304206
000070 44 41 42 bd 31 30 ec bd 96 56 12 3c 50 f9 e1 bd
       -0.047425523 -0.11532629 0.0089317765 -0.11033881
000080 6f 9b 85 bd a2 bd e7 bc 45 95 1e be a9 b4 8a bd
       -0.06523787 -0.028288666 -0.1548663 -0.067727394
000090 c7 76 02 be 4b 38 93 bd 42 ec a8 3c 13 49 b5 3c
       -0.12740622 -0.071884714 0.020620469 0.022129571
0000a0 36 50 3b bd df 17 55 3d 84 0b 90 bd 1e 13 1f be
       -0.045730792 0.05202472 -0.070334464 -0.15534636
0000b0 35 43 00 bc 1e 29 d8 bd 73 c1 ac bd 26 da c0 bd
       -0.007828523 -0.105547175 -0.08435335 -0.094166085
0000c0 18 a6 a5 bd 5b 1f 96 bd a6 25 35 bc b5 17 d8 bc
       -0.080883205 -0.07330199 -0.011056339 -0.026378492
0000d0 e8 4a 8c 3d 54 2d 94 3d 0d 90 d1 bc 3c 25 cf bd
       0.06850225 0.07235208 -0.025581384 -0.10114524
0000e0 8b 57 28 bd ea 34 c3 bd f7 e4 1c 3e 51 6b b3 3c
       -0.041099112 -0.09531577 0.15321718 0.021901758
0000f0 5d 97 6d 3e 99 26 88 3c e4 06 40 bd 41 24 29 be
       0.23202272 0.016619967 -0.04688157 -0.16517736
000100 27 2f 0a be 33 24 13 bd 94 08 b2 bd c4 77 c4 bd
       -0.1349455 -0.035923194 -0.086930424 -0.09593156
000110 ea 2b b1 bd 3a 2d ab ba 50 da f0 bb df 7e ce bd
       -0.08650954 -0.0013059743 -0.0073502436 -0.100827925
000120 db c2 8b be 80 3c 27 be 38 91 92 3b 07 2a 27 3d
       -0.272971 -0.16331673 0.004472878 0.040811565
000130 e0 76 01 bd d4 5c 4d bc c5 aa b2 bd 52 a5 5e bc
       -0.03160751 -0.012534339 -0.08723978 -0.01358922
000140 80 5f 10 be 82 cb 88 bd cd 1a 89 bd fc f1 7a 3c
       -0.1409893 -0.06679441 -0.06694565 0.015316483
000150 a0 30 7e bd c7 9d b2 bc 4a ad 65 3c 67 ff f4 bd
       -0.06205809 -0.02180375 0.014018366 -0.11962777
000160 42 5e b7 bc 81 1b 85 3c b4 7e ec bd a4 a0 24 3d
       -0.022383813 0.016248466 -0.11547604 0.04019226
000170 30 6f c1 3c 70 0b f6 bc 1e 45 ae bc db 50 e7 3c
       0.023612589 -0.03003475 -0.021273192 0.028236797
000180 5b 43 0b 3b 80 45 72 bd cb e2 07 3e 1b a6 17 3d
       0.0021249864 -0.05914831 0.13270108 0.037023645
000190 e2 d5 ef bd 79 a0 f3 bb 00 3a c2 ba a3 93 73 bd
       -0.11710717 -0.0074349013 -0.0014818311 -0.05946697
0001a0 b3 44 eb 3d 4a 80 d0 bd fc ee ef bd a9 bb 0f 3d
       0.11487713 -0.10180719 -0.117155045 0.035091076
0001b0 98 ca 7a bd 95 3d 8f 3b 8e 51 d3 bd ad 3e 93 bc
       -0.061228365 0.004371355 -0.1031829 -0.017974222
0001c0 24 62 06 bb 16 41 54 3d 9d 08 81 bb 18 05 22 be
       -0.0020505274 0.051819883 -0.0039377944 -0.15822256
0001d0 9b ff bd bc 9d 50 3b bd 71 c5 02 be fe 4c 87 bb
       -0.023193171 -0.045731176 -0.1277063 -0.004129051
0001e0 46 d3 a1 bd 87 35 92 bd a2 d0 12 be 0f f2 df bd
       -0.07901625 -0.07139116 -0.143374 -0.10934841
0001f0 e0 96 2f bd 2c fb 20 bd 76 3f e0 bd 9e fb fd bb
       -0.042868495 -0.039302036 -0.10949604 -0.0077509424

net.4.weight f4 [9, 128]
000000 fe 9e 24 3c b6 c5 42 3a a4 bd a2 3d 60 44 60 bc
       0.010047672 0.0007429974 0.07946327 -0.013688177
000010 6d 63 b1 ba 9c 2f fb 3c 60 0f 04 bd dc 8b d4 3a
       -0.001353366 0.03066235 -0.032241225 0.0016215998
000020 bd 47 30 3a d5 74 66 3b 90 4e 23 bd 5d b6 8c 3c
       0.0006724557 0.0035164852 -0.039869845 0.017176801
000030 07 ca 38 bd c5 bd 3d 3d 8c 44 de 3c 38 3f d2 3c
       -0.045114543 0.046323556 0.027132295 0.02566491
000040 c6 55 93 bd 13 63 1b 3d bf 64 5c 3d fe 33 83 bd
       -0.07194094 0.03793628 0.053807016 -0.06406401
000050 d1 fe b2 3d ad 8f 8b 3d a7 27 74 3d 8b e4 1a bd
       0.087400086 0.06814513 0.059608128 -0.03781561
000060 4f a6 45 bd 1c 91 b2 bd 2e ef 09 3a 8e 2f 13 bd
       -0.048254307 -0.08719084 0.0005261776 -0.035934024
000070 62 18 13 bd 1a 70 37 3a 94 c2 67 bd 54 8f 12 bd
       -0.035911925 0.00069976004 -0.05658205 -0.03578122
000080 1b 1d 77 bd 40 8b 73 bc 37 32 84 3d 22 69 95 bd
       -0.06033049 -0.014864743 0.0645489 -0.07295443
000090 cc 2f ff 3c d4 6e 81 bb a7 1f ac 3d 00 88 44 3d
       0.031150721 -0.0039499793 0.08404475 0.047981262
0000a0 e2 2a 27 bd f4 22 61 3c ec f8 6c bc c3 cf 13 3d
       -0.04081238 0.013741244 -0.0144636445 0.03608681
0000b0 35 49 99 3d 7c f7 31 3d f7 56 63 bd e6 df 34 3d
       0.07484666 0.04344891 -0.055502858 0.04415884
0000c0 d9 10 16 3d d8 e9 8b 3a 1a 7d 94 3a 74 dc 26 bd
       0.03663716 0.0010674549 0.0011328787 -0.040737584
0000d0 2a 13 6f 3d b4 b9 8e 3c 18 ab 8d 3c b1 8a 0c bd
       0.058367886 0.017422535 0.017293498 -0.034311954
0000e0 39 ce 3c bd 0c f1 43 3d 48 f9 d1 3d 41 9f 89 3d
       -0.046095107 0.047837302 0.10252625 0.067198284
0000f0 a2 9e b5 3c c7 76 55 3d 4a 6b 33 3c 83 45 5c 3c
       0.022170369 0.052115228 0.010950873 0.013444307
000100 bf 13 52 bd 02 4b 76 3c f9 63 59 bc 88 0d 09 3d
       -0.051288363 0.015032532 -0.013268464 0.03346017
000110 98 b2 0e bc 88 b3 2b bd c6 7f 10 3d a6 9e 78 3d
       -0.008709572 -0.04191926 0.035278104 0.060698174
000120 4e 5b cc 3c 40 6c 25 3d e9 f0 6f bd 5b 8d 5e bd
       0.024945881 0.04038644 -0.05857936 -0.054334026
000130 2f 07 a1 3d a3 12 a7 3b 22 59 04 bc 44 6c 16 bd
       0.07862698 0.005098657 -0.008077892 -0.036724344
000140 31 19 a3 3c c4 68 92 bd 9c 95 f3 39 20 85 ca bb
       0.019909473 -0.07148889 0.0004646004 -0.0061804205
000150 6d 7e dd 3b 48 e9 67 bd 00 a2 10 bd e9 d6 a8 bc
       0.006759456 -0.05661896 -0.035310745 -0.02061029
000160 b8 ad c5 3c e0 27 3b bc 60 38 a3 3b ed 27 17 bd
       0.024130687 -0.011423081 0.0049810857 -0.03690331
000170 a5 d2 49 bc 34 18 bd bc e8 4c 26 bc b4 b6 65 bc
       -0.012318288 -0.02308283 -0.010150172 -0.014020611
000180 75 da 13 bc b4 77 cf bb e0 75 04 3b de 44 9f bd
       -0.009024252 -0.0063314084 0.002021186 -0.07776807
000190 73 2b 57 bc 25 64 8c bc 6e 10 3d bd 96 b6 98 3d
       -0.013132918 -0.017137596 -0.046158247 0.074567005
0001a0 26 9a 55 3d e0 61 ef 3c 9f 62 07 bd a2 5a 0e bd
       0.05214896 0.029221475 -0.033053037 -0.034754403
0001b0 2e 19 fd 3c b1 d0 08 bc 4e fc b1 bd c0 a0 45 bb
       0.030895796 -0.008350537 -0.086907014 -0.003015563
0001c0 af 2a 5b bd 41 70 b3 bb 74 b0 a0 3c 2c 51 64 bd
       -0.053507503 -0.005476028 0.01961539 -0.055741474
0001d0 51 c0 07 3d fc 23 8e bc 24 63 4e bc 9d 0e 97 bd
       0.03314239 -0.017351143 -0.012596879 -0.07375834
0001e0 62 bc 02 3d 24 0a 40 3d e0 7c 1f 3d 6d d6 2c 3d
       0.031917937 0.04688467 0.03893745 0.04219668
0001f0 5c 07 8c 3c b6 1e ec bc 79 fc 89 3d f9 9c 9d bc
       0.017093353 -0.028823238 0.067376085 -0.01923989
000200 60 f6 f5 bb 25 2f 87 bc 46 57 84 3d 4c 1d eb 3c
       -0.007506177 -0.016501972 0.064619586 0.028700493
000210 92 0e 8a 3d 6f 92 98 3d a1 56 40 bd ec e2 93 bc
       0.0674106 0.07449805 -0.046957616 -0.01805254
000220 3e ea 06 bd 6e df e4 bc c9 00 9a 3d f3 b3 b8 3c
       -0.032938235 -0.02793857 0.07519681 0.022546744
000230 ba 8c 30 3d 61 6c 82 bd 32 98 2b bd e0 57 aa 3b
       0.043102957 -0.06368328 -0.04189319 0.005198464
000240 9a 14 54 3a de e9 07 3d 7e 17 7d 3d 74 6e 0d 3d
       0.0008090228 0.033182018 0.061789982 0.034529164
000250 22 de 86 bd 88 32 ab bd 8c fc 01 3d 4e ac 49 3d
       -0.06585337 -0.083592474 0.031734988 0.04923659
000260 0f 3a ce 3c 0f 7e b7 bd be b6 f3 3a 70 19 22 3c
       0.025174169 -0.08959591 0.001859389 0.00989376
000270 1b c5 87 bc 7d cd 63 3d d8 88 3c bc 6e 31 08 3c
       -0.01657348 0.05561589 -0.0115072355 0.008312566
000280 e7 41 1b be e5 19 57 bd 23 89 2e bc 99 3b 95 3d
       -0.15161858 -0.05251493 -0.010652813 0.07286758
000290 ed 5b 26 bd 04 53 af bb 38 4e 6f 3c b1 a6 48 3d
       -0.04061501 -0.0053504724 0.014606051 0.048987094
0002a0 63 d1 86 bd 60 a1 42 bb eb e5 6b bd ce 7d 0e be
       -0.06582906 -0.0029698238 -0.057592314 -0.13915178
0002b0 0d e3 a1 3b 84 88 c6 38 30 8d 9a bd d7 9a 40 bd
       0.0049403966 9.466804e-05 -0.07546461 -0.047022667
0002c0 5f 43 2d bb 51 6b 8f 3d 74 5e 3d 3c 08 00 e1 3c
       -0.0026437861 0.07002891 0.011558164 0.027465835
0002d0 fc c6 2a bc 58 aa 0a bd d7 dd 0b bd 6b bd e3 bc
       -0.010423418 -0.03385386 -0.03414711 -0.027800282
0002e0 f4 37 52 bd 50 c0 b2 3d e1 57 e4 bd 88 08 59 bd
       -0.051322892 0.08728087 -0.11149574 -0.05298665
0002f0 9c 7e 42 bd 95 2d 62 bc 37 59 d8 bc 63 bd 03 3d
       -0.047484025 -0.013804813 -0.026409728 0.032163035
000300 f4 b9 77 bd e4 75 ce 3c e2 0e 01 bd 12 35 d0 3c
       -0.060480073 0.025202699 -0.031508334 0.02541593
000310 50 69 2d bc e6 e9 03 bd 26 3d 39 3d 29 2a 0d bd
       -0.0105841905 -0.032205485 0.04522433 -0.034464035
000320 42 76 17 bd c6 f6 55 bd 56 11 38 3d 28 0a c8 bc
       -0.036978014 -0.052237295 0.044938408 -0.024418905
000330 9d 7d a4 3d 1b e7 5f 3d 82 03 e5 3c 43 0c 8d 3c
       0.08031771 0.05466376 0.027955774 0.01721776
000340 66 2a 05 3c ac 27 34 3d 3a 8a 70 bc 20 f6 cd bc
       0.008127784 0.043983147 -0.014681393 -0.025141776
000350 48 d5 73 bd a9 1f 18 bd e8 be 02 3d ef 0c 08 3d
       -0.059529573 -0.03713957 0.031920344 0.03321546
000360 b2 54 dd 3b e4 a2 22 3c 10 6c d6 3b 58 2b 12 3d
       0.0067544812 0.009926531 0.006543644 0.035685867
000370 54 68 81 bc 56 12 a4 bd 54 4d f6 3c 6d 84 29 bd
       -0.015796818 -0.0801131 0.03006617 -0.041386057
000380 3c fb 1c bd b8 68 87 bc 59 41 80 bc d9 e6 fa 3c
       -0.038325533 -0.016529426 -0.01565616 0.030627655
000390 2f cf 97 3c 02 10 e1 bc 43 be af 3d 9d 37 fd bc
       0.01853141 -0.027473453 0.085812114 -0.030910308
0003a0 2e 41 26 bd 2b 24 a3 3c b9 75 95 bb 72 8c 3b bc
       -0.040589504 0.019914707 -0.004561153 -0.011447059
0003b0 15 c6 61 bd d3 97 57 bc 00 b7 83 3b e4 bb 97 bc
       -0.055120546 -0.013158756 0.004019618 -0.01852221
0003c0 c1 3f 7b 3d d1 bb 0f bd 4b 23 54 3c e0 4a 82 3c
       0.061340097 -0.035091225 0.012947868 0.015904844
0003d0 6e 1d 85 bb e6 8b 53 3d bc 42 1c bb 31 db 99 3d
       -0.004062346 0.05164709 -0.0023843488 0.075125106
0003e0 5f 52 b4 3d 47 b4 3a 3d b5 5f 18 3c a4 63 7b 3d
       0.088047735 0.045582082 0.009300162 0.06137432
0003f0 cc b1 0c 3d 0c 23 48 bd 0a de 13 bc 1a 1a a1 ba
       0.034349248 -0.04886155 -0.009025106 -0.0012291104

net.4.bias f4 [9]
000000 ca d2 3d 3e da a5 3f 3e c9 2d 3d 3e 3d 2f 41 3e
       0.18537441 0.18715611 0.18474497 0.18865676
000010 f3 80 4e 3e 2d b5 58 3e ae 68 00 3e 77 e6 fe 3d
       0.20166378 0.21162863 0.12539932 0.124463014
000020 b8 24 16 3e
       0.14662445
