Entities/pained_rep.pth (torch, 80441 bytes, 6 tensors)

net.0.weight f4 [128, 12]
000000 42 19 58 be e2 d9 a3 bd c0 bb f2 3b 75 1b 8b be
       -0.21103385 -0.08000542 0.0074076355 -0.27169386
000010 20 8f a2 bc 90 08 a4 3d c8 a2 17 3d 3e ac 20 3e
       -0.019843638 0.08009446 0.037020475 0.15690705
000020 2a 3a 35 be a0 a2 4c bc 70 65 40 3d d9 b3 2a be
       -0.17697969 -0.012489945 0.04697174 -0.16670169
000030 40 25 18 bc 0e 08 2b 3e 24 2c 47 bd 0e 63 25 3e
       -0.009286225 0.16702291 -0.04862608 0.16151068
000040 50 1f 2b 3d 1c e7 bc 3d 34 2d 04 3e 7c 88 9a 3d
       0.04177791 0.09223768 0.12907869 0.075455636
000050 e8 6c 03 bd 76 2d f0 bd 10 27 d8 3c c0 e8 65 3e
       -0.032086283 -0.11727421 0.026385814 0.22452068
000060 32 78 47 be e0 25 02 bd 8c ca c2 3d 24 3d 90 bd
       -0.19479445 -0.0317744 0.09511289 -0.07042912
000070 8e c1 61 be a8 68 77 3e 54 bc a0 bd 04 d8 df bd
       -0.22046492 0.24161017 -0.07848421 -0.109298736
000080 ac 32 24 3e 04 f5 87 bd 80 1a 09 bd 7a 50 16 be
       0.16034955 -0.0663853 -0.033472538 -0.14679137
000090 60 14 57 3e 90 85 da bc 02 6c 0e 3e 2c 18 35 bd
       0.21003866 -0.026675016 0.13908389 -0.044212505
0000a0 c4 29 5b 3e 24 f9 90 3e d0 47 05 bd 54 d0 c2 bd
       0.21402651 0.2831508 -0.03253919 -0.09512392
0000b0 ae cf 3b 3e f8 0e 0a 3e 33 83 15 be 7e f7 19 3e
       0.18340942 0.13482273 -0.1460083 0.15035817
0000c0 bc 1b 8f 3e 80 3c 4c 3e 87 2d 87 be e8 4a 09 3d
       0.27950847 0.19944954 -0.26401922 0.0335187
0000d0 ce 8a 87 3e 31 b8 3b be 40 2d 5f 3e 40 24 0c bc
       0.26473087 -0.18331982 0.21794605 -0.008553565
0000e0 b8 ce e9 3d 7c 6b ca 3d 64 3e 9a 3d 44 f1 8f be
       0.114163816 0.09883782 0.07531431 -0.2811376
0000f0 24 09 00 3e a8 0f 38 3d d6 b5 86 3e 48 94 bd bd
       0.12503487 0.044936806 0.26310605 -0.09256798
000100 90 7c b2 bc 26 cc 85 bd d0 6b 87 bc 80 11 1c bc
       -0.021787912 -0.06533079 -0.016530901 -0.009525657
000110 12 ec e8 bd d0 9b e9 bc 78 f4 a4 3d f6 ea 21 3e
       -0.11373152 -0.02851668 0.08054441 0.15812287
000120 0a 3d b4 bd 20 5f 56 be c0 e8 2a bd 6e 83 15 3e
       -0.08800705 -0.20934725 -0.041725874 0.14600918
000130 38 af 51 3d 08 7a 5f 3d 4f 2e 50 be 30 61 b6 bc
       0.051192492 0.054559737 -0.20330165 -0.02226314
000140 58 53 75 3e 88 dd 35 be 9c 96 4a be dc 86 87 be
       0.23957574 -0.17760289 -0.19784015 -0.26470077
000150 a8 33 63 be 3c 83 3a 3e 5e 90 93 3e 60 dd e1 bd
       -0.22187674 0.18214124 0.2882108 -0.11028552
000160 80 1d b5 bc bd cb 6d be 30 27 8e bc 44 34 a9 bd
       -0.022108793 -0.23222251 -0.01735267 -0.08261922
000170 3e 41 23 3e 1e 5d 4a 3e d8 8f 4a 3e 63 b8 38 be
       0.15942857 0.19762084 0.19781435 -0.18039088
000180 c2 8f 25 3e 18 c0 77 3e 54 ba 56 be 38 11 57 3d
       0.1616812 0.24194372 -0.20969516 0.052506655
000190 18 c0 21 be 5b d9 8d be 52 f3 20 3e 46 15 42 be
       -0.15795934 -0.27704892 0.1571782 -0.18953428
0001a0 80 c6 a6 bc 04 cb 8a 3e 3a b8 fc bd 0c 74 1c 3e
       -0.020358324 0.27108014 -0.12339826 0.15278643
0001b0 b8 d4 42 be f0 0c 31 3e ca 64 5e be 60 e5 6a 3c
       -0.19026458 0.17290092 -0.21718135 0.014336914
0001c0 d0 8e 29 3d 4c 0e 3f 3e af 15 09 be 3e 16 fd bd
       0.041395962 0.18657798 -0.13387178 -0.12357758
0001d0 4e e9 82 3e 00 20 a7 3b 70 6d 87 be e0 38 d4 3c
       0.25568622 0.0051002502 -0.26450682 0.025906026
0001e0 92 bb 03 be cb 60 8e be 42 06 83 3e e5 d2 08 be
       -0.12864521 -0.27808222 0.25590712 -0.133617
0001f0 52 5b 19 3e 20 8f 5e be 1a c4 4c be 98 d9 b3 bd
       0.14976242 -0.21734285 -0.19996682 -0.08781737
000200 b4 87 81 3e 9c 25 34 be e0 37 e9 bc 48 10 52 3e
       0.25298846 -0.17592472 -0.028469026 0.20514023
000210 d6 36 cd bd 8e 76 61 be 40 38 58 3d 3a 0b 04 be
       -0.10020225 -0.22017881 0.05278802 -0.12894908
000220 32 fc 87 3e 70 83 13 3d 01 28 85 be 5a 84 30 3e
       0.26559597 0.03601402 -0.26007083 0.17237988
000230 24 9d e4 3d 90 5d 9b 3c 53 2d 1a be b0 2c 73 3d
       0.11162785 0.018965513 -0.15056352 0.05936879
000240 ec e5 8d be 60 38 f0 bc de 06 5a be 4c 7d f9 bd
       -0.2771448 -0.029323757 -0.21291682 -0.121821016
000250 b8 8b 7e 3e a8 1a 28 3d f8 04 84 3d c4 a0 70 be
       0.24857986 0.041041046 0.0644626 -0.23498827
000260 b2 7b 6d be 16 02 83 3e e1 58 27 be 10 6f 43 3e
       -0.23191717 0.2558753 -0.16342498 0.19085336
000270 95 98 90 be 58 c6 d9 3d ce 51 21 3e 06 b8 d9 bd
       -0.2824141 0.10633534 0.15753862 -0.10630803
000280 dc 23 73 3e e6 bf 55 3e 3a ab ec bd 26 40 90 3e
       0.23744148 0.20873985 -0.115560964 0.2817394
000290 0a 18 58 be 10 0b cf bc 65 97 84 be a5 98 7c be
       -0.2110292 -0.02527383 -0.25896755 -0.24667604
0002a0 50 cd 76 3e aa 65 78 be bc 35 14 be 0e bc 21 3e
       0.24101758 -0.24257532 -0.14473623 0.15794393
0002b0 dc 7f df bd 90 ac 59 3d 40 f6 94 3d 4a da cb bd
       -0.10913059 0.053143084 0.07273531 -0.09953745
0002c0 e8 89 49 3e fc b1 c9 bd 60 e1 1e 3e de 53 56 be
       0.19681513 -0.09848401 0.15515661 -0.2093043
0002d0 80 e1 75 3c 88 64 43 3e b0 a3 db bc cc e8 b5 3d
       0.015007377 0.19081318 -0.02681145 0.08882293
0002e0 64 cb 8c be e8 f2 78 3e b8 de 42 3e a6 a8 83 3e
       -0.27498925 0.24311411 0.19030273 0.25714606
0002f0 9a c9 93 3e f4 a2 f8 bd ba 59 05 3e a3 ee 4d be
       0.28864747 -0.12140456 0.13022509 -0.20110564
000300 39 7c 25 be ae 96 da bd f4 30 89 3e b0 f6 ad bd
       -0.16160668 -0.10673271 0.2679516 -0.084943175
000310 db 4f 8e be f4 2b e6 bd a0 f1 b1 3d 68 1f f8 3d
       -0.277953 -0.11238852 0.086886644 0.12115365
000320 ee 08 84 3e e0 a1 cc bc e8 86 bd 3d 2c 51 a8 3d
       0.25788063 -0.024979532 0.09254247 0.08218607
000330 60 ee 48 3d e6 dd aa bd f4 6d 86 3e 90 04 b1 bd
       0.049055457 -0.08343105 0.26255763 -0.08643448
000340 ec c6 51 3e 60 44 19 bd 07 d6 0b be 5c ce 6c 3e
       0.20486039 -0.037418723 -0.13655864 0.23125595
000350 d0 62 ef 3c ec e1 47 3e 80 81 17 bc 34 b5 54 3e
       0.029221922 0.19519776 -0.009247184 0.20772249
000360 34 b4 a9 3d f8 ef 46 3e 00 0a fa 3d 99 6c 88 be
       0.08286324 0.19427478 0.122089386 -0.26645353
000370 c8 a3 4c bd 45 f8 7e be 90 46 84 3d e4 34 8e 3d
       -0.04996088 -0.24899395 0.06458771 0.06943682
000380 24 e3 91 be 48 a2 7b 3e 11 81 25 be 1c 73 10 3e
       -0.28493607 0.24573624 -0.16162516 0.1410641
000390 7b 1d 8d be 64 69 92 be 8a 24 53 be 58 d8 20 3d
       -0.27561554 -0.28596032 -0.20619407 0.03926882
0003a0 10 81 3b 3e 82 dc ca bd 56 bc 84 be 80 a4 6e bd
       0.18310952 -0.0990534 -0.2592494 -0.05826235
0003b0 88 e7 2b be 22 f6 21 3e e8 1c c4 3d 1c df e6 3d
       -0.16787541 0.15816548 0.09575826 0.112730235
0003c0 f8 b9 d6 bd 6e 2e 89 be 80 94 15 bd 16 39 61 be
       -0.104846895 -0.26793236 -0.036518574 -0.21994433
0003d0 00 71 ec ba 32 5d 90 be 90 2b ba bd 62 22 da bd
       -0.0018039048 -0.28196102 -0.0909034 -0.10651089
0003e0 80 ea c2 3c be f5 43 3e 5a d5 45 3e 60 2d 06 bd
       0.023793459 0.19136712 0.19319668 -0.032758117
0003f0 00 25 8e bd b8 72 89 3d 60 f0 36 bd b8 55 66 3d
       -0.06940651 0.06711334 -0.044662833 0.05623409

net.0.bias f4 [128]
000000 2a ca 09 3e ec 05 1e be 44 23 3d be a4 cc 6e 3e
       0.13456026 -0.15431947 -0.18470484 0.23320252
000010 7e 83 42 3e 24 e1 c1 3d 80 88 bf 3c 5c 9c a2 3d
       0.18995473 0.0946677 0.023380518 0.079399794
000020 d4 5f 02 3e 52 54 23 3e 72 77 8c 3e b4 c2 47 3e
       0.12731868 0.15950134 0.2743488 0.19507867
000030 fa 46 1f 3e b2 1a 3f be b0 77 99 bc b2 15 40 3e
       0.15554419 -0.18662527 -0.01873383 0.18758276
000040 94 a5 e8 3d 3c 65 43 bd b8 2e 79 3d 7c 16 62 3e
       0.113597065 -0.047703966 0.06083557 0.2207889
000050 80 31 50 3e 5f 0b 52 be 32 4f 91 be e0 a5 4c be
       0.20331383 -0.2051215 -0.28380734 -0.19985151
000060 fa 34 84 be 60 2d 0f bd 70 0e 43 3d 4c 81 62 be
       -0.25821668 -0.034955382 0.04762119 -0.22119635
000070 20 b7 3d be 56 8b 8d 3e a4 90 aa bd 20 ad 78 3e
       -0.18526888 0.27645367 -0.08328369 0.24284792
000080 ae 45 2f be fc 91 04 be ec ee 71 3e e2 dd 47 be
       -0.17116424 -0.12946314 0.23626298 -0.19518235
000090 40 d8 80 3d f2 f5 4a 3e d8 23 28 3d 70 2d dd bc
       0.062912464 0.19820383 0.04104981 -0.026999205
0000a0 8c 55 72 3e e0 5b 37 3c f2 4e 0b 3e d0 a4 a6 3d
       0.23665446 0.011191338 0.13604334 0.08136904
0000b0 22 5b 49 3e 85 f1 8d be c6 37 93 be 8d bd 85 be
       0.1966367 -0.27723327 -0.2875349 -0.26121178
0000c0 fe fc a0 bd 6a ea 83 3e 00 4b 19 3b 69 b2 70 be
       -0.078607544 0.2576478 0.002339065 -0.23505558
0000d0 80 30 80 bd a2 0a 17 3e 60 57 fc 3c 48 cf 3b 3e
       -0.06259251 0.1475015 0.030803382 0.1834079
0000e0 b6 25 8f be ee 2c b3 bd a0 bc b5 bc 74 40 ed 3d
       -0.2795846 -0.08748804 -0.02218467 0.11584559
0000f0 88 7c 66 3e 88 99 64 3d 06 e0 34 3e 28 fc 09 be
       0.22508442 0.05581048 0.17663583 -0.13475096
000100 70 6e da bc 50 a9 43 3e a4 2e 86 3d fd e4 09 be
       -0.026663989 0.19107556 0.06551865 -0.13466258
000110 e6 a6 2b 3e b2 40 aa bd f4 c9 69 3e 88 17 79 3e
       0.16762885 -0.08313121 0.22830945 0.24325383
000120 4e 0b 34 be a0 3a 9e bc 30 22 73 3d 80 23 31 bc
       -0.17582437 -0.019315064 0.059358776 -0.0108116865
000130 30 ea 32 3e 86 ef 1e be ec 87 63 3e 98 8a 81 3e
       0.17472148 -0.15521058 0.22219819 0.2530105
000140 8c e2 80 be 48 61 7c 3e 04 fd 66 be df c2 46 be
       -0.25172842 0.24646485 -0.22557455 -0.19410275
000150 a0 2a 42 3e 44 a3 d3 3d 90 94 d3 3d 00 4a 7a bb
       0.18961573 0.10333875 0.103310704 -0.003819108
000160 58 a1 49 bd 7e 6b f7 bd 00 d6 d9 3b 80 ba 56 3b
       -0.049226135 -0.120810494 0.0066478252 0.0032764971
000170 8a 33 89 be 59 8f 4f be 5e 84 7b be 00 53 c7 bb
       -0.26797134 -0.20269527 -0.24562213 -0.0060828924
000180 d8 d8 53 3e 48 72 83 3d 58 36 11 bd 18 78 4c 3e
       0.20688188 0.06418282 -0.035452217 0.19967687
000190 42 55 4e 3e fa 52 28 3e d0 f3 b1 3c 42 bc 9c bd
       0.20149711 0.16437903 0.021722704 -0.07653095
0001a0 18 d3 2f be 80 14 82 3b 46 24 a0 bd 84 1e 86 be
       -0.1717037 0.003969729 -0.078194186 -0.26195157
0001b0 14 50 9e bd 76 cd 91 3e b4 0f 52 bd 60 eb 43 be
       -0.077301174 0.28477067 -0.051284507 -0.19132757
0001c0 c6 28 8c 3e 50 54 c4 3c a8 83 ba 3d d8 09 28 3e
       0.27374858 0.023965985 0.09107143 0.16410005
0001d0 ae 5c 20 be 14 fa 5a 3e 70 f2 96 3c 7c 0e a7 bd
       -0.15660354 0.2138446 0.01842615 -0.081570596
0001e0 80 af 19 bc 2e 54 50 3e 00 ca d8 ba 02 82 ae bd
       -0.009380221 0.20344612 -0.0016539693 -0.08520891
0001f0 86 18 34 3e 1d 1a 54 be 30 b4 e6 3d 8c ef fa bd
       0.1758748 -0.20713086 0.11264837 -0.12252721

net.2.weight f4 [128, 128]
000000 fe 8d 05 bd e8 93 31 bd 80 30 55 bd 25 10 a6 bd
       -0.032606117 -0.043353945 -0.052048206 -0.08108548
000010 45 a7 aa 3d b8 47 99 3c 90 99 aa bb c0 80 dc bb
       0.083326854 0.018710956 -0.0052062944 -0.0067292154
000020 48 d0 6f bc f0 08 95 3b 16 80 1f 3d ea eb 30 bd
       -0.01463706 0.0045481846 0.03894051 -0.043193735
000030 00 0c cc 3b 40 41 4e bb 10 49 7d 3c ca 27 38 3d
       0.0062270164 -0.0031471997 0.015459314 0.04495982
000040 25 21 8d bd 40 6b c1 3a 9c d6 da 3c 3f 5b 53 bd
       -0.068910874 0.0014756694 0.026713662 -0.05160069
000050 c0 57 b3 bb 60 01 68 3c 52 75 5d 3d 1b c5 a9 3d
       -0.005473107 0.014160484 0.054066963 0.08289548
000060 4e be 2e bd 26 28 12 3d f2 79 9c bd 43 58 4f bd
       -0.042661957 0.03568282 -0.07640447 -0.050621282
000070 00 b4 27 39 52 39 78 3d 69 d1 80 bd aa 0d b0 bd
       0.00015993416 0.06060154 -0.06289942 -0.08596356
000080 d2 ec 25 bd 84 66 9e bc 0f ea 97 3d 05 39 a2 3d
       -0.040509053 -0.019335993 0.0741769 0.07921032
000090 c6 ba 7a 3d 96 e2 a6 bd 60 28 ab bd b2 8b 2e 3d
       0.061213277 -0.081486866 -0.0835731 0.042613693
0000a0 b4 cb cc bc 18 a0 1e 3c dc bd b1 bc 23 ed a2 3d
       -0.024999477 0.009681724 -0.021696977 0.079553865
0000b0 60 0b 04 3d 1e ba 35 3d d7 16 a9 bd 10 9c 34 bc
       0.03223741 0.04436695 -0.082563095 -0.011023536
0000c0 32 7a 9a bd f0 38 a2 3c d0 7f be bb a2 e3 38 3d
       -0.07542838 0.01980254 -0.0058135763 0.045138963
0000d0 08 d6 01 3c 5e 4d 9a bd f0 ac a8 bd 58 ad 7e bd
       0.007924564 -0.07534288 -0.0823611 -0.062177032
0000e0 32 b1 7b 3d 9c 06 b1 bd ea d9 18 3d 90 f2 83 bb
       0.061448283 -0.08643839 0.037317194 -0.0040267184
0000f0 60 31 82 bd 5c 6c 05 3d a0 c5 a2 bd 4c 7f 27 bd
       -0.06357074 0.032574043 -0.0794785 -0.040892884
000100 1c 03 e8 3c 36 b1 85 bd e9 09 39 bd ea b3 54 3d
       0.028321795 -0.06527941 -0.045175467 0.051929392
000110 ac ad 4a bd 70 70 db 3b f0 9f 18 3c 66 37 f4 bc
       -0.049482033 0.006696753 0.009315476 -0.029811572
000120 a2 31 91 bd 02 46 36 bd b4 87 5c bd 70 53 65 bc
       -0.07089545 -0.04450036 -0.053840354 -0.013996944
000130 e8 13 7a 3c 12 e7 0a 3d 93 90 98 bd 7a 0f 8c bd
       0.015263535 0.033911772 -0.0744945 -0.068388894
000140 c2 5d 0b 3d 56 08 7d bd 68 2e c2 3c 8c 9a be 3c
       0.03402496 -0.061775528 0.023703769 0.023267053
000150 69 b5 4b bd 10 f6 34 bc c7 d3 8f 3d 40 23 1f 3c
       -0.049733553 -0.011044994 0.07022815 0.009712994
000160 52 53 19 bd 57 15 81 3d 06 2d 23 3d 6b e8 b2 3d
       -0.037432976 0.063028984 0.03983786 0.087357365
000170 24 38 f5 3c f4 01 87 bd ee d1 99 bd f1 bb 97 3d
       0.029933996 -0.065921694 -0.07510744 0.07408894
000180 70 28 d3 3c e4 f8 92 bd 18 9e a2 bc c0 a2 a2 ba
       0.025776118 -0.07176378 -0.019850776 -0.0012408122
000190 8c 73 54 bd e2 f4 74 bd 6c b8 bc bc 68 4a 9f 3c
       -0.051868007 -0.05980385 -0.023037158 0.01944466
0001a0 dd 4e 99 bd f1 29 9a 3d 84 a2 87 3c 23 56 26 bd
       -0.07485745 0.07527531 0.016556986 -0.04060949
0001b0 ac 2c ba bc b0 3f 2c bd 0e 8a 7a 3d 44 e8 5a bd
       -0.02272638 -0.042052925 0.061166815 -0.053444162
0001c0 3d c8 8b bd 04 9b a6 3c 02 83 0c bd e0 72 ad bc
       -0.06825302 0.02033759 -0.034304626 -0.02117294
0001d0 f0 2b 87 bb 38 77 92 3c f6 a3 8b bd 89 b7 8a 3d
       -0.004125111 0.017879114 -0.068183824 0.06773288
0001e0 00 56 bf bc 9a 22 5d 3d 6d 88 22 bd 34 ca 9e bd
       -0.023356438 0.053988077 -0.039680887 -0.07753411
0001f0 75 22 25 bd d5 b2 ab 3d 20 d7 3e bc 7c 40 12 3d
       -0.040316064 0.08383719 -0.0116479695 0.03570603
000200 0d 89 30 bd 80 3b f1 3b 70 59 9e bc f0 8d 1c 3c
       -0.04309945 0.0073618293 -0.019329756 0.009555325
000210 1b d2 29 bd 1c 40 5a bd 26 02 a6 bd 58 c2 c9 3c
       -0.041460138 -0.053283796 -0.081058785 0.024628803
000220 f7 1d 52 bd f1 25 89 3d 80 db 63 3a 42 a4 5a 3d
       -0.051298108 0.0669669 0.0008692071 0.053379305
000230 80 19 6c bc a0 38 8b 3b 73 81 9a bd 80 d7 67 ba
       -0.014410377 0.0042486936 -0.07544222 -0.00088440627
000240 7a a4 66 3d 00 c4 49 3a 6e 52 59 bd 17 85 a7 3d
       0.0563092 0.0007696748 -0.053057127 0.08179682
000250 fe 53 7c 3d 88 3e 42 bd 14 cc 8f bd 6e c3 2a bd
       0.06160354 -0.047422916 -0.07021347 -0.041690283
000260 d0 e5 84 3b d4 88 0e 3d 4d 28 ad bd 46 5a 7b 3d
       0.004055716 0.03479846 -0.084549524 0.06136539
000270 00 10 c2 3c 13 ad aa 3d bf 9e 02 bd 8e a0 db bc
       0.02368927 0.083337925 -0.031889673 -0.026809957
000280 0f 1b 50 bd fe a4 9c bd 00 a7 15 3c f2 8a 16 3d
       -0.050807055 -0.07648657 0.009134054 0.036753602
000290 a8 f8 8f 3c d8 47 b8 3c 2e aa ea bc d2 e0 6b bd
       0.017574623 0.022495195 -0.028645601 -0.057587452
0002a0 08 2c 50 bd 32 e5 1d bd 00 03 be 3b 00 8a 1c bc
       -0.05082324 -0.038548656 0.0057986975 -0.009554386
0002b0 f3 e8 a7 bd dd 7e 38 bd fc d8 15 3d 40 e5 91 3c
       -0.081987284 -0.04504286 0.036583886 0.01780951
0002c0 1b b7 ae 3d 43 c5 37 bd c0 e4 9c 3c 83 6e 0c bd
       0.08531018 -0.044865858 0.019152045 -0.03428508
0002d0 25 77 12 bd 4f 49 1b bd 28 29 3f bd e8 a8 2d 3c
       -0.035758156 -0.03791171 -0.04667011 0.010599352
0002e0 52 0f 34 3d b2 f1 aa bd b0 0f fc bc 2a 06 71 3d
       0.043959923 -0.08346881 -0.0307692 0.05884377
0002f0 45 46 97 bd 24 8a a3 3c ba 73 16 3d 0f 74 a7 3d
       -0.0738645 0.019963332 0.03673146 0.08176433
000300 14 2b 02 3d 40 f0 e1 ba d8 89 0d 3c 36 a5 28 bd
       0.031779364 -0.0017237738 0.008638822 -0.041173182
000310 4c a6 8a bd 27 fd ae bd 34 4d f5 bc 0b f2 89 3d
       -0.0677 -0.08544379 -0.02994404 0.06735619
000320 10 99 21 bc da 28 78 3d b3 4d 8b bd 38 93 11 3d
       -0.009863153 0.060585834 -0.06801929 0.03554079
000330 d2 66 95 bd e8 ff 69 bc c1 dd ac bd 73 a6 a8 3d
       -0.07295002 -0.014282204 -0.08440734 0.08234873
000340 f6 fa 99 bd 31 6a a1 bd 58 e4 0a bc 43 5c 40 bd
       -0.0751857 -0.078815825 -0.008477293 -0.046962988
000350 c8 41 b4 bd a5 f0 a3 bd 02 a9 65 3d aa c6 1c 3d
       -0.08801609 -0.08004884 0.05606938 0.0382754
000360 dc 89 a1 bc 9c 20 a0 bd 0f 4f ad 3d bb 75 68 bd
       -0.019719057 -0.0781872 0.08462345 -0.0567529
000370 4c e3 06 3d 80 c1 6a bc b3 28 7d bd d2 c7 3d 3d
       0.03293161 -0.014328361 -0.061806392 0.04633314
000380 0d 00 89 3d d5 6c b2 bd c0 2e 88 3b 9c 91 d9 bc
       0.06689463 -0.08712164 0.0041559637 -0.02655869
000390 38 13 ad bc 1d 5c 8b 3d 88 11 a9 bd f7 a3 8c bd
       -0.021127328 0.068046786 -0.08255297 -0.06867211
0003a0 a4 40 8f bc 4c 69 83 3c 9a 36 3a 3d 98 44 a3 3c
       -0.017486878 0.01604142 0.04546223 0.019930169
0003b0 3c 91 fe bc ed 5a 07 bd 10 80 d2 bb 40 8b 78 3c
       -0.031075113 -0.033045698 -0.0064239576 0.015169919
0003c0 15 d8 5e bd 00 f3 01 3c 20 5f d4 3c 85 e0 8c 3d
       -0.05440529 0.007931471 0.025924265 0.06878761
0003d0 8a ef 40 3d f0 27 2a 3c 48 6c 28 3c 38 f0 55 bc
       0.047103442 0.010385498 0.0102797225 -0.013057761
0003e0 16 80 5b 3d ea d2 b3 bd d7 62 9c 3d d8 47 61 3c
       0.05358895 -0.08780463 0.0763604 0.013750039
0003f0 b7 59 b4 3d c0 ba 59 bc b0 4d 74 bc 22 b6 7a 3d
       0.08806174 -0.013289154 -0.0149111 0.06120885

net.2.bias f4 [128]
000000 c5 83 81 3d 20 98 84 bb 7e af 9e bd c0 9b f9 bb
       0.06323961 -0.004046455 -0.07748316 -0.007617444
000010 30 a2 f4 3c d0 f0 90 bc 80 d7 f6 3b d6 17 10 3d
       0.029862493 -0.017692953 0.007533014 0.03517898
000020 3e 72 7a bd de bf 2f 3d f0 20 95 3c 91 ba 93 bd
       -0.061144106 0.04290759 0.018204182 -0.07213319
000030 a5 37 a0 3d 78 8b 67 3c 70 87 a3 3c 6b a1 b4 3d
       0.07823113 0.014132373 0.019962043 0.088198505
000040 4c c0 c3 3c 40 c0 d5 3c ba 54 5e 3d 06 a0 db bc
       0.023895405 0.026092649 0.05428002 -0.026809704
000050 98 9d ed 3c bc 8c 8c 3c ea cb 63 bd e9 3b aa 3d
       0.02900581 0.017156951 -0.05561439 0.08312208
000060 2e 7a e7 bc 3d a9 9b 3d e9 96 57 bd a8 55 7d bd
       -0.028256502 0.07600639 -0.052634154 -0.061849266
000070 dd fc 8c 3d f8 88 16 3c 9c c6 8e 3c 6b 08 91 3d
       0.06884167 0.009187929 0.017428689 0.07081684
000080 59 42 a3 bd 81 eb 56 bd cc ac 59 bd 0f bd 8a 3d
       -0.07971639 -0.052470688 -0.053143308 0.06774341
000090 2c e8 89 bd 4d 70 b1 bd ba e7 47 3d f2 c2 a6 bd
       -0.067337364 -0.08663998 0.048804976 -0.081426516
0000a0 10 3a 8f bb 4f 45 84 3d f9 db 9d 3d b2 1f 3c 3d
       -0.0043709353 0.06458532 0.07707972 0.045928665
0000b0 6f c2 5f bd 9c 43 9a bc e0 91 0f bb e0 e8 f8 3c
       -0.054628786 -0.018831067 -0.0021907017 0.030384481
0000c0 5e b5 a7 bd a0 d8 92 3c 75 ae 4a bd 5c 88 7d bd
       -0.0818889 0.01792556 -0.04948278 -0.06189762
0000d0 00 b0 a5 3c fd 05 a9 3d 08 53 07 3c 60 72 43 bb
       0.020225525 0.08253095 0.008259542 -0.0029822811
0000e0 87 8a a2 bd ec 0d 3d bd ac a1 f7 3c b0 6b 80 3c
       -0.07936578 -0.046155855 0.030228458 0.01567635
0000f0 f4 6f 22 bd 01 a0 9e bd 4e 20 17 3d 7d f1 93 3d
       -0.039657548 -0.07745362 0.036896043 0.072237946
000100 e5 56 3c bd 6d c9 85 3d 84 59 61 bd ea 7f 14 3d
       -0.045981307 0.065325595 -0.05501701 0.0362548
000110 38 fe 14 bc 14 b5 08 3d 9e 36 7c 3d 5e cd 5c 3d
       -0.009093814 0.033375815 0.061575525 0.05390679
000120 88 c7 6f 3c 61 64 98 3d 8d 79 a6 bd b8 a7 2f 3c
       0.014634974 0.07441021 -0.08128653 0.01072114
000130 b3 bf 92 bd d2 ec 02 3d 1f 2b ae 3d 89 65 a4 3d
       -0.0716547 0.03196413 0.085043184 0.08027179
000140 44 e1 aa bc 54 ea ed 3c 77 cc 9a 3d 62 c8 9f bd
       -0.020859368 0.0290424 0.0755853 -0.07801892
000150 ba ae 8a bd fe 4e 78 3d df 32 96 bd 45 70 ab 3d
       -0.06771608 0.060622208 -0.07333922 0.08371023
000160 a6 0a f4 bc 4e b3 9a bd 1e d5 17 bd 92 74 40 3d
       -0.029790234 -0.07553731 -0.03706848 0.04698617
000170 1d b3 9f 3d 0a ef 4e 3d 34 53 98 bd c0 f9 85 bd
       0.07797835 0.050520934 -0.07437745 -0.06541777
000180 f2 35 3c bd 10 43 1f bc 98 f6 e2 3c ce f4 50 bd
       -0.045949884 -0.009720579 0.027705476 -0.051014714
000190 f8 99 c6 3c 28 63 b4 bd 80 d2 8d 3b 4c c1 fe 3c
       0.02424334 -0.08807975 0.004328072 0.03109803
0001a0 27 4c a7 3d 33 93 35 bd e0 0a 45 bc 20 b1 e8 bb
       0.08168822 -0.044329833 -0.012026519 -0.007101193
0001b0 b0 06 ea 3c c0 05 88 ba 24 68 01 3d 68 79 e3 3c
       0.028567642 -0.001037769 0.031593457 0.027767852
0001c0 00 5e 1a bd 12 b4 77 3d 68 62 8e bc a2 cc e1 bc
       -0.0376873 0.060474463 -0.017380908 -0.027563397
0001d0 86 f7 35 3d 3a 28 61 3d e9 58 9d bd 2a e4 4f 3d
       0.04442551 0.054970004 -0.07682974 0.050754704
0001e0 80 fe e7 3a 84 7e cd 3c c6 5f 3b 3d d0 a9 c2 3c
       0.0017699748 0.025084741 0.045745634 0.023762614
0001f0 10 51 f2 bc a8 5b 6c 3c 70 51 7b bd 31 26 b3 3d
       -0.02957967 0.014426149 -0.06135696 0.08747519

net.4.weight f4 [9, 128]
000000 b7 b5 8f bd b0 d8 53 bc 2b 20 97 3d 04 cd 9d 3c
       -0.07017081 -0.01293008 0.073791824 0.019262798
000010 74 88 9a bd dc ca c0 3c 74 9d 6e bd 75 09 37 bd
       -0.075455576 0.02353423 -0.058255628 -0.044686753
000020 6a 18 05 bd ac 89 a8 3c 00 6d f3 39 3b 91 01 bd
       -0.032493986 0.02057346 0.00046429783 -0.031632643
000030 0b 44 b0 3d 48 86 a9 3c 4a 0a 7c bd a0 93 29 3c
       0.08606728 0.020693913 -0.06153325 0.010350138
000040 9b f0 92 bd e6 52 38 3d 31 23 8e 3d 28 eb 19 bc
       -0.07174798 0.045000933 0.06940306 -0.0093944445
000050 d8 13 9b 3c 06 7f 05 bd 63 fc 8e 3d ca 1e 4b 3d
       0.01893036 -0.032591842 0.06981733 0.04958991
000060 fe 68 14 3d 9c af ea 3c 92 66 52 3d d2 1c 6b 3d
       0.03623294 0.02864819 0.05136735 0.057400532
000070 ed 91 ab bd 6a e5 57 3d 60 86 f4 3c 80 46 cd 3c
       -0.083774425 0.05270902 0.029849231 0.025058031
000080 03 8f 0b bd d0 3e 17 3c 1c 25 85 3c 57 9e 84 bd
       -0.034071933 0.009231284 0.016253047 -0.064755134
000090 20 92 fe bb 04 0d c7 bc f0 b7 8b bc e2 0a 47 3d
       -0.0077688843 -0.024298199 -0.017055482 0.048594363
0000a0 28 d8 b0 bd d4 82 74 bd 30 1f 59 3c 25 30 af 3d
       -0.086349785 -0.05969508 0.013252065 0.08554105
0000b0 59 e6 3a bd e0 c0 55 bc 87 9c b2 3d c9 1c 99 bd
       -0.045629833 -0.013046473 0.087212615 -0.074761935
0000c0 36 09 94 bd 38 7f ef 3c 6d 7c 80 bd eb d6 a6 bd
       -0.07228319 0.029235467 -0.06273732 -0.08146461
0000d0 ac 3d e8 3c 42 ea 4f bd 46 c4 7b bd 45 05 a7 3d
       0.02834972 -0.050760515 -0.061466478 0.08155302
0000e0 9d 72 94 bd b8 0b 10 bc a8 25 c6 3c 00 75 98 b9
       -0.07248423 -0.0087918565 0.024187878 -0.0002907887
0000f0 cd 84 09 bd 82 c8 51 3d 4f f3 3e bd 58 3d 9e bc
       -0.033573914 0.05121661 -0.046618756 -0.01931636
000100 6e 2c 6b 3d 86 b5 20 3d e4 63 a1 bd ca 0a 59 3d
       0.05741542 0.039235614 -0.07880381 0.052988805
000110 50 ab 36 3c 3e a6 89 bd 64 53 f5 bc a1 a2 ab 3d
       0.0111492425 -0.06721161 -0.02994699 0.083806284
000120 08 5c 56 3c fe c8 0e 3d 64 91 e0 bc 02 0d 87 bd
       0.013083465 0.03485965 -0.027413078 -0.06594278
000130 d9 d2 89 3d b8 04 67 3c 20 4b b3 3b 00 9b 0f 3c
       0.06729669 0.014100246 0.005471602 0.008764982
000140 0d 30 92 bd a2 a2 31 3d a6 35 44 bd fd 78 9b 3d
       -0.07138071 0.04336799 -0.047902726 0.07591436
000150 fb ae 45 bd 90 1a 92 bd 52 2e 08 bd 88 13 18 bd
       -0.048262578 -0.07133973 -0.0332473 -0.037128
000160 70 fb dc 3b e2 2d 95 bd c0 5e 5a 3c 91 f8 90 bd
       0.006743841 -0.07284142 0.013328254 -0.0707866
000170 b8 75 09 3d 95 8c af 3d d8 9c 90 3c de b0 77 3d
       0.03355953 0.08571736 0.017652914 0.060471408
000180 b3 b2 93 3d 85 b7 21 bd a2 8a a8 bd 0e c8 66 3d
       0.072118185 -0.03948166 -0.08229567 0.05634313
000190 c0 cc 16 bd 89 e7 02 bd 68 d8 1f bc c0 ab eb ba
       -0.03681636 -0.03195909 -0.009756185 -0.0017980263
0001a0 6a 95 68 3d bb cf 05 bd 0e 9d 0f bd 83 ef a7 3d
       0.056783117 -0.03266881 -0.03506189 0.0819998
0001b0 90 87 0a 3d e9 5c 0a bd ce cb 60 3d 04 d5 a3 3c
       0.03382069 -0.033780012 0.054881863 0.019999035
0001c0 f0 4e c1 bb bb 1f 81 3d 9e 91 83 bd 02 36 29 3d
       -0.0058993027 0.0630488 -0.06424259 0.04131127
0001d0 ce 3d 7a 3d a3 3a 19 bd 67 9e a7 3d a8 55 c8 bc
       0.061094098 -0.037409436 0.0818451 -0.024454907
0001e0 73 d1 84 3d 20 94 96 bb c2 fa 1d 3d 08 36 ea 3c
       0.06485262 -0.0045952946 0.03856922 0.028590217
0001f0 e8 3b 43 bc c1 9d 9f 3d bc bd d5 bc 34 fd bb 3c
       -0.011916138 0.07793761 -0.026091449 0.022947885
000200 9e a3 5b 3d 83 6a 82 3d 4e 6a ac bd d5 7e 97 3d
       0.053622834 0.06367972 -0.084187135 0.07397238
000210 07 73 b3 3d f8 7f 4e 3c 5c 51 8a bc eb 50 59 bd
       0.08762174 0.012603752 -0.016884498 -0.053055685
000220 72 05 21 3d eb 87 80 3d 01 e9 76 bd 88 5a 17 bc
       0.039311834 0.06275924 -0.060280804 -0.009237893
000230 52 20 4c 3d e4 5f cc bc 20 ce 32 bc 60 59 4a 3b
       0.04983551 -0.024948068 -0.010913402 0.0030876026
000240 f9 d6 9f 3d a2 24 a2 bd 12 70 62 bd 00 1a ae ba
       0.07804675 -0.079171434 -0.05528266 -0.0013282895
000250 80 ff 44 3a 44 57 7a bd 30 6d ed bb eb 02 78 bd
       0.0007514879 -0.06111838 -0.007245682 -0.060549658
000260 1d 38 a8 bd 02 a8 6d 3d d0 0b 43 bc e2 ee 23 3d
       -0.08213828 0.058021553 -0.011904672 0.04002274
000270 a8 09 01 bc b2 6a 68 3d 87 32 b2 3d 59 ac 43 bd
       -0.007875837 0.056742378 0.087010436 -0.047771785
000280 b1 d0 96 3d ad 14 b0 bd 7a c1 22 3d 27 89 92 3d
       0.073640235 -0.085976936 0.039735295 0.07155066
000290 38 eb b7 3c 82 51 7e 3d 48 50 1e 3c f3 fa 93 3d
       0.022451028 0.06208945 0.009662695 0.07225599
0002a0 04 61 88 3c f4 cf d3 bc 29 c6 a7 3d d0 c9 1e bd
       0.016647823 -0.025855996 0.08192093 -0.038766682
0002b0 4b fa b3 bd 9e b3 0b 3d e0 41 a8 3b 04 9b f7 3c
       -0.08787974 0.034106843 0.005134806 0.030225284
0002c0 38 6f 7a bc c2 12 3b 3d 36 9d 06 3d d4 d8 ae 3c
       -0.015285306 0.045672186 0.03286477 0.021343626
0002d0 92 95 3f 3d 94 f4 fb 3c 39 ec 8c 3d 13 b5 aa 3d
       0.0467735 0.030756272 0.068809934 0.083353184
0002e0 e0 b1 25 3b a7 d3 82 bd ac fd c5 3c 3c 70 8a 3c
       0.0025283024 -0.06388026 0.024168812 0.01689922
0002f0 cd 98 63 bd 2c 5c 7e bd a1 2c 93 3d 33 b1 a3 3d
       -0.055565644 -0.06209962 0.07186247 0.079927824
000300 90 41 29 3c 60 5f 3e 3c 35 63 ac 3d 86 2c e4 bc
       0.010330573 0.011619419 0.0841736 -0.027853262
000310 c0 a0 82 3b d7 8c 2e bd ab 40 9d 3d ac 47 06 3d
       0.003986448 -0.042614784 0.0767835 0.032783195
000320 cc 99 b6 bc 87 10 b0 bd 20 9c c1 3c 7e 80 91 bd
       -0.022290133 -0.08596902 0.023634017 -0.07104586
000330 60 76 36 3b be d1 78 3d c6 30 7b 3d 4a 16 30 3d
       0.0027841553 0.0607469 0.06132581 0.042990007
000340 40 24 6a 3c ac 82 95 bc b0 11 4c bd 4e d0 48 3d
       0.014290869 -0.018250786 -0.049821556 0.04902678
000350 ab 9e 9b 3d 40 f2 22 bd 90 28 21 bd 33 1c ad bd
       0.07598623 -0.03978181 -0.039345324 -0.08452644
000360 70 73 f7 3c 66 a4 65 3d 6c 4a 40 bd 13 61 92 bd
       0.030206412 0.056064986 -0.046945974 -0.07147422
000370 68 c5 5b 3c ca 0e 73 3d 40 4d 87 3b 30 01 9d bc
       0.013413765 0.059340276 0.004129082 -0.019165605
000380 80 07 17 bb 7e 17 7b 3d 29 94 93 3d c5 10 8a bd
       -0.0023045242 0.0613017 0.07205994 -0.0674148
000390 6a fc e7 bc 80 8e e0 3c 2e fa 47 3d 75 71 a0 3d
       -0.028318603 0.0274117 0.048822574 0.0783414
0003a0 18 24 e5 3c 18 d2 93 bc 66 2a 9a bd e6 8f 42 3d
       0.027971312 -0.018044516 -0.07527618 0.047500513
0003b0 46 cf 6e 3d 98 e1 e3 bc a6 94 7a bd 42 d1 47 3d
       0.05830314 -0.027817532 -0.06117692 0.04878355
0003c0 07 7e 09 bd 4a de 6c 3d ac 85 4b bd 1f c5 8d bd
       -0.033567455 0.05782918 -0.049688026 -0.069223635
0003d0 d0 34 ab bd 3f bb a3 3d 0b 24 69 bd c9 bb af bd
       -0.083596826 0.07994699 -0.05691914 -0.08580739
0003e0 4d b3 8f 3d 5b 32 81 3d 90 c1 00 3d ba a3 2e 3d
       0.07016621 0.06308433 0.031434596 0.04263661
0003f0 53 76 84 3d f9 38 03 bd 00 c2 ff 3c 78 f2 77 bd
       0.06467881 -0.032036755 0.031220436 -0.06053397

net.4.bias f4 [9]
000000 40 eb 9c bc 4a 70 57 3d ab 7f 06 bd fc 45 ce 3c
       -0.019155145 0.05259732 -0.032836597 0.025179856
000010 18 2e 50 3c 50 f4 cf 3b a4 e3 40 bd 7a 26 2d 3d
       0.012706302 0.006346263 -0.047092095 0.042273022
000020 70 d8 e9 bb
       -0.007136397
