Entities/pained_nav.pth (torch, 73382 bytes, 6 tensors)

net.0.weight f4 [128, 4]
000000 60 80 f5 bc f0 36 c6 bd 80 63 e5 3b 00 c5 d2 bc
       -0.02996844 -0.09678447 0.0070003867 -0.025728703
000010 c6 f9 f7 be 51 1e 29 be 35 79 b5 3e 81 cf bf 3e
       -0.4843275 -0.16515471 0.35444036 0.37463
000020 b3 4c cc 3e 3b d8 4d be 16 54 39 3e db 78 46 3e
       0.39902267 -0.20102017 0.18098482 0.1938204
000030 37 41 1e bd d1 ee 50 3e 9f 33 ec 3e f3 74 99 be
       -0.038636412 0.20403601 0.46133134 -0.29972038
000040 e5 6d 6a be 04 b8 0a 3d a0 13 17 3d a8 a8 e9 3d
       -0.22893484 0.033866897 0.03688395 0.11409122
000050 1c e9 ed 3e bb 1d 63 3d ca 9f a4 be 25 d1 d4 be
       0.4646691 0.055448275 -0.3215316 -0.41565815
000060 4d ab c3 3e 25 57 9c 3d af 29 cd 3e 0a 8a 03 bd
       0.3821663 0.07633809 0.40070865 -0.032114066
000070 b0 2a 6d bd e8 a1 2b 3e d6 fe 96 be 85 dc 74 3d
       -0.057902038 0.16760981 -0.294913 0.059780616
000080 be a0 22 be 66 5a 16 3d 98 4c a3 3e 8f 71 e8 be
       -0.15881631 0.036707304 0.31894374 -0.45399138
000090 75 ca 90 3e ff 02 8b 3e 14 3e 44 3e 0c 3f bf be
       0.28279462 0.27150723 0.19164306 -0.37352788
0000a0 5a 8f ac 3e 08 8a c0 be 3b 40 4b 3e d8 77 a1 3e
       0.3370312 -0.3760531 0.1984872 0.31536746
0000b0 d3 e7 b4 3e eb 7b aa 3e ff 43 5c be 4e 8b 9c be
       0.35333118 0.33297667 -0.21510313 -0.3057503
0000c0 fd 74 ea be 0b b0 87 3e 3f c5 fc bb b8 57 57 bc
       -0.4579238 0.26501498 -0.0077139433 -0.013143472
0000d0 ba bf b1 be 53 43 f6 bd 2d 6b dc bd 59 ef 68 3e
       -0.34716588 -0.1202456 -0.1076263 0.22747554
0000e0 d3 a9 e0 3e 54 98 94 be b9 6b 01 bf 18 9b e4 3e
       0.43879566 -0.29022467 -0.50554997 0.44649577
0000f0 bb 7f 65 be e9 c3 ba be d6 05 8f 3a 8b 87 9b 3e
       -0.22412007 -0.36477593 0.0010911773 0.3037685
000100 0c dd c5 3e 7c a8 5e be aa 24 d2 be 66 7d e6 be
       0.38645208 -0.21743959 -0.41043597 -0.45017546
000110 dc e7 08 be 20 d5 a0 3d 48 52 83 bd 7c 19 78 be
       -0.13369697 0.0785315 -0.06412178 -0.24228472
000120 e2 a8 ee be 94 0f 4c 3e 62 be a9 be c0 c4 5a bc
       -0.46613222 0.19927818 -0.33153063 -0.013352573
000130 73 10 df 3c 37 56 85 3e 9e 6c 5b 3e 98 f0 01 bf
       0.027229523 0.2604234 0.21428153 -0.5075774
000140 7d f8 92 3e 6f b4 3f 3e af ce 87 be 2b 12 b1 be
       0.28705207 0.18721174 -0.26524875 -0.34584174
000150 32 27 d1 3e 2e 26 0e 3e f1 14 b5 be 5e b9 e9 bd
       0.40850216 0.13881752 -0.3536754 -0.11412309
000160 96 8f 7e 3e ad 17 42 be c1 29 79 3e 2c 23 b5 be
       0.24859461 -0.18954344 0.24332334 -0.35378397
000170 e5 87 86 be 7a eb 1e be dd 57 5e 3e 3f 43 58 bd
       -0.26275554 -0.15519515 0.21713205 -0.052798506
000180 79 c8 15 be 75 2f 14 be a8 de bf 3e 29 57 e6 be
       -0.14627255 -0.14471228 0.3747456 -0.44988373
000190 68 70 40 3e 4c 89 73 be c0 bb 26 be 42 17 97 be
       0.1879288 -0.23782843 -0.16282558 -0.29509932
0001a0 a0 2b d5 3c 2d cb b0 bd 55 0e dc 3e 58 82 ae 3c
       0.026021779 -0.08632503 0.42979684 0.021302387
0001b0 31 e2 bd 3e ea a1 f5 bd fb 46 6a 3e e2 ff dc be
       0.37086633 -0.11993773 0.2287864 -0.43163973
0001c0 35 61 dd be a1 75 fb be 30 0e 84 3e cb dc 88 be
       -0.43238226 -0.4911318 0.25792074 -0.26730952
0001d0 69 18 e0 be 95 41 e7 be ca 51 a5 3e 32 0b 3d 3e
       -0.43768623 -0.45167223 0.32288963 0.18461302
0001e0 95 45 9f 3e 78 c2 4b 3e fd 52 48 be a7 fd 87 be
       0.31107774 0.19898403 -0.19562908 -0.2656071
0001f0 ce 02 2d 3e 5b e9 2b 3e 4e 4b 85 be 9d fa 85 3e
       0.16895601 0.16788237 -0.26034015 0.26167765
000200 12 24 d3 be 30 58 57 bd b8 2a 6d be b0 1f 04 bd
       -0.41238457 -0.052574337 -0.23160827 -0.032256782
000210 40 1c 87 bd 0e 20 d1 be 88 3b 8b bd 0c 61 0c be
       -0.06597185 -0.40844768 -0.06798464 -0.13708895
000220 af 97 72 be cf 2e e1 be 82 69 43 3e 82 41 51 3e
       -0.23690675 -0.43981025 0.19083217 0.20435145
000230 02 f8 a5 3d 99 ee 0a 3e 4a b9 e9 be 63 30 88 be
       0.08103944 0.1356758 -0.45649177 -0.26599416
000240 8c 1f 96 be 58 3c c4 3e 98 8f c4 bd 47 63 55 be
       -0.29320943 0.3832729 -0.09597701 -0.20838653
000250 67 99 fb be 97 00 3f 3e 52 04 f1 3d 77 76 98 3e
       -0.49140474 0.18652569 0.11768402 0.29777882
000260 7e 24 86 be 4c 0b a9 3e 14 f4 6b be b6 61 85 be
       -0.26199716 0.3301643 -0.23042327 -0.2605111
000270 10 94 50 be 38 23 22 be c0 66 29 be a0 95 7c 3d
       -0.20368981 -0.15833747 -0.16543102 0.06166613
000280 5d e0 fb 3e 9b 2e 97 be 8e af bd be 6b 4f 34 be
       0.49194613 -0.29527745 -0.37048 -0.1760842
000290 4d e6 75 bd bb 13 90 3e f1 54 6c be 5e 85 7c 3e
       -0.060034085 0.28140053 -0.23079278 0.2466025
0002a0 19 8a 8e 3e 6a ae 39 be ea fd 74 3e c0 64 85 be
       0.27839735 -0.1813294 0.23924986 -0.2605343
0002b0 fb 5d 02 be a1 1c b8 3e 6d 57 f2 3e 92 f7 14 be
       -0.12731163 0.35959342 0.47332326 -0.14547566
0002c0 6a 7f 89 3e b8 92 b5 be f0 d6 28 bd 80 e2 d2 be
       0.26855022 -0.354635 -0.041220605 -0.4118843
0002d0 ff b3 a1 be d8 56 89 3e 96 72 2f 3e 7c 10 67 be
       -0.3158264 0.2682407 0.17133555 -0.22564882
0002e0 7c cd e5 3e 88 6b 8b be 5e c3 c9 be 87 3e ba bd
       0.44883335 -0.27230477 -0.39406866 -0.090939574
0002f0 a3 b6 21 3e 26 ff f9 be 7d cd 97 3e 21 8e 93 bd
       0.15792327 -0.48827475 0.29648963 -0.07204843
000300 c0 cc 46 3e 8d e9 87 3e bc f9 d8 be 44 79 2e 3e
       0.19414043 0.26545373 -0.42378032 0.17038447
000310 73 14 a5 3d 62 55 f1 be 1c fb 7a 3e cb 42 7a be
       0.08060541 -0.47135454 0.24509853 -0.24439542
000320 86 36 a0 3c 46 fa 41 be a7 f4 ed 3e 2c 09 b4 be
       0.019557249 -0.18943128 0.46475717 -0.35163248
000330 67 b4 9c 3e 1d 7a 77 be c4 6e 2b bd 3d 99 d5 be
       0.30606386 -0.24167676 -0.04185368 -0.41718474
000340 65 c2 58 3e d8 ac c4 3e 6f fa 63 3e 86 66 9f 3e
       0.21167906 0.3841312 0.22263502 0.31132907
000350 f7 a4 87 be 31 00 c9 be d0 7d 2f 3e e1 b9 36 3e
       -0.26493046 -0.3925796 0.17137837 0.17844345
000360 08 c1 b2 be 47 c9 88 3e 8e 46 dc 3c b1 f3 aa be
       -0.34912896 0.26716062 0.026889112 -0.33389047
000370 09 5a 7b be 5b 70 76 be 18 8b cc 3e 86 5f 82 3e
       -0.24546064 -0.24066298 0.3994987 0.25463504
000380 fe 78 8e 3d e1 e9 bd be b0 d9 d0 3e f2 57 5e 3e
       0.06956671 -0.37092498 0.40791082 0.21713236
000390 74 7b 15 be 04 f7 79 3e 00 15 e8 3c 18 84 d1 be
       -0.14597875 0.24410635 0.028330326 -0.40921092
0003a0 b5 ca fb be 55 df 09 bf 10 b5 c5 3e 42 dd b9 3d
       -0.4917809 -0.538564 0.38614702 0.09075405
0003b0 2e 8e b6 be 0a d9 80 be e4 40 ab be 30 9a 50 be
       -0.3565535 -0.25165588 -0.33447945 -0.20371318
0003c0 0e 96 cd be be a7 e6 be af 05 e1 3e 04 99 2c 3e
       -0.40153545 -0.45049852 0.4394965 0.16855246
0003d0 9b 26 d4 3e d7 3f c2 be 11 20 61 be 34 9a b1 be
       0.41435704 -0.3793933 -0.21984889 -0.3468796
0003e0 f3 d6 a4 3e ed 91 c0 be 3c b3 9c be f2 81 43 3e
       0.32195243 -0.37611333 -0.30605495 0.19092539
0003f0 02 8c da 3e ab 58 2c bd f7 34 50 3e 63 7c 99 be
       0.42684942 -0.042076748 0.20332704 -0.29977712

net.0.bias f4 [128]
000000 78 ac 39 3e 6b 4b 54 3e 32 40 be be 95 a4 61 be
       0.18132198 0.20731895 -0.37158352 -0.2203544
000010 3a 82 c6 3e 39 0f ee 3e af 36 99 3e da ad b4 be
       0.3877123 0.4649599 0.29924533 -0.35288888
000020 a2 59 2e 3e d5 c9 ad bd b9 f5 a1 3e a5 f3 c9 bd
       0.1702638 -0.08485762 0.31632784 -0.09860925
000030 52 a9 ab be f9 1f f0 be e1 be 33 3e fd d5 d1 bc
       -0.3352762 -0.46899393 0.17553283 -0.025614733
000040 f2 f2 f0 be 98 1b b8 bd fc 90 b4 3e d0 86 8e be
       -0.47060353 -0.08989638 0.35266864 -0.2783723
000050 65 5c c0 be 99 f8 a2 bd f2 7e b5 3c f8 94 ab bd
       -0.3757049 -0.079575725 0.022155259 -0.08378023
000060 6a 1e 4f be 8e 0b 85 be 63 90 b7 be 33 63 8e be
       -0.20226446 -0.25985378 -0.35852346 -0.27810058
000070 33 08 79 3d a6 2c 12 bf a4 e9 89 be 22 b0 82 3e
       0.060798835 -0.5709938 -0.26936066 0.25525004
000080 3e 77 e3 be c8 63 e8 bd 21 df ae 3d eb 0a a9 be
       -0.44426912 -0.11347157 0.08538652 -0.33016142
000090 cc 68 c5 be c1 f7 66 be b4 62 a8 be 7c bb 13 be
       -0.38556516 -0.22555448 -0.32887805 -0.14426988
0000a0 c7 c4 d2 3e fd ee 1e 3e 3b 92 dd bd 22 30 ba be
       0.41165754 0.15520854 -0.10818907 -0.36364847
0000b0 38 00 40 be fa 16 8f 3e 31 dc bd 3d 2f 56 d2 be
       -0.18750083 0.27947217 0.09270514 -0.41081378
0000c0 d5 81 2a be e3 ed cc 3e 42 cd 02 be 23 a6 dd be
       -0.1665109 0.40025243 -0.12773612 -0.43290815
0000d0 6e d7 8e 3e 3f 89 03 bf 8f e4 8a 3e 1c 53 2f be
       0.27898735 -0.51381296 0.271275 -0.17121547
0000e0 2d 1c e9 bd b4 16 af 3e f7 32 19 3d 84 5f 62 3e
       -0.11382327 0.3419701 0.03740212 0.22106749
0000f0 8d 63 cd be c5 a1 bf 3e 27 c5 f2 be 36 c0 11 be
       -0.40115014 0.37428108 -0.4741604 -0.14233479
000100 20 d0 ee bd b3 d4 88 be 56 d9 a8 3e cc cb 44 3e
       -0.116607904 -0.26724777 0.32978314 0.19218367
000110 14 a1 da be f6 c2 bb 3e 86 8f c5 3c 64 bd 5d be
       -0.42701018 0.3667218 0.024116289 -0.21654278
000120 8d e2 49 3e fe 9d ff be 86 d7 2f be 3c c9 9f be
       0.19715329 -0.49925226 -0.1717206 -0.31208217
000130 c7 f6 00 bf 8c 2f ee be e0 b0 a8 be ee ac 30 3e
       -0.5037655 -0.4652065 -0.32947445 0.17253467
000140 b6 de 62 be a6 c8 e7 be 33 ee c2 be 1e b4 ab bb
       -0.2215527 -0.4527027 -0.38072357 -0.0052399775
000150 a9 65 58 3e b9 9f 91 3e 0c b2 78 bd cf 97 28 bd
       0.2113253 0.2844217 -0.060716674 -0.0411604
000160 67 a5 de 3e 30 f2 c8 3e fd 3b cc 3e 00 8f 13 3b
       0.43485567 0.39247274 0.39889517 0.0022515655
000170 81 6c 11 be 9b e2 5d be 6e 36 8a be 02 f3 d0 3e
       -0.14201547 -0.21668474 -0.26994652 0.408104
000180 69 4d 1e bd cc 46 b2 3e 64 90 be 3e 6b 23 70 3e
       -0.038648043 0.3481964 0.37219536 0.23451011
000190 21 1b 32 3e e4 88 98 be 2d 07 92 bd f2 1e dc 3e
       0.17393161 -0.2979194 -0.07130275 0.4299236
0001a0 20 1c 35 be f2 57 92 3e 6c 5f 0b be b3 b7 a4 be
       -0.1768651 0.28582722 -0.1361062 -0.321714
0001b0 19 55 f7 3e 38 1c 93 3d 52 cd eb be 70 d5 43 bd
       0.48307112 0.07183117 -0.46055084 -0.04781097
0001c0 c1 31 a4 3e 7a c9 b2 be ea 3b ac be 63 2e 99 bc
       0.3206921 -0.3491934 -0.3363946 -0.018698877
0001d0 74 88 5a be 22 5d dd be 91 03 c6 bd be 90 8a be
       -0.21341115 -0.43235117 -0.09668649 -0.27063555
0001e0 9e ba cc 3e 29 51 a3 bb f6 19 af 3e 21 16 93 be
       0.39986128 -0.0049840403 0.34199494 -0.2872782
0001f0 28 d1 90 bd 7c f4 fb bc 0a 62 a7 be 28 6a e8 3e
       -0.070711434 -0.030756228 -0.32691985 0.4539349

net.2.weight f4 [128, 128]
000000 27 0f ae 3d 25 9a 7c 3d 10 df 1b bd a6 d8 90 bd
       0.08498984 0.06167044 -0.038054526 -0.070725724
000010 e7 b4 73 3d 7f 00 12 bc 24 d0 61 3c 68 84 63 bd
       0.059498694 -0.008911251 0.013782535 -0.055546194
000020 43 32 4b bb 25 0b 5d bd 2a b0 8e bc 39 7b e0 bc
       -0.00310053 -0.053965706 -0.017417986 -0.027402507
000030 08 a3 a6 3c 89 63 8a bd a7 6b 63 bc 79 ae 91 bd
       0.020341411 -0.06757266 -0.013880647 -0.07113356
000040 2c 09 9f 3c df be 51 bd 85 fc ab 3d af af 05 3d
       0.019413553 -0.05120742 0.08397774 0.032638248
000050 2d 40 d5 bb 77 d8 d8 bc 49 02 24 3c f3 38 92 ba
       -0.0065078945 -0.026470406 0.01001031 -0.0011155888
000060 d2 a9 72 3b e6 93 f3 bc 65 ef 72 bd 03 58 e6 bc
       0.003702749 -0.02973361 -0.059310336 -0.02811814
000070 e8 8d 1e bd e4 31 e1 b9 31 8c 8e bd b1 6f ad bd
       -0.03870955 -0.00042952516 -0.06960333 -0.08468569
000080 1a 50 64 3d 60 2e 0a bc 96 cd 36 3c 04 8e 82 bc
       0.055740453 -0.008433908 0.011157414 -0.015936859
000090 f9 2c 74 bd f6 d8 aa bc 58 c4 ea bc ac 3a 9c bc
       -0.0596132 -0.020855408 -0.028658077 -0.019070946
0000a0 a2 f3 8e 3d ae 47 49 3d e6 5f 83 bd f2 a6 1b 3d
       0.06980063 0.049140625 -0.064147756 0.03800101
0000b0 d8 85 8c bd 0a fb ae bc 8e 3a 95 3d a4 d3 a0 bc
       -0.06861466 -0.02135994 0.07286559 -0.019632168
0000c0 6e b3 65 bb 3f 2e 95 3d 27 92 c4 bd c8 c1 d4 bc
       -0.0035049575 0.07284211 -0.09598189 -0.025971308
0000d0 a9 76 6b 3c 61 85 53 bd be f2 95 bb 24 73 11 3d
       0.0143715525 -0.051640872 -0.0045760563 0.035510197
0000e0 ea 35 d8 bc f0 77 04 3d 10 cf 8d bd 80 dd b1 3c
       -0.026392896 0.032340944 -0.0692426 0.021712065
0000f0 7d 60 a2 3c 1d b0 74 bd ae a3 53 bd a9 59 18 3d
       0.0198214 -0.059738267 -0.05166977 0.03719488
000100 f7 82 84 3d 23 7d 16 bc 5e c0 d4 bd 47 73 8b 3c
       0.06470292 -0.009185108 -0.10388254 0.017022742
000110 06 84 bf 3c f0 fa 28 3c bc 5c 95 bd 47 66 24 bd
       0.023378383 0.010313734 -0.07293078 -0.0401366
000120 48 4e b1 bd 15 80 05 bd 2a 0c aa 3c c4 5a a3 bd
       -0.08657509 -0.03259285 0.020757753 -0.079762965
000130 75 e5 25 3d f1 55 3a bd 1a dd 2e bc 11 0f 45 3d
       0.04050203 -0.045492116 -0.010672832 0.04811007
000140 c6 52 9c bd 5c e2 88 3c 59 27 48 bd 34 ec eb 3a
       -0.07632975 0.016709499 -0.04886565 0.0017999471
000150 bc 68 e1 bb 98 77 bc 3b ad b3 32 bc bd ee 87 3c
       -0.0068789404 0.0057515614 -0.010907096 0.016593331
000160 57 7d f7 bc 2c c7 1c 3c a1 be 9a bd 36 c4 16 3d
       -0.030211134 0.009568971 -0.07555891 0.036808215
000170 bc f7 76 3c 88 b2 9e bd 4c 2a d2 3c 0e 1b 18 3d
       0.015073713 -0.07748896 0.025654934 0.037135176
000180 eb 2f 0b 3d 12 a2 7f bd c0 bd c5 3c 17 d2 9a 3d
       0.033981245 -0.06241042 0.024138331 0.07559603
000190 f4 12 2b bd 23 7d a8 bd 0c 6a d1 bd 8b 42 d5 bd
       -0.041766122 -0.08226993 -0.10225305 -0.10413083
0001a0 db 29 ca bd d5 6c 9d bd d7 7c 8e 3d 9e 60 56 bd
       -0.098712645 -0.07686774 0.06957405 -0.052338235
0001b0 55 ed 67 bc 18 89 48 3c b9 73 51 3b ba df 57 3d
       -0.014155705 0.012239717 0.0031959845 0.052703597
0001c0 a4 21 7f bd 87 21 a4 3d c0 b6 c0 3b 94 f2 a3 3d
       -0.06228794 0.08014207 0.0058811605 0.080052525
0001d0 a0 4b dd bb 32 1e 36 3d 8e 10 18 3d de 93 66 3d
       -0.0067534 0.04446239 0.037125163 0.05629336
0001e0 38 19 8a bc 48 e2 07 3c e3 b9 4f bd e2 43 1a 3d
       -0.016857728 0.008293696 -0.050714385 0.037662394
0001f0 f2 7a 23 3d 83 01 a6 bb 53 49 8c 3c 24 1a ef 3c
       0.03991217 -0.005066098 0.017124807 0.02918727
000200 af 89 b3 3d ec 0e 47 bd 05 7a 23 bd 08 75 b8 bc
       0.087664954 -0.048598215 -0.03991129 -0.022516742
000210 06 d7 56 bb 1d cc 87 3d 58 16 9d bd 2e 17 8d 3d
       -0.0032781973 0.066307284 -0.07670277 0.06889187
000220 c4 0d 48 3d 27 40 7f 3d 40 b1 d1 3b 6e 02 c7 bd
       0.048841253 0.06231704 0.0063993037 -0.0971726
000230 e2 d8 38 3d 89 ad 66 bc 97 86 1c 3d 5a 6f f7 b9
       0.04512871 -0.01407946 0.038214292 -0.00047194475
000240 e8 ae 6a bd 6a f2 5a 3d 5e 55 6a bd be 54 15 3c
       -0.05729571 0.05345384 -0.05721032 0.009114442
000250 06 15 b8 3d e8 59 68 3d 39 0d 94 bd 0f d0 3f bd
       0.08988385 0.056726366 -0.072290845 -0.04682928
000260 00 3f 5f 3d 12 20 1a 3d f3 b3 d0 bd d4 f7 9a 3d
       0.05450344 0.03762824 -0.101905726 0.07566801
000270 7a 85 3c 3d 54 9e 80 3d 52 59 ad 3c c6 57 67 3d
       0.04602573 0.06280199 0.021160755 0.05648019
000280 0b 65 0e bd f9 a7 43 bd 93 9f 81 3d 1c 1d 01 3d
       -0.03476433 -0.047767613 0.063292645 0.0315219
000290 a6 62 16 be e4 ae 1e bd 36 20 1d 3d bf b7 b2 3d
       -0.14686069 -0.038741007 0.038360797 0.08726453
0002a0 3b a7 1c 3d 88 29 8e bd b3 8a f5 bc 1a e6 90 bd
       0.03824542 -0.06941515 -0.029973364 -0.070751384
0002b0 27 1b 40 bd a2 8e 44 3b 51 5d 9f 3d 81 55 c2 bd
       -0.046900894 0.0029992242 0.077814706 -0.09488965
0002c0 16 a6 b8 3b b8 d9 98 3c 91 7e 6a bd 13 32 b8 bd
       0.0056350334 0.018658504 -0.05724961 -0.08993926
0002d0 bf 58 1a 3d 78 a9 a3 bd dd 40 b1 bd 15 0b 0d bd
       0.03768229 -0.07991308 -0.0865495 -0.034434397
0002e0 7f 72 9b 3c 23 27 0a bd 8e 32 ac bd bf 9e a8 3d
       0.018975494 -0.03372873 -0.0840808 0.082334034
0002f0 c8 6b 59 bd 9b be 36 bd ce c4 00 bc 59 f6 3f 3d
       -0.053081304 -0.04461537 -0.007859422 0.046865795
000300 bf 74 05 bd ac fd 8b 3c 73 2b a7 3d 99 c5 3f bd
       -0.03258204 0.017088734 0.08162584 -0.046819303
000310 48 ee c9 bc 9f 9d 83 3d 85 77 aa bd 56 18 1c 3d
       -0.024649754 0.06426548 -0.08323578 0.038109146
000320 7e bf c8 3b 5d dd 4b bd 5b 76 90 bd 1b 2f e4 bc
       0.0061263433 -0.049771655 -0.070538245 -0.027854493
000330 74 05 88 bd d4 7a e1 bc e9 a0 30 3d 86 95 49 3d
       -0.06641665 -0.02752439 0.043122206 0.049214862
000340 f0 6a e8 3c 55 0e a8 bd af de dc 3b 91 a6 78 3d
       0.028371304 -0.082058586 0.006740413 0.060705725
000350 1b 37 07 bd ce 6e 5f bd bd 8c 02 be 93 9d fb bb
       -0.033011537 -0.05454903 -0.12749 -0.0076786964
000360 f0 ac 00 3c 6f 00 68 bd b6 ca 86 bd fa 0f 6e 3d
       0.0078537315 -0.05664104 -0.06581633 0.058120705
000370 af bd df bb 5e 33 42 3d 00 48 c7 bc 9f a6 33 bd
       -0.006828032 0.04741227 -0.024326324 -0.043860074
000380 88 19 82 bd 68 b1 0f bd ec 3e ed 3c b9 dc b7 3c
       -0.06352526 -0.035081297 0.028960668 0.022444116
000390 cc 74 94 3d 33 ca 1c bd ac 07 b2 bc 55 62 d2 bc
       0.0724884 -0.03827877 -0.021732174 -0.025681654
0003a0 e9 c5 e3 3c 2c 45 b8 3c e3 88 b4 3d b7 9b 2d 3c
       0.027804332 0.022493921 0.088151716 0.010596207
0003b0 4e 99 cd 3a 2c 52 a2 bc 18 e0 98 3d 40 f3 ef 3b
       0.0015685947 -0.019814573 0.074646175 0.007322699
0003c0 bf 03 24 bd c8 5a 16 bc 22 2b 4f 3d 43 f4 2f 3d
       -0.040042635 -0.009176917 0.050578244 0.042957556
0003d0 ef 87 9a bd 68 4b e0 3c 5a a5 3a 3d 1b 1c d8 bd
       -0.075454585 0.027379707 0.045567848 -0.10552236
0003e0 b1 95 8e 3d cd a7 8b 3d 38 4a 8e 3d dc 28 03 bc
       0.06962145 0.06819115 0.0694775 -0.008005347
0003f0 38 ab e5 3c da a5 16 be da 86 da bd 06 d8 59 3d
       0.028035745 -0.14711705 -0.10670252 0.05318453

net.2.bias f4 [128]
000000 ae ad cb bd 43 32 c4 bd ef 67 80 3b 04 5a a9 3b
       -0.09945236 -0.09579899 0.00391864 0.0051682014
000010 0a ef 38 bc a3 c6 6e 3c bc 55 a0 3c e1 5e ca bd
       -0.01128746 0.014573726 0.019572131 -0.09881378
000020 e7 d2 3f bd 58 11 be bd ef 84 23 3d 9a fc 54 3c
       -0.04683199 -0.09280652 0.039921697 0.012999678
000030 84 e4 6c bc c6 76 47 bd b1 d3 d1 bd 5a 53 19 3d
       -0.014458779 -0.048697256 -0.10245455 0.037433006
000040 db 3e 26 bd 0a c1 40 3c 67 ed ac bd c7 5c b1 3d
       -0.040587287 0.011764774 -0.084437184 0.08660274
000050 be d5 bf bd 73 76 e5 bc e9 02 99 bc cc 92 a2 3d
       -0.0936694 -0.028010583 -0.018678145 0.079381555
000060 0f 65 02 bd 94 11 97 3d 40 5b 9b bd e0 e6 b5 3c
       -0.03183466 0.073764 -0.07585764 0.022204816
000070 75 60 56 bd 08 f3 9e 3d ea f4 71 bd 0f a5 92 3c
       -0.052338082 0.07761198 -0.05907146 0.017900972
000080 7f 5d 12 3d 28 8c 2b bd 40 e8 14 bd 9c 9b c8 3c
       0.035733696 -0.04188171 -0.036354303 0.024488263
000090 95 55 7c 3d 01 3b 4d 3d 90 4e 2b 3d ad d4 88 bc
       0.061605055 0.0501051 0.04182297 -0.016702974
0000a0 da 02 81 bd 87 b4 40 3d 15 e5 3d 3d d0 2f 1e 3d
       -0.06299372 0.047047164 0.046361048 0.038619816
0000b0 4e b3 22 3d 08 ed 77 bd 68 fa 23 3d 61 03 b4 3d
       0.03972178 -0.060528785 0.040033728 0.08789707
0000c0 36 4f d4 bc 8a f1 38 bb de 34 95 3d 25 a2 4a bd
       -0.025916677 -0.002822014 0.07285474 -0.04947104
0000d0 8f 9d db bd e9 9c fc 3c ef 8e 5e bc 5c 77 6d bd
       -0.10723411 0.03083654 -0.013583883 -0.057975158
0000e0 e6 8e 41 3d 47 64 8d bd ec 36 c7 bd ae 69 b0 bd
       0.04725542 -0.06903892 -0.097272724 -0.08613907
0000f0 78 2b 21 3d 3a b7 32 3c c5 31 30 3c f6 71 65 3d
       0.039348096 0.010907942 0.0107540535 0.056016885
000100 d7 ba 13 3d f6 e8 6d 3d 85 19 b0 bd 0d 63 b4 bd
       0.036066856 0.058083497 -0.085986175 -0.08807955
000110 87 12 27 3d 26 7a 4b bd f1 29 08 3c 47 a7 62 bc
       0.040789153 -0.049677037 0.008310781 -0.013833827
000120 44 e7 28 bd 77 23 8d bd 85 a8 33 bd 96 3c 49 bd
       -0.041236177 -0.0689153 -0.043861885 -0.049130045
000130 45 5e cb bd fa 9c 58 3d f9 97 8c bd 2b 37 c6 bc
       -0.0993009 0.05288408 -0.06864924 -0.024196228
000140 01 34 99 3d 31 5a db bc 6c 58 bb bd 11 22 87 3d
       0.07480622 -0.026776405 -0.091477245 0.065982945
000150 8f 75 1d 3d 48 83 00 3d 9f 1d 92 3d cd be 62 3c
       0.03844219 0.0313752 0.07134556 0.013839436
000160 7e 85 a4 3c 3c e4 9a bd 2d cf aa bd 04 74 59 3d
       0.020083185 -0.075630635 -0.08340297 0.053089157
000170 f8 37 d3 bc ff 31 c0 bd 0b a8 1a 3d 78 5b 36 bd
       -0.025783524 -0.09384536 0.037757915 -0.044520825
000180 8d 95 8d bc 75 04 1a bd 57 01 9d bd 87 82 8f bd
       -0.017283225 -0.037601907 -0.07666271 -0.07007318
000190 84 d4 85 bb 8f db 9a 3d ef 4f 95 bd 77 a2 13 bd
       -0.0040841717 0.07561409 -0.07290637 -0.03604361
0001a0 ad 5f 86 3c 33 e4 54 3c f8 66 9a bd 12 1a 20 3d
       0.016403044 0.01299386 -0.07539171 0.039087363
0001b0 89 67 80 3d 5e b8 93 bd c1 f7 c7 bd f5 bc 78 3d
       0.06269748 -0.072128996 -0.09764052 0.06072708
0001c0 9d 6d ba 3d 10 23 93 3b ad b3 9d bd 05 67 bd bd
       0.09102938 0.0044902638 -0.07700286 -0.09248165
0001d0 73 d3 21 bd bd b0 3f bd d5 47 43 bc c5 7b fd 3c
       -0.039508294 -0.04679941 -0.011918982 0.030942807
0001e0 68 af a3 bd 3f 44 fd bc 32 c1 86 3c 90 a8 6c 3d
       -0.079924405 -0.030916331 0.016449545 0.05777794
0001f0 89 36 9c 3d 95 44 55 3d c5 14 d6 bd 58 58 27 3d
       0.07627589 0.052067358 -0.1045318 0.040855736

net.4.weight f4 [4, 128]
000000 47 ed 95 bd 92 36 b5 bc d6 19 88 bd c5 e9 21 bd
       -0.07320648 -0.022120748 -0.06645553 -0.03952958
000010 9d 43 50 39 f4 ad 89 3c 1d ec 9e bd bb 0f 90 3d
       0.00019861614 0.01680658 -0.07759879 0.0703425
000020 60 1f 2d bd 64 9a 28 bd dc 34 34 bd fe 65 a0 3d
       -0.04226625 -0.041162863 -0.043995723 0.078319535
000030 99 c4 41 bc 0f 47 0b bd 6a b8 dd bc 92 12 02 bc
       -0.011826658 -0.034003314 -0.027065475 -0.007938998
000040 40 de 0c 3d ec 09 07 3c 03 e9 84 bc 1b 50 e5 3b
       0.03439164 0.008242112 -0.01622439 0.0069980747
000050 4a 4f 44 bd 46 60 5f bb 31 5f 0f bd 8e 20 b4 3c
       -0.04792718 -0.0034084483 -0.03500289 0.02198818
000060 24 03 d7 3c 35 72 f9 bc 41 ce 44 bd 2e dc 49 bd
       0.026246615 -0.030449966 -0.04804826 -0.049282245
000070 04 c6 1b 3d d6 69 3f bd bc 8d 98 3c b8 dd 9e bc
       0.03803064 -0.046731792 0.018622272 -0.019392833
000080 e7 7b a5 bd 4d be 68 3c fd a7 4d bd 87 83 60 b9
       -0.08080273 0.0142055275 -0.050209034 -0.00021411302
000090 f4 2c 9e 3c f5 a5 4e bc 81 59 e4 bc eb 56 75 3c
       0.019308545 -0.012612809 -0.02787471 0.014974336
0000a0 fa 11 22 3d 7b 95 89 3d f4 e0 31 bc 20 f4 17 3d
       0.039567925 0.06717964 -0.010856856 0.03709805
0000b0 b0 18 0f bc 5b 4e c0 3d 0f 43 5c 3c c4 aa 3f bc
       -0.008733913 0.09389945 0.013443722 -0.011698429
0000c0 df b7 ba b8 d4 02 a5 bd 10 ec 9e bc 2f 9b 15 3c
       -8.90342e-05 -0.0805718 -0.019399673 0.009131237
0000d0 73 dc 8c 3d 1d b1 90 3d 4a 92 08 3d 98 1f 6a bc
       0.06877985 0.07065032 0.033342637 -0.014289759
0000e0 d2 3b f6 3c de 4f 82 3c 91 a7 87 bd 4c 48 a8 bc
       0.030057821 0.015907224 -0.06623758 -0.020542286
0000f0 23 43 e8 bb 9d 43 68 bd 9a 2c 87 bd a3 2a b4 bd
       -0.0070880814 -0.056705106 -0.06600304 -0.08797195
000100 08 89 51 3b aa 71 55 3d 5b 61 27 bd 73 0d 21 3b
       0.0031972546 0.05211035 -0.04086433 0.0024574667
000110 b8 11 03 bd 14 b4 cc 3c 97 dc 95 bd 9c 11 65 bd
       -0.03199932 0.024988212 -0.07317465 -0.055924997
000120 95 22 50 3d 0f 4c 49 3d 4f b4 10 bd 48 99 f4 bc
       0.05081423 0.0491448 -0.035328206 -0.029858246
000130 b9 ea 9b 3b 2f 4f 70 bd b5 91 94 3c f2 ec 83 3d
       0.0047582057 -0.058669265 0.018135885 0.06441678
000140 c6 ca b6 bb a4 60 43 bd 2a 7b 34 bd 42 ad 96 bc
       -0.0055783717 -0.047699586 -0.04406277 -0.018393163
000150 a3 65 8e 3d fa e1 7b 3d 5e 43 cf bc e8 61 cb bc
       0.069529794 0.061494805 -0.025300678 -0.024826959
000160 68 b4 ef 3c 27 9b 4f 3d 6c e5 8d bd 99 28 87 3c
       0.02926083 0.050685074 -0.069285244 0.01649885
000170 05 5a 60 bd 9f 01 9c 3b 8d 51 95 3d 28 5d 34 bd
       -0.05477335 0.0047609354 0.07290945 -0.044034153
000180 f0 d6 3a bd ca c4 a3 3d 1b f2 84 3c 5f fc 8d bc
       -0.045615137 0.07996519 0.016228726 -0.017332254
000190 46 bd a6 3c 2a 9a 06 bd fb 9e 1e bd 31 47 93 3d
       0.020353924 -0.032861866 -0.038725834 0.07191313
0001a0 3a 42 be 3c 2e 2c 86 bd 8c 3c 93 bd ed 82 06 bc
       0.023224939 -0.06551395 -0.07189283 -0.008209926
0001b0 92 04 ea 3c e0 45 73 bd b0 b0 8c 3c e0 da ac 3d
       0.028566632 -0.05939281 0.017174095 0.084401846
0001c0 82 79 62 3d e0 bb 21 3b a0 37 95 3c 78 99 80 3d
       0.05529166 0.0024678633 0.018215 0.06279272
0001d0 bc 44 92 bc 5a b7 22 bd 60 9a f9 3c 74 6b 88 bc
       -0.01785504 -0.03972564 0.03046912 -0.0166528
0001e0 70 90 6a 3c c1 64 2e bd 04 cd 71 bd a8 83 46 bc
       0.014316663 -0.042576555 -0.05903341 -0.01211635
0001f0 8c c6 8a bb 01 98 49 3d c8 e3 68 3d ed 30 ad bd
       -0.0042350944 0.049217228 0.056857854 -0.084565975
000200 91 ec 6f bd f2 4b 23 3d da fe 3a bd 1f 48 00 bd
       -0.058575217 0.03986735 -0.0456532 -0.03131878
000210 75 f1 e8 39 82 da af bb 08 8e 87 3d fe b1 07 3d
       0.00044430388 -0.0053666243 0.06618887 0.03312873
000220 44 fe 33 bc cf 23 33 3d 8a c9 45 bd dc 29 91 3c
       -0.010985915 0.04373532 -0.048287906 0.017720155
000230 18 7b ea bc 3a e8 ea 3c 64 c7 6e 3d c1 3c b2 ba
       -0.028623149 0.028675187 0.058295622 -0.0013598428
000240 e4 bc de 3c 34 ee 75 3d f1 50 6d bd 33 ec 45 bd
       0.02718968 0.06004162 -0.05793852 -0.04832096
000250 eb 91 99 3c fd d8 33 3b 80 0e 42 3d 66 d0 52 bb
       0.018746337 0.0027442568 0.04737711 -0.0032167672
000260 78 d4 a5 3b b5 db 16 bd 18 cf 11 bd f8 93 6f bc
       0.0050607286 -0.036830623 -0.03559789 -0.014622681
000270 1d 25 b3 bb 2a d8 b8 3c 7f f1 18 bd f4 4d 19 bd
       -0.0054670707 0.022564013 -0.037339684 -0.037427858
000280 01 5f 81 3d 4e 27 0a 3c 1f c1 8d bd b4 7f 00 bd
       0.06316949 0.0084322225 -0.069216006 -0.031371787
000290 b5 70 9b bc 3e 69 47 3c c9 86 1f bd 12 e5 7c bb
       -0.018974641 0.012171088 -0.0389469 -0.0038588685
0002a0 78 87 2c bd e3 c2 83 bd 33 64 3f 3b 07 c8 7f 3c
       -0.04212138 -0.06433656 0.002920401 0.015611655
0002b0 48 8e 04 3c 2f 34 64 bd d7 40 5a 3d 08 64 a0 bc
       0.008090563 -0.05571383 0.053284492 -0.019578949
0002c0 a8 bf 6e 3d f6 64 9c bd 1f 82 0d bd d0 90 06 3d
       0.058288246 -0.07636444 -0.03454792 0.032852948
0002d0 69 0c 45 bd f6 00 11 bd 23 49 27 3c 06 8f 13 bd
       -0.04810754 -0.035401307 0.010210308 -0.03602507
0002e0 97 37 1c bd e6 45 91 bd 4e 53 8a 3c 6c 76 b8 bb
       -0.038138952 -0.0709341 0.016885426 -0.0056293514
0002f0 bb fc 58 bc ef e3 4a bd bc 0d 09 3d f0 e5 1f bd
       -0.013243849 -0.04953378 0.033460364 -0.039037645
000300 5d cf af bc 80 81 de 3c 60 3b 25 bd 78 7a d6 b9
       -0.021461183 0.02716136 -0.040339828 -0.00040908507
000310 ab 05 22 bb 1c f9 a3 bc 88 9e 2c 3d 73 50 12 bd
       -0.0024722617 -0.020016246 0.042143375 -0.035721254
000320 35 8d 43 3c 84 45 54 3b d7 3b ff 3c ab ad 94 bc
       0.011935522 0.0032390067 0.031156464 -0.018149218
000330 c6 0c 3a bc d6 80 09 3d d5 bf 9f 3c 71 52 5e 3b
       -0.0113555845 0.033570133 0.019500652 0.003392365
000340 07 2d 71 3d 25 ee 96 3c cc 8c a2 bd 00 12 35 bc
       0.058880832 0.018424103 -0.07937011 -0.011051655
000350 d9 d9 1a 3d 9e 16 03 3d ff 3e 15 bd d5 fe 17 bd
       0.037805412 0.03200399 -0.03643703 -0.03710826
000360 25 b6 1e 3d 20 24 45 bd ee 59 6c 3d 11 c6 d4 bb
       0.038747925 -0.048130155 0.05770295 -0.006493338
000370 85 98 5e bd c0 1b 0d 3b d2 16 4c 3c b1 f7 e7 bb
       -0.054344673 0.0021531433 0.012456613 -0.0070790877
000380 a2 96 f2 3c ba fd 4c bd a1 05 08 bc 30 e9 8e 3c
       0.029612843 -0.05004666 -0.008302123 0.017445177
000390 a4 05 3a bd a5 33 b5 bb 02 4a 03 bc ab ad 41 3d
       -0.045415536 -0.005529838 -0.00801325 0.047284763
0003a0 43 b1 e2 3c 07 a6 52 bd 4b 86 9c 3d 95 7f 2f 3d
       0.027672416 -0.051427867 0.07642802 0.04284628
0003b0 11 5c 52 3d 4e 63 3e 3d d6 a7 5b 3d 6e 71 8a bd
       0.051357333 0.046481423 0.053626858 -0.06759916
0003c0 56 a7 9c 3c 70 05 a2 bd 08 53 04 3d 26 bf 69 3c
       0.01912276 -0.07911193 0.032305747 0.014266765
0003d0 7c 62 75 3d c3 74 67 3d 5e 08 2e bc 2e 2c 7e bc
       0.059908375 0.056507837 -0.010622112 -0.015513463
0003e0 a8 43 7b 3c 37 88 ae bc 73 a4 4b 3d 55 a4 9e 3d
       0.015335955 -0.021305187 0.049717378 0.077461876
0003f0 d2 d6 4d bd a0 4b 37 bb c9 b6 17 3b 00 f5 8a 3d
       -0.050253697 -0.002796866 0.002314972 0.06785011

net.4.bias f4 [4]
000000 51 54 a6 3c 54 41 70 3c 0d 2f b1 3b bd 06 3b 3b
       0.020303877 0.014664013 0.00540722 0.0028537952
