Entities/pained_nav.pth (torch, 73785 bytes, 6 tensors)

net.0.weight f4 [128, 4]
0.03196919 -0.4273044 -0.10415131 -0.27939075 0.27603683 -0.29678833 -0.38374135 -0.16549066
-0.39630288 0.046735417 -0.2176176 0.1934811 0.1852241 -0.2501967 -0.19336323 -0.09039816
0.20187494 0.052141625 -0.10130419 -0.47603092 -0.28611252 -0.17548001 0.011090316 0.11782001
-0.21665686 -0.043424726 -0.27491897 0.06656277 0.30309367 -0.36043838 -0.038513046 -0.5761278
0.19752933 -0.24750675 -0.02736536 -0.30063218 -0.03385866 0.027354274 -0.86353624 0.11490857
0.13592416 -0.09841118 -0.9778343 0.40205565 -0.48331535 -0.27604502 -0.11720586 -0.22975099
-0.12601855 0.4523777 -0.21992867 -0.13652872 -0.21804889 0.22482055 -0.4721217 0.5204545
0.17053695 -0.07618671 0.15414384 -0.5862198 -0.4743336 0.1381084 -0.24254766 0.12468074
0.08558875 -0.08920783 -0.34781468 -0.41312587 -0.4234707 -0.2059941 -0.0041384925 0.08961556
-0.14275801 0.15615907 -0.41336292 -0.03011306 0.3149696 -0.43996796 0.3696308 -0.29477587
0.14069608 0.3454839 -0.27412727 -0.814614 0.059026927 -0.448851 0.3008051 0.31365997
0.27431178 0.18763338 0.07400184 -0.264864 -0.32125553 -0.51556945 0.167453 0.09760937
0.08964552 -0.16850796 0.103341535 -0.4127702 0.4253218 0.15711336 0.3343359 0.1281139
-0.48179695 0.04916883 0.089535706 -0.26225635 -0.40984502 0.15606071 -0.46735895 0.177388
0.1159851 0.047203224 -0.6070316 -0.09061496 0.18327995 -0.5434517 0.00831555 -0.2476456
-0.29256538 -0.026479166 -0.38535386 0.22400913 0.067987405 0.14682285 -0.15574752 -0.43821332
-0.042764485 0.04857546 -0.4323207 -0.079028726 -0.4246469 -0.27858728 -0.101528466 -0.043585718
-0.42750883 -0.48355043 -0.47982252 0.07787973 -0.33787477 0.09052175 -0.42297906 -0.3520077
0.01986797 -0.14098582 0.14091004 -0.28333035 -0.2046749 -0.4054597 -0.1320399 0.1016773
-0.33778492 0.2472159 -0.36687726 -0.022398882 0.25796598 0.45395118 -0.3794972 0.12393797
0.08114471 -0.54060996 -0.21150161 0.14143631 0.13934192 -0.3182458 -0.3751026 0.120417655
0.3789482 -0.17074403 0.21781197 -0.27309442 0.18167284 -0.1921979 0.008376398 -0.2492136
0.0986237 -0.48388708 -0.03740342 0.06015967 -0.28732288 -0.400158 -0.43022823 -0.32075912
-0.1249102 -0.07558311 -0.11724894 0.15792358 -0.6876642 -0.35386446 0.18906513 -0.06574587
-0.21389751 -0.11847454 0.065606095 -0.037389327 -0.3767962 -0.07070649 -0.18128514 -0.08454275
0.017605975 -0.025693126 -0.042871583 -0.029247217 0.1486973 -0.04600518 -0.08086374 -0.43691608
-0.0007545206 0.0047027115 -0.7832742 0.17593044 -0.486746 0.3173678 -0.30958444 -0.45340317
0.03671952 0.0048176027 -0.17850229 -0.19226612 -0.083583675 0.22228019 -0.6696543 -0.073554315
-0.19134372 -0.09327328 -0.42607075 -0.2472862 -0.3537283 -0.49174476 -0.4093057 -0.42974603
0.14562625 -0.152296 -0.1820268 -0.41736752 -0.27046818 -0.5697355 0.17902121 0.076418415
-0.18850838 0.15669732 0.14954986 0.38537148 0.51352715 -0.5646677 0.16782743 0.064839825
0.32402512 0.08472511 0.19309606 -0.22070107 -0.30799103 0.0344342 -0.49028903 -0.48887122
00000000: 20f2 023d a4c7 dabe 484d d5bd 4e0c 8fbe
00000010: b354 8d3e a4f4 97be bf79 c4be 6276 29be
00000020: 36e8 cabe a36d 3f3d 26d7 5ebe e91f 463e
00000030: 63ab 3d3e c819 80be 0301 46be ac22 b9bd
00000040: 4eb8 4e3e 7592 553d 9278 cfbd 53ba f3be
00000050: 577d 92be 08b1 33be 28b4 353c 9e4b f13d
00000060: 4cdb 5dbe 20de 31bd 2ec2 8cbe 1052 883d
00000070: 182f 9b3e 618b b8be dbbf 1dbd 1d7d 13bf
00000080: 2145 4a3e 6972 7dbe 522d e0bc 76ec 99be
00000090: 61af 0abd 1216 e03c b610 5dbf 2f55 eb3d
000000a0: b42f 0b3e cd8b c9bd 5953 7abf 3dda cd3e
000000b0: 1c75 f7be c655 8dbe a009 f0bd d843 6bbe
000000c0: 020b 01be 0d9e e73e fb34 61be 2fce 0bbe
000000d0: 3548 5fbe 5c37 663e efb9 f1be 823c 053f
000000e0: 3da1 2e3e c707 9cbd e2d7 1d3e 8012 16bf
000000f0: dbdb f2be 4a6c 0d3e 6a5e 78be 9e58 ff3d
00000100: 2849 af3d 98b2 b6bd c414 b2be 3c85 d3be
00000110: 27d1 d8be 1ef0 52be 319c 87bb 5d88 b73d
00000120: 282f 12be 2ae8 1f3e 4ea4 d3be aaaf f6bc
00000130: b243 a13e 7b43 e1be 4040 bd3e ddec 96be
00000140: a212 103e 44e3 b03e 695a 8cbe 8b8a 50bf
00000150: 38c6 713d cccf e5be 2003 9a3e 0a98 a03e
00000160: 9872 8c3e f722 403e 478e 973d 419c 87be
00000170: 9b7b a4be 5cfc 03bf cd78 2b3e 6ce7 c73d
00000180: 1298 b73d 5a8d 2cbe baa4 d33d 9e56 d3be
00000190: c7c3 d93e 53e2 203e 132e ab3e 4a30 033e
000001a0: 17ae f6be 4165 493d 7f5e b73d 7746 86be
000001b0: 35d7 d1be 61ce 1f3e ac49 efbe 33a5 353e
000001c0: 9989 ed3d 2b58 413d 6c66 1bbf 5694 b9bd
000001d0: bdad 3b3e a71f 0bbf f23d 083c cf96 7dbe
000001e0: 21cb 95be d6ea d8bc 1a4d c5be a662 653e
000001f0: fb3c 8b3d bb58 163e 477c 1fbe 7f5d e0be
00000200: d029 2fbd 10f7 463d 2459 ddbe d0d9 a1bd
00000210: 526b d9be fea2 8ebe 28ee cfbd f086 32bd
00000220: 70e2 dabe ec93 f7be 4cab f5be 687f 9f3d
00000230: ecfd acbe 7863 b93d b690 d8be 5a3a b4be
00000240: 27c2 a23c 965e 10be b94a 103e ad10 91be
00000250: 4c96 51be 6a98 cfbe 7835 07be 303c d03d
00000260: 25f2 acbe 2a26 7d3e 56d7 bbbe dc7d b7bc
00000270: 1e14 843e 4a6c e83e 754d c2be 31d3 fd3d
00000280: 332f a63d 6a65 0abf e193 58be aed4 103e
00000290: a6af 0e3e 1df1 a2be 730d c0be 889d f63d
000002a0: 8005 c23e 86d7 2ebe 1a0a 5f3e 08d3 8bbe
000002b0: 7208 3a3e 87cf 44be 293d 093c da31 7fbe
000002c0: 39fb c93d 0cc0 f7be 5434 19bd fc69 763d
000002d0: fc1b 93be 82e1 ccbe e046 dcbe 8a3a a4be
000002e0: ebd0 ffbd 51cb 9abd 3620 f0bd b8b6 213e
000002f0: c30a 30bf b92d b5be 4a9a 413e c5a5 86bd
00000300: f307 5bbe c8a2 f2bd 7d5c 863d 8d25 19bd
00000310: 6eeb c0be 90ce 90bd d0a2 39be c024 adbd
00000320: 683a 903c 647a d2bc 1d9a 2fbd dc97 efbc
00000330: 1b44 183e ed6f 3cbd e39b a5bd 77b3 dfbe
00000340: 05cb 45ba 3419 9a3b a884 48bf 1c27 343e
00000350: c636 f9be 087e a23e da81 9ebe 7624 e8be
00000360: 3567 163d fbdc 9d3b 4ec9 36be 69e1 44be
00000370: eb2d abbd 6b9d 633e 776e 2bbf a5a3 96bd
00000380: 9cef 43be 1006 bfbd f225 dabe 9838 7dbe
00000390: e01b b5be f8c5 fbbe 8490 d1be ac07 dcbe
000003a0: 0c1f 153e 7cf3 1bbe 3c65 3abe 32b1 d5be
000003b0: ce7a 8abe 30da 11bf 5651 373e 4281 9c3d
000003c0: 5708 41be 4375 203e 9923 193e 694f c53e
000003d0: 8476 033f 108e 10bf f4da 2b3e beca 843d
000003e0: 9fe6 a53e 5c84 ad3d f9ba 453e 76ff 61be
000003f0: 00b1 9dbe e00a 0d3d 2a07 fbbe 544d fabe

net.0.bias f4 [128]
0.25668657 -0.40487075 -0.47432324 -0.6733302 -1.3281683 -0.17950054 0.4440025 0.3911865
0.40651375 0.6957822 -1.6802241 -0.121605694 1.8622329 -1.4751077 -0.2853466 -0.4970756
0.11076504 -0.6172229 -0.41999274 -0.23937483 1.4055575 -0.41597685 0.41766936 -0.46905386
-0.0728032 0.055389147 -0.38093457 0.04340803 0.3392681 -0.20761187 0.3954825 -0.44349813
0.4255947 0.013784826 0.3126214 0.030875206 -0.45115146 -0.4180318 -0.5513862 -3.3936477
0.33998397 -0.199828 -0.3946773 -0.5887591 -0.12744984 0.36530745 -0.15025833 -0.3634764
-0.16458818 -0.096527815 0.5367337 -0.93862784 -0.7041302 0.3907346 0.66317695 -0.18387304
-0.35889107 0.2464279 -0.0677138 0.20627679 -0.25007954 1.0409817 0.22964388 0.1850105
-0.48811606 -0.15541364 0.07890843 0.45315993 -0.11771008 0.0012836106 0.20648664 0.14054316
-0.44302922 0.8680127 -0.35882926 -1.1123717 1.9676148 0.36316374 -0.65884817 -0.387141
-1.0512325 0.34967548 -1.1317654 -1.2083619 -0.40647858 -0.10010344 0.30718774 -0.18419468
0.21893525 0.55709666 -0.030369937 -0.3191058 0.11664888 0.7627825 -0.35690132 0.42773482
-0.48571885 -0.2585131 0.3471887 0.16031231 0.37197176 -0.16575032 0.97340673 0.22067988
-0.07879765 0.33974135 -0.58780336 0.011764962 -0.28553623 0.09127265 1.6855055 -0.088424176
0.1409398 0.22462226 -0.49915877 2.7291894 -0.37767988 -0.011482358 0.434636 -0.43813783
0.0056329966 1.2508138 -0.1751876 -0.7060302 -0.22734854 0.26666623 0.5230195 -0.5813566
00000000: 6c6c 833e 384b cfbe 7fda f2be 5e5f 2cbf
00000010: 6b01 aabf fdce 37be 4c54 e33e 9949 c83e
00000020: 9222 d03e c81e 323f 9511 d7bf 680c f9bd
00000030: a65d ee3f 54d0 bcbf f318 92be b180 febe
00000040: c8d8 e23d 5202 1ebf 4a09 d7be ad1e 75be
00000050: 4fe9 b33f ebfa d4be c2d8 d53e d427 f0be
00000060: d819 95bd bbdf 623d db09 c3be 9ecc 313d
00000070: 8cb4 ad3e 3598 54be af7c ca3e 3012 e3be
00000080: 8ce7 d93e c0d9 613c ea0f a03e 00ee fc3c
00000090: 53fd e6be 4408 d6be a527 0dbf 8631 59c0
000000a0: 6112 ae3e b69f 4cbe 2513 cabe ebb8 16bf
000000b0: 3682 02be 9409 bb3e 52dd 19be 9419 babe
000000c0: ce89 28be 60b0 c5bd 6167 093f ea49 70bf
000000d0: e041 34bf 5e0e c83e f7c5 293f 3749 3cbe
000000e0: 92c0 b7be 9857 7c3e 88ad 8abd 393a 533e
000000f0: 6d0a 80be e33e 853f c427 6b3e 6473 3d3e
00000100: 59ea f9be c124 1fbe be9a a13d 9404 e83e
00000110: fc11 f1bd d33e a83a 3c71 533e 8cea 0f3e
00000120: bad4 e2be 1536 5e3f 78b8 b7be 3262 8ebf
00000130: cdda fb3f 99f0 b93e 46aa 28bf 5837 c6be
00000140: c98e 86bf aa08 b33e b0dd 90bf 9aab 9abf
00000150: f61d d0be 0803 cdbd b647 9d3e 889d 3cbe
00000160: 9030 603e e39d 0e3f 60ca f8bc d661 a3be
00000170: 9ce5 ee3d b745 433f c5bb b6be 0f00 db3e
00000180: 24b0 f8be d45b 84be b8c2 b13e e928 243e
00000190: 1573 be3e 74ba 29be 2f31 793f e8f9 613e
000001a0: aa60 a1bd 94f2 ad3e 487a 16bf d4c1 403c
000001b0: ce31 92be 28ed ba3d a5be d73f bc17 b5bd
000001c0: 8652 103e 6103 663e bd91 ffbe 0aab 2e40
000001d0: 425f c1be 8020 3cbc 9c88 de3e 9a53 e0be
000001e0: 0095 b83b ab1a a03f 6164 33be 65be 34bf
000001f0: 0ece 68be 7a88 883e 9be4 053f c9d3 14bf

net.2.weight f4 [128, 128]
0.06764863 0.15348148 -0.036127277 0.0898387 -0.13820297 -0.048847612 0.031267628 0.17070942
0.112899035 -0.0796293 -0.0003837587 -0.042594142 0.03344681 -0.014006152 -0.08029777 -0.046672184
0.06991383 -0.07564803 0.052575205 -0.018460425 -0.43793705 -0.074781105 -0.12845187 -0.0033157482
-0.0588766 -0.02026065 -0.013041683 -0.085591115 -0.0804657 0.049934253 0.0040677967 0.21959531
-0.025745362 0.026586615 0.070076965 -0.04732714 -0.080311954 -0.04604737 -0.03343065 -0.09470225
-0.03770087 -0.09242227 -0.16739888 -0.08266986 -0.08556876 -0.046742454 -0.050872073 -0.07714314
-0.071031585 -0.0017018691 0.059235044 -0.010290222 0.008397011 -0.020730399 -0.08403982 -0.014363551
0.07589502 0.04914678 -0.0073872134 -0.0953818 -0.049782865 -0.07047398 -0.13334237 -0.027310472
-0.009218356 0.09180691 -0.014186592 -0.06613137 -0.22174688 -0.008239151 -0.024674848 0.02665881
0.031553283 -0.061080895 0.008485727 -0.022507515 -0.05772464 0.002440254 -0.040728197 -0.003069967
0.046646014 -0.02141876 -0.060214452 -0.17256461 -0.005888244 -0.06545635 -0.0212055 -0.13935448
-0.020718727 -0.028168302 0.052276455 -0.034080163 0.060146596 -0.040452998 -0.005155318 0.15270942
-0.012954108 0.037112515 0.21514851 -0.03164694 -0.081628114 -0.090526365 -0.007952209 -0.026257042
-0.1612187 0.3601759 -0.06011153 -0.03230929 -0.012117002 -0.08809711 -0.089155324 -0.027650971
-0.019617029 -0.10043924 -0.011748533 -0.052532636 -0.07621754 -0.054029625 0.027500207 -0.02632491
-0.024785131 -0.051485077 0.08142744 0.027564581 -0.0030390788 -0.11724308 -0.20100333 -0.027117439
0.01793553 -0.05558482 -0.06271999 0.002010824 -0.029326221 0.07074437 -0.027975425 -0.055173118
-0.01720936 -0.044576284 -0.08725699 -0.00048588216 -0.10357306 -0.014636239 -0.12686701 -0.005413928
0.0432195 0.0288889 0.0047879675 0.036860723 -0.0763648 -0.033943012 -0.087078944 -0.08627932
-0.04358434 -0.08981926 0.014658559 -0.021241939 0.06438924 -0.06285611 0.038693547 -1.9385875e-06
-0.052666355 0.04204137 -0.002549149 -0.03253152 0.024490798 -0.01987306 -0.08528659 0.0057009063
-0.09209894 -0.0068352036 -0.0793708 0.012664287 -0.035634384 -0.009844229 -0.013664428 -0.051333
0.014198201 0.0355578 0.046341345 0.0027449154 -0.021576189 -0.06656202 -0.027983708 0.005146965
-0.07863773 -0.04401648 0.036111943 -0.038661804 -0.00021055141 -0.042270012 -0.015913425 -0.072286405
0.06847727 -0.010382742 -0.02346525 -0.08459512 -0.018439628 0.07775553 0.05928371 0.05024699
-0.019843705 -0.09534272 0.08583116 -0.0023351652 -0.08686403 -0.01731537 -0.016774831 0.06320051
-0.058025457 0.009188533 -0.030657237 0.044657506 -0.08771379 -0.08449289 -0.04102446 -0.0628638
-0.0945268 -0.007115282 -0.047466274 -0.017922632 -0.018490277 -0.006838859 -0.08263269 0.04457218
0.051921748 0.08799297 0.029240318 0.044324826 -0.0010389047 -0.05905279 -0.002924418 -0.04547962
0.012567184 0.011120611 -0.012087109 0.0018969299 -0.0044293776 -0.06326244 0.03747692 -0.08245491
0.052171804 -0.06891644 -0.03005676 -0.020271154 -0.099061415 0.009653412 -0.014498368 0.041430198
-0.024620228 -0.035106234 -0.07223967 -0.0358861 -0.09291851 -0.013189956 0.05098822 0.044154372
00000000: 5d8b 8a3d 402a 1d3e 32fa 13bd 5afd b73d
00000010: 1485 0dbe 6f14 48bd 7c12 003d 73ce 2e3e
00000020: 9c37 e73d b014 a3bd 3933 c9b9 3277 2ebd
00000030: 86ff 083d 0f7a 65bc 2873 a4bd 552b 3fbd
00000040: fb2e 8f3d 5bed 9abd 1959 573d 513a 97bc
00000050: 4939 e0be d626 99bd e388 03be 064d 59bb
00000060: 9728 71bd aaf9 a5bc c8ac 55bc 654a afbd
00000070: 33cb a4bd dc87 4c3d 274b 853b 98dd 603e
00000080: f0e7 d2bc 2ccc d93c 8384 8f3d 1ada 41bd
00000090: 987a a4bd 2b9c 3cbd 94ee 08bd 41f3 c1bd
000000a0: 3a6c 1abd e347 bdbd 9d6a 2bbe d14e a9bd
000000b0: ad3e afbd 0475 3fbd 3c5f 50bd 39fd 9dbd
000000c0: 0279 91bd 4011 dfba 72a0 723d 5298 28bc
000000d0: 9e93 093c ccd2 a9bc 121d acbd 1955 6bbc
000000e0: d96e 9b3d 224e 493d 7010 f2bb 8857 c3bd
000000f0: 1ee9 4bbd a954 90bd e78a 08be 36ba dfbc
00000100: 9608 17bc 4305 bc3d e16e 68bc e26f 87bd
00000110: 9d11 63be 81fd 06bc e822 cabc 9463 da3c
00000120: 043e 013d f62f 7abd b807 0b3c ae61 b8bc
00000130: ac70 6cbd abec 1f3b 9cd2 26bd 8031 49bb
00000140: e40f 3f3d 6576 afbc 6ea3 76bd c7b4 30be
00000150: 2cf2 c0bb fb0d 86bd 28b7 adbc f1b2 0ebe
00000160: 52ba a9bc 36c1 e6bc d61f 563d a497 0bbd
00000170: 475c 763d 0bb2 25bd f1ed a8bb dc5f 1c3e
00000180: 783d 54bc 4b03 183d e44f 5c3e 39a0 01bd
00000190: a42c a7bd e365 b9bd fb49 02bc 0219 d7bc
000001a0: 8416 25be fa68 b83e 8237 76bd bf56 04bd
000001b0: 6486 46bc 426c b4bd 1197 b6bd 4a84 e2bc
000001c0: e4b3 a0bc 17b3 cdbd eb7c 40bc 762c 57bd
000001d0: f117 9cbd 2b4e 5dbd 1d48 e13c 56a7 d7bc
000001e0: 300a cbbc 04e2 52bd 6ec3 a63d 1ecf e13c
000001f0: 482b 47bb 241d f0bd d1d3 4dbe 6425 debc
00000200: 88ed 923c e9ac 63bd 5773 80bd 07c8 033b
00000210: 8b3d f0bc 6de2 903d b82c e5bc 35fd 61bd
00000220: a5fa 8cbc 9f95 36bd cbb3 b2bd 00be feb9
00000230: 1d1e d4bd d6cc 6fbc 6de9 01be 5267 b1bb
00000240: ee06 313d 6aa8 ec3c 62e4 9c3b 45fb 163d
00000250: 2665 9cbd d407 0bbd 7256 b2bd 36b3 b0bd
00000260: 7e85 32bd 29f3 b7bd 742a 703c 9303 aebc
00000270: 82de 833d b4ba 80bd 207d 1e3d ae18 02b6
00000280: adb8 57bd 9233 2c3d a00f 27bb c53f 05bd
00000290: eda0 c83c d4cc a2bc bcaa aebd abce ba3b
000002a0: 5e9e bcbd d8f9 dfbb 288d a2bd df7d 4f3c
000002b0: 5cf5 11bd b049 21bc c4e0 5fbc 8d42 52bd
000002c0: 929f 683c 0ea5 113d 6cd0 3d3d 0ae4 333b
000002d0: 8cc0 b0bc ab51 88bd 173e e5bc dfa7 a83b
000002e0: d10c a1bd a04a 34bd 1eea 133d d75b 1ebd
000002f0: 77c7 5cb9 5223 2dbd df5c 82bc e50a 94bd
00000300: d03d 8c3d 601c 2abc 323a c0bc 3540 adbd
00000310: b40e 97bc 4b3e 9f3d 7ad3 723d cacf 4d3d
00000320: 448f a2bc 0b43 c3bd 3fc8 af3d 9209 19bb
00000330: c5e5 b1bd f6d8 8dbc 5f6b 89bc 456f 813d
00000340: 1aac 6dbd 808b 163c e324 fbbc caea 363d
00000350: 4aa3 b3bd 9c0a adbd 4409 28bd bcbe 80bd
00000360: 4497 c1bd 5027 e9bb ff6b 42bd 7cd2 92bc
00000370: ec78 97bc 8218 e0bb 543b a9bd 5191 363d
00000380: e6ab 543d a935 b43d 6489 ef3c f38d 353d
00000390: db2b 88ba 57e1 71bd 98a7 3fbb d748 3abd
000003a0: 97e6 4d3c 3933 363c 0209 46bc 68a2 f83a
000003b0: 5024 91bb bd8f 81bd 6681 193d 1fde a8bd
000003c0: 1ab2 553d 1024 8dbd 9839 f6bc b10f a6bc
000003d0: b6e0 cabd 5829 1e3c 908a 6dbc b6b2 293d
000003e0: 5cb0 c9bc 8ecb 0fbd 64f2 93bd 4efd 12bd
000003f0: 0f4c bebd af1a 58bc 06d9 503d 37db 343d

net.2.bias f4 [128]
-0.25448227 -0.040954117 -0.04579615 -0.0768323 -0.16234958 0.02479122 -0.025502194 -0.07843442
1.7914348 -0.08071947 -0.047155023 0.0077460087 0.58331406 -0.08125307 -0.0599325 0.036799654
0.0142254615 -0.15628652 -0.086820476 -0.0035298038 0.05777398 -0.08161985 0.060841046 -0.009500921
-0.09243479 -0.0077595175 0.06145911 -0.18084143 0.3639295 -0.096829616 -0.070856944 -0.04932251
-0.14481008 -0.1026422 -0.084775284 -0.107268944 0.039579824 0.6558121 -0.0734817 -0.025825229
-0.112764195 -0.04761508 0.5319569 -0.10194955 -0.00064282626 -0.09079083 -0.07459965 0.04575688
-0.084176704 0.1663907 0.21177942 -0.01242764 -0.07333016 -0.11281561 -0.03081617 -0.14919911
-0.050164938 0.016769024 -0.11811461 -0.03173407 -0.07661394 0.037285052 -0.18567254 -0.057707164
-0.006210388 -0.36870143 -0.011866635 0.06675898 0.9680558 0.10368702 0.054257832 1.4145216
-0.065449014 0.043431964 -0.08647457 0.32010785 0.0046762074 0.016027544 -0.12822403 -0.071741775
-0.07743764 -0.057238713 -0.91004926 -0.11864019 0.08049565 -0.060149297 0.00094597106 -0.032260105
-0.18921424 0.03244289 0.019075308 -0.037847105 0.028990217 0.011937953 -0.02020744 0.054932468
0.037606485 -0.086316615 -0.18979639 0.044860266 0.07016974 0.09101635 -0.11240488 -0.09919376
0.006096417 0.18513834 -0.14116219 -0.11821209 -0.13563769 -0.022121236 -0.017545536 -0.059165888
-0.11373769 -0.29432115 -0.07016565 0.03238849 -0.068765596 -0.0026655102 -0.0911965 -0.016308323
-0.0350195 0.03765431 -0.019543214 -0.15212172 0.07187528 -0.0053111594 0.047022708 -0.014759497
00000000: 804b 82be 81bf 27bd be94 3bbd 415a 9dbd
00000010: f83e 26be f516 cb3c fae9 d0bc 3aa2 a0bd
00000020: bc4d e53f 4050 a5bd a025 41bd 3bd2 fd3b
00000030: 1254 153f 0268 a6bd c87b 75bd 3cbb 163d
00000040: e911 693c 9309 20be efce b1bd 4854 67bb
00000050: 69a4 6c3d 4f28 a7bd 7634 793d c0a9 1bbc
00000060: 744e bdbd 8d43 febb 8cbc 7b3d 7f2e 39be
00000070: f854 ba3e 9b4e c6bd 721d 91bd 6606 4abd
00000080: 1849 14be 1336 d2bd aa9e adbd d2af dbbd
00000090: 741e 223d 4de3 273f 937d 96bd 6e8f d3bc
000000a0: eaf0 e6bd 0808 43bd 542e 083f edca d0bd
000000b0: 5783 28ba 8bf0 b9bd b4c7 98bd 916b 3b3d
000000c0: d664 acbd 5362 2a3e b4dc 583e 4d9d 4bbc
000000d0: 1f2e 96bd df0b e7bd 3172 fcbc a7c7 18be
000000e0: c079 4dbd 315f 893c 13e6 f1bd 96fb 01bd
000000f0: c5e7 9cbd 36b8 183d f120 3ebe 595e 6cbd
00000100: 8380 cbbb 6fc6 bcbe 466c 42bc efb8 883d
00000110: 81d2 773f dc59 d43d 763d 5e3d 0b0f b53f
00000120: 220a 86bd b7e5 313d 9419 b1bd 2de5 a33e
00000130: df3a 993b 324c 833c 294d 03be 5aed 92bd
00000140: a097 9ebd 2473 6abd fdf8 68bf a1f9 f2bd
00000150: e7da a43d 1c5f 76bd 0bfb 773a 2c23 04bd
00000160: 61c1 41be d6e2 043d d243 9c3c 9105 1bbd
00000170: e47c ed3c 6797 433c 138a a5bc de00 613d
00000180: 4209 1a3d c4c6 b0bd fc59 42be 66bf 373d
00000190: 27b5 8f3d c866 ba3d 8834 e6bd 1926 cbbd
000001a0: 74c4 c73b e894 3d3e d28c 10be 2e19 f2bd
000001b0: 9be4 0abe 9837 b5bc a8bb 8fbc ee57 72bd
000001c0: 4eef e8bd 43b1 96be 02b3 8fbd cba9 043d
000001d0: fad4 8cbd d7af 2ebb 3bc5 babd 0899 85bc
000001e0: 9b70 0fbd 683b 1a3d 1719 a0bc ccc5 1bbe
000001f0: 5933 933d 3c09 aebb e29a 403d d1d1 71bc

net.4.weight f4 [4, 128]
-0.0053965566 0.03271979 -0.011858875 -0.017200839 0.098025605 -0.03777952 -0.013279735 0.07469525
0.050417546 -0.08383512 0.04675651 0.0048364196 0.0117123565 0.062190447 -0.08540757 -0.06613517
-0.0033674059 0.04896765 0.013690688 0.039018802 0.0670352 0.027415812 -0.040068522 0.04432441
0.001683681 0.0055024475 -0.03645047 0.0062180767 -0.005483822 0.04962317 0.06822238 -0.02685062
-0.025118465 -0.076028995 -0.112194605 0.008809456 -0.015405773 -0.051917743 0.08608108 -0.0056992127
-0.015962027 0.042564712 0.030219775 0.034046885 0.05237649 0.048406806 -0.01821281 -0.04130571
-0.007232543 -0.04814717 -0.013879952 -0.024123762 -0.027869193 0.006586373 -0.011804579 0.04264172
0.019880312 -0.027345179 -0.03907137 -0.0041182805 0.04309121 -0.057066653 -0.01569639 -0.04409704
-0.029369412 0.021892065 0.046420436 0.017243207 -0.054476608 0.0830682 -0.041469213 0.043817446
0.024026375 -0.0072839824 -0.03971196 0.03004807 -0.0037121475 -0.029490415 -0.024467664 -0.019702509
0.032829057 -0.035928655 -0.113188915 0.015499669 0.046708856 -0.064848185 -0.06219796 0.055320974
-0.055876948 -0.055878535 0.014948944 0.0025475007 -0.016543021 -0.02688531 -0.01081463 -0.04168021
0.011088225 0.08065919 -0.019314101 -0.07023306 0.0645661 0.015239099 -0.025047384 0.032284506
0.011009538 0.004331983 0.05992249 -0.0030857446 -0.020088658 -0.1327313 -0.054096915 0.048148032
0.012946638 -0.01721429 0.03858479 0.052496277 -0.0034253374 -0.030976098 -0.0042029247 -0.048516653
0.06098914 -0.036066446 -0.019721504 -0.043611087 0.08526688 0.022191575 0.116773374 0.060533445
0.025125332 -0.046927135 0.0059438064 -0.008203419 0.103992514 0.006107796 0.023371179 -0.07065558
0.09699945 -0.07234702 -0.034862194 0.0111685265 -0.023701422 0.049087077 -0.09960008 0.023178227
0.06792189 0.027117256 -0.052524064 0.03047921 0.06181824 0.019733597 -0.076746345 0.048168622
-0.038304847 -0.0041070385 -0.03416049 -0.00622564 -0.064129256 0.0035618842 0.0003770067 -0.025437705
0.075555 -0.017125465 -0.021812223 0.061720453 0.011880873 0.10530188 0.06820274 -0.023751702
-0.0037559941 0.0014854324 0.07751393 0.031093769 0.027436018 0.012410913 -0.015260331 -0.028767452
-0.058222204 -0.085873246 -0.013538718 -0.0138621265 0.073067434 0.03706094 -0.06499949 0.017937059
0.014000423 -0.016148115 -0.010642772 -0.008139938 -0.071728475 0.008911445 -0.08904002 -0.013415317
-0.07999205 0.038273875 -0.01947171 -0.07805153 -0.056718837 0.08310803 -0.031061627 -0.04521006
-0.037144113 -0.010811652 0.010056554 -0.05013555 0.0057228133 0.034094468 -0.058787752 -0.029187141
0.07754037 0.0058072237 -0.03955778 0.016840693 -0.04011157 -0.057781808 -0.28813896 -0.060365044
-0.035018858 -0.015864937 -0.08296122 -0.025378816 -0.04477782 0.01887183 -0.04527334 0.03499496
0.022845464 0.06259419 -0.09088135 0.020894192 0.05548244 -0.07565455 -0.06990378 0.023292452
-0.038582224 -0.0026847215 -0.13948855 -0.057968017 0.04441093 -0.13070376 -0.0039993734 0.02750977
0.077394724 -0.06585344 0.013797419 -0.013628945 0.026151158 -0.0042718276 0.0052686823 -0.0253717
-0.058847085 -0.064807154 0.03707212 0.022571795 -0.04680944 0.0359411 0.035105895 -0.048583016
00000000: 99d5 b0bb 3005 063d ba4b 42bc c6e8 8cbc
00000010: a6c1 c83d b3be 1abd 3f93 59bc d3f9 983d
00000020: a182 4e3d bfb1 abbd c183 3f3d d47a 9e3b
00000030: 2fe5 3f3c 69bb 7e3d 2aea aebd e071 87bd
00000040: b2af 5cbb 4d92 483d e84e 603c 2ed2 1f3d
00000050: c049 893d 2097 e03c e41e 24bd 838d 353d
00000060: f6ae dc3a e04d b43b 174d 15bd 02c1 cb3b
00000070: a2b1 b3bb aa41 4b3d 2db8 8b3d d5f5 dbbc
00000080: 3dc5 cdbc 17b5 9bbd 49c6 e5bd 8955 103c
00000090: 7f68 7cbc b3a7 54bd 474b b03d 76c0 babb
000000a0: ccc2 82bc 5658 2e3d 768f f73c bf74 0b3d
000000b0: bb88 563d 3746 463d 0833 95bc 2d30 29bd
000000c0: f8fe ecbb f835 45bd bd68 63bc 329f c5bc
000000d0: ef4d e4bc 80d2 d73b fe67 41bc 16a9 2e3d
000000e0: 09dc a23c ff02 e0bc 4d09 20bd a4f2 86bb
000000f0: 6980 303d b9be 69bd b795 80bc 199f 34bd
00000100: 1f98 f0bc fd56 b33c 5b23 3e3d a041 8d3c
00000110: dd22 5fbd a91f aa3d 9fdb 29bd ec79 333d
00000120: f6d2 c43c 79ae eebb 02a9 22bd 5f27 f63c
00000130: 8047 73bb e295 f1bc 6970 c8bc 2867 a1bc
00000140: c377 063d ed29 13bd 97cf e7bd 53f2 7d3c
00000150: c951 3f3d 20cf 84bd 4ac3 7ebd 3f98 623d
00000160: 3adf 64bd e4e0 64bd 6aec 743c f8f3 263b
00000170: 3b85 87bc 953e dcbc d92f 31bc deb8 2abd
00000180: 63ab 353c a530 a53d 9b38 9ebc 5ad6 8fbd
00000190: 3b3b 843d 6aad 793c 2c30 cdbc c23c 043d
000001a0: 5961 343c 4ff3 8d3b 4971 753d 343a 4abb
000001b0: f890 a4bc b7ea 07be ba94 5dbd df36 453d
000001c0: 231e 543c fc04 8dbc 160b 1e3d 5606 573d
000001d0: a07b 60bb 96c1 fdbc b0b8 89bb 66b9 46bd
000001e0: c0cf 793d 69ba 13bd fe8e a1bc 8aa1 32bd
000001f0: 67a0 ae3d 1bcb b53c e126 ef3d ebf1 773d
00000200: a4d3 cd3c ab36 40bd 43c4 c23b a267 06bc
00000210: 07fa d43d e823 c83b ea74 bf3c dfb3 90bd
00000220: a6a7 c63d ad2a 94bd a9cb 0ebd 32fc 363c
00000230: 7c29 c2bc 880f 493d 20fb cbbd 44e0 bd3c
00000240: a21a 8b3d 0225 de3c 7923 57bd 89af f93c
00000250: 1f35 7d3d 5aa8 a13c 302d 9dbd 764c 453d
00000260: 8be5 1cbd 5694 86bb dfeb 0bbd 7400 ccbb
00000270: 3356 83bd 806e 693b fca8 c539 bc62 d0bc
00000280: 94bc 9a3d b44a 8cbc 8caf b2bc 96ce 7c3d
00000290: fea7 423c 83a8 d73d e1ad 8b3d ee92 c2bc
000002a0: 2027 76bb d7b2 c23a a0bf 9e3d 5cb8 fe3c
000002b0: 80c1 e03c 2457 4b3c 7806 7abc b8a9 ebbc
000002c0: 687a 6ebd 50de afbd 80d1 5dbc f91d 63bc
000002d0: 61a4 953d 36cd 173d 741e 85bd bdf0 923c
000002e0: 0862 653c 0d49 84bc 055f 2ebc 605d 05bc
000002f0: 61e6 92bd 4f01 123c 9d5a b6bd ebcb 5bbc
00000300: dfd2 a3bd 11c5 1c3d 2383 9fbc 7bd9 9fbd
00000310: 0352 68bd 8b34 aa3d f474 febc 2f2e 39bd
00000320: 6d24 18bd 5b23 31bc 3fc4 243c ef5a 4dbd
00000330: 7086 bb3b a4a6 0b3d 6dcb 70bd df19 efbc
00000340: 7ccd 9e3d 864a be3b 5707 22bd 7ef5 893c
00000350: 084c 24bd 9eac 6cbd f386 93be 5641 77bd
00000360: ef6f 0fbd 2ff7 81bc 92e7 a9bd 3ce7 cfbc
00000370: f368 37bd 1999 9a3c 8a70 39bd e056 0f3d
00000380: 6926 bb3c 6231 803d 0020 babd 4c2a ab3c
00000390: 8e41 633d c6f0 9abd b729 8fbd d0cf be3c
000003a0: 6508 1ebd 27f2 2fbb 16d6 0ebe df6f 6dbd
000003b0: 3ce8 353d 35d7 05be 2d0d 83bb 2b5c e13c
000003c0: 2081 9e3d 2bde 86bd 920e 623c f04b 5fbc
000003d0: f43a d63c b0fa 8bbb e9a4 ac3b 50d8 cfbc
000003e0: a409 71bd 9db9 84bd efd8 173d 7ce8 b83c
000003f0: 41bb 3fbd fa36 133d 33cb 0f3d fcfe 46bd

net.4.bias f4 [4]
0.247562 0.25070444 0.2487674 0.2085871
00000000: e580 7d3e 555c 803e e2bc 7e3e db97 553e
