Entities/pained_nav.pth (torch, 73785 bytes, 6 tensors)

net.0.weight f4 [128, 4]
0	0x3f23d630	0.639987
1	0x3ee4f8c9	0.44721058
2	0xbe4b1c12	-0.19834927
3	0xbe86c2d7	-0.26320526
4	0xbe5f28f8	-0.21792972
5	0xbed1d90e	-0.40985912
6	0xbd1787c0	-0.036994696
7	0xbe52351c	-0.20528072
8	0x3f1bb634	0.60824895
9	0x3e914106	0.2836992
10	0xbebe1dc0	-0.37132072
11	0x3e8e1b1f	0.27755067
12	0x3e56b36d	0.20966883
13	0x3e1f9252	0.1558316
14	0xbcfa998e	-0.030590799
15	0xbe9283af	-0.28616092
16	0xbecdd402	-0.40200812
17	0xbef9929c	-0.48744667
18	0xbca196c0	-0.019725204
19	0xbe42dd6c	-0.19029778
20	0x3da670ce	0.081269845
21	0xbe9bc20b	-0.3042148
22	0x3e1d300c	0.1535036
23	0x3eb4c9d6	0.3531024
24	0xbe8059f0	-0.25068617
25	0x3e326fc8	0.17425454
26	0xbee7f126	-0.4530117
27	0x3e03c014	0.1286624
28	0x3e83cc3d	0.2574176
29	0x3e90cc2c	0.2828077
30	0xbcd63db4	-0.02615247
31	0xbe039e0f	-0.12853263
32	0xbefc580c	-0.49285924
33	0xbdbdd398	-0.09268874
34	0xbead300e	-0.33825725
35	0xbd9ece60	-0.07754207
36	0x3ec1cdaf	0.37852237
37	0x3d1ddf4d	0.038543034
38	0x3e98ee0b	0.29869112
39	0xbeac19b8	-0.33613372
40	0x3eb7ec96	0.35922688
41	0xbecb205b	-0.39673123
42	0xbdf965ab	-0.12177595
43	0x3e675c67	0.22593842
44	0x3e40d794	0.18832237
45	0x3e66e693	0.22548895
46	0xbd517486	-0.051136516
47	0xbe5491a8	-0.20758688
48	0x3e42b366	0.19013748
49	0xbe929d85	-0.28635803
50	0x3d5175d1	0.05113775
51	0x3e0a7a02	0.13523105
52	0xbe574dc4	-0.21025759
53	0x3eac3bab	0.33639273
54	0x3e449876	0.19198784
55	0x3e851abd	0.25996962
56	0x3f0e0397	0.5547423
57	0x3ced35e3	0.02895636
58	0xbea7298f	-0.32648894
59	0x3e65bb75	0.2243479
60	0x3e73e291	0.23816897
61	0xbed2a6b8	-0.4114282
62	0x3e0e1ed6	0.1387895
63	0x3e8477c9	0.2587264
64	0x3e0f7589	0.1400968
65	0x3b0d6ddb	0.0021580372
66	0xbe620cef	-0.22075246
67	0x3ecc0e9e	0.39854902
68	0xbe3d40e3	-0.18481784
69	0xbeea23ea	-0.45730525
70	0x3d220144	0.03955199
71	0x3ee8ca0b	0.45466647
72	0xbe6fecb6	-0.23430142
73	0x3e841c76	0.25802964
74	0x3e93e55e	0.2888593
75	0xbe5a0eeb	-0.21294753
76	0x3e19f694	0.15035468
77	0xbbff2700	-0.0077866316
78	0xbeec5f16	-0.46166295
79	0xbde52278	-0.11188215
80	0xbb600be0	-0.0034186766
81	0x3df3c5bc	0.11902949
82	0xbe6a4f85	-0.22881897
83	0x3e6d9f09	0.23205198
84	0x3e092891	0.13394381
85	0xbefd9260	-0.49525738
86	0xbe28e366	-0.16492996
87	0x3eb98a74	0.36238444
88	0xbe73fb3c	-0.23826307
89	0xbe8206ec	-0.25395906
90	0xbefe7dd8	-0.49705386
91	0x3ddc5a08	0.107593596
92	0x3eaf89ee	0.3428492
93	0xbe942134	-0.28931582
94	0xbe2ae010	-0.16687036
95	0xbec2f6ba	-0.38078862
96	0x3eb6d4b9	0.3570917
97	0x3ecf2116	0.4045493
98	0xbe8aeb1a	-0.27132493
99	0xbe1e249f	-0.15443657
100	0x3ce653e0	0.028116167
101	0xbee03568	-0.43790746
102	0xbec28832	-0.37994534
103	0xbec48a5c	-0.3838681
104	0xbe74e4f1	-0.23915459
105	0x3d09a7b5	0.033607204
106	0x3e24af15	0.16082413
107	0xbe23a204	-0.15979773
108	0xbf0a4929	-0.54017884
109	0xbecf6afe	-0.40511316
110	0x3ea93115	0.3304526
111	0xbec82da6	-0.39097327
112	0x3e58b111	0.21161295
113	0xbed27bbd	-0.4111003
114	0x3eb706f5	0.35747495
115	0xbdb29a6f	-0.08720862
116	0xbea21fb4	-0.31664813
117	0x3e9c359b	0.30509648
118	0xbdf8888f	-0.121354215
119	0x3e54c714	0.20779067
120	0xbedb3396	-0.42812794
121	0xbe7435a0	-0.23848581
122	0xbec55200	-0.38539124
123	0xbedad8d0	-0.4274354
124	0xbda6d916	-0.081468746
125	0x3e19058b	0.1494352
126	0x3dd5c430	0.104378104
127	0xbef36c9e	-0.47543806
128	0x3e8f2bae	0.27963012
129	0xbe6b0e19	-0.22954597
130	0x3e1f2262	0.1554046
131	0x3e7e4838	0.24832237
132	0x3d886aee	0.0666102
133	0x3e827eaf	0.25487277
134	0x3e18b027	0.14910947
135	0xbe970925	-0.29499164
136	0xbe01aebb	-0.1266431
137	0xbe2c5c7e	-0.16832158
138	0x3e7d43ad	0.24732848
139	0x3da37816	0.07981889
140	0xbe9f18b2	-0.3107353
141	0x3eec95cb	0.46208033
142	0xbde2f888	-0.1108256
143	0xbe942044	-0.28930867
144	0xbeaf7be3	-0.34274206
145	0x3e8b1b2d	0.2716917
146	0xbe8333ef	-0.2562556
147	0x3ebf7793	0.37395915
148	0xbe03f7f3	-0.12887554
149	0xbeb55006	-0.35412616
150	0x3ed112f4	0.40834773
151	0xbea7f976	-0.3280751
152	0x3e9a2155	0.30103555
153	0x3e552fc9	0.2081901
154	0x3e2517fe	0.16122434
155	0x3ec55141	0.38538554
156	0x3dae00d7	0.08496254
157	0xbeeb44b2	-0.45950848
158	0x3dceb2bb	0.10092684
159	0x3e9351b9	0.28773287
160	0xbe699a3c	-0.22812742
161	0x3e20bf5e	0.15698001
162	0x3ea4691e	0.32111448
163	0x3e62d69c	0.2215218
164	0xbe87295a	-0.26398736
165	0xbebb187e	-0.36542124
166	0xbe9f9c7c	-0.31174076
167	0x3e0da0ac	0.13830823
168	0xbeefd694	-0.46843398
169	0xbeaded5c	-0.33970153
170	0xbec91306	-0.39272326
171	0x3e1ea750	0.15493512
172	0x3e145b4d	0.14487953
173	0x3eed08bb	0.46295723
174	0xbed0e51d	-0.407998
175	0x3f0707fd	0.52746564
176	0x3ec32fe9	0.3812249
177	0xbe0e3d74	-0.1389063
178	0xbe4b4eef	-0.1985433
179	0x3e3936ae	0.18087265
180	0xbdd76648	-0.105175555
181	0x3e1faf94	0.15594321
182	0xbe993834	-0.29925692
183	0xbecc9000	-0.39953613
184	0xbefe768d	-0.49699822
185	0x3e47954e	0.19490549
186	0x3e962430	0.29324484
187	0xbe3f7fe0	-0.18701124
188	0xbd3896e8	-0.04506579
189	0xbe72e3a5	-0.23719652
190	0x3e8950b0	0.26819372
191	0xbd8c12cf	-0.06839525
192	0x3eac6c0b	0.3367618
193	0xbef49648	-0.47770905
194	0x3e46e077	0.19421564
195	0xbc89bf9c	-0.016815
196	0xbeacb766	-0.33733672
197	0xbe57791e	-0.21042296
198	0x3e8a7ad6	0.2704684
199	0x3dad970e	0.08476077
200	0x3f11b76a	0.5692049
201	0x3e219751	0.15780379
202	0xbe68f067	-0.22747956
203	0x3e963b9f	0.29342362
204	0xbec3b66e	-0.3822512
205	0x3da0c0b2	0.07849254
206	0x3e9089da	0.28230172
207	0x3e5ad1f6	0.21369156
208	0x3de77d05	0.113031425
209	0x3e1181da	0.1420969
210	0xbe7d03d7	-0.24708496
211	0x3e24a330	0.16077876
212	0x3e81a8e8	0.25324178
213	0xbec53c94	-0.3852278
214	0x3ede4ba6	0.4341709
215	0x3e956fae	0.29186767
216	0x3ebfa320	0.37429142
217	0x3cfa6aaa	0.03056844
218	0x3e53d029	0.20684876
219	0xbeea861e	-0.45805448
220	0x3d8ede70	0.0697602
221	0x3e8bfb90	0.27340364
222	0xbd91d773	-0.07121172
223	0x3e9fddac	0.3122381
224	0xbdf770e0	-0.12082076
225	0xbdc79318	-0.09744853
226	0xbe852052	-0.2600122
227	0x3da71b28	0.081594765
228	0x3d04dd39	0.032437537
229	0xbecea45f	-0.4035978
230	0x3ee37de4	0.44431984
231	0x3d700ee9	0.05860797
232	0xbec81c2e	-0.39084
233	0xbe9efe18	-0.31053233
234	0xbea83754	-0.32854712
235	0xbca059c0	-0.019574046
236	0xbea45a70	-0.32100248
237	0xbe5577e4	-0.20846516
238	0xbe22a7a0	-0.15884256
239	0xbe692514	-0.2276805
240	0xbe6f9f47	-0.23400603
241	0x3eb8ab55	0.36068216
242	0x3e375a5c	0.17905563
243	0xbeb2e0e3	-0.349372
244	0xbd8e6239	-0.06952328
245	0xbe69c1b6	-0.22827801
246	0x3da4e273	0.08051004
247	0xbd72aaf3	-0.05924506
248	0xbeb90c9f	-0.36142442
249	0x3dc1d929	0.09465248
250	0xbd928573	-0.0715436
251	0x3dbbc0ae	0.0916761
252	0xbecc7fc6	-0.39941233
253	0x3eb75f00	0.35814667
254	0xbe35ad74	-0.17741948
255	0xbed7a4f4	-0.42118037

net.0.bias f4 [128]
0	0x3ea395c1	0.3195019
1	0xbe8c084e	-0.27350086
2	0x3e3d8570	0.18507934
3	0x3e1e86ca	0.15481105
4	0x3cedc7e0	0.029025972
5	0x3c4befa0	0.012447268
6	0xbe4dcd74	-0.20097905
7	0xbeb822f9	-0.35964182
8	0x3ed3beb2	0.41356426
9	0xbf083be1	-0.5321637
10	0x3f675c8d	0.90375596
11	0x3edccfb2	0.4312721
12	0xbe135059	-0.14386119
13	0xbee17426	-0.44033927
14	0x3f8738dc	1.0564227
15	0x3dbb3277	0.09140485
16	0x3ee91e3a	0.45530874
17	0xbd99430b	-0.074834906
18	0x3e56ca26	0.20975551
19	0xbef36810	-0.4754033
20	0x3e9248d6	0.28571194
21	0xbedfb66c	-0.43693864
22	0xbefc20e0	-0.49243832
23	0x3eb0557a	0.34440213
24	0x3ea1e39f	0.31618974
25	0x3ef201d6	0.47267026
26	0xbd32c7aa	-0.043647446
27	0x3e305bb9	0.1722249
28	0xbedfb383	-0.43691644
29	0x3f23fe89	0.64060265
30	0x3eb3d9aa	0.35127002
31	0x3eb5ca4e	0.3550591
32	0xbe01112e	-0.1260421
33	0xbe930578	-0.2871511
34	0xbf3a9d70	-0.7289648
35	0xbd1fbaf1	-0.03899664
36	0x3f8511b2	1.0396025
37	0xbdd340e7	-0.103151135
38	0x3eca646b	0.39529738
39	0xbea36135	-0.319101
40	0xbe89abab	-0.26888785
41	0x3e57b678	0.210657
42	0x3e867bfc	0.26266468
43	0x3de03cec	0.1094912
44	0x3f371c30	0.71527386
45	0x3e0dace4	0.13835484
46	0xbe69d12f	-0.22833703
47	0xbee30d22	-0.44345957
48	0x3d68309f	0.056686994
49	0x3e001257	0.12506996
50	0x3f44caf7	0.768722
51	0x3d767908	0.06017402
52	0x3e6e567c	0.23275179
53	0xbd5b821d	-0.053590883
54	0x3da79a51	0.081837304
55	0xbecd1bad	-0.40060177
56	0x3e396e3c	0.18108457
57	0xbf386b55	-0.72038776
58	0x3e4a3a38	0.19748771
59	0x3ef68db8	0.48154998
60	0xbe9b9c52	-0.303927
61	0xbeba1f20	-0.36351871
62	0x3e8bbe23	0.272935
63	0x3e3143b0	0.17310977
64	0x3df25360	0.11832309
65	0xbee49cf6	-0.44651002
66	0xbdbc54b8	-0.09195846
67	0xbe05ff85	-0.13085754
68	0x3e4c25b1	0.19936253
69	0xbc80098a	-0.015629549
70	0x3ef079df	0.4696798
71	0xbe5dd628	-0.21663725
72	0xbe0f48fc	-0.13992685
73	0xbed30cac	-0.41220605
74	0x3ee01db8	0.43772674
75	0x3f32bde4	0.69821
76	0x3d849b75	0.064749636
77	0xbeb2b5b8	-0.34904265
78	0xbe936a7e	-0.28792185
79	0x3f95dd2a	1.1708119
80	0xbe209870	-0.1568315
81	0x3dea1557	0.114298515
82	0x3e3d97bd	0.18514915
83	0x3dd3dc87	0.10344797
84	0x3d8e82df	0.069585554
85	0x3f383dda	0.7196938
86	0xbe2fbaea	-0.17161146
87	0x3ed89d18	0.42307353
88	0x3e16da58	0.14731729
89	0xbeae6840	-0.3406391
90	0xbde08a43	-0.10963871
91	0x3f6cf1c2	0.92556393
92	0x3e1657f0	0.14681983
93	0xbd221a00	-0.039575577
94	0x3f76d9db	0.9642617
95	0x3d92ed2c	0.07174143
96	0x3ed4c4ff	0.41556546
97	0xbd9b4ef0	-0.075834155
98	0xbe402034	-0.18762285
99	0x3e7bdc9c	0.24595875
100	0x3f5081e4	0.814482
101	0x3eeb0aca	0.4590667
102	0x3d4d32dd	0.050097335
103	0xbcb1f32f	-0.021722404
104	0xbee2ecac	-0.4432119
105	0x3f0f1846	0.55896413
106	0x3ec9668a	0.39336044
107	0xbef3df82	-0.4763146
108	0xbeb3a9a9	-0.35090378
109	0x3eb768c5	0.3582212
110	0xbe2a0644	-0.16603953
111	0x3cb5e8c0	0.02220571
112	0xbe66be23	-0.22533469
113	0x3e963612	0.29338127
114	0x3ea7afc7	0.32751295
115	0x3e9f9744	0.31170094
116	0xbf07b083	-0.5300371
117	0x3ef89096	0.4854781
118	0xbe8c47c7	-0.27398512
119	0x3ea25621	0.31706336
120	0x3e747353	0.23872118
121	0x3e5960ae	0.21228287
122	0x3e821ac8	0.25411057
123	0x3d8d0c81	0.068871506
124	0x3ecde8f6	0.40216798
125	0xbdb7e14a	-0.08978517
126	0xbe97289c	-0.2952317
127	0x3e731998	0.23740232

net.2.weight f4 [128, 128]
0	0x3ec86cca	0.391455
1	0x3d4a1c42	0.049343355
2	0x3dc37469	0.09543688
3	0xbc098291	-0.008392946
4	0x3b653580	0.0034974515
5	0x3ca0bb70	0.019620627
6	0x3d80edcf	0.062953584
7	0xbd735cd8	-0.059414715
8	0xbda366c9	-0.07978589
9	0xbdd1f8c4	-0.102525264
10	0x3cabe1ef	0.020981757
11	0xbbcd919a	-0.0062734606
12	0x3d3b1f41	0.045684103
13	0x3cf9b889	0.030483501
14	0x3e0b6bf4	0.136154
15	0xbd0770c7	-0.033066537
16	0xbd15ad9c	-0.03654252
17	0xbbf7ccf9	-0.0075622764
18	0xbdb43d2e	-0.088007316
19	0x3cb6cd68	0.022314742
20	0xbca6252d	-0.020281399
21	0xbd9d67cf	-0.076858155
22	0x3ccdbe1c	0.025115065
23	0x3cd065f4	0.02543924
24	0xbaab9a5f	-0.0013092271
25	0xbd63acae	-0.055584602
26	0x3d8760fd	0.06610296
27	0x3d364c65	0.04450645
28	0xbde753c9	-0.112952776
29	0x3cd8a3e9	0.026445346
30	0xbc7cdfd8	-0.015434228
31	0x3da92dcf	0.082606904
32	0xbdc58d8f	-0.09646141
33	0x3c98f99b	0.018673709
34	0x3d5f3388	0.054492503
35	0x3b23d323	0.0024997673
36	0x3daedcad	0.08538184
37	0xbd2138b6	-0.039360724
38	0x3c6e2a2e	0.014536424
39	0x3dbf58e9	0.0934313
40	0xbdb1d3a7	-0.086829476
41	0x3cb4262c	0.021990858
42	0x3b70ac80	0.0036723912
43	0xbdb07dbe	-0.086177334
44	0x3e80013a	0.25000936
45	0x3d5b7e7a	0.053587414
46	0xbda83878	-0.082138956
47	0xbd23bb4c	-0.039973542
48	0xbd9abd3f	-0.07555627
49	0xbd0b7bc2	-0.03405357
50	0x3e9a1a6d	0.30098286
51	0xbdac19c4	-0.08403352
52	0x3b4d9c8b	0.0031373824
53	0x3c2b92b7	0.010471991
54	0xbda4b2e2	-0.08041932
55	0xbdb5ed5e	-0.08883165
56	0x3d9a8cdd	0.07546399
57	0xbdbfee28	-0.093715966
58	0xbcd2ef84	-0.025748976
59	0x3d671d12	0.056424208
60	0xbcfe7d9c	-0.031065755
61	0xbd8def4b	-0.06930407
62	0xbd0eaa03	-0.034830105
63	0xbd48b2c9	-0.048998628
64	0xbd47f81c	-0.0488206
65	0x3ca6e940	0.020374894
66	0xbbba0d50	-0.0056778565
67	0x3d88d1ad	0.066806175
68	0xbd9b4c0d	-0.07582865
69	0xbcc3680f	-0.02385333
70	0x3e17a030	0.148072
71	0x3d3cd866	0.04610481
72	0x3cb4264c	0.021990918
73	0x3d2142e1	0.03937042
74	0x3dd5b794	0.104354054
75	0x3d8ea0a9	0.06964237
76	0x3c0d8ee5	0.008640026
77	0x3d3f2c57	0.046673145
78	0xbd1f91cd	-0.038957406
79	0x3e801115	0.25013033
80	0xbcee9f92	-0.029128823
81	0xbdae8771	-0.08521927
82	0x3d236fd9	0.039901588
83	0x3d38eaeb	0.04514591
84	0xbd9de26c	-0.07709202
85	0x3d84fc04	0.06493381
86	0xbd22b57d	-0.039723862
87	0x3d8a438b	0.06751164
88	0x3c62fa63	0.013853642
89	0x3d9741f3	0.07385626
90	0xbcf8536a	-0.030313212
91	0x3e934465	0.28763118
92	0x3daa41b7	0.08313315
93	0x3d8c96fb	0.06864735
94	0x3ddb9e00	0.107234955
95	0x3d884be9	0.06655104
96	0x3dc2e431	0.0951618
97	0x3d93a463	0.07209089
98	0xbdc909f0	-0.098163486
99	0xbcc89a0b	-0.024487516
100	0x3e0f75d4	0.14009792
101	0xbea953e0	-0.33071804
102	0xbed0d948	-0.40790772
103	0x39ecaa7e	0.00045140454
104	0xbd908f7e	-0.07058619
105	0xba3b1c04	-0.00071376585
106	0x3cc8aaa7	0.024495436
107	0x3d5c03e2	0.05371464
108	0xbdd0285c	-0.10163948
109	0x3dd2b52f	0.10288464
110	0x3d916aca	0.071004465
111	0x3cb36e24	0.021903105
112	0xbd93a1bb	-0.07208582
113	0xbdabc1df	-0.08386587
114	0xbdcb0a9b	-0.09914132
115	0x3c698610	0.014253154
116	0x3c8cea2d	0.017201507
117	0x397df9dc	0.0002422104
118	0x3d81af68	0.06332284
119	0x3dab90d8	0.08377236
120	0x3e17b94e	0.14816782
121	0x3d993cf8	0.07482332
122	0xba8e8d00	-0.0010875762
123	0x3d62b59d	0.05534898
124	0xbbeb6870	-0.007184081
125	0x3d0e3a69	0.034723673
126	0x3b85b0bb	0.004079906
127	0x3ccbbe40	0.024870992
128	0x3c4391e8	0.011936642
129	0x3db09bad	0.08623443
130	0x3d3ccd9a	0.046094514
131	0xbdb0217c	-0.08600137
132	0xbd86bfe8	-0.06579572
133	0x3db0f351	0.08640159
134	0x3db4f66b	0.08836063
135	0xbcc1766c	-0.023616038
136	0x3d3f0262	0.04663313
137	0x3d954e2f	0.07290303
138	0xbd236bf9	-0.039897893
139	0x3db42e51	0.08797897
140	0x3d3c21fe	0.045930855
141	0x3c78c330	0.015183255
142	0x3d21f5ea	0.039541163
143	0xbd9e2aa5	-0.077229775
144	0xbcbbcf80	-0.022926092
145	0x3cacda90	0.021100312
146	0x3d2142aa	0.039370216
147	0xbd4fc6d9	-0.050726745
148	0x3d1d7bd2	0.038448162
149	0xbc8f395c	-0.017483406
150	0xbd73fec6	-0.059569143
151	0x3a04b500	0.00050623715
152	0xbce09f4a	-0.027419705
153	0x3cfc5cd0	0.030805975
154	0xbd33de3b	-0.043913107
155	0xbc7988b8	-0.01523035
156	0x3daf7627	0.08567458
157	0x3db00ce5	0.085962094
158	0xbd40a206	-0.047029518
159	0x3c4f1988	0.0126403645
160	0x3d136190	0.035981715
161	0xbd9a2c9e	-0.07528041
162	0x3d6ade3e	0.057340853
163	0xbc35c938	-0.011095338
164	0x3dad8d97	0.08474272
165	0x3c23fc08	0.010008819
166	0xbc06cc70	-0.008227453
167	0x3c937aa8	0.018002823
168	0x3c872a58	0.016499683
169	0x3d2cc64a	0.04218129
170	0x3d895bdd	0.06706975
171	0xbcc24e7c	-0.023719065
172	0xbda04aaa	-0.07826741
173	0x3d5a48f2	0.053292222
174	0xbc161700	-0.009160757
175	0xbca3bd54	-0.01998774
176	0x3d44f2ee	0.04808324
177	0xbd86d06c	-0.06582722
178	0x3d45e756	0.048316322
179	0xbce3fc76	-0.027830344
180	0x3d41dd76	0.047330342
181	0x3d496756	0.049170814
182	0xbd9207e2	-0.0713041
183	0xbd9e42e4	-0.07727602
184	0x3d555336	0.05208131
185	0x3da9186f	0.082566135
186	0x3b4ca220	0.0031224564
187	0x3d4ec18a	0.050477542
188	0x3c222350	0.0098961145
189	0x3c6e3a48	0.0145402625
190	0xbdb322ad	-0.08746848
191	0xbb3f8020	-0.0029220656
192	0xbb8d8cd0	-0.0043197647
193	0x3d5fab82	0.054606922
194	0x3d987b27	0.074453644
195	0xbd3d1529	-0.046162758
196	0xbd9ee8fe	-0.077592835
197	0x3ce951d8	0.028481409
198	0xbd98d265	-0.074620046
199	0x3d4df06a	0.050278105
200	0xbd3f98ba	-0.04677651
201	0x3d33abfa	0.04386518
202	0xbc4a2478	-0.012337796
203	0xbd829143	-0.06375363
204	0xbd0c7992	-0.034295626
205	0xbdac8d85	-0.0842543
206	0xbdb4a55a	-0.08820601
207	0xbda665f8	-0.08124918
208	0xbc3b7d00	-0.011443377
209	0xbd9435a3	-0.07236793
210	0xbd0ec23d	-0.03485321
211	0xbc626d70	-0.013820037
212	0x3db461c1	0.088077076
213	0x3cc403f0	0.023927659
214	0xbd9dd343	-0.077063106
215	0x3d8fe5d7	0.0702626
216	0xbd251818	-0.04030618
217	0xbd245387	-0.04011872
218	0x3cba8f50	0.022773415
219	0x3c9fc154	0.019501366
220	0xbd9194c5	-0.07108454
221	0xbc670610	-0.0141005665
222	0x3d374c76	0.044750653
223	0x3cc1b904	0.023647793
224	0x37b35000	2.1375716e-05
225	0x3c6769f8	0.014124386
226	0x3db3bb79	0.08775992
227	0x3db28c57	0.08718174
228	0xbd6841ca	-0.056703366
229	0xbd2ffec1	-0.04296756
230	0xbd69d047	-0.057083394
231	0x3d0ee2d8	0.034884304
232	0x3d98832d	0.07446895
233	0xbd851a3c	-0.064991444
234	0x3d872ad9	0.065999694
235	0xbcf3bcde	-0.029753145
236	0xbd97576e	-0.07389723
237	0xbd29eb30	-0.041484058
238	0xbcb37af4	-0.021909215
239	0x3d6cb776	0.05779215
240	0x3d41757a	0.047231175
241	0x3d88f985	0.06688217
242	0xbd08c5f6	-0.033391915
243	0x3cf3582c	0.02970513
244	0xbd91d35a	-0.0712039
245	0xbc32a330	-0.010903165
246	0xbd3b11bf	-0.04567122
247	0xbd9be84e	-0.07612668
248	0x3ac7f540	0.0015255585
249	0x3cff9b88	0.031202093
250	0xbda8f45e	-0.08249734
251	0xbda5108f	-0.08059799
252	0xbb192bc0	-0.0023372024
253	0x3c74c3a8	0.014939226
254	0xbda34f0c	-0.07974061
255	0xbcdcca34	-0.026951887

net.2.bias f4 [128]
0	0x3cc96368	0.024583533
1	0xbd056252	-0.03256447
2	0x3d914e11	0.07094968
3	0x3d9275b4	0.07151356
4	0xbdd3d9c6	-0.10344271
5	0x3d9962ee	0.074895725
6	0x3cc46820	0.023975432
7	0x3ca79820	0.020458281
8	0x3d85a16a	0.06524928
9	0xbcd56914	-0.026051082
10	0xbdcdd901	-0.10051156
11	0xbd933a4f	-0.07188856
12	0x3baba530	0.0052381977
13	0xbd9fe52d	-0.07807384
14	0xbd2782dd	-0.040896285
15	0x3ca5741c	0.020196967
16	0x3e0f2d74	0.13982183
17	0x3d26f9c0	0.040765524
18	0xbdad4dcd	-0.08462105
19	0xbc194d00	-0.009356737
20	0x3ddd4f1a	0.10806103
21	0x3e55287a	0.20816222
22	0x3da16cc1	0.07882071
23	0xbd3a2c6f	-0.04545253
24	0xbc955f04	-0.018233784
25	0xbc288c17	-0.010287306
26	0xbc3f5341	-0.011677564
27	0x3d97f89d	0.07420466
28	0x3d8137c4	0.063094646
29	0x3d50510e	0.05085855
30	0x3d2db4ce	0.042408757
31	0x3e7cb1f4	0.24677259
32	0xbd999671	-0.074993975
33	0xbb16b52e	-0.0022996175
34	0x3d82bce5	0.06383685
35	0xbd983414	-0.07431808
36	0x3d5d4ad4	0.05402644
37	0xbdbbf8a3	-0.09178283
38	0xbb2ae5f4	-0.0026077004
39	0xbd811286	-0.06302361
40	0x3d666d7c	0.056256756
41	0xbd0c17ce	-0.03420239
42	0x3d623a22	0.05523122
43	0x3dcb06d0	0.09913409
44	0x3b360f54	0.0027780132
45	0xbd4593d4	-0.048236683
46	0xbba8bec2	-0.005149693
47	0x3d1fa052	0.038971253
48	0x3bac5900	0.005259633
49	0x3f1dc0e8	0.61622477
50	0x3d49d95f	0.049279567
51	0xbd80ee15	-0.062954105
52	0xbcf3be48	-0.02975382
53	0xbc1f2313	-0.009712952
54	0xbb13cb98	-0.0022551771
55	0xbd76632b	-0.060153168
56	0x3e3d9ca8	0.18516791
57	0xbdbf4c48	-0.09340721
58	0xbd4a6699	-0.04941425
59	0xbc994c03	-0.018713003
60	0xbd3e4197	-0.04644927
61	0x3dbd4407	0.09241491
62	0xbd94aa9a	-0.07259102
63	0xbd0909ab	-0.033456486
64	0xbd56058a	-0.052251376
65	0x3d9b560f	0.07584774
66	0x3d1c7758	0.038199753
67	0x3d2c0431	0.041996185
68	0x3c04a39c	0.008095648
69	0x3e31f97d	0.17380328
70	0x3d7bf00c	0.061508223
71	0xbbf18100	-0.0073701143
72	0xbd2566ab	-0.040381115
73	0x3d74c460	0.05975759
74	0xbccf5200	-0.025307655
75	0x3de8f2b9	0.11374421
76	0x3c18b97e	0.0093215685
77	0x3db1eb79	0.08687491
78	0x3d3fcc22	0.046825536
79	0xbc657491	-0.014004842
80	0x3ccc4e9f	0.024939833
81	0x3db6d610	0.08927548
82	0xbd69a94d	-0.057046223
83	0x3a0e4479	0.00054270733
84	0xbd57d072	-0.052689023
85	0x3d8ae931	0.06782759
86	0x3caac607	0.02084638
87	0xbd9ee3f9	-0.07758326
88	0x3db43335	0.087988295
89	0x3df31441	0.118690975
90	0x3cff26d0	0.031146437
91	0x3d18106c	0.037125036
92	0xbdb2e795	-0.08735577
93	0x3d5aa11e	0.05337631
94	0x3ce3d2d5	0.027810493
95	0xbc85b4d2	-0.016321573
96	0xbdf8ed1f	-0.12154602
97	0xbd90519a	-0.07046814
98	0x3d5530a1	0.05204833
99	0xbba16fb5	-0.0049266466
100	0x3ca78be3	0.020452445
101	0x3dd18d23	0.10231998
102	0x3d3f9257	0.04677042
103	0xba12ed4b	-0.00056048174
104	0x3bfed9e9	0.0077774418
105	0x3d8eacd7	0.0696656
106	0x3d219f9e	0.039458863
107	0xbdbf3bfa	-0.093376115
108	0x3d10892c	0.035287067
109	0xbd59c63a	-0.05316756
110	0xbd893ec4	-0.06701425
111	0xbdc1ffd3	-0.09472623
112	0xbd8292b3	-0.06375637
113	0xbd3ff77d	-0.046866883
114	0xbdacf9dd	-0.08446095
115	0x3e1a8fd7	0.15093933
116	0x3d03495e	0.03205239
117	0x3defdac5	0.11711649
118	0x3aa9f633	0.001296705
119	0x3dfecedd	0.124418
120	0x3db853d9	0.09000368
121	0x3d01fd3b	0.03173564
122	0xbb9da349	-0.004810725
123	0xbcceba2b	-0.025235256
124	0xbd6ae6a6	-0.05734887
125	0x3cf21348	0.02955021
126	0xbcdfa80f	-0.027301816
127	0x3c11820c	0.008881103

net.4.weight f4 [4, 128]
0	0x3be2de1b	0.0069234497
1	0xbd87584a	-0.06608637
2	0x3e0bd208	0.1365434
3	0xbd8cd996	-0.06877439
4	0x3d9353ec	0.07193741
5	0x3bcf1d05	0.006320598
6	0xbda2b8bb	-0.07945391
7	0xbd87c4c0	-0.06629324
8	0x3d858e23	0.06521251
9	0xbcd69b50	-0.026197106
10	0x3c8617fa	0.016368855
11	0x3dabf00d	0.083953954
12	0x3dc05ccc	0.093926996
13	0xbd93840f	-0.072029226
14	0xba7a8b5b	-0.0009557509
15	0xbd831ce2	-0.06401993
16	0x3db05ef3	0.0861186
17	0xbd932a14	-0.0718576
18	0xbcc77638	-0.024348363
19	0x3d850c1b	0.064964496
20	0xbd3145c8	-0.04327944
21	0x3d837358	0.064184844
22	0xbda10222	-0.07861735
23	0xbd87c0ac	-0.06628546
24	0x3c1e9d10	0.009681001
25	0xbb2acc87	-0.002606185
26	0xba6fc004	-0.0009145739
27	0xbba6bd86	-0.005088511
28	0xbd2c0653	-0.04199822
29	0x3d5545c6	0.052068494
30	0x3c6f7210	0.014614597
31	0x3d6d5449	0.05794171
32	0xbd20524a	-0.039140977
33	0xbd3f0f2c	-0.04664533
34	0x3de74d4d	0.11294041
35	0x3b4c6240	0.0031186491
36	0x3cfedcbe	0.031111117
37	0x3da268c5	0.079301395
38	0xbc9148a0	-0.017734826
39	0x3c05f927	0.008177078
40	0x3cc21390	0.023690969
41	0x3d89aa71	0.06721962
42	0x3d193bee	0.03741067
43	0x3d2e7449	0.042591367
44	0xbb16f6b3	-0.0023035228
45	0x3caced0a	0.021109123
46	0x3db1a2b3	0.086736105
47	0x3ccaea85	0.02477003
48	0x3d586d18	0.052838415
49	0x3e4cbf1f	0.19994782
50	0x3d2254ab	0.039631527
51	0x3be5d6fe	0.0070141545
52	0x3bff97c0	0.0078000724
53	0xbd1868ed	-0.03720944
54	0xbd6aeefa	-0.057356812
55	0xbcd9460a	-0.026522655
56	0xbd4f0c4c	-0.050548837
57	0xbc1df97a	-0.009641999
58	0xbcce9f86	-0.025222551
59	0x3d717302	0.05894757
60	0x3d9cb50b	0.07651719
61	0x3db16ac3	0.08662941
62	0x3db27396	0.087134525
63	0xbd5ef712	-0.054434843
64	0xbd8a5a20	-0.06755471
65	0xbb88d072	-0.0041752392
66	0xbce9094a	-0.028446812
67	0xbcf326c4	-0.02968157
68	0xbd21229c	-0.039339647
69	0x3d80d3a5	0.06290368
70	0xbd2241c8	-0.039613515
71	0x3b48b560	0.0030625686
72	0x3b1734bc	0.0023072204
73	0x3cab1a29	0.020886498
74	0x3c27c148	0.010238953
75	0x3b3b0fb0	0.0028543286
76	0xbbdf5359	-0.0068153557
77	0x3be30180	0.006927669
78	0x3c07d802	0.008291246
79	0xbc818067	-0.015808297
80	0x3d17cf56	0.037062965
81	0x3ca41f1a	0.020034362
82	0xbd1ee963	-0.038796794
83	0x3e048774	0.12942296
84	0xbcef0e33	-0.029181575
85	0xbd9149d4	-0.0709416
86	0x3d999a17	0.075000934
87	0x3c06f2aa	0.008236567
88	0xbcdd0b96	-0.026983064
89	0xbdc15e27	-0.09441786
90	0x3cae936c	0.02131053
91	0x3c01b750	0.00791724
92	0xbc1f4477	-0.009720913
93	0x3a46d300	0.0007584542
94	0x3b944c16	0.0045256717
95	0x3cd62a14	0.026143111
96	0x3d6409fa	0.055673577
97	0xbd8abe9c	-0.06774637
98	0xbd86896d	-0.06569181
99	0x3d611186	0.054948352
100	0xbb402441	-0.0029318484
101	0x3db9a597	0.09064787
102	0x3d53f6f2	0.051749177
103	0x3d24671a	0.040137388
104	0xbc8373c4	-0.016046412
105	0xbd102b6d	-0.035197664
106	0x3d403ffe	0.046936028
107	0xbd02753d	-0.03185009
108	0x3d3b69aa	0.045755066
109	0xbc68e57a	-0.014214868
110	0x3d964a8d	0.07338438
111	0x3d909885	0.07060341
112	0xbc93cb83	-0.018041378
113	0xbcb80820	-0.022464812
114	0x3d588cb9	0.05286858
115	0x3c10fcb3	0.008849311
116	0xb9c92100	-0.00038362294
117	0xbab2a6b0	-0.0013629999
118	0xbcc88fa7	-0.024482561
119	0x3addf023	0.0016932528
120	0xbd286708	-0.041113883
121	0x3d05c028	0.032653958
122	0xbd1fc38e	-0.039004855
123	0xbd391c5b	-0.045193058
124	0xbd6fd06f	-0.058548387
125	0xbb0d2860	-0.0021538958
126	0xbcc2897b	-0.023747196
127	0x3d691ad8	0.056910366
128	0x3cf8e0d3	0.030380642
129	0x3d159dee	0.036527567
130	0x3d4b1b47	0.04958656
131	0x3b0c27c1	0.0021386
132	0xbc8ec86f	-0.017429559
133	0xbcc3968c	-0.023875497
134	0xbc6ec0f8	-0.0145723745
135	0x3cecce28	0.028906897
136	0xbd7c70b7	-0.06163093
137	0xbd92b4d6	-0.07163398
138	0xbd56d676	-0.05245062
139	0x3da0564f	0.07828962
140	0x3cf834cc	0.030298613
141	0x3c9e6c83	0.019338852
142	0xbb842cda	-0.004033667
143	0xbd715a03	-0.058923732
144	0x3ce5bbf1	0.028043719
145	0xbd137e18	-0.036008924
146	0xbd2934e9	-0.041310225
147	0xbd81c48e	-0.06336318
148	0x3c03f4ef	0.008054002
149	0x3d778ad3	0.060435127
150	0x3cad4a18	0.021153495
151	0x3c374b10	0.01118733
152	0xbca44f88	-0.020057455
153	0xbd0eeca4	-0.034893647
154	0xbc5c7a89	-0.013456949
155	0xbd6b0534	-0.05737801
156	0xbd13dc25	-0.036098618
157	0x3d623a32	0.05523128
158	0xbc420fc8	-0.011844583
159	0x3e082dc3	0.13298707
160	0xbbd44c0b	-0.0064787916
161	0x3d02eb55	0.03196271
162	0xbca5530c	-0.020181201
163	0xbdb33f5d	-0.0875232
164	0xbc107faa	-0.0088195
165	0xbd6224e0	-0.055210948
166	0xbc34e359	-0.011040532
167	0xbd243ba8	-0.040095955
168	0x3d098012	0.033569403
169	0x3c63b234	0.013897467
170	0x3d9c4c53	0.07631745
171	0x3908ad79	0.00013034594
172	0x3c8dac73	0.017294144
173	0xbd16740f	-0.036731776
174	0xbc92241c	-0.017839484
175	0x3d5a677c	0.053321347
176	0x3bda0a71	0.0066540767
177	0x3ec2f515	0.38077608
178	0xbd0cb0d5	-0.034348328
179	0xbc281bbf	-0.010260521
180	0xbd8d2c88	-0.06893259
181	0x3c8e351b	0.017359307
182	0x3d964e13	0.0733911
183	0xbd028350	-0.03186351
184	0xbcfcee2b	-0.030875286
185	0x3d521af7	0.051295247
186	0xbd610fa9	-0.054946575
187	0xbd0d38a7	-0.034477856
188	0xbda328a4	-0.07966736
189	0x3c23a8dc	0.00998899
190	0xbc1117a6	-0.008855736
191	0xbd161add	-0.036646713
192	0xbdb43f2e	-0.08801113
193	0x3b514d24	0.0031936849
194	0x3c6a5500	0.014302492
195	0x3ca02773	0.01955006
196	0x3c8a7075	0.016899327
197	0x3dcbc53f	0.09949731
198	0x3d9f81eb	0.07788452
199	0x3da9cf01	0.08291436
200	0xbce0d90c	-0.027447246
201	0xbd8a9b64	-0.0676792
202	0x3d5972da	0.053088047
203	0xbda428cc	-0.08015594
204	0x3c03d554	0.008046467
205	0xbd264777	-0.040595498
206	0x3aacdd23	0.0013188462
207	0x3bc2af62	0.0059413174
208	0xbda01e7e	-0.07818316
209	0x3d17f011	0.03709418
210	0x3d900fe3	0.0703428
211	0xbc92325d	-0.01784628
212	0xbd37b827	-0.044853356
213	0xbd6d4788	-0.057929546
214	0xbd21705e	-0.039413802
215	0x3d7eac95	0.062176306
216	0xbd6fccae	-0.058544807
217	0x3e655fdb	0.22399847
218	0xbcab96c0	-0.020945907
219	0xbc1f6648	-0.009728976
220	0xbd6972e8	-0.05699435
221	0x3cf35098	0.029701516
222	0xbbab59cc	-0.0052292105
223	0xbcc1ff1e	-0.02368122
224	0xbccb6d32	-0.024832342
225	0xbd84d5b6	-0.064860746
226	0xbb47b9df	-0.0030475778
227	0xbdb2226c	-0.08697972
228	0x3d37ca5c	0.04487072
229	0x3ef84699	0.48491362
230	0x3ca690cc	0.020332716
231	0xbd806f13	-0.06271186
232	0xbcad2335	-0.021134952
233	0x3d3661a9	0.04452673
234	0x3d57da64	0.052698508
235	0x3b9fc4bf	0.004875749
236	0x3d4e4d9e	0.05036699
237	0x3dc83f9e	0.09777759
238	0x3cb25374	0.02176831
239	0xbc9ad4e1	-0.018900337
240	0xbd0724b9	-0.032994006
241	0x3db9aa3a	0.09065671
242	0xbd490352	-0.049075432
243	0x3d6ca7dd	0.057777274
244	0xbcf34e8a	-0.029700536
245	0x3d3a1a39	0.045435164
246	0x3c88252f	0.016619293
247	0x3bcf4e52	0.006326475
248	0xbbe585e7	-0.007004488
249	0x3d0abf13	0.03387363
250	0xbd0438ac	-0.03228061
251	0xbc111e45	-0.0088573145
252	0xbd299cb0	-0.041409194
253	0xbb979056	-0.0046253605
254	0xbd83a2b8	-0.064275205
255	0x3be7abf0	0.007070057

net.4.bias f4 [4]
0	0x3eb822f0	0.35964155
1	0x3eb1302b	0.34607062
2	0x3e8a905e	0.27063268
3	0x3e4452a3	0.19172148
