Entities/pained_nav.pth (torch, 73382 bytes, 6 tensors)

net.0.weight f4 [128, 4]
000000 88 15 db bd 7c 96 e9 be 60 9b bb 3e 98 d7 50 be
       -0.10697466 -0.45622623 0.3664198 -0.20394742
000010 dc 21 a4 bc 93 30 11 3e 06 c5 fe 3e eb 74 93 3d
       -0.020035677 0.14178686 0.49759692 0.07200035
000020 21 13 24 be 25 57 e9 3e 6c 6a ed bd 03 91 46 be
       -0.16022922 0.45574299 -0.11592564 -0.19391255
000030 ec 09 b3 be d2 6d 47 be 73 08 de 3e 2c dc e7 3e
       -0.34968507 -0.19475487 0.4336582 0.45285165
000040 72 fd cd 3e 90 9d 99 be ec d9 f0 be 38 2e 3e be
       0.40232426 -0.30003023 -0.4704126 -0.18572319
000050 68 c6 ee be 6c 77 a6 be 3c 1d 00 3e 06 55 c7 3e
       -0.46635747 -0.32512987 0.12511152 0.38932055
000060 03 e1 8b 3d fe 9d ad 3e 9b d4 36 3e 35 a1 81 3d
       0.06830027 0.339096 0.1785454 0.06329576
000070 0e 11 92 3e a4 01 5f 3e 9c b1 e5 3e 73 ea ee be
       0.28528637 0.2177797 0.44862068 -0.46663246
000080 2c 93 79 3e 92 42 a8 be 9e 80 fe be 20 b4 6b 3d
       0.24372548 -0.3286329 -0.49707502 0.057544827
000090 0e d9 fd be f0 fb a2 3e c8 bf 40 be a0 2e 14 bd
       -0.49579662 0.31832838 -0.18823159 -0.036177278
0000a0 ec 0c ef bb 74 27 d8 be 33 32 8f 3e 6c 69 e9 3e
       -0.0072952416 -0.422176 0.27967986 0.45588243
0000b0 60 ac 38 be 2c cf bc 3e 4a 52 9d be 44 39 44 be
       -0.18034506 0.3687681 -0.30726844 -0.1916247
0000c0 9e 29 f8 be 40 27 2c 3c c0 b3 b9 bd c4 c0 2c 3e
       -0.4846925 0.010507405 -0.09067488 0.16870409
0000d0 ee a2 d3 be 8d 7f aa 3e 9c a3 b3 3e 90 2a 06 be
       -0.41335243 0.3330044 0.35085762 -0.13102174
0000e0 ff 86 6e be 38 32 73 be 5f eb 6a 3e ce 04 22 3e
       -0.23293684 -0.23749626 0.2294135 0.15822145
0000f0 25 7d f1 3b 5d cc 3a 3e 1b 35 90 be a9 36 88 3e
       0.0073696547 0.18242021 -0.28165516 0.26604202
000100 1e 75 69 3e b6 72 d4 3e 3f 34 bb 3e ff ed a3 be
       0.22798583 0.41493767 0.36563298 -0.32017514
000110 c5 cf 55 be 8f 26 9c 3e 76 37 18 bd 29 15 3f be
       -0.20880039 0.30498168 -0.037162267 -0.18660416
000120 af ac 2b 3e a1 b7 1b 3c f6 3c 82 3e 66 08 c2 3d
       0.16765092 0.00950423 0.25437135 0.09474258
000130 cb 07 c2 3d 61 f5 a6 3e 05 ef aa 3e 32 f8 94 bd
       0.09474143 0.32609084 0.33385482 -0.07273902
000140 e2 7a aa be f8 42 b6 3d 90 ae 56 bd 04 f7 b9 be
       -0.33296877 0.08899492 -0.05241257 -0.3632127
000150 0f 02 cd be 2b 22 8f 3e ba 70 fe 3e 1f ac fa bd
       -0.40040633 0.27955756 0.4969538 -0.12239861
000160 c2 cc e2 be da 75 f4 3d 31 89 87 3e 2b 17 a9 3e
       -0.44296843 0.11936541 0.26471856 0.33025488
000170 7f df 41 bd f8 28 60 3d d8 a5 a6 be 4a 3b 3f 3e
       -0.047332283 0.05472657 -0.32548404 0.1867496
000180 ae 56 f6 be 8a 40 a5 be f8 75 fe be 0c a7 ed be
       -0.48113006 -0.32275802 -0.49699378 -0.4641651
000190 85 4b e9 bc 31 f0 b7 be b0 4a 9f 3e 8f f1 db 3c
       -0.028478393 -0.3592544 0.3111167 0.026848583
0001a0 1a 84 d9 be 88 28 a7 3e 6b 13 33 3e ff 30 f6 bd
       -0.42483598 0.3264811 0.17487876 -0.12021064
0001b0 bf a9 5e 3e ed d6 d0 bc b4 f0 d4 3d 43 aa ff be
       0.2174444 -0.02549311 0.10397473 -0.49934587
0001c0 28 37 b6 bd 9e 8a b1 be d8 b4 2a be f4 f3 20 3e
       -0.08897239 -0.3467607 -0.16670549 0.1571806
0001d0 8c 05 b2 be ad 6b b5 3e d2 f3 16 bc 09 0a dc bd
       -0.34769857 0.35433713 -0.009213405 -0.107441016
0001e0 3e ee b1 be 90 b7 fe bd 08 2d a2 3d f0 92 a0 bd
       -0.34752077 -0.124373555 0.07918745 -0.07840526
0001f0 d2 95 ad 3e 90 0d 86 bd 6c d3 e9 be c2 ab ed be
       0.33903366 -0.065455556 -0.45669115 -0.46420103
000200 b1 dc 27 bd e0 be b2 3e 13 e8 9c bd d1 fa 2e 3e
       -0.040981952 0.3491125 -0.07661452 0.17087866
000210 1b af 99 bd 2b 8a 92 be a2 61 c3 3e d1 a8 a9 be
       -0.07504102 -0.2862104 0.38160425 -0.3313661
000220 33 90 a3 3e c9 56 ad be e0 91 ec 3e f7 59 87 3e
       0.31945953 -0.33855274 0.46205044 0.26435825
000230 c8 55 97 be 6f dc f0 3e 16 64 50 bb 8e 2c 21 3e
       -0.29557633 0.47043177 -0.0031797937 0.15739653
000240 a4 cc 17 3e c0 d3 bb be 81 2c 28 be 32 00 f0 3e
       0.14824158 -0.3668499 -0.16423227 0.4687515
000250 d4 bb 74 be 93 79 92 3d ae 92 71 3e 45 98 db bd
       -0.23899776 0.07152095 0.2359111 -0.107224025
000260 08 a5 fa be 02 a8 95 be f3 dd e4 3e ba 63 7f 3e
       -0.48954034 -0.29229742 0.44700584 0.24940386
000270 2e b3 a2 3e 6c eb 37 be 2a 39 92 be 00 8d 44 be
       0.31777328 -0.179609 -0.28559238 -0.19194412
000280 08 1c 89 3e 32 b6 e3 be 14 f5 b7 3e 92 d1 99 be
       0.267792 -0.44474941 0.35929167 -0.30042702
000290 14 87 e8 3e a2 ff c8 be 93 84 88 be f1 0b 9b 3d
       0.45415556 -0.39257532 -0.26663646 0.07570637
0002a0 d1 1d fd 3e cf 4a cc be c8 04 ef be 89 ca e0 3e
       0.4943681 -0.39900824 -0.46683335 0.43904522
0002b0 c4 c3 85 be 3b f1 c5 be 50 a9 c6 3e 48 fe f4 3e
       -0.2612592 -0.38660607 0.3880105 0.4785025
0002c0 4c 41 96 3e 0a 41 24 3d 18 cc dc be 52 74 df bb
       0.29346693 0.04010109 -0.4312446 -0.0068192864
0002d0 43 af f2 3d cf 41 4d be 85 7f f1 3e e8 4a e4 3d
       0.11849835 -0.20044635 0.47167602 0.111471
0002e0 f8 2a 8a be d8 0b 9c bd 00 4b c7 bd 3c 87 03 be
       -0.26985908 -0.076194465 -0.09731102 -0.12844557
0002f0 1c 79 f1 be fc 5a 49 3e 0c 07 a2 be 32 e1 9b 3e
       -0.47162712 0.19663614 -0.31646 0.30445248
000300 6a 61 fa be f6 cb e4 3e fa 53 b7 be 80 d5 27 bc
       -0.48902446 0.4468686 -0.35806257 -0.010243773
000310 aa 20 ad 3c 0e b4 c4 be bf f4 96 3e 4a 38 8e be
       0.02113374 -0.3841862 0.294836 -0.2777732
000320 63 07 da 3e aa 4b 8e be bf a5 df 3e 50 25 03 3e
       0.4258376 -0.27792102 0.43681142 0.12807202
000330 76 dd b1 3e 0f b8 37 be bc 0c 6d 3e e8 2a d9 3b
       0.34739274 -0.17941307 0.23149389 0.0066274293
000340 da 03 cf bc ef 56 29 3e ca ae 8f 3e b6 7a b2 3e
       -0.025270391 0.16537069 0.2806304 0.34859246
000350 20 ce 9a 3c 18 af e4 3d ca 7b ff be 80 a4 b5 3c
       0.018897116 0.11166209 -0.4989913 0.022173166
000360 9b 26 8e 3e bd 0c 8b be 1f 70 22 3e ab a6 e6 bd
       0.2776383 -0.27158156 0.15863083 -0.11262258
000370 5d 7e b2 3e d9 d5 85 3e 55 55 eb be 99 97 9f 3e
       0.34862033 0.26139715 -0.4596354 0.31170347
000380 30 0b 4f be ea db 82 be 70 15 e7 bd 96 85 81 3e
       -0.20219111 -0.25558406 -0.11283386 0.2529723
000390 1b 9d 32 be 30 67 b3 3e 30 d1 a2 3a db 36 de 3e
       -0.17442743 0.35039663 0.0012421962 0.43401226
0003a0 88 c3 66 be b0 f2 00 bd ec 45 9a be 5c 89 c8 be
       -0.22535527 -0.031481445 -0.3013147 -0.39167297
0003b0 1c 53 e3 be 50 1d 57 be 28 19 07 3e 30 07 75 be
       -0.44399345 -0.21007276 0.1319319 -0.23928523
0003c0 58 c7 f3 3e f0 a4 bb 3e 20 a4 17 3e 13 97 8f bc
       0.47613025 0.36649275 0.14808702 -0.017528092
0003d0 94 72 90 3d 68 64 47 3e e6 3e 55 3e 82 b1 46 be
       0.07053104 0.19471896 0.20824775 -0.19403651
0003e0 f3 89 a3 3e 9b d1 c2 3d 36 ca 6c 3d 8f 55 f6 bc
       0.31941184 0.09512635 0.05781003 -0.030070094
0003f0 76 bb de 3e 48 22 e2 be 75 1d dc 3e 54 c9 85 be
       0.43502396 -0.4416678 0.42991224 -0.26130164

net.0.bias f4 [128]
000000 00 63 eb 3d 09 c9 a8 3d 57 ee 0b 3e 3d 69 03 3d
       0.11493492 0.082414694 0.13665138 0.032082785
000010 f8 2d 74 3e b8 e6 04 3e 7b 50 3a 3e 1e f7 4a be
       0.2384566 0.12978637 0.18194763 -0.1982083
000020 a0 fb 8c 3e da 04 ce 3e a5 a5 6b be 98 16 d6 3e
       0.27535725 0.40238076 -0.23012407 0.41814113
000030 50 91 25 3d e2 52 fd be e3 54 34 3d cf 14 ab be
       0.040421784 -0.49477297 0.044026267 -0.33414313
000040 39 4e 99 3e 22 18 48 3d 4d a0 9e be d1 ae 28 3e
       0.29942492 0.04885114 -0.30981675 0.16472937
000050 18 39 fe 3e b6 c7 65 3d ee 8a 76 3e 00 4f ce 3e
       0.49652934 0.056098662 0.24076435 0.40294647
000060 d0 fb 8f be 62 23 8b 3d 7a 83 de bd 2c bb 66 bd
       -0.28121805 0.06793858 -0.10864921 -0.056330845
000070 40 49 82 3e 1a c7 3a 3e 3c 76 c8 be c0 cc d7 bc
       0.2544651 0.18240014 -0.39152706 -0.02634275
000080 9f f7 44 be ef 76 56 be 4f 42 6e 3e f3 1e c2 3e
       -0.19235085 -0.20943807 0.23267482 0.37914237
000090 6d 8b aa 3e d4 ee cc be c9 f5 73 be 24 b6 0f be
       0.33309498 -0.4002596 -0.23824228 -0.14034325
0000a0 9e 45 f3 3e 9d 95 35 be 4a 88 a6 3e b3 1d c1 be
       0.4751405 -0.17732854 0.32525855 -0.3771797
0000b0 f9 fc 0d be f4 3a 00 3e b0 12 d2 3e 50 e5 99 3e
       -0.13866033 0.12522489 0.41029882 0.30057764
0000c0 08 72 99 be f0 1e 74 3e 3e 74 1d 3e 2a 44 99 3e
       -0.2996981 0.23839927 0.15376374 0.29934818
0000d0 aa a9 cd 3d c8 74 96 bd 02 bb 76 be b1 85 a0 be
       0.100421265 -0.07346493 -0.24094775 -0.31351998
0000e0 a0 c8 af 3c cc de af 3d 66 fd ea be 3e 25 f3 be
       0.02145797 0.08587417 -0.45896453 -0.4748935
0000f0 96 d5 d3 bc 71 76 89 3e 9a 03 ad bd 92 52 df bd
       -0.025858682 0.26848176 -0.084479526 -0.10904421
000100 29 8f fa be af e6 31 3e 1c cf c7 be e6 78 b8 3e
       -0.48937348 0.17373155 -0.390252 0.36029738
000110 8e 38 cb be 29 7b d9 be 74 70 d3 be e7 17 ac be
       -0.39691585 -0.42476776 -0.41296732 -0.33611986
000120 70 9d 1d be ea 36 c5 3d 36 ef c4 bd 68 37 50 be
       -0.15392089 0.09629615 -0.09615938 -0.20333636
000130 98 a3 f5 bd 44 c9 4b be a6 30 9e be 19 84 7c 3e
       -0.11994094 -0.19900995 -0.3089649 0.24659766
000140 f4 3b 55 be 26 bd 86 3e bc b4 96 be f0 9b d2 3e
       -0.20823652 0.26316184 -0.29434764 0.41134596
000150 7c d2 61 be b6 d5 4f be fd 78 2b 3d 60 54 1c bd
       -0.2205295 -0.20296368 0.04186343 -0.038166404
000160 0f b9 10 be 7f 59 7a 3d ee ed 9d 3e 7b 31 93 be
       -0.14133094 0.061120506 0.30845588 -0.28748688
000170 6a 5c fa be 80 44 84 3c a4 04 b2 bb f5 50 41 3e
       -0.4889863 0.016145945 -0.005432682 0.18878539
000180 9c da 9f be 73 86 d4 3e 4a f9 da 3e 77 5c de 3e
       -0.31221473 0.41508827 0.42768317 0.4342992
000190 1a 0f ab be 56 1c 8e 3e 80 82 b9 bc f4 c7 23 3e
       -0.3340996 0.27755994 -0.022645235 0.15994245
0001a0 d0 83 51 be ed 6c 95 3e a8 06 09 be 8d 84 98 be
       -0.20460439 0.29184666 -0.13381445 -0.29788628
0001b0 bc 55 5c 3e c0 ea 3a be e6 24 f3 3e 6f 87 8f 3e
       0.2151708 -0.18253613 0.4748909 0.28033015
0001c0 a6 dc 94 3e 35 22 d4 be 00 e1 80 3b 2f f4 20 3e
       0.2907459 -0.41432348 0.003933072 0.15718149
0001d0 16 62 e2 bd 83 7c e1 3e 00 ec 34 bb 17 ff d3 3d
       -0.11053865 0.44040307 -0.0027606487 0.10351389
0001e0 ae 0e c0 3e 7f 9d 9d be e3 cc a5 be 23 5b de 3e
       0.375112 -0.30784222 -0.3238288 0.43428907
0001f0 c0 22 0e be fd 42 52 3e cc 45 2c be f0 04 8f 3d
       -0.13880444 0.20533367 -0.168235 0.06983364

net.2.weight f4 [128, 128]
000000 d9 0c 9f 3d 5d c5 04 bd 64 e0 6a bc 05 c8 3f bd
       0.07766122 -0.032414783 -0.014335725 -0.046821613
000010 7c 73 b8 bc 5d 49 9e 3d 8b fd 6e ba bd 20 8f 3c
       -0.022516005 0.07728837 -0.00091167603 0.017471666
000020 30 b8 57 3c 10 2f de 3b 2c 5d 02 3d f5 0b a9 3d
       0.013166472 0.0067805126 0.031827137 0.08254234
000030 3a 0d 79 3d 79 27 89 3d 7c d7 b6 3d d3 dd 66 3d
       0.06080363 0.06696982 0.08927819 0.05636389
000040 b0 02 0f bd 4b 3e 6b bd c3 b4 49 3d 8e 1a b4 bd
       -0.034914672 -0.057432454 0.049244653 -0.087941274
000050 02 8e 16 3d 46 5c 4b 3d 1c 8f 40 bd ca 13 8f bd
       0.036756523 0.049648546 -0.04701148 -0.06986196
000060 00 50 9b 3c 43 cf 40 bd 1e 96 a6 bd e0 19 a5 bd
       0.018959045 -0.04707266 -0.08134101 -0.08061576
000070 68 be a6 bc 2e 08 2e bb 34 e2 82 3c b4 c9 f8 bc
       -0.020354465 -0.0026555168 0.015977003 -0.030369617
000080 8c 8c b6 3c c9 33 b9 3d dd 62 9d 3d 44 4b 25 3d
       0.022283815 0.0904308 0.07684872 0.040354982
000090 d0 fc 74 3b fc 13 0b bd 78 68 ab 3d 60 8b 3d 3c
       0.0037382133 -0.033954605 0.08369535 0.011568874
0000a0 53 5b 56 3d c9 6a 8d bd 3a f7 98 3d 83 59 51 bd
       0.052333187 -0.06905133 0.0746903 -0.051110756
0000b0 aa 4a 76 3d 01 83 10 3d 88 c0 a1 3c 2a af 0b bd
       0.0601298 0.035281185 0.019745126 -0.034102596
0000c0 c0 69 d0 3c e2 7a cc 3b cf db 82 bd 40 98 ca 3c
       0.02544105 0.0062402347 -0.063895814 0.024730802
0000d0 54 91 a2 3c 73 c0 a0 3d 8c 33 64 bd 92 67 1c 3b
       0.019844688 0.07849207 -0.05571322 0.0023865444
0000e0 80 fd 8c 3a c7 18 73 3d 47 59 08 bd 62 bd 4d 3d
       0.0010756701 0.0593498 -0.033288267 0.050229438
0000f0 1f f6 a4 3d 66 ef 68 bd fd f6 a6 3d 3a 36 96 ba
       0.080547564 -0.056868933 0.08152578 -0.0011460253
000100 3f 6b 0d bd 81 8b 1e 3d be fc 04 bc 00 79 d5 3a
       -0.034526106 0.03870726 -0.008116899 0.0016286671
000110 4a f1 95 bd b9 1a a2 3d ed 5a 3b bd ad 88 9d bd
       -0.07321413 0.07915253 -0.04574101 -0.076920845
000120 e6 fa 79 3d 25 37 90 bd 60 7c da 3c 3f d1 b2 bd
       0.06103029 -0.07041768 0.026670635 -0.08731317
000130 10 49 ab bc bc eb 2b 3d 38 1d 5a bc 37 d4 22 bc
       -0.020908862 0.04197286 -0.01331263 -0.009938291
000140 7b 57 90 3d 7f ab b4 3d e0 08 81 bb 42 a6 3a bd
       0.070479356 0.08821773 -0.0039378256 -0.045568712
000150 fc 03 9a bd 87 e6 3d 3d 9e 72 9b bd b5 b9 9c bd
       -0.07520291 0.046362426 -0.07590221 -0.07652608
000160 bc 5e 97 3c 19 e1 cb 3c b6 70 70 3d b3 c8 8f 3d
       0.01847779 0.024887608 0.05870124 0.07020702
000170 01 af 47 bc 00 01 9d bb bd d2 9d bd d9 13 82 3c
       -0.01218772 -0.004791379 -0.07706211 0.015878605
000180 4a 33 13 bd 17 8f 88 3d 38 7a bf ba fa 13 98 bc
       -0.035937585 0.06667917 -0.0014608568 -0.018564213
000190 8b 12 4b bd 0a 94 59 bd 9c 09 49 bc d5 ba 5e bd
       -0.04957823 -0.053119697 -0.012270357 -0.054377396
0001a0 45 f9 d4 bc c9 df 84 3d 11 6f 80 3d a7 77 a0 bd
       -0.025997767 0.06487996 0.06271184 -0.07835322
0001b0 7f c1 8f bc 86 60 72 3d e0 82 56 bc 9d 67 7a bd
       -0.01754832 0.059174083 -0.0130927265 -0.06113397
0001c0 0e 87 ae bd f5 e0 f4 bb 77 30 25 bd 68 51 51 3d
       -0.085218534 -0.007473106 -0.040329423 0.051103026
0001d0 73 ba 3c 3d ae 17 9c 3d 70 62 04 3c 1a 1d 93 bd
       0.04607625 0.07621704 0.00808011 -0.07183285
0001e0 1a 6a 70 3d 60 94 cd bb e3 d7 59 bc bb ce 86 3d
       0.058694936 -0.006273791 -0.0132961 0.065823995
0001f0 0c 70 99 bd bc b8 94 3c d6 e8 6a bd 8b 6a 8e 3d
       -0.07492074 0.018154494 -0.057350956 0.06953915
000200 30 0c b1 3b 6b 5a 42 3d 94 8b e1 3c 99 1f 32 bd
       0.005403064 0.04744951 0.027532376 -0.043487165
000210 aa 79 7a 3d d2 93 b0 bd ef 29 ae bd 44 ca af bd
       0.061151184 -0.086219445 -0.08504092 -0.08583501
000220 c0 42 33 3b a8 c2 21 3c 65 19 4a bd 40 fc fe bc
       0.0027353019 0.00987307 -0.049340624 -0.031126142
000230 53 b8 19 bd 42 29 a0 bd 7a b1 7e bc cd fa 1e 3d
       -0.0375293 -0.07820369 -0.015545243 0.0388134
000240 a6 ff 3a bc f6 6d cc bb b8 59 75 bd d4 88 8a bc
       -0.01141349 -0.0062386943 -0.059900016 -0.016910948
000250 26 77 8d bd d7 b8 66 3d e0 dc a5 3d a7 2b 96 bc
       -0.069074914 0.05632862 0.08098769 -0.018331362
000260 40 d4 d4 3c 3b 62 97 bd 17 de 00 bc 1f 63 20 3c
       0.025980115 -0.07391783 -0.00786545 0.009789257
000270 e4 68 08 3d 0d 40 7c 3c 3f 01 96 3d a4 b2 f2 bc
       0.033303156 0.01539613 0.073244564 -0.029626198
000280 b7 47 8d bd a5 60 9a 3d 17 63 24 bd 4b 70 af 3d
       -0.06898444 0.07537965 -0.040133562 0.0856634
000290 79 29 83 bd 52 b0 2e bc 77 c8 e0 bc 76 5e 44 3d
       -0.06404395 -0.010662155 -0.02743934 0.047941647
0002a0 28 75 ae bc 0e cb 14 3d 27 23 94 3d 7c 6c 22 3d
       -0.021296099 0.03632646 0.07233267 0.03965424
0002b0 fa 60 8f bd 1e 52 30 bd 9c 3d ba bc 82 90 1e 3d
       -0.07000919 -0.043047063 -0.022734456 0.038712032
0002c0 cb cf a4 3d ca 2a 29 bd 90 f3 92 bd 5b aa a1 bd
       0.08047446 -0.041300572 -0.07175362 -0.07893821
0002d0 48 e3 8b bb 3a af 5d 3d ab eb ce 3c eb a6 67 3d
       -0.0042690374 0.054122187 0.02525886 0.05655567
0002e0 4e ad 62 3d e5 29 e3 bc 00 2d 38 3c 8b e8 a3 bd
       0.055341057 -0.027729938 0.011241198 -0.080033384
0002f0 28 0b 49 3d 2d d6 50 3d 71 8b 98 bd 78 17 bc bc
       0.049082905 0.050985504 -0.07448471 -0.02296041
000300 ca 1c 57 bd 28 ff 90 bb 43 dc 48 bd fe a8 fa bc
       -0.05251769 -0.0044249482 -0.049038183 -0.03059816
000310 00 2d 1b 3c d4 40 b9 3c 2e 6e cd 3c fb c3 9f bc
       0.009471178 0.02261392 0.025076952 -0.01950263
000320 2a 9b 5b bd 9a f8 af bc 67 f0 90 bd 09 16 1b bd
       -0.053614773 -0.021480847 -0.07077103 -0.03786281
000330 1e a7 f1 bc 32 28 96 3d 4a 1d 86 bd f1 48 36 bc
       -0.029498633 0.073318854 -0.06548555 -0.011125789
000340 bd 54 71 3d a4 05 d6 3c 80 5a d3 bb 68 6a 91 bd
       0.058918703 0.026125737 -0.0064499974 -0.071003735
000350 45 31 b2 bd 30 4b 39 3d ca 55 8d 3d 27 6e 99 bd
       -0.08700804 0.04523772 0.069011286 -0.07491713
000360 7c ec 9f bb 44 f0 b6 3b 66 b9 47 bd bd 2c 91 3d
       -0.004880486 0.005582841 -0.048760794 0.07088611
000370 cd d6 67 3d 80 2f 3c 3c 03 69 8f 3d cd ff 23 bc
       0.056601334 0.011485934 0.07002451 -0.010009718
000380 6b d0 a1 3d c6 7a f1 3c 65 ef 40 3d 49 6c 8e 3d
       0.07901081 0.029477488 0.047103304 0.069542475
000390 8d 05 30 3d 0a ab 99 bd b7 28 42 bd 0c 39 45 bd
       0.042974044 -0.07503326 -0.04740211 -0.048150107
0003a0 5f 5c aa 3d 50 5b ac 3d 12 82 a3 bd 3e 53 81 3d
       0.083184 0.08415854 -0.07983793 0.06314705
0003b0 e2 c6 96 bd 8e 22 22 3d b7 c5 a7 bd 46 0f 98 3d
       -0.07362153 0.039583735 -0.08192008 0.07424788
0003c0 43 2e fb 3c 07 17 5d 3d f5 66 ae 3d 7d 2d c4 bb
       0.030661708 0.05397704 0.08515731 -0.005986868
0003d0 1c 31 98 bd 15 c1 41 bd d8 80 99 bc 3a a0 9d 3d
       -0.07431242 -0.047303278 -0.018738195 0.076965764
0003e0 f0 20 b0 bb 32 cf 8b 3c 82 e2 9a bb 54 2d 22 3d
       -0.00537502 0.017066572 -0.004726709 0.03959401
0003f0 10 d6 ea bb 30 59 ef bb c8 9e 10 3c 90 24 55 3c
       -0.0071666315 -0.007304333 0.008826919 0.013009205

net.2.bias f4 [128]
000000 05 dd c6 3c ed 4a 05 3d 0a 18 1b bc 40 3d 03 3d
       0.024275312 0.032542158 -0.009466181 0.032040834
000010 56 da 8c 3d 9f 38 c8 3c 9c 6f bb 3c 23 97 c6 3c
       0.06877582 0.024441062 0.022880368 0.02424199
000020 fb f0 90 ba 07 99 bd bb d0 8e 6a 3c 96 93 83 bc
       -0.0011058146 -0.0057860645 0.014316276 -0.016061585
000030 2a fc 51 bd 59 0b 18 bc bf 18 90 bc b0 dd 0b 3d
       -0.051265873 -0.009280049 -0.017589925 0.034146965
000040 a8 c5 4b bc 42 dd 78 3d 67 f0 ac bd 1d b9 6a bd
       -0.012437262 0.060757883 -0.084442906 -0.057305444
000050 8a ce b6 bc b9 69 cc bb d0 8b 80 3d 86 4b 7d bd
       -0.022315282 -0.006238189 0.06276667 -0.061839603
000060 26 d4 1c 3c 34 66 67 3d d4 df e8 3b 89 1d b2 bd
       0.0095720645 0.056493953 0.0071067605 -0.0869704
000070 20 5c a6 bd cb 6e b3 bd 58 af 21 3c cb 89 21 3d
       -0.0812304 -0.087613665 0.009868465 0.03943805
000080 de 77 94 b9 dd 3f bf bc 05 5f 99 bd e3 f5 8f bd
       -0.00028318068 -0.023345882 -0.07488827 -0.07029321
000090 17 b6 a4 3d 40 61 e3 b7 28 70 9f bd c1 0a 4d 3d
       0.080425434 -2.7105794e-05 -0.07785064 0.050059084
0000a0 cc e0 2a 3d d1 47 0e 3d c9 26 1d bd f2 e2 07 3d
       0.04171829 0.03473646 -0.038367067 0.033175416
0000b0 9d 34 4c bd c6 78 97 3c 27 bd c0 bb 48 57 22 3c
       -0.049854863 0.018490206 -0.0058819237 0.009908505
0000c0 0a 89 2b 3d bc b5 ea bc a2 4b 76 3d e2 f4 7b 3d
       0.041878738 -0.02865111 0.060130723 0.061512835
0000d0 2b 2d 8b bd ce ce 67 3d 88 47 2e 3c bd 71 95 3d
       -0.067957245 0.05659371 0.010637172 0.072970845
0000e0 ef d7 43 bd 50 32 ac bd c8 21 7f 3c b7 61 de bc
       -0.047813352 -0.08408034 0.015572019 -0.027146203
0000f0 e8 63 33 bd 58 13 d9 bc fa d0 b8 bc 7e 3b 3f 3d
       -0.04379645 -0.026498482 -0.022560585 0.046687596
000100 f7 13 5d bd 40 85 b3 bb ab 7b aa 3d 9c 19 7e 3b
       -0.053974118 -0.005478531 0.08324369 0.0038772589
000110 00 6c 94 39 2d dd 5a bd 44 29 28 bd c9 6a 95 3d
       0.00028309226 -0.053433586 -0.04105498 0.07295758
000120 28 89 35 bd d9 1d 44 3c e8 15 6e bd f4 b8 92 bd
       -0.044320256 0.011970007 -0.05812636 -0.07164183
000130 b2 65 85 bd 47 14 01 3d d0 5b 69 3d 54 4b 80 3d
       -0.065135375 0.03151348 0.056972325 0.06264368
000140 d3 ae ed 3c 1c ea 96 bc 58 42 85 3c b1 e0 8d 3d
       0.029014027 -0.018422179 0.016266987 0.06927622
000150 7f fb 06 3d f0 04 6d bd 86 94 b1 bd d2 91 8e bd
       0.03295469 -0.057866037 -0.08670907 -0.06961407
000160 93 48 d0 3c 32 5a 23 bd 94 a2 3b 3d 80 2b 9d 3c
       0.025425231 -0.03988094 0.045809343 0.019185781
000170 e0 da 83 bd 48 9e 8e bd 8f a5 4f 3d 8c ef 80 3d
       -0.064382315 -0.069637835 0.050695 0.0629569
000180 b2 a8 61 bd d0 89 f2 3c 55 7d ea bc 36 9b 44 3d
       -0.05509252 0.02960673 -0.028624216 0.047999583
000190 3e 0e 14 bd 67 4e 36 3d 1f 47 47 3d 66 8d 4d 3d
       -0.036146395 0.044508364 0.04865181 0.050183676
0001a0 95 9f 22 3d 20 d2 58 3b 47 41 22 bd 7b 48 2e bd
       0.03970297 0.0033084229 -0.039613035 -0.04254959
0001b0 aa fb 46 3d 20 b8 d3 3c ec cf 52 3d df a3 8b bd
       0.04857985 0.025844634 0.05146782 -0.06818365
0001c0 20 a2 16 3c 42 d3 41 3d 62 07 28 3d 2c f6 01 bb
       0.009193927 0.04732061 0.041022666 -0.0019830568
0001d0 b6 3e 94 3c 3e b0 3b 3d 54 57 b6 bc ea 49 1f bc
       0.01809631 0.045822375 -0.022258438 -0.009722212
0001e0 70 d2 80 ba e7 af a1 3d e2 cf 35 3d 06 c6 6b bd
       -0.000982834 0.07894879 0.044387706 -0.057561897
0001f0 a9 33 6c bd 64 0f 67 bd 48 22 3c bd 2c db 56 bd
       -0.057666454 -0.056411162 -0.04593113 -0.052455112

net.4.weight f4 [4, 128]
000000 a2 f8 33 bd e0 d3 8a bd 4d 32 1e 3d b8 71 93 bd
       -0.043938287 -0.06778693 0.03862219 -0.071994245
000010 48 2c 70 bd 35 54 a3 bd 2d da ac bd 78 41 2f 3c
       -0.05863598 -0.079750456 -0.08440051 0.010696761
000020 cf bb 97 3d 6e a8 fe bc 50 0c 6b bd 2f c4 6b 3d
       0.074088685 -0.031086173 -0.05738479 0.057560142
000030 66 5e 47 3d 03 c2 4e 3d e4 8b d0 39 7c 0b 83 3c
       0.04867401 0.050477993 0.00039777078 0.015996687
000040 60 e7 d2 3b f6 aa 0b 3d 29 45 cf bc 26 2c ad bd
       0.0064362735 0.034098588 -0.025301533 -0.08455686
000050 e2 74 57 3b 9e 7e ce 3c 6f 9d 63 3d 6b 7e 7f 3d
       0.0032876064 0.02520686 0.055570062 0.06237642
000060 cf 24 95 bd a0 3c 95 bd 63 a3 82 3d f4 ae 11 3d
       -0.07282411 -0.07286954 0.0637882 0.03556724
000070 89 9c 7d bd 80 70 a3 bc f0 3d 8b 3c 43 d0 c6 bc
       -0.06191686 -0.019951105 0.016997308 -0.024269229
000080 aa 3a 72 3d dd 7b 89 bc 08 f3 55 3c f8 0f 09 bc
       0.059137978 -0.016782695 0.013058431 -0.008365624
000090 fc 01 fe 3c d4 87 7d bc c8 a4 70 3c 4c 11 ce 3b
       0.031006806 -0.0154742785 0.014687724 0.006288683
0000a0 a9 52 b5 bc 26 b2 89 bd 90 33 52 3d 67 47 49 bd
       -0.022134142 -0.06723432 0.051318705 -0.04914036
0000b0 d0 7b b5 3b 28 65 d9 bc ec 2a 37 3d 1b c7 35 bd
       0.0055384412 -0.026537493 0.044718668 -0.044379335
0000c0 9e 71 0e 3d 8b 1e 2c bd 3f e6 e0 bc db 1b 2e bd
       0.034776323 -0.042021316 -0.02745354 -0.042507034
0000d0 31 45 94 bd 0f df 90 3d ed f5 a1 3d d9 df 9a 3d
       -0.0723976 0.07073795 0.07908235 0.07562227
0000e0 12 95 9c bd 67 13 a7 bd 75 21 24 bd 1e 31 37 3d
       -0.076456204 -0.081579976 -0.04007097 0.044724576
0000f0 7d db a2 bd a8 b7 0d 3d 91 ed 72 bd 86 fe 8e bd
       -0.0795202 0.034598976 -0.059308592 -0.0698214
000100 9d 97 b1 3c ec 3f 94 bc d7 02 ac 3c 1f 0d b6 3c
       0.02167874 -0.018096887 0.020997448 0.022223054
000110 6d b6 8f 3d 0e 83 2b bd 81 59 89 3d 43 0a 29 bd
       0.07017217 -0.04187303 0.06706525 -0.041269552
000120 c0 83 77 bc 43 5b 7b bd fd 38 55 3c 39 af 93 bd
       -0.015107095 -0.06136633 0.013014075 -0.072111554
000130 0c 7d d3 bc 76 01 1d 3d 49 cc 35 bd 08 8c bb 3c
       -0.025816463 0.03833147 -0.044384275 0.02289392
000140 fd 51 e6 3b 0d 3c 11 bd e6 ed a3 3b a5 e6 60 bd
       0.0070288167 -0.03545766 0.005002725 -0.05490746
000150 ac 07 a3 3d 44 4b b3 bc fb ec 97 3c a7 31 8f bd
       0.07960448 -0.021886475 0.018545618 -0.06991892
000160 20 4c b8 3d 4a ca 71 3d c2 b8 03 3d 66 10 7d 3d
       0.08998895 0.05903081 0.03215862 0.061783217
000170 c5 6a 74 bd 72 37 e1 3b c6 58 46 bd 61 4d 32 3c
       -0.059672136 0.0068730647 -0.048424505 0.010882706
000180 0e ff 93 bc d5 ab 81 3d 76 cf bc bc a6 1c 66 3d
       -0.018065955 0.063316025 -0.023048144 0.056179665
000190 44 70 94 bd be 10 6e bd b7 5b 9a 3d dc 34 6e 3c
       -0.072479755 -0.058121435 0.075370245 0.01453897
0001a0 d7 e5 55 bd 5c 24 8d bd 9c f1 8b 3c fc 9d e9 bc
       -0.052221145 -0.068917006 0.017082982 -0.028517716
0001b0 46 ea db bb 6f cd 12 bd 08 10 9a 3d 05 e6 b0 bd
       -0.006711277 -0.035840448 0.07522589 -0.08637623
0001c0 0a c2 08 3d 40 7d 14 bc 64 f7 a0 bd 93 78 52 3d
       0.033388175 -0.009063065 -0.07859686 0.05138452
0001d0 31 53 a4 3d 17 11 9f bd 64 74 fa 3c 9b 4c 50 3d
       0.0802368 -0.077669315 0.030573077 0.050854307
0001e0 c4 2e 99 3c 3c 9c 6c bd 17 8f b2 3d 0c 94 79 bd
       0.018699057 -0.057766184 0.087186985 -0.060932204
0001f0 f0 71 13 3d e8 be 5c bd 9f 74 af bd d0 5d 28 bd
       0.03599733 -0.053893 -0.085671656 -0.04110509
000200 69 a0 e9 3c 96 1d 27 3d 5c db 3e 3c 35 88 33 bd
       0.028518872 0.0407997 0.011648979 -0.04383107
000210 ec 20 91 bd 99 5e 47 3d 90 b2 d0 3c d8 da 21 3c
       -0.070863575 0.0486742 0.02547577 0.009878837
000220 b6 32 a9 bd 42 48 21 bd 69 48 42 bd f0 90 5b 3d
       -0.082616255 -0.03937555 -0.047432337 0.05360502
000230 4e 38 ad 3d f9 ae e6 bc fa 92 d2 3c 17 b9 60 bd
       0.08458005 -0.028159605 0.02570485 -0.054864015
000240 b4 1f aa bc 9b c4 98 3d f5 cf 8b 3d 7c c1 7c 3b
       -0.02076707 0.074593745 0.06826774 0.0038567474
000250 03 0a a2 bd 43 ec 85 bd fd 03 a8 bd 93 c0 36 3c
       -0.07912066 -0.06539204 -0.08203886 0.011154312
000260 9b b1 c0 bb 04 4c fc 3c cf a4 f8 ba 6e 98 64 3d
       -0.005880547 0.030797966 -0.0018970015 0.05580943
000270 f3 23 f5 bc 20 d8 63 bb 6c 2f b6 bc 58 b1 99 bd
       -0.029924368 -0.0034766272 -0.02223941 -0.07504529
000280 6e ba 87 3d 00 7f 9c 3c d4 07 34 bd b6 94 46 3d
       0.066273555 0.019103527 -0.043952778 0.048481666
000290 30 ae d3 3c d9 46 38 3d b4 ec a7 bc 9a 2b 0a bd
       0.025839895 0.04498944 -0.020498611 -0.033732988
0002a0 36 be b0 bd 42 02 b1 3d bf 91 33 bd ba 1e ed bc
       -0.0863003 0.08643009 -0.043840166 -0.028945316
0002b0 b0 14 97 bb 2f 21 8e ba f1 9e 08 3d 8c c3 86 bc
       -0.0046106204 -0.001084363 0.033354703 -0.016450666
0002c0 33 e4 63 bd 67 2b a3 3d 33 05 52 3d 38 14 a6 3d
       -0.05563755 0.07967263 0.05127449 0.08109325
0002d0 36 09 8e 3c 77 73 10 bd 50 bb 39 bd dc db 8b bd
       0.017338376 -0.035266366 -0.04534465 -0.06829044
0002e0 68 4f f2 3c da 8d 53 3d 12 ef 6d 3d 75 c3 a3 bd
       0.02957888 0.051648952 0.058089323 -0.07996265
0002f0 9c 20 ad bd 08 82 75 bc 56 9f 53 3d 14 15 05 bd
       -0.08453485 -0.014984615 0.051665626 -0.032490805
000300 b8 86 c2 bc d3 5e 81 3d 96 e2 61 bd b0 48 a7 3d
       -0.02374588 0.063169144 -0.05514773 0.08168161
000310 7e 73 50 3d 43 3c 35 bc 8f 42 6f 3d 59 54 60 bd
       0.050891392 -0.011061731 0.058413085 -0.05476794
000320 bf 82 55 bd c5 ab a7 3d 00 1a ae bd 9c 43 10 3d
       -0.052126642 0.08187059 -0.08501053 0.035220727
000330 e0 57 54 3b 86 35 7d 3d 6a 13 28 bb ae 8f 1c bd
       0.003240101 0.061818622 -0.0025646337 -0.03822296
000340 84 45 a2 bd cf 03 9a 3d b8 5e b5 3d a9 fc f3 3c
       -0.07923415 0.07520258 0.08855957 0.029783564
000350 76 d6 b7 bd eb a0 1c bd a2 4b 01 bc 46 f0 16 3d
       -0.08976452 -0.0382394 -0.007891567 0.036850236
000360 99 7f e8 bc a8 a4 a9 bd db ae 82 3d 2b de a4 3d
       -0.028381156 -0.08283359 0.06381007 0.08050188
000370 85 aa 9b bd 8d 63 00 bd 32 4f 8a bd e5 d7 80 3d
       -0.076008834 -0.03134494 -0.067533866 0.062911786
000380 e9 2f 8a 3d da e0 86 bd e1 f4 2b bd f5 f6 24 bd
       0.067474194 -0.06585856 -0.04198158 -0.04027458
000390 4c 26 2c 3d dd 1d 7b 3d f0 24 19 bc 51 41 8a bc
       0.04202871 0.061307777 -0.0093471855 -0.016876848
0003a0 ec 86 81 bd 3f 28 b3 3d d1 70 c2 bc 3c 5e 61 bd
       -0.063245624 0.08747911 -0.023735436 -0.05502151
0003b0 df c3 fd 3c 78 b4 50 bd 45 9d 57 3d 7a 18 45 bd
       0.030977188 -0.05095336 0.05264022 -0.048119046
0003c0 26 1f e4 3c c6 ed 5e 3d 0b 87 4f bd 9c 30 22 3d
       0.027846884 0.054425977 -0.050665896 0.03959714
0003d0 6e 17 3e 3b 05 83 4a bd 6c c5 8f 3c a9 b9 80 bb
       0.0029005664 -0.049441356 0.017550193 -0.0039283824
0003e0 19 f2 36 3d 76 f0 4e bd 77 88 0e bd f4 37 97 bd
       0.044664476 -0.05052229 -0.03479811 -0.07383719
0003f0 45 93 87 bd 12 c3 34 bd 6c 82 c8 3c 38 51 d8 bb
       -0.06619886 -0.044131346 0.024476252 -0.006601479

net.4.bias f4 [4]
000000 7a 75 a3 bb ec 06 92 bd af 69 2e bc bb bd 9f 3d
       -0.0049883695 -0.071302265 -0.010645314 0.0779986
