Entities/pained_rep.pth (torch, 84646 bytes, 6 tensors)

net.0.weight f4 [128, 20]
0	0x3c7fd67d	0.015615103
1	0xbd57e000	-0.052703857
2	0xbdafbb74	-0.08580676
3	0xbddfde42	-0.10931064
4	0x3cf94609	0.030428903
5	0x3e19c78c	0.15017527
6	0xbce3ef91	-0.027824195
7	0xbdcc612c	-0.099794716
8	0x3cdf8999	0.027287291
9	0x3e2ee915	0.17081101
10	0x3b983010	0.0046444014
11	0x3e763cd8	0.24046648
12	0x3e2f0c7f	0.1709461
13	0xbe937204	-0.28797925
14	0x3e8365eb	0.25663695
15	0x3e5a1366	0.21296462
16	0x3e2a8481	0.16652109
17	0x3da86ad1	0.082234986
18	0xbacc6f26	-0.001559709
19	0xbd808de4	-0.062770635
20	0xbe30f472	-0.17280748
21	0xbe01df6b	-0.12682883
22	0x3a8bf480	0.0010677725
23	0xbdadb20d	-0.08481226
24	0x3da16881	0.07881261
25	0xbe727085	-0.23675735
26	0x3dce030b	0.10059174
27	0x3da0b1f9	0.078464456
28	0xbd1acb5f	-0.037791606
29	0xbe0bd34a	-0.13654819
30	0x3e11490d	0.14188023
31	0x3df6f037	0.12057536
32	0x3ddccdac	0.10781416
33	0x3d81f26c	0.063450664
34	0xbd27bcde	-0.040951602
35	0xbd3a6417	-0.04550561
36	0xbc014504	-0.00788999
37	0xbca43e09	-0.020049112
38	0x3c7e7c0e	0.015532507
39	0xbe6bc13e	-0.23022935
40	0x3cb33f0e	0.021880653
41	0xbd7d65bc	-0.0618646
42	0x3da1d757	0.07902401
43	0x3ded05d2	0.11573376
44	0x3e374801	0.17898561
45	0xbdb43491	-0.08799089
46	0xbdca2088	-0.09869486
47	0xbc376bc8	-0.011195131
48	0xbe65fe9a	-0.22460404
49	0x3c8bbdd5	0.017058292
50	0x3a0eb57a	0.0005443912
51	0xbdf504be	-0.11963795
52	0x3dd4f290	0.103978276
53	0xbd8c92fa	-0.06863971
54	0x3e4a2033	0.19738846
55	0x3e2b941c	0.16755718
56	0xbe9896d1	-0.29802564
57	0xbd2e3f7f	-0.042541023
58	0xbcf72b92	-0.030172143
59	0xbe0c24d1	-0.1368592
60	0xbebd15a6	-0.3693058
61	0x3dc56341	0.09638072
62	0xbe052ad9	-0.13004626
63	0xbc337825	-0.010953938
64	0xbd98a148	-0.07452637
65	0x3e03fa8e	0.12888548
66	0xbd5838bb	-0.052788477
67	0xbdc66421	-0.09687067
68	0xbdb26dba	-0.08712335
69	0xbe594242	-0.21216682
70	0xbe7503bb	-0.23927204
71	0xbe3611c9	-0.17780222
72	0xbd8105c3	-0.06299927
73	0x3d359338	0.044329852
74	0xbe43b551	-0.19112135
75	0x3e2a4b54	0.16630298
76	0xbd217d74	-0.039426282
77	0xbe5dd071	-0.21661545
78	0xbc09d1f2	-0.008411871
79	0x3d652888	0.055946857
80	0xbde073f4	-0.10959616
81	0x3e3e19d4	0.1856454
82	0xbdc5760a	-0.09641655
83	0x3ea5f143	0.3241063
84	0x3e2e0859	0.16995372
85	0x3f095289	0.53641564
86	0x3e0fffa0	0.14062357
87	0xbe95c4ce	-0.29251713
88	0x3b72b6cf	0.0037035232
89	0x3dc2f923	0.09520175
90	0x3d7e6420	0.062107205
91	0x3e45b99e	0.19309089
92	0x3df34450	0.11878264
93	0x3e364130	0.17798305
94	0x3e447e78	0.19188869
95	0xb8fef5aa	-0.00012157422
96	0xbe4bfc55	-0.19920476
97	0x3d4acc50	0.049511254
98	0xbde41314	-0.11136451
99	0x3d507458	0.050892204
100	0xbe584f61	-0.2112403
101	0x3e914436	0.28372353
102	0x3e75582b	0.23959415
103	0x3dd7cd58	0.10537213
104	0x3e9e13c5	0.30874458
105	0x3db64c5a	0.08901282
106	0x3da17a84	0.07884696
107	0xbcae224c	-0.021256588
108	0xbe1e5e95	-0.15465768
109	0xbe2387a7	-0.15969716
110	0xbc9ac5e7	-0.018893195
111	0x3e875542	0.26432234
112	0xbd817711	-0.06321538
113	0xbe4d6a1d	-0.2006001
114	0xbd687fcd	-0.056762505
115	0x3c6c47f3	0.014421451
116	0xbe1fd85f	-0.15609883
117	0x3e55e129	0.20886673
118	0xbacf5ffb	-0.0015821451
119	0xbdd04402	-0.101692215
120	0xbe95de64	-0.29271233
121	0x3e3cbe9c	0.18432087
122	0xbe5d2d2d	-0.21599264
123	0xbc8115db	-0.015757492
124	0x3dc23037	0.094818525
125	0xbe2efde6	-0.17089042
126	0xbe4f3cce	-0.20238039
127	0xbd07fa60	-0.03319776
128	0xbc4bce9d	-0.012439397
129	0x3dc541dc	0.09631702
130	0x3dd26637	0.10273402
131	0xbd794f7c	-0.060866818
132	0x3e206000	0.15661621
133	0xbe10f5b0	-0.14156222
134	0xbd84975d	-0.06474183
135	0x3d84fcbc	0.06493518
136	0xbe5769e5	-0.2103649
137	0xbe1b7916	-0.1518291
138	0xbc0f0d05	-0.008731131
139	0x3e0b3d27	0.13597547
140	0xbe0ba4a5	-0.13637026
141	0xbe43c2fc	-0.1911735
142	0x3e0ae13e	0.13562486
143	0x3e1ec95f	0.15506504
144	0x3e395427	0.18098508
145	0x3ea847e0	0.32867336
146	0x3e78470c	0.24245852
147	0xbe1f5078	-0.1555804
148	0xbdf14139	-0.11780018
149	0xbd78a201	-0.060701374
150	0xbc9241ee	-0.017853703
151	0x3de152a7	0.11002093
152	0x3e01c29d	0.12671895
153	0xbe5538a2	-0.20822385
154	0xbe42fc00	-0.19041443
155	0xbe222e7c	-0.15838045
156	0x3d8d7426	0.06906919
157	0x3e5a62f0	0.21326804
158	0xbe79ebfc	-0.24406427
159	0xbca282f1	-0.019837828
160	0xbe88d813	-0.26727352
161	0x3c698b94	0.014254469
162	0x3e2645a8	0.16237509
163	0xbd4d97a5	-0.050193448
164	0xbd1e4992	-0.03864438
165	0x3de30236	0.11084406
166	0x3e0596d1	0.13045813
167	0xbe2ead78	-0.1705836
168	0x3d8e6dd8	0.06954545
169	0xbdea282c	-0.114334434
170	0x3e1a2780	0.1505413
171	0x3d92f690	0.07175934
172	0xbdb08ee6	-0.08621006
173	0x3ba84e60	0.005136296
174	0x3e2eeef2	0.17083338
175	0x3da7d024	0.081939965
176	0x3e3486e8	0.17629588
177	0x3dee9654	0.116497666
178	0xbe9d1d67	-0.30686495
179	0xbe50014e	-0.20312998
180	0xbc21bde6	-0.0098719355
181	0x3e046e69	0.12932743
182	0x3d87ef95	0.066374935
183	0x3e80d88b	0.2516521
184	0xbdbdadf3	-0.09261694
185	0x3da8a601	0.08234788
186	0xbc324d57	-0.010882697
187	0xbe33f4dd	-0.17573877
188	0x3e97a8f4	0.29621089
189	0x3d75cb6d	0.060008455
190	0x3d8673c5	0.0656505
191	0x3d8963f3	0.06708517
192	0x3e4fc309	0.20289244
193	0xbe412a88	-0.1886388
194	0x3d6458ca	0.05574874
195	0x3dd36613	0.103222035
196	0x3e5eae33	0.21746139
197	0xbdb9fea0	-0.09081769
198	0x3d54cdc2	0.05195404
199	0xbd8de81a	-0.069290355
200	0x3e178402	0.1479645
201	0xbe776a52	-0.24161652
202	0xbe8005c5	-0.25004402
203	0x3e3419c7	0.17587958
204	0xbe3bf74e	-0.18356058
205	0x3e1f052d	0.15529318
206	0x3d775415	0.06038292
207	0xbd73f6a1	-0.059561376
208	0x3c82aebd	0.015952462
209	0xbdf98c1c	-0.12184927
210	0xbcb54f90	-0.022132665
211	0x3e646156	0.22302756
212	0x3d93f082	0.072236076
213	0xbe81d949	-0.25361088
214	0x3ebd7fed	0.37011662
215	0xbd027a0e	-0.03185468
216	0xbd39b212	-0.045335837
217	0x3d1bc83d	0.03803276
218	0xbd777ab7	-0.060419764
219	0x3d7b88d4	0.061409786
220	0xbcd7f8f0	-0.02636382
221	0x3bfdd146	0.0077458946
222	0x3da5e9fb	0.08101269
223	0xbad78cd3	-0.0016445167
224	0xbe4a197e	-0.19736287
225	0x3e1d9874	0.15390188
226	0x3e48cabf	0.19608591
227	0xbe81f478	-0.25381827
228	0x3e07cc89	0.13261618
229	0x3d8ae846	0.06782584
230	0x3d8c921c	0.06863806
231	0xbdcd29d1	-0.100177415
232	0xbe43b709	-0.19112791
233	0x3e8d0bea	0.27548152
234	0x3dbea33c	0.09308478
235	0x3e71d32b	0.2361571
236	0x3e75487e	0.23953435
237	0xbd863dab	-0.06554731
238	0x3d24671f	0.040137406
239	0xbdd72382	-0.105048195
240	0xbdff6d36	-0.12472002
241	0xbd33727b	-0.04381035
242	0xbdd3ccfc	-0.10341832
243	0xbd9b040b	-0.075691305
244	0xbdb9a144	-0.09063962
245	0xbdfb13fd	-0.12259672
246	0x3dcefb5f	0.10106539
247	0x3e36a8c4	0.17837816
248	0xbd5c3fde	-0.053771846
249	0x3ce7f3cd	0.028314495
250	0xbebc27a9	-0.36749008
251	0xbe35d65b	-0.17757551
252	0x3e927ac3	0.28609285
253	0xbc7c2f00	-0.015392065
254	0xbd81d328	-0.06339103
255	0xbe611d2b	-0.21983783

net.0.bias f4 [128]
0	0x3d00499a	0.031320192
1	0xbd18b403	-0.037281048
2	0x3b61495b	0.0034375999
3	0x3d77eca7	0.060528424
4	0x3e443028	0.19158995
5	0xbe9aa543	-0.3020421
6	0x3db5ebb0	0.088828444
7	0xbe508151	-0.2036183
8	0xbdca2b16	-0.09871499
9	0xbe3e36fe	-0.18575665
10	0xbe53b5d4	-0.2067483
11	0xbe3d13a3	-0.18464522
12	0x3c711cb3	0.014716315
13	0xbc83f046	-0.016105782
14	0xbd502665	-0.050817866
15	0xbe219309	-0.15778746
16	0xbdd9d2fc	-0.10635945
17	0xbed59169	-0.41712502
18	0xbe81af59	-0.25329092
19	0x3dee60b0	0.116395354
20	0x3e0398e6	0.12851295
21	0xbd38f626	-0.04515662
22	0x3d24cc79	0.040234063
23	0xbe0054b6	-0.12532315
24	0xbecffc16	-0.40622014
25	0xbec01ada	-0.37520486
26	0x3e0bc670	0.13649917
27	0xbdb2b88e	-0.08726607
28	0x3e395b3e	0.18101212
29	0x3e13ce1a	0.1443409
30	0xbe683bec	-0.22679108
31	0xbe43973e	-0.19100663
32	0xbc0f9503	-0.0087635545
33	0xbeac9f4e	-0.3371529
34	0xbed1f934	-0.4101044
35	0x3dc0d290	0.094151616
36	0xbe5f1024	-0.21783501
37	0xbe555bef	-0.20835851
38	0xbe89e6e1	-0.2693396
39	0x3ea76550	0.32694483
40	0x3cf3bb28	0.029752329
41	0x3dc433f7	0.09580224
42	0xbe8e7982	-0.27827078
43	0x3d88a885	0.066727675
44	0x3de5adab	0.11214765
45	0xbdf6d161	-0.120516546
46	0xbe48400c	-0.19555682
47	0xbe8495c4	-0.25895512
48	0xbdecce2e	-0.11562763
49	0xbe6b4aea	-0.22977796
50	0x3e164348	0.14674103
51	0xbed9e897	-0.42560264
52	0x3d04ad64	0.03239192
53	0x3d4363c3	0.047702562
54	0x3bbd9b13	0.0057863086
55	0x3d8b06aa	0.067883804
56	0x3df4d9d0	0.11955607
57	0x3caf945d	0.02143305
58	0xbd721abb	-0.059107523
59	0xbe4955a0	-0.1966157
60	0x3ce00e7f	0.027350662
61	0xbe4f3429	-0.20234741
62	0xbd20fb42	-0.039302118
63	0xbe3b77da	-0.18307438
64	0xbd311ddd	-0.04324137
65	0x3e2a5cb5	0.16636927
66	0xbd990eba	-0.07473512
67	0xbdf2527c	-0.11832139
68	0x3cc8e716	0.024524253
69	0xbd8d647c	-0.069039315
70	0x3d83ed0f	0.064417
71	0xbe26746d	-0.1625535
72	0xbee4288d	-0.44562188
73	0x3e79c7c7	0.24392615
74	0xbd8b7bd3	-0.06810727
75	0xbe5cb75e	-0.21554324
76	0x3e5d6369	0.21619953
77	0x3d17fb99	0.037105177
78	0xbe5e5832	-0.21713331
79	0x3d74f3a4	0.059802666
80	0x3dd74cd6	0.10512702
81	0xbd340e41	-0.043958906
82	0x3b7f9736	0.003900004
83	0xbc1295e0	-0.008946866
84	0xbe0aaf4d	-0.13543434
85	0xbe48eda9	-0.1962191
86	0xbe243cde	-0.16038844
87	0x3e58a4ec	0.21156663
88	0xbdc9318e	-0.09823905
89	0x3eab6873	0.33478126
90	0x3e32a80f	0.17446922
91	0xbdd9b1ac	-0.10629591
92	0x3e766ac6	0.24064168
93	0x3d0a0fce	0.03370648
94	0xbe45ff4b	-0.19335668
95	0x3d504633	0.050848197
96	0x3e13f533	0.14449005
97	0x3e26b7df	0.16281079
98	0x3c30daf2	0.010794388
99	0x3a425900	0.0007413775
100	0x3e5ef09d	0.21771474
101	0xbdc8572c	-0.09782252
102	0xbd2a49f2	-0.041574426
103	0x3d2276e4	0.039664164
104	0xbe9357c0	-0.28777885
105	0xbe87d01d	-0.26525965
106	0xbdb7a21a	-0.08966465
107	0xbd9908c6	-0.074723765
108	0x3e2e7584	0.17037016
109	0x3e2b3964	0.16721112
110	0xbdd75e10	-0.10515988
111	0x3d1679f6	0.036737405
112	0xbe3f9852	-0.1871045
113	0xbcd7b29e	-0.026330288
114	0x3d89c4c5	0.06726984
115	0x3ddf1597	0.1089279
116	0x3d51d6b3	0.051230144
117	0xbd604709	-0.054755244
118	0xbe5880b6	-0.2114285
119	0x3da0feef	0.07861125
120	0xbe6bff0f	-0.23046516
121	0xbe9af235	-0.30262914
122	0x3dce8b7d	0.10085199
123	0xbb90c656	-0.0044181747
124	0x3e9d4953	0.30720004
125	0xbd0b0c77	-0.033947434
126	0xbe886197	-0.26636955
127	0xbe0cba88	-0.13743031

net.2.weight f4 [128, 128]
0	0xbc820604	-0.01587201
1	0xbd8b1af1	-0.06792248
2	0xbd303c83	-0.04302646
3	0xbda3ba6b	-0.07994541
4	0x3d07c844	0.033149973
5	0xbd9792b6	-0.0740103
6	0x3d66b8af	0.05632847
7	0x3d4023c0	0.046909094
8	0xbd5cdaa2	-0.053919442
9	0xbd785721	-0.060629968
10	0xbd9b3937	-0.07579272
11	0xbd81feb2	-0.063474074
12	0x3d45fd81	0.048337463
13	0x3d3bd2d5	0.045855362
14	0x3cae3b28	0.021268442
15	0xbdfa9003	-0.12234499
16	0xbb9ac6aa	-0.0047233896
17	0xbd8283cf	-0.06372797
18	0x3d0566d0	0.032568753
19	0x3ce8df54	0.028426804
20	0x3e436ee0	0.19085264
21	0xbdcc41fc	-0.09973523
22	0xbd7bc1d0	-0.06146413
23	0x3db8f9d0	0.09032023
24	0x3d9909b9	0.074725576
25	0xbd077f21	-0.033080224
26	0xbd9de275	-0.07709209
27	0x3d669247	0.056291845
28	0xbdaa1d61	-0.08306385
29	0x3da39b0b	0.079885565
30	0xbd574e04	-0.052564636
31	0x3d818565	0.06324271
32	0xbd5efe70	-0.05444187
33	0xbd0dd5ec	-0.03462784
34	0xbda4c764	-0.08045843
35	0x3bf82b9a	0.007573557
36	0xbdb15439	-0.08658642
37	0x3bb2af34	0.0054530147
38	0x3d98d17c	0.07461831
39	0xbda34f3f	-0.07974099
40	0xbe170928	-0.14749587
41	0xbd61945e	-0.055073135
42	0x3d969696	0.07352941
43	0x3d3952c6	0.045244955
44	0xbdee59c1	-0.11638213
45	0xbd710d04	-0.058850303
46	0xbd4919f1	-0.049097005
47	0xbc95be76	-0.018279295
48	0x3d405666	0.046957396
49	0x3d8b2814	0.06794754
50	0x3af92366	0.0019007742
51	0xbc2d118e	-0.010563267
52	0xbdd4a9ae	-0.10383926
53	0xbda0549e	-0.078286394
54	0xbde5a3fe	-0.1121292
55	0xbca1bcd3	-0.019743359
56	0xbda13ef8	-0.078733385
57	0x3d687280	0.05674982
58	0xbd65979d	-0.056052793
59	0xbd93ed57	-0.07223003
60	0xbc8891a7	-0.016671015
61	0xbcaba94c	-0.02095475
62	0x3d822b8a	0.06355961
63	0x3ba92517	0.005161892
64	0x3d484113	0.048890185
65	0x3d7e912c	0.062150165
66	0x3c52efdc	0.01287457
67	0x3d6aa04e	0.057281785
68	0xbd94ebbf	-0.072715275
69	0xbd4725ac	-0.04861991
70	0xbd74a433	-0.059726905
71	0xbdb21fa7	-0.086974435
72	0x3d9abc8f	0.07555496
73	0x3bdd1382	0.0067467103
74	0x3d221d51	0.03957874
75	0x3c338c6d	0.010958773
76	0x3c7b6a6f	0.0153452
77	0x3d33e801	0.043922428
78	0xbd6ce466	-0.057835005
79	0x3e50cadd	0.20389886
80	0xb9a198c4	-0.00030822132
81	0x3d27c490	0.04095894
82	0x3bc42d7e	0.0059868684
83	0xbdab8831	-0.08375586
84	0xbd84dd39	-0.064875074
85	0x3e00d9c0	0.12583065
86	0x3d00e67f	0.03146982
87	0x3d582a41	0.05277467
88	0xbd0714d8	-0.032978863
89	0xbe0242fd	-0.12720867
90	0x3daf250c	0.08551988
91	0x3cb70fc3	0.022346383
92	0xbcd704b8	-0.026247367
93	0x3d99bdab	0.075068794
94	0xbc969dad	-0.018385733
95	0x3e34d1d3	0.17658167
96	0x3d708938	0.058724612
97	0xbdb33519	-0.08750362
98	0xbb924de2	-0.0044648508
99	0xbd977b67	-0.07396584
100	0x3d686460	0.05673635
101	0xbc97de01	-0.018538477
102	0x3d9240e1	0.07141281
103	0x3d3173f1	0.04332346
104	0xbd9be3ed	-0.07611833
105	0xbd2f4eb1	-0.042799655
106	0x3d0bd1af	0.034135517
107	0xbe037c5e	-0.12840411
108	0xbdd72f77	-0.105071
109	0xbc8f79c4	-0.017514117
110	0xbcc7f253	-0.024407541
111	0xbca5c752	-0.020236645
112	0xbd07bb9a	-0.033137895
113	0xbdb281ad	-0.0871614
114	0xbd207f65	-0.039183993
115	0x3d2d6353	0.04233105
116	0xbcb03e9d	-0.021514231
117	0xbdb4ca8d	-0.08827696
118	0x3c77449a	0.0150920395
119	0x3b39a947	0.0028329657
120	0x3d7745de	0.060369365
121	0xbd75165a	-0.05983577
122	0x3cd00ce3	0.02539677
123	0xbd04bb46	-0.03240516
124	0xbd0c85b3	-0.034307193
125	0xbd861516	-0.065469906
126	0xbda07990	-0.07835686
127	0xbd2d256d	-0.04227202
128	0x3d62e2b0	0.055391967
129	0xbde9d50d	-0.11417589
130	0x3cada07f	0.021194695
131	0xbc8ea73e	-0.017413732
132	0xbd05039c	-0.032474145
133	0xbd1b6b16	-0.037943922
134	0x3d8fb729	0.07017357
135	0xbd9fc370	-0.078009486
136	0xbc6a5cf3	-0.014304387
137	0x3d43930c	0.047747657
138	0xbcd29560	-0.025705993
139	0x3cbc462a	0.022982676
140	0x3d4ce574	0.05002351
141	0xbc92ce56	-0.017920654
142	0x3d7b6084	0.06137134
143	0xbd08a757	-0.033362713
144	0xbd8a2ce1	-0.06746841
145	0xbc089043	-0.008335176
146	0x3cac2474	0.021013476
147	0xbdb257e9	-0.08708174
148	0xbd00371c	-0.031302556
149	0x3d10cb20	0.035349965
150	0xbd409e56	-0.047026
151	0x3d58fffe	0.05297851
152	0x3d6ad83d	0.057335127
153	0xbd91a6a3	-0.071118616
154	0xbda99b39	-0.082815595
155	0x3d8c21cd	0.068423845
156	0xbd31f7db	-0.043449264
157	0x3c52ca98	0.012865685
158	0xbd1c008a	-0.03808645
159	0xbbeaafb8	-0.0071620606
160	0x3c173b33	0.009230423
161	0xbdc6699b	-0.096881114
162	0xbd1a5831	-0.037681762
163	0x3c998566	0.018740367
164	0x3b8b5260	0.004251763
165	0x3d2b26cc	0.041785046
166	0xbdc14f33	-0.09438934
167	0x3d1c13fd	0.038105
168	0xbd9bf4b1	-0.076150306
169	0xbbe4128b	-0.0069602183
170	0x3dcf71fa	0.10129161
171	0x3d93737d	0.07199762
172	0xbc6e4293	-0.01454224
173	0xbd0de2ce	-0.034640126
174	0xbcfa9b15	-0.030591527
175	0x3bbff5fd	0.0058581815
176	0x3dd56816	0.104202434
177	0xbdbcf2d6	-0.09226005
178	0xbdc6b208	-0.097019255
179	0xbd5af007	-0.053451564
180	0xbcc7c760	-0.024387062
181	0xbbb9f1c1	-0.0056745713
182	0xbcdb8a5d	-0.026799375
183	0x3c88832b	0.016664108
184	0x3d6062a0	0.054781556
185	0x3c27c268	0.010239221
186	0xbbb22df9	-0.0054376093
187	0x3d40c048	0.047058374
188	0xbdb78b0a	-0.089620665
189	0x3c843420	0.016138136
190	0x3c2893a2	0.010289105
191	0x3d4261fd	0.04745673
192	0x3d6fb6c6	0.058523916
193	0xbcc1eff4	-0.023673989
194	0x3d132d5d	0.035931934
195	0xbdae71b5	-0.08517782
196	0x3d829148	0.063753664
197	0x3b3a39c5	0.002841578
198	0xbe00446a	-0.12526098
199	0x3cf6f8c1	0.030147912
200	0xbd39d7e7	-0.045371916
201	0xbdbbfd52	-0.091791764
202	0x3d756383	0.059909355
203	0xbd9f5416	-0.0777971
204	0x3c46f95b	0.012144412
205	0x3c83e2f7	0.016099436
206	0x3d7a0650	0.061041176
207	0xbd6e2d4c	-0.058148667
208	0xbd5e8b37	-0.054331984
209	0xbd84a6b9	-0.06477112
210	0xba505b3b	-0.0007948165
211	0x3c0ff50b	0.00878645
212	0xbd0b70a8	-0.034042984
213	0x3bfa28a5	0.0076342397
214	0xbd9ccb05	-0.076559104
215	0x3d42576e	0.04744666
216	0xbb18d8a8	-0.0023322497
217	0x3c7741c0	0.01509136
218	0xbd156fd3	-0.036483597
219	0x3d553acb	0.052058022
220	0x3b38a4af	0.002817433
221	0x3d1e22e0	0.03860748
222	0xbc597a84	-0.013273839
223	0x3d8454d7	0.064614944
224	0xbc03174b	-0.008001159
225	0xbb909a4e	-0.004412926
226	0xbdc5e98f	-0.096636884
227	0xbdbb52da	-0.09146662
228	0xbd286f26	-0.041121624
229	0x3ccfb369	0.025354104
230	0xbd86cf97	-0.06582563
231	0x3b648214	0.0034867572
232	0xbd88133d	-0.066442944
233	0xbdadd883	-0.08488562
234	0x3c9b2d72	0.018942568
235	0x3d6cb2ea	0.057787813
236	0x3d83f785	0.06443695
237	0x3c8e5bf6	0.017377835
238	0xbba13920	-0.00492014
239	0x3b21ae36	0.0024670488
240	0xbcd33ae7	-0.025784923
241	0x3bc2bb49	0.0059427363
242	0x3aeca09c	0.0018053236
243	0x3d3f2c0f	0.046672877
244	0xbd9b27d5	-0.07575957
245	0xbd0543b0	-0.032535255
246	0x3d0d7c33	0.034542274
247	0xbd8cf1f2	-0.06882085
248	0xbc8373a5	-0.016046355
249	0x3d90bc11	0.07067121
250	0xbdca4374	-0.09876147
251	0x3da0ef32	0.07858123
252	0xbd82789b	-0.0637066
253	0xbdb15fa8	-0.08660823
254	0xbda5187b	-0.0806131
255	0xbd34b26b	-0.044115465

net.2.bias f4 [128]
0	0x3d58e9dd	0.052957404
1	0xbd35cbb3	-0.044383716
2	0xbdcd35c9	-0.10020024
3	0x3d5c53b9	0.05379078
4	0xbbc4c3fb	-0.006004808
5	0xbd7717ca	-0.06032542
6	0xbdd0fced	-0.10204492
7	0x3d93d6d1	0.07218707
8	0xbd4baeaf	-0.049727138
9	0x3c1d0b21	0.009585173
10	0xbc829bd2	-0.015943442
11	0x3c810e3e	0.015753862
12	0x3cf6d3ea	0.030130345
13	0xbdf2c634	-0.118542105
14	0xbe1deed4	-0.15423137
15	0x3c081b50	0.008307293
16	0xbdd40e7e	-0.10354327
17	0xbe07f6f1	-0.13277794
18	0x3dbff964	0.09373739
19	0xbc11175b	-0.008855666
20	0xbd86f0f1	-0.06588925
21	0x3e0970fc	0.13422006
22	0xbe0acca0	-0.1355462
23	0xbd424656	-0.04743036
24	0x3e2930c1	0.16522504
25	0x3d7a5ca7	0.061123516
26	0xbd3e36b3	-0.046438884
27	0x3d0c98bf	0.034325358
28	0xbd3e9344	-0.046527162
29	0xbb02a56c	-0.0019935025
30	0x3d4d7d80	0.050168514
31	0xbce59939	-0.028027164
32	0xbc51729c	-0.012783673
33	0x3c80ee6a	0.015738685
34	0xbcf2c144	-0.029633172
35	0x3d6e951c	0.05824767
36	0x3d6ca1af	0.05777138
37	0xbd10973b	-0.035300475
38	0x3de75a2b	0.11296495
39	0xbc62190c	-0.013799917
40	0xbd9e52d0	-0.07730639
41	0x3deaf70a	0.114729
42	0x3d17e0c5	0.03707959
43	0xbd43a90c	-0.047768638
44	0xbbe3a816	-0.0069475276
45	0xbd8fb739	-0.07017369
46	0xbda44784	-0.08021453
47	0x3d5291c3	0.05140854
48	0xbc5ff13e	-0.013668356
49	0xbbc5237a	-0.006016192
50	0xbd81aee8	-0.06332189
51	0xbd6e659c	-0.05820237
52	0xbcefd253	-0.029275095
53	0xbce2afb8	-0.02767168
54	0xbc828ab8	-0.015935287
55	0x3c6683d9	0.014069521
56	0xbe0ba311	-0.13636424
57	0xbcc0653a	-0.023485769
58	0x3c93f001	0.018058779
59	0xbdff660c	-0.12470636
60	0xbd32f0e7	-0.043686774
61	0xba12283c	-0.00055754534
62	0xbd14fc1e	-0.03637325
63	0xbbc3e483	-0.0059781685
64	0xbdb2c1fd	-0.087284066
65	0xbcbb6166	-0.022873592
66	0xbd3c112d	-0.045914818
67	0xbdbbbc80	-0.09166813
68	0xbdbee06c	-0.09320149
69	0x3d1ab360	0.03776872
70	0x3d054321	0.032534722
71	0xbe079233	-0.13239364
72	0xbd8935ef	-0.0669974
73	0x3ca4d447	0.020120753
74	0x3ce851c3	0.0283593
75	0xbd0033db	-0.031299453
76	0x3e24ad28	0.16081679
77	0x3dad35c8	0.084575236
78	0xbc060a9f	-0.008181243
79	0x3d54f6a3	0.051993024
80	0x3db50c0a	0.08840187
81	0xbd450bcd	-0.048106957
82	0xbdeefe4c	-0.11669597
83	0x3a19d306	0.0005867932
84	0x3d111f5f	0.03543031
85	0x3d2914d7	0.04127964
86	0x3dcee6c3	0.10102608
87	0xbcc418b6	-0.023937564
88	0x3dbcb1b6	0.09213583
89	0xbe0d82b6	-0.13819394
90	0xbbc352fb	-0.00596082
91	0xbd3a3f53	-0.045470547
92	0xbcc9f839	-0.024654495
93	0xbde99056	-0.11404483
94	0xbc080c24	-0.008303676
95	0x3c8a5c94	0.016889848
96	0xbd873e21	-0.06603647
97	0x3d69ab2a	0.057048
98	0x3dbf7ab3	0.09349575
99	0x3d842815	0.064529575
100	0xbe0d94a0	-0.13826227
101	0xbcd41982	-0.02589107
102	0x3d20a845	0.039222974
103	0xbdde9982	-0.10869123
104	0xbd9af6aa	-0.07566579
105	0xbda9b52a	-0.082865074
106	0xbd8f5157	-0.06997936
107	0xbd8a92cb	-0.0676628
108	0x3da55758	0.080733
109	0xbd8d9bae	-0.06914459
110	0xbe0bc5f4	-0.13649732
111	0xbc5de119	-0.013542437
112	0xbd1ceafc	-0.038310036
113	0xbdd081b0	-0.10180986
114	0xbdd430b5	-0.10360853
115	0xbca916b3	-0.020640707
116	0xbd8f76a6	-0.07005052
117	0x3c1fe687	0.009759552
118	0xbdc81d4c	-0.09771213
119	0xbd0c9d6f	-0.034329828
120	0x3d180e41	0.03712297
121	0x3949f2fc	0.00019259372
122	0xbc1e82ed	-0.00967477
123	0xbd93447c	-0.07190797
124	0xbd41efed	-0.04734795
125	0xbd3ef7da	-0.04662309
126	0x3c99e62a	0.018786509
127	0xbd749ca6	-0.059719704

net.4.weight f4 [10, 128]
0	0xbd3662f3	-0.04452796
1	0x3d84fe3f	0.06493806
2	0xbd23b1e3	-0.039964568
3	0xbd0b8284	-0.034060016
4	0xbcdbf07a	-0.026848067
5	0x3d41aaee	0.047282152
6	0x3d9c3fe5	0.076293744
7	0xbd8421e9	-0.0645178
8	0xbce0c313	-0.027436769
9	0xbcb979a6	-0.022641014
10	0x3d12718e	0.035752825
11	0x3d7c411f	0.06158554
12	0xbd928882	-0.07154943
13	0xbd0c4922	-0.034249432
14	0x3d6666e6	0.056250475
15	0xbc360ed0	-0.01111193
16	0x3c8e9463	0.01740474
17	0xba4ccb52	-0.00078122795
18	0x3d16da6b	0.036829393
19	0xbcb431c3	-0.021996384
20	0x3d32c851	0.043648068
21	0x3d07f786	0.03319504
22	0x3aa8ab77	0.0012868483
23	0xbc9e2040	-0.019302487
24	0x3dbc3b43	0.09190991
25	0xbd0b95b2	-0.034078307
26	0x3b60680f	0.0034241711
27	0x3c209258	0.009800516
28	0x3e0c4ab0	0.13700366
29	0x3c964926	0.018345427
30	0x3dde5a1e	0.10857032
31	0x3c6e2df4	0.014537323
32	0xbcd771dc	-0.02629941
33	0x3cbef92c	0.023312174
34	0xbd1c8b63	-0.038218867
35	0xbd092cb5	-0.0334899
36	0xbcc02eae	-0.023459759
37	0x3cc635b2	0.024195526
38	0x3df4cbb8	0.11952919
39	0xbc616efb	-0.01375937
40	0x3cbb764c	0.022883557
41	0xbd2cd325	-0.04219355
42	0x3d76ecb5	0.060284335
43	0x3cc34178	0.023834929
44	0x3b800dba	0.0039078863
45	0x3d3fd468	0.046833426
46	0xbd545a78	-0.05184409
47	0x3cd79cac	0.026319824
48	0xbc5a6cfe	-0.01333165
49	0x3d82b73d	0.06382606
50	0x3d1415e0	0.036153674
51	0xbc8a7534	-0.01690159
52	0x3d66ef58	0.0563806
53	0x3d3cbbac	0.046077415
54	0xbb567c11	-0.0032727758
55	0x3dfdcca8	0.12392551
56	0x3e0138bf	0.12619303
57	0x3c12fac5	0.008970921
58	0xbdd50f37	-0.104032926
59	0x3d068b7a	0.03284786
60	0xbd20b617	-0.039236154
61	0x3d51cf2d	0.05122297
62	0x3d123ec9	0.035704408
63	0x3d56bb21	0.052424554
64	0xbccb1668	-0.024790958
65	0x3ce4914c	0.027901314
66	0xbc7f0711	-0.01556565
67	0xbd1851f5	-0.037187535
68	0xbd47679a	-0.048682787
69	0x3d9239d6	0.071399376
70	0xbd99655e	-0.074900374
71	0xbc067732	-0.008207129
72	0xbd813333	-0.063085936
73	0xbd8b67da	-0.068069175
74	0x3dc8fee6	0.09814243
75	0xbdac3830	-0.084091544
76	0xbdc9ac62	-0.098473325
77	0x3e1f4277	0.15552698
78	0x3cf35ca5	0.029707262
79	0x3d0b7727	0.03404918
80	0x3bdacb76	0.0066770865
81	0x3d842b1e	0.064535365
82	0x3d2caee2	0.04215897
83	0x3e01f543	0.12691216
84	0x3b317665	0.0027078625
85	0xbd78de2f	-0.060758766
86	0xbb5a94a4	-0.0033352757
87	0xbcb02853	-0.021503603
88	0xbcf4bd71	-0.029875489
89	0x3ba414ad	0.0050073476
90	0xbd5c3bfd	-0.053768147
91	0x3d5fce39	0.05464003
92	0xbcec895c	-0.028874092
93	0xbc92754f	-0.017878203
94	0x3daf2e16	0.08553712
95	0xbd040004	-0.032226577
96	0xbcd51d5d	-0.026014978
97	0xbd92f9c1	-0.07176543
98	0xbda56cbf	-0.08077382
99	0x3d4278e0	0.047478557
100	0x3c38ac39	0.01127153
101	0x3d21ad38	0.039471835
102	0x3cb1ec90	0.021719247
103	0xbd3e63a9	-0.046481762
104	0xbd093c25	-0.033504624
105	0xbce51bd5	-0.027967373
106	0x3d1b2f2a	0.037886776
107	0x3d8f0916	0.06984155
108	0x3d750e51	0.059828106
109	0x3d6b8e20	0.057508588
110	0x3d7a4836	0.061104022
111	0xbc05e5c4	-0.008172456
112	0xbdc8085c	-0.097672194
113	0x3d9fa4b9	0.0779509
114	0x3cf2f2b2	0.029656742
115	0x3d77ec01	0.060527805
116	0xbd901e62	-0.07037045
117	0xbd8d2daf	-0.06893479
118	0x3d86a403	0.065742515
119	0x3c97f28a	0.018548269
120	0xbd6f559a	-0.058431245
121	0xbcae0575	-0.021242836
122	0xbc979280	-0.018502474
123	0xbda60249	-0.081059046
124	0xbd8acc92	-0.067773
125	0xbb98a2bf	-0.0046580727
126	0xbd53b873	-0.051689576
127	0xbd9f40d4	-0.07776037
128	0x3d1a96d7	0.03774151
129	0xbc44a885	-0.012003069
130	0xbd627c0f	-0.055294093
131	0xbd9a4007	-0.075317435
132	0xbce282ba	-0.027650226
133	0x3d86693e	0.06563042
134	0x3da3bb54	0.079947144
135	0xbd14d981	-0.03634024
136	0x3cccd8ae	0.025005665
137	0x3dcd6c03	0.10030367
138	0x3d509239	0.0509207
139	0x3dbdfd7c	0.09276864
140	0xbcd4c913	-0.025974786
141	0x3d3e5a67	0.046472933
142	0xbbb2c230	-0.005455278
143	0x3b100b65	0.0021979448
144	0x3dc66d37	0.096888
145	0xbca975f7	-0.020686133
146	0x3da72a1d	0.08162329
147	0x3b79572e	0.0038046348
148	0x3b9253c2	0.004465551
149	0x3da5485e	0.080704436
150	0xbd75bb27	-0.059992936
151	0xbd66577d	-0.05623578
152	0x3db97e6a	0.09057315
153	0xbcaea9fa	-0.021321286
154	0x3d17a35f	0.037021037
155	0x3c2639f8	0.010145657
156	0x3d597d3a	0.05309794
157	0xbc2097b3	-0.009801793
158	0xbc7752b3	-0.015095401
159	0x3cf62b5f	0.030049978
160	0x3d8be4de	0.06830762
161	0x3ce8dd4e	0.028425839
162	0xbc0a0813	-0.008424777
163	0x3bc8dfa2	0.0061301747
164	0xbc0b33f4	-0.008496273
165	0xbd804fd3	-0.06265225
166	0x3db1ecf2	0.08687772
167	0xbd698830	-0.057014644
168	0x3dd7ff8f	0.10546791
169	0xbd6ffe3a	-0.05859206
170	0x3dbbb98e	0.09166251
171	0x3d8fb3d4	0.07016721
172	0x3da6a1ad	0.08136306
173	0x3cadab47	0.021199835
174	0x3d8f1eef	0.06988322
175	0x3c7acd37	0.015307716
176	0xbcbcea4c	-0.02306094
177	0xbd6fe091	-0.058563773
178	0x3d2e3cb0	0.042538345
179	0xbbf04b20	-0.0073331743
180	0x3d9c7f73	0.076414965
181	0x3db0df4b	0.0863634
182	0xbce99131	-0.028511615
183	0x3d3fb961	0.04680765
184	0x3dfaf56d	0.122538425
185	0xbac8452e	-0.0015279406
186	0x3d6d5498	0.057942003
187	0x3c3f9598	0.011693381
188	0xbc892648	-0.016741887
189	0x3d70892a	0.05872456
190	0xbc11b740	-0.008893788
191	0xbd9f9a96	-0.07793157
192	0xbda4fec2	-0.08056404
193	0x3c68f324	0.0142181255
194	0x3a9a3249	0.0011764254
195	0x39f32200	0.00046373904
196	0xbd45780b	-0.048210185
197	0x3ba44c65	0.0050139898
198	0xbd9cf70b	-0.07664307
199	0x3d20e32a	0.03927914
200	0xbcdc860c	-0.026919387
201	0xbd9471b9	-0.072482534
202	0xbe2e478d	-0.17019482
203	0x3d38e1a5	0.045137066
204	0xbddd794c	-0.10814151
205	0x3dbe4658	0.09290761
206	0x3c78a935	0.015177061
207	0xbcaea6fb	-0.021319857
208	0x3d18bfa4	0.037292138
209	0xbd76990c	-0.06020455
210	0x3d03f3cc	0.032214925
211	0xbca6c839	-0.020359145
212	0xbce3f55f	-0.027826963
213	0x3d58ef79	0.052962754
214	0x3ddf0dab	0.10891279
215	0x3d842dbe	0.06454037
216	0xbd7e436f	-0.06207603
217	0x3d164149	0.036683355
218	0x3d820a3a	0.06349607
219	0x3c69a9e1	0.014261694
220	0x3cd30c94	0.025762834
221	0x3c964346	0.018342625
222	0xbc87d305	-0.016580114
223	0x3d1aa3c0	0.03775382
224	0xbd46eeed	-0.0485677
225	0xbd8d5f64	-0.0690296
226	0xbd827697	-0.063702755
227	0x3d3cee30	0.04612559
228	0x3cbe137e	0.023202654
229	0xba2e79e1	-0.00066557346
230	0x3d52d3b7	0.05147144
231	0x3d724e5a	0.059156753
232	0x3cc55545	0.024088511
233	0x3bc7a0ee	0.0060921824
234	0x3b057f0e	0.002036992
235	0xbcdaace9	-0.026693778
236	0x3da64ea6	0.0812047
237	0x3d838b75	0.06423084
238	0x3d88a60d	0.06672297
239	0x3d4a3249	0.049364362
240	0x3e0d89ed	0.13822146
241	0xbd29f757	-0.041495647
242	0x3d6a322c	0.057176754
243	0x3d862567	0.06550103
244	0x3cab5743	0.020915633
245	0xbd27471a	-0.040839292
246	0x3dc26019	0.094909854
247	0x3db73d5d	0.08947251
248	0x3c118dc2	0.008883895
249	0xbd628214	-0.055299833
250	0x3d18d006	0.03730776
251	0x3d269514	0.040669516
252	0xbe16b68d	-0.14718075
253	0x3d0a3057	0.033737507
254	0x3d86bdcf	0.06579172
255	0xbe067a24	-0.1313253

net.4.bias f4 [10]
0	0x3b4d2a6d	0.0031305805
1	0xbd3ad063	-0.04560889
2	0xbbed5cd8	-0.007243734
3	0xbd66701f	-0.05625927
4	0xbd534f83	-0.0515895
5	0xbdd1998a	-0.102343634
6	0xbd5577c0	-0.052116156
7	0xbd5a64f7	-0.053318944
8	0x3b8c6400	0.004284382
9	0xbd8e8a8e	-0.06960021
