Entities/pained_nav.pth (torch, 149817 bytes, 6 tensors)

net.0.weight f4 [128, 78]
000000 43 be 05 3b b0 0d c9 3d 15 0a 1b bd 8a c3 47 3d
       0.0020407594 0.09817064 -0.03785141 0.048770465
000010 3a 57 ec 3a ff 00 e7 3c b1 35 14 bd ec d6 79 3d
       0.0018031367 0.028198717 -0.036184017 0.06099598
000020 ee 61 88 bc 7e 69 ea bd 25 98 87 bd 18 23 bf bd
       -0.016648259 -0.11445902 -0.06620816 -0.093328655
000030 ab 8d ae 3a ca fa bb 3d 7c 04 bb bd 69 eb 06 3c
       0.0013317367 0.091786936 -0.09131715 0.008234837
000040 4d 5a a4 3d 9c b1 a1 bd 36 82 d8 3c 91 e9 ae 3d
       0.08025036 -0.078952044 0.026429277 0.08540643
000050 84 f3 b2 bd e3 cd 23 3d 50 1d be 3d f5 a9 14 3d
       -0.08737853 0.03999127 0.09282935 0.036294896
000060 98 af 74 3b 6d a3 13 3b fa ec e0 3d 86 fc 06 3c
       0.0037336107 0.002252783 0.109827 0.008238917
000070 9d c6 4a 3b 49 d9 fc bc 23 97 e6 bd 1e ec 70 3b
       0.0030941137 -0.030865328 -0.11259296 0.003676183
000080 e4 d4 ac 3d 01 5b 57 3d 5e aa 3e bc 2a 11 ca bd
       0.08439043 0.052577022 -0.011637298 -0.09866555
000090 91 3b 61 bc 14 47 8c bd 58 8c 0e bd be 95 af bd
       -0.013747112 -0.068494946 -0.03480181 -0.08573483
0000a0 c0 09 bf 3d 55 45 b8 bb 99 c2 65 3c 53 0d 31 bd
       0.093280315 -0.0056234994 0.0140234465 -0.043225598
0000b0 09 3f 97 bc 3d e3 8e 3c a8 9a 66 ba 3a d4 e6 3c
       -0.018462675 0.01744234 -0.0008796849 0.02817737
0000c0 19 b8 f0 3c e4 7b f5 3c c0 07 47 3d 9e bb 3a bd
       0.02938466 0.029966302 0.048591375 -0.045589082
0000d0 9c 18 ac 3d 89 eb 5b 3d b3 9a 7d 3d 31 a5 7e 3d
       0.08403131 0.05369142 0.06191511 0.062169258
0000e0 9d 7b 30 bd 21 45 05 bd 12 1f 74 3a 12 6d 54 bd
       -0.043086637 -0.03253663 0.0009312491 -0.05186183
0000f0 1c 54 a4 bd 6a fd 91 3d d9 cc ab 3d 15 c2 d4 3b
       -0.08023855 0.07128413 0.08388681 0.006492863
000100 dc 89 57 3d e3 d3 e0 bd 9e 87 b3 bd be 40 a9 3d
       0.052621707 -0.10977914 -0.08766101 0.08264302
000110 f6 2e c3 3d ae 90 84 bd 6e 4f c9 bd 46 ee bb bd
       0.095304415 -0.06472908 -0.09829603 -0.091763064
000120 2f 77 48 bd f4 e7 8d 3d c1 49 d1 bc c4 38 44 3c
       -0.048941787 0.06929007 -0.025547864 0.011976425
000130 08 33 ee bc 2e 1c 66 bd 9f c9 c8 3d a4 b7 26 3d
       -0.029077068 -0.056179218 0.09804081 0.040702477
000140 dc e1 4b bd a8 36 45 3d bc 95 16 3d a7 cd e0 bd
       -0.049775943 0.048147827 0.03676389 -0.10976725
000150 cd 7d d7 bd 60 93 af bc 27 72 9a bc 26 83 a3 3d
       -0.105220415 -0.021432579 -0.01885326 0.07983999
000160 8e ec a6 bd 66 15 aa 3c 74 e6 4d 3d f6 1d aa bd
       -0.08150588 0.020762157 0.050268605 -0.08306496
000170 1a 6c b3 3b 28 61 1c 3d 88 30 03 bc 64 f1 bd 3d
       0.005475533 0.038178593 -0.008007176 0.09274557
000180 0d 38 c3 bc 24 3f 00 bd 20 3a 78 3c c6 5e da bd
       -0.023830438 -0.031310216 0.015150577 -0.10662608
000190 36 b2 8b bd 40 9a ac bd fb ba 29 bd 31 21 b4 bd
       -0.068211004 -0.08427858 -0.041438084 -0.08795393
0001a0 a1 56 cf bc 5e 26 46 3d bc dc a7 bd f2 17 70 3d
       -0.025309863 0.048376434 -0.081963986 0.058616586
0001b0 4e fc c2 3d d7 f9 3f 3c 3b b8 c9 bd 5a ff dd bd
       0.095207796 0.011717281 -0.09849592 -0.1083972
0001c0 8f 9b b4 3d a6 f9 9c 3d 6a 79 bc bd 47 59 c3 bd
       0.08818733 0.07664804 -0.092028454 -0.09538513
0001d0 0e bf cc 3d ee af c0 3d ed e9 ac bd 1a 59 0b 3b
       0.09997378 0.09408556 -0.08443055 0.0021262825
0001e0 ee 60 b2 bb 76 b1 80 3d 61 a3 c3 3d 4f 35 b8 3b
       -0.005443684 0.06283848 0.095526464 0.0056215893
0001f0 0e 78 db bd a1 77 d1 bc dd 69 8c bc 88 94 6f bd
       -0.10716258 -0.025569739 -0.017140323 -0.05849126
000200 df 76 b7 bc 8f d4 2e bd 80 a7 8b 3d 51 c7 bc 3d
       -0.02239555 -0.04268318 0.068190575 0.09217704
000210 ba 54 13 bd dd 1d 4c bd ac 86 9f bd e8 0b 52 bd
       -0.035969473 -0.049833167 -0.077893585 -0.051280886
000220 ce 13 c4 3d eb 1d 1a 3d 8f 0d 2f bd 3f fd 8d 3d
       0.0957409 0.03762619 -0.04273754 0.069330685
000230 db b3 20 bd 7b 08 73 bc b0 69 1b 3d 78 54 64 3c
       -0.039234024 -0.014833565 0.03794259 0.013936155
000240 99 b4 4a 3d 12 da 5d 3d 74 a3 31 bd e3 51 7f 3d
       0.049488638 0.054163046 -0.04336877 0.062333953
000250 c6 09 66 3d 5f 8a a7 3d de 59 d9 bd 53 a1 98 bd
       0.056161664 0.08180689 -0.10612844 -0.07452645
000260 21 94 7b bd c7 20 5e 3d cf 60 d7 3d 73 80 93 bd
       -0.061420564 0.054230478 0.10516512 -0.07202234
000270 16 74 4a bc 28 75 3e bd d9 d4 2a bd bb b6 c5 3d
       -0.012356779 -0.046498448 -0.041706894 0.09653994
000280 02 73 c8 bd dc 3d 96 3d 02 b7 0e bd 64 f3 86 bd
       -0.09787561 0.073360175 -0.0348425 -0.06589392
000290 80 52 c4 3c c7 f7 f1 3c fe 09 12 3d 1f e8 93 bd
       0.02396512 0.029537095 0.03565406 -0.07222008
0002a0 1a 5d 71 3d 19 8a a2 3d 5f fd b1 bd 4f ed b3 3c
       0.05892668 0.07936496 -0.08690905 0.021963743
0002b0 49 38 12 3c d4 36 87 3d 5b 4a bc 3d 26 86 d3 bc
       0.008924552 0.066022545 0.0919387 -0.025820803
0002c0 fc e8 11 3d c0 55 cb 3d fe 5e 93 bd 21 08 e1 bd
       0.03562258 0.09928465 -0.07195853 -0.109878786
0002d0 47 49 b8 3d 99 e9 ca bd ed 7f 1c bc f6 3e d4 bd
       0.089983515 -0.099078365 -0.009551984 -0.10363571
0002e0 5c eb 4b 3c d6 f1 c5 3d 23 37 af bd 3f f0 fb 3b
       0.012446251 0.09665267 -0.08555438 0.0076885517
0002f0 54 71 f6 3b 75 3f 2c 3d d2 a4 85 bd dc 4b 10 3d
       0.007520834 0.042052705 -0.065255776 0.035228595
000300 97 2e 94 bd b0 80 9b bd 6e 3d a6 bd 5a 80 9d ba
       -0.07235449 -0.075929046 -0.081171855 -0.0012016401
000310 63 24 d8 3c 58 33 78 3d 0f ca 8b 3d 88 3c 34 3c
       0.026384538 0.06059584 0.06825649 0.01100076
000320 8d 27 ca 3c ac e4 5a bd d2 df 34 3c 51 17 d4 3c
       0.024677062 -0.053440735 0.011039691 0.025890024
000330 af 6c 8b bd ff df 59 3b 1c 43 bf bd f9 b6 2b bd
       -0.06807839 0.0033245084 -0.09338972 -0.041922543
000340 95 80 ad 3d 5b f9 b9 bd f0 e4 c9 3c fc 00 d6 3d
       0.08471791 -0.09080764 0.024645299 0.104494065
000350 c3 8f f9 bb 65 3b 9c 3d c2 93 40 bd 78 9f 57 bd
       -0.0076160147 0.07628516 -0.047015913 -0.052642316
000360 c3 82 70 bd e0 be 38 3d c8 73 35 bd 68 16 c2 bd
       -0.058718454 0.045103908 -0.04429987 -0.0947693
000370 31 97 0e 3d 44 03 db bd 7e b3 a3 bd 31 42 6d 3c
       0.034812156 -0.10693982 -0.0799322 0.014481113
000380 15 83 a1 bd 3b 4c b2 3d 58 eb 72 bd b9 51 ee bd
       -0.0788633 0.08705946 -0.059306473 -0.11636681
000390 b0 a6 3c bd fb 6b e1 3c 03 5d b0 bd 9c 3d e4 bd
       -0.046057403 0.02751731 -0.086114906 -0.111445636
0003a0 a4 72 15 bd 69 ee ac 3d 75 0e 9a bd dd e4 eb bd
       -0.036486283 0.08443911 -0.07522289 -0.115182616
0003b0 74 f1 ba bd 62 7f 74 bd 45 61 31 ba 4a 6e 96 3c
       -0.09128085 -0.059691794 -0.00067665084 0.018363137
0003c0 a4 6e a6 bb f2 d8 ae ba 39 9f 0c 3d bb d9 54 3d
       -0.0050791074 -0.0013339801 0.034331534 0.051965456
0003d0 cc 58 97 3d ec 39 52 bd 5a 83 66 bd 83 74 81 3d
       0.073899835 -0.05132477 -0.05627761 0.06321051
0003e0 4b 94 7b 3d ad f2 4b 3d f4 82 b4 bd 7a fe f6 bd
       0.06142072 0.04979198 -0.0881404 -0.12060256
0003f0 a7 eb 55 39 f3 3d 19 bd 03 ce 28 bd 80 03 00 bd
       0.0002040105 -0.037412595 -0.041212093 -0.031253338

net.0.bias f4 [128]
000000 fe 69 c4 3c e5 51 7c bd 8f ed ae bd 85 1d 0d 3d
       0.023976322 -0.06160154 -0.085414045 0.03445198
000010 4e 8f 1c bd ca d2 4f bb d0 04 9e bc 46 cf f2 bb
       -0.038222603 -0.0031711333 -0.019289404 -0.007409963
000020 5c 75 a4 3c d3 1d c9 bd f5 73 01 bd bd dd 81 3d
       0.020075493 -0.09820142 -0.031604726 0.06341121
000030 fb 79 47 3d 58 a7 c0 3d 0d ac cc bd 84 0d 3f bd
       0.048700314 0.09406918 -0.099937536 -0.04664375
000040 1b 45 aa 3c 9c 67 c0 3c fe 8a 07 3d 5a ca f5 bd
       0.020784905 0.023486905 0.033091538 -0.12001486
000050 50 82 25 3d de c0 1c bc da f3 1c bd c5 c8 05 bd
       0.04040748 -0.0095674675 -0.038318492 -0.032662172
000060 c6 4a 60 bd 23 86 22 3d f2 26 8e 3d 78 a5 d9 3b
       -0.05475881 0.039678704 0.06941022 0.00664204
000070 52 fc 62 bd df 82 18 bd ad 67 3a 3b 4c 67 a5 bd
       -0.055416413 -0.037234183 0.0028443143 -0.08076343
000080 e5 e9 93 3d af 05 c1 3c 7f 3b 15 bd 8a 41 eb bd
       0.07222346 0.02356228 -0.036433693 -0.1148711
000090 92 c7 ac bd 01 03 99 3d 39 f9 70 3d b0 4b c7 3a
       -0.084365025 0.07471276 0.058831427 0.0015205052
0000a0 c5 71 88 bd 4f 2e bb bd 32 be 95 3d e3 2e 27 3c
       -0.06662325 -0.09139692 0.073116675 0.01020405
0000b0 d8 d9 14 3c 46 c5 8f bb 5b da 17 3d 53 3d bd 3c
       0.009085141 -0.0043875305 0.037073474 0.02310053
0000c0 09 83 bc bd 3e 91 ab bc d2 fb b2 bc 6e 0b cb bd
       -0.092046805 -0.02094328 -0.021848593 -0.099142894
0000d0 a7 87 c9 3d b5 72 6a bd 83 60 21 3d af 9e aa bd
       0.09840327 -0.0572383 0.03939868 -0.08331048
0000e0 fa 38 b7 bd 43 b4 73 3d 2d fc af bc 36 e4 8a 3d
       -0.08946414 0.059498083 -0.021482551 0.06781809
0000f0 ac f9 33 3c 9b b1 2c bd df 83 bb bd ce 5c 69 3d
       0.010984819 -0.042161565 -0.09156012 0.05697327
000100 8b be e3 bd 5a 76 58 bc b1 23 d3 bd 61 0f a9 bd
       -0.111203276 -0.013211811 -0.10309542 -0.082548864
000110 78 62 fb bc 19 03 83 39 86 ba ef 3c f2 d4 1e bd
       -0.030686602 0.00024988575 0.029263746 -0.0387773
000120 49 3c a2 3d 08 b7 ba 3d 87 7c b5 bc ed 62 ee bd
       0.07921655 0.09116942 -0.022154106 -0.11639962
000130 e9 0d f4 bd 4e 8a 09 bd 85 ca f7 bd b1 b8 58 3d
       -0.11916716 -0.033579163 -0.120991744 0.05291051
000140 38 3a 85 3d dc 6f e5 bd 46 24 a5 bc 6d cc 9e bc
       0.06505245 -0.11202976 -0.020158898 -0.019384587
000150 5f b0 d3 bd 0d ff 77 bd 89 ac ac bd 44 78 1c bd
       -0.103363745 -0.06054597 -0.08431346 -0.03820063
000160 2e fd 8c 3d 32 f6 49 bc 05 e6 c9 bc d9 27 e4 3c
       0.06884228 -0.012326764 -0.024645815 0.027851032
000170 6d 2d 9b bd 38 85 a7 3c bc 52 6d bd 96 3d 2d 3d
       -0.07577024 0.020449266 -0.05794023 0.04229506
000180 64 ff 79 bc 9b 1f e8 3c 31 7b f1 bd 52 5b 33 bb
       -0.015258644 0.028335383 -0.11791075 -0.0027367664
000190 2e c2 23 bd ee 63 b7 bd 9c 1f df bd 5f 22 5e bd
       -0.039980106 -0.08954607 -0.10894701 -0.054231998
0001a0 41 6d b9 bd 89 d4 9b bd 0e 8a 60 3c 36 3d 98 3c
       -0.09054042 -0.07608897 0.01370479 0.018583875
0001b0 be 3b be ba 44 5c 0d bd 4c a7 2f 3d fc cc b1 3d
       -0.0014513654 -0.03451182 0.042884156 0.08681676
0001c0 75 fa b5 3c 6a 46 16 3d 65 8a 9f bd ba 1d 5a 3d
       0.022214154 0.036688246 -0.077900685 0.053251006
0001d0 72 bc 17 bb e5 8b 44 3c 98 86 6c 3d 55 da a8 bd
       -0.0023153094 0.011996244 0.057745546 -0.082447685
0001e0 3a 4d 95 3d 1d e9 8f 3d 65 74 87 bd b3 5d 2a 3d
       0.072901204 0.07026885 -0.06613997 0.041593265
0001f0 1c 53 91 bc 01 58 ca bd 12 02 df bd 1a b9 22 3c
       -0.017739825 -0.09880067 -0.10889067 0.009931827

net.2.weight f4 [128, 128]
000000 97 de 0f 3b 93 ff 98 3d 5f 8f 99 bd 9a 22 6e bd
       0.0021952742 0.07470622 -0.07498049 -0.058138467
000010 fd 06 2b 3d 1f 4c ff 3c e2 c2 1b 3d 1a f6 99 3d
       0.04175471 0.031164227 0.03802765 0.07517643
000020 9d b3 1c bd f5 28 7b bc 6d 33 59 bd 8e 0c 22 bc
       -0.03825723 -0.015329589 -0.05302756 -0.009890689
000030 03 de c8 39 a1 93 8e 3d 4d 9b d7 bc bf b3 9d 3d
       0.00038312384 0.06961752 -0.02631917 0.077002995
000040 c1 f9 76 ba 08 c7 46 bc e6 1a 56 3d cc 68 59 bd
       -0.00094213715 -0.012132414 0.052271746 -0.053078458
000050 43 2b 94 3d 0f 48 75 3d e0 cd 16 bd 8b 12 37 3d
       0.07234814 0.059883174 -0.03681743 0.04469542
000060 4c 9b 0a 3d 5d 18 22 3d 48 c3 35 bd 6a 7b 87 3c
       0.03383951 0.039574016 -0.044375688 0.01653834
000070 75 2a 92 3d 0d ad a7 bd 10 b8 04 bd 35 b7 f9 bc
       0.07137004 -0.08187304 -0.0324021 -0.030482868
000080 44 ca f1 3c 7a 31 5c 3d 35 f3 99 3d 60 6b 11 bd
       0.029515393 0.053758122 0.07517091 -0.03550279
000090 00 58 e0 3b 51 f9 26 3b ec 12 a5 bd 26 9a 18 3d
       0.006846428 0.0025478194 -0.0806025 0.037256382
0000a0 49 eb f9 3c 05 d0 7a bd 32 92 8c 3d 0a 7a 3c 3d
       0.0305077 -0.06123354 0.06863822 0.046014823
0000b0 ea a6 03 3d 74 d0 3c 3d 31 99 1f 3c d3 7a 31 3b
       0.032141604 0.046097234 0.0097411135 0.0027081266
0000c0 27 4c 14 bd a9 77 0e bd a1 aa 53 3d 07 ac 9a bd
       -0.036205437 -0.034782086 0.051676396 -0.07552343
0000d0 68 41 7a bd c4 23 84 3d 5c 39 38 bd 8e 42 b6 3c
       -0.061097533 0.06452134 -0.044976577 0.022248533
0000e0 4a ae 25 bd 3d 83 c3 bd 03 20 a8 3d a1 92 54 bd
       -0.040449418 -0.09546516 0.08209231 -0.05189765
0000f0 bb 0a 05 bb b1 d4 73 3d e1 fe a6 bc cd cd 88 3d
       -0.0020300585 0.05952901 -0.020385208 0.066798784
000100 9a 74 2c 3d 02 6e 83 3d 38 e1 91 3d cd 5a a1 3d
       0.042103387 0.06417467 0.07123035 0.07878647
000110 6a b6 84 bc 23 07 57 bd 3c 86 08 bd d0 b1 85 bd
       -0.016200263 -0.05249704 -0.03333114 -0.06528056
000120 62 1b b1 bd 28 dd 8f bd ec fd 0b 3d f8 42 c9 bd
       -0.08647801 -0.07024604 0.034177706 -0.098272264
000130 96 fd 0f 3d 23 e1 bf 39 b5 87 bc bc 8f f7 0e bd
       0.035153948 0.000365981 -0.023013929 -0.03490406
000140 06 35 bf 3c ce c7 ae 3c 32 77 87 bc 37 e4 52 bc
       0.023340713 0.021335509 -0.016536329 -0.0128717935
000150 5a e3 8f bd fa ab 1e 3d db 7f 63 bd f6 c1 89 bd
       -0.07025786 0.03873823 -0.055541854 -0.06726448
000160 2b 74 90 3d db 4a 57 3d c5 9d 8d bd e7 fd 18 bd
       0.07053407 0.052561622 -0.06914858 -0.037351515
000170 4a c9 89 3c 00 f4 09 bd f0 e5 9a 3d a9 5b 62 3d
       0.016819615 -0.033679962 0.07563388 0.055263195
000180 3a f7 07 3d 9f 92 b5 bd bd 47 8d bd f3 98 1e 3d
       0.033194758 -0.088658564 -0.068984486 0.038720082
000190 42 1d e4 3c fd 0e cc bc 4a 97 24 bd 03 28 74 3d
       0.027845982 -0.02490949 -0.040183343 0.05960847
0001a0 d8 ee 46 3b e8 46 18 bd b0 e1 fc bc 0c ee 16 bc
       0.0030354764 -0.037176996 -0.030869335 -0.009212028
0001b0 95 de ba bd 77 58 25 3c d4 32 0a bd 84 cd e3 bc
       -0.091244854 0.010091892 -0.03373988 -0.027807958
0001c0 bb 61 55 bd 83 a9 18 bd 84 bc 17 bd 2b 63 c2 3a
       -0.052095156 -0.037271034 -0.037045017 0.001483058
0001d0 35 a7 bf bc bf af 7a bc 54 9e ee bc 38 64 e6 3c
       -0.02339516 -0.01530069 -0.029128231 0.02812396
0001e0 23 5c a7 3d 73 e4 74 bb c5 b8 1b 3d 9e 78 82 3d
       0.081718706 -0.0037367612 0.038018007 0.06370662
0001f0 59 a0 8f bd 2d cd 54 bd 41 bb 93 bc 6a 64 5d 3d
       -0.07013006 -0.051953483 -0.018033626 0.05405084
000200 b1 ee 87 bd c6 2f 6f 3c 6f 1e 8e 3d 31 90 34 3c
       -0.06637324 0.014598792 0.069393985 0.011020706
000210 4b 2e 19 3d c3 4c ed 3c 62 00 6c bd 43 82 3f 3c
       0.037397664 0.028967267 -0.057617553 0.011688772
000220 8c 86 bf bc 9f a7 ab bd 9d 15 29 bc 4e 1d 8d 3d
       -0.023379587 -0.083815806 -0.010320094 0.06890355
000230 2d 16 7a 3d 9b 2f 80 bd 42 93 f6 bc 4f f9 55 3d
       0.061056305 -0.0625908 -0.030099515 0.052239712
000240 e0 41 97 bd 4d e6 80 3d e2 02 43 bd 34 b3 96 bd
       -0.073856115 0.062939264 -0.04761017 -0.07358399
000250 a7 6e b0 bd 4c c1 9e bc 00 c7 71 bd 27 51 86 3c
       -0.08614855 -0.01937928 -0.05902767 0.016396118
000260 55 c9 d3 bc 89 76 3d 3d 7a 41 3b bd ed fd b1 bd
       -0.025852839 0.046255622 -0.04571674 -0.086910106
000270 be 33 84 bd 06 21 ac 3d 1a 98 13 3d 0a a1 6d 3d
       -0.064551815 0.08404736 0.036033727 0.058014907
000280 af fd 4f 3c ba fe 37 bd c0 15 4f bb 62 8b ac 3d
       0.01269476 -0.04492066 -0.0031598657 0.08425023
000290 32 02 44 bd e6 bf 65 bd 13 6b 79 3d ee 60 68 bd
       -0.047853656 -0.05609121 0.06089313 -0.056733064
0002a0 c8 e4 7e 3d f2 76 a1 3c 50 80 65 3d e5 a5 3d bc
       0.0622299 0.019710038 0.05603057 -0.011575197
0002b0 cf 0d 17 bd 54 45 38 3c 37 b9 b7 bd ad 05 50 3c
       -0.036878403 0.011246998 -0.08970874 0.012696666
0002c0 78 68 72 bd fe e1 58 bd e6 7b 91 3d 2d 0c d6 bc
       -0.05918166 -0.052949898 0.0710371 -0.026128853
0002d0 14 bc 4e 3c e7 ef 94 3d eb ab 9a bd ce cb 71 3d
       0.0126180835 0.0727232 -0.07552322 0.059032254
0002e0 4a 7b 1f bc 1b 10 31 3d 0e 1c 9f bd cb 44 92 3d
       -0.009733984 0.04322825 -0.07769023 0.071420275
0002f0 27 be 88 bd 92 65 28 3b ad 3a bb bd ba 52 c6 bc
       -0.06676894 0.0025695306 -0.09142051 -0.024209369
000300 0a 62 09 bd df 1d 91 3c 52 32 88 3d 68 4f 82 bd
       -0.033540763 0.017714439 0.06650223 -0.06362802
000310 d1 44 82 3d 1c 86 3b bd c6 e9 03 3d ed 49 0e 3d
       0.06360782 -0.045782194 0.032205366 0.03473847
000320 fc b3 04 3d d0 9c 7a 3b 35 a7 2f 3c 5c 85 1a bd
       0.03239821 0.003824044 0.010721018 -0.037724838
000330 0c 1f f7 bb 6d d5 19 3d 84 3d 68 bd af e8 86 bd
       -0.007541543 0.037557054 -0.05669929 -0.065873496
000340 94 d5 24 bd bb 17 33 bd 05 e8 6f 3d 55 5c 04 3d
       -0.040242746 -0.043723803 0.05857088 0.032314617
000350 93 73 26 3d a0 0d 26 bd 11 bf 7b bd 56 18 d7 3a
       0.040637564 -0.040540338 -0.061461512 0.0016410451
000360 55 6f 2e 3d f7 cd 88 3d a3 10 68 bd fd d8 53 bd
       0.042586643 0.0667991 -0.05665649 -0.051720608
000370 e5 3e a4 bd 5e e4 c4 3d 14 7e 5a 3c 9e 1f 6d bd
       -0.08019809 0.0961387 0.013335723 -0.05789148
000380 db 5a a2 3d a1 a4 8f 3d 99 93 1e 3d a3 34 ab 3d
       0.079274856 0.07013822 0.03871498 0.08359649
000390 4a 6a a1 ba 4a 4b 1c bd 1f ba 33 bd 77 e2 4c bd
       -0.0012315002 -0.03815774 -0.04387867 -0.05002066
0003a0 92 4b 55 bd 68 23 1a bd 6c 59 97 bd ca eb 70 3d
       -0.052074023 -0.037631422 -0.07390103 0.058818616
0003b0 24 95 21 bc d3 7f a2 3d 30 fa ae bd ab 84 db bc
       -0.009862218 0.07934537 -0.08543813 -0.02679666
0003c0 a0 97 13 bc 43 91 6a bc e6 5d c9 bc 5b 5d 7e bd
       -0.009008318 -0.01431686 -0.024580907 -0.06210075
0003d0 a8 a8 80 bd dc 38 52 3d 5e 7a b5 bd 6e 41 a4 3d
       -0.062821686 0.051323757 -0.0886123 0.08020292
0003e0 18 1d b3 bd d0 9b 95 3d 76 5b b5 bd fa d6 bb 3d
       -0.087457836 0.073051095 -0.088553354 0.09171863
0003f0 08 cc 5b 3c db 87 96 bc 82 38 96 3d 95 f5 ad bc
       0.013415344 -0.018375328 0.07334997 -0.021235267

net.2.bias f4 [128]
000000 36 55 8f bd 7e 2a 9b bc e5 7d a7 3b a6 87 87 bd
       -0.069986746 -0.01894116 0.0051114433 -0.0661767
000010 b8 c7 74 bd 50 ff c7 bd 9f 58 17 bd b4 ea 38 3c
       -0.05976078 -0.09765494 -0.03694975 0.011286426
000020 46 65 d8 3c ad 40 52 bd 87 cb 9a 3c b3 64 8d bc
       0.026415478 -0.05133121 0.018895878 -0.017259931
000030 0a f9 67 bc bf c9 b5 bd 6d e3 94 bd 02 98 b5 3b
       -0.014158497 -0.08876371 -0.072699405 0.0055418024
000040 01 59 a0 3d 49 8a 4b bd e0 fe e3 bd c0 95 9b 3d
       0.07829476 -0.049692426 -0.11132598 0.07596922
000050 54 9b 3c 3d ee 3f d7 3c 08 e4 94 3b 30 bc 69 3d
       0.04604657 0.026275601 0.004543785 0.057064235
000060 b7 e4 ae bd b9 8c af bd fd b6 99 bd 30 5c b2 bc
       -0.08539718 -0.085717626 -0.07505605 -0.021772474
000070 82 48 03 3d 26 b4 66 3d f6 6c b4 bb 10 a2 98 3d
       0.03205157 0.056324147 -0.005506153 0.07452786
000080 70 85 cf 3c 06 ba 2d bd 6f a0 a9 bd 00 e7 a9 3c
       0.025332183 -0.042413734 -0.082825534 0.020740032
000090 50 98 96 3d a1 79 d7 bc df cd 40 3c 2f 11 bc bd
       0.0735327 -0.026303114 0.0117678335 -0.09182965
0000a0 71 4b 6d bd f9 0f 4e bc f3 54 aa bd 34 2f b6 bd
       -0.057933275 -0.01257705 -0.08316984 -0.08895722
0000b0 c2 ac 2c 3b dd 04 51 bd ed 29 73 3d bf 54 ba 3c
       0.002634809 -0.05103003 0.059366155 0.022745488
0000c0 fb a4 a5 bd ac 1b 3b bb f5 a3 4d bc 05 ee 9c 3d
       -0.08088108 -0.002855043 -0.012551297 0.07662586
0000d0 42 f0 b2 bd 4e 2e aa 3d 80 47 f3 3c 4b 59 9a bd
       -0.08737232 0.08309613 0.02969718 -0.075365625
0000e0 4e 19 06 3d ee df de 3c b2 47 5e 3c 4c c2 0a 3d
       0.032738976 0.027206387 0.013566898 0.033876702
0000f0 f0 97 95 3d b6 48 ea bc f7 9e 3e 3d 09 fe 83 bc
       0.073043704 -0.028599124 0.04653832 -0.016112344
000100 a0 be 75 bd 28 13 07 bd 91 ee 25 bd 65 56 6d 3d
       -0.059996247 -0.032977253 -0.040510718 0.05794372
000110 12 01 71 bd 18 c4 b0 3c d2 cb 24 bd 71 83 7c bd
       -0.05883891 0.02157788 -0.04023344 -0.06164879
000120 86 d9 5e 3d a2 95 4c 3d 78 09 62 bd 02 e8 91 3c
       0.054406665 0.04994739 -0.05518481 0.017810825
000130 5b a5 69 bd 45 c0 a5 bd 59 79 90 bc f6 36 ae 3d
       -0.05704246 -0.08093313 -0.017635988 0.08506577
000140 e5 db 4c bd 4a 0c 87 bd 3a e2 77 3d a7 0e 93 3d
       -0.050014395 -0.06594141 0.06051848 0.07180529
000150 2d a6 90 bd cd 49 32 3d 0a 3b 3d 3d 27 9d 54 3d
       -0.070629455 0.043527413 0.046198882 0.051907685
000160 3e 31 c0 bd 3b b5 2e 3d f4 60 a9 bc 21 bc 8f 3c
       -0.09384392 0.042653304 -0.020676114 0.017545762
000170 76 b8 4a bd 95 9e ea bc c2 e4 23 3d f8 79 91 bd
       -0.049492322 -0.02864007 0.040013082 -0.07103342
000180 dc f5 75 bd 77 e1 ca bd 39 2d 26 3c f5 07 b1 bd
       -0.060048923 -0.09906285 0.010142618 -0.08644096
000190 5c e2 c2 bc 7e a9 ce bd 0d 9e 0e 3d e8 78 c7 bd
       -0.023789577 -0.10090922 0.034818698 -0.09739858
0001a0 c7 c0 b1 bd 79 28 ac bd b2 f6 85 3c e9 31 7f 3c
       -0.086793475 -0.08406157 0.016352985 0.015575864
0001b0 0f 7c 99 bb 8a 7c 44 bd 14 e7 91 bd 50 75 11 3d
       -0.0046839784 -0.047970332 -0.07124153 0.03551227
0001c0 4d bd 7a bd 90 14 98 bd 4d 96 85 bd 7c 54 81 bc
       -0.061215688 -0.07425797 -0.06522808 -0.015787356
0001d0 3c ac d3 3c 82 37 57 3c 90 66 4e 3d 8d b6 43 3d
       0.025838964 0.013135793 0.05039078 0.047781516
0001e0 d7 58 8e bd de 33 23 3c 00 c7 a3 bd d0 c6 06 3c
       -0.069505386 0.009961097 -0.079969406 0.0082261115
0001f0 03 f0 6a 3d 48 a3 05 3d b2 d2 28 3d 4f 5c ca bc
       0.0573578 0.03262642 0.04121656 -0.02470222

net.4.weight f4 [78, 128]
000000 cb b8 a9 3d f0 77 5e bd 18 58 5a 3c 98 d8 98 bd
       0.082871996 -0.0543136 0.013326667 -0.07463187
000010 64 dd d6 bc e3 46 80 3d 40 cf c0 ba 80 6c 59 3a
       -0.026228614 0.062635206 -0.0014710203 0.0008294061
000020 28 ec a4 bd 70 18 06 3c c6 06 63 bd 39 f4 01 bd
       -0.08052856 0.008184537 -0.05542638 -0.03172705
000030 b4 31 62 bd 4e b1 50 3d c3 f4 b0 3d 7a 9e 3a 3d
       -0.05522318 0.05095034 0.086404346 0.04556129
000040 10 46 e4 bb 3d 8e a9 3d fc ec 98 bc f2 81 9b bd
       -0.00696636 0.08279083 -0.01866769 -0.075931445
000050 a0 f7 fa bb 42 00 2a bd 68 54 db 3c 9e c1 48 3d
       -0.0076589137 -0.041504152 0.026773646 0.049012773
000060 23 1d a6 bd f8 17 5a bd 1e 9e 47 3d f9 5b af 3d
       -0.08111026 -0.053245515 0.048734777 0.08562464
000070 9c 67 b1 3c ab f0 64 bd 69 8a 90 3d c8 47 0f bc
       0.02165585 -0.05589358 0.0705765 -0.008745141
000080 84 4f c4 3c 18 37 2c bc ed 59 9e 3d 4e 23 38 bd
       0.023963697 -0.010511182 0.07731996 -0.044955544
000090 d1 a9 91 bd 21 d2 9d 3d 3e fa 5d 3d 9b 13 87 3d
       -0.07112468 0.077060945 0.054193728 0.06595536
0000a0 c0 27 b0 3a 22 4b 38 3d 60 01 bb 3c 3c ac 89 bc
       0.0013439581 0.044993527 0.022827804 -0.01680576
0000b0 b0 44 ab bc c0 02 ab bc 44 ec 15 3d 7a f3 3b 3d
       -0.020906776 -0.020875335 0.036602274 0.045886494
0000c0 40 1f 3f 3c f9 60 9e bd a8 33 0c 3d 9a 71 37 3d
       0.011665165 -0.0773334 0.03422895 0.044786073
0000d0 a3 0d 50 bd 2e f8 a3 bd 90 a0 a3 bb 0e 3c 95 bd
       -0.050794255 -0.08006321 -0.004993506 -0.07286845
0000e0 3c f0 fe 3c b9 02 90 bd 8b fe a8 bd bf d2 5c bd
       0.031120412 -0.07031769 -0.08251675 -0.05391192
0000f0 33 64 97 3d 4a a4 86 bd ac 07 81 3c 60 35 be 3b
       0.07392158 -0.065743044 0.015750729 0.0058047026
000100 59 c8 aa 3d 78 5b 05 3d 75 e5 0f bd 02 90 4d 3d
       0.083389945 0.032557935 -0.035130937 0.050186165
000110 e2 37 76 bd e6 1d 04 3d ce ea 84 bd a2 e4 7d bd
       -0.060111888 0.032255076 -0.06490098 -0.06198562
000120 dc 7a ec 3c 32 4f 7f 3d e8 b6 49 3c c2 e6 51 3d
       0.028867178 0.062331386 0.012311675 0.05124546
000130 d5 b1 98 3d 34 df 92 3c 8b 1f 4e bd 25 f0 87 bd
       0.07455794 0.017928697 -0.05032305 -0.06637601
000140 c0 6a 8f bd 5d 0c ad 3d d6 e4 2c 3d a4 ca 9b 3c
       -0.07002783 0.08449624 0.042210422 0.019017525
000150 f0 b9 50 3c 56 c7 07 3d 99 d0 81 bd 00 64 22 3c
       0.012739643 0.033149086 -0.06338615 0.009911537
000160 bc d6 95 3c 74 38 f6 3c b8 89 36 bc 61 02 84 3d
       0.01829087 0.030056216 -0.011141233 0.06445766
000170 07 e7 87 3d ca 03 dd bc 58 5e a4 bd 12 61 13 3d
       0.06635862 -0.026979346 -0.08025807 0.035981245
000180 2e 3e 07 bd e9 c8 93 3d e2 58 6c 3d ac be e8 bc
       -0.033018284 0.07216055 0.057701953 -0.028411232
000190 f0 d6 9d bb 28 72 d2 3c a9 ee 8e bd e0 e5 44 bc
       -0.0048168823 0.0256892 -0.069791146 -0.012017697
0001a0 7f 9b 1c bd 64 16 77 bd d0 2f 3d 3c ff 3f b4 3d
       -0.03823423 -0.060324088 0.011547044 0.08801269
0001b0 bd ce a5 3d 2e 11 42 bd a4 67 86 3c 08 7c db bc
       0.08096073 -0.047379665 0.016406842 -0.026792541
0001c0 82 2a 96 bd 9b 56 b4 3d 07 14 55 bd 3a 54 74 3d
       -0.073323265 0.08805581 -0.052021053 0.059650637
0001d0 3a 30 26 bd f6 fd 2f bd a8 0d 8b 3c 4f e4 ae bd
       -0.040573336 -0.042966805 0.016974285 -0.0853964
0001e0 a0 e8 3a 3c 64 6c f7 3c 00 b9 3a 3b b7 83 a6 3d
       0.011408001 0.030203052 0.0028491616 0.08130591
0001f0 98 b1 9c 3c 3f ea 97 3d 41 7a 8a 3d 6b e6 98 3d
       0.019127652 0.07417726 0.06761599 0.07465824
000200 88 da 45 bd f2 06 39 3d 0c 74 6b bb 6a 1b c1 bc
       -0.04830411 0.04517264 -0.0035927324 -0.023572642
000210 6c fd 17 3c 32 23 48 39 30 7f ce bb 80 39 02 ba
       0.009276729 0.00019086598 -0.006301783 -0.00049676746
000220 9c 7b ac bd 24 47 8b bd 20 ab 09 bd 74 34 a6 bd
       -0.08422014 -0.06800678 -0.033610463 -0.081154734
000230 d2 87 e9 bc 31 a6 28 3b e8 81 9d 3c 2d a3 37 3d
       -0.028507147 0.0025733823 0.019226983 0.04483335
000240 8a 70 0f bd 65 d1 39 bd e0 a3 c6 bb 26 d6 52 3d
       -0.035019435 -0.04536571 -0.006062016 0.05147376
000250 28 da 50 bd 56 c3 87 3d 2f d8 89 bd 12 a2 1e bd
       -0.0509893 0.06629054 -0.06730687 -0.03872878
000260 8a e6 8f bd fd 4e af bd dc f4 8f 3a e3 be 26 bd
       -0.07026394 -0.08559988 0.0010983008 -0.040709388
000270 97 12 1e 3c 15 8a 5a bd 32 19 f5 3c 5e 57 dd 3c
       0.009647987 -0.05335434 0.02991924 0.027019199
000280 49 6d 5a 3c 5e 8f 59 3d a1 85 75 3c 3a ba 1a 3d
       0.01333172 0.05311524 0.014985473 0.037775256
000290 a0 eb 55 3d 30 ba c5 3d 6a 90 f0 3c 97 6b ad 3d
       0.052226663 0.09654653 0.029365737 0.08467787
0002a0 bf 0f 9f bc 76 32 ad bd 5b c1 2c bd b0 86 05 3d
       -0.019416688 -0.0845689 -0.042176586 0.03259915
0002b0 2a 66 38 3d 98 3c 0a bd 2c ef 5f bd 56 96 58 3d
       0.045019306 -0.033749193 -0.05467145 0.052877747
0002c0 ee 70 88 3d 99 df cf 3c 75 85 59 bd 74 58 96 3d
       0.06662165 0.025375174 -0.05310579 0.0734109
0002d0 e0 84 f7 bc 3c a9 9e 3d 44 fd 17 b9 8d bf f6 3b
       -0.030214727 0.07747123 -0.00014494831 0.007530159
0002e0 46 3e 8b bd 23 89 88 3d 1a d3 df bc 9a d2 2f 3d
       -0.06798987 0.06666782 -0.02732234 0.042925455
0002f0 e2 16 ad 3d 7b a8 ab 3d b5 ee 90 bd c0 44 9a 3d
       0.0845163 0.083817445 -0.0707678 0.07532644
000300 f5 07 3d 3c fe ea eb bc e4 a8 32 3c f3 0b 4b bd
       0.011537542 -0.028798576 0.0109045245 -0.049571943
000310 a2 7d 79 bd 08 82 6c bc 2e fc 80 3d c5 c0 3d bd
       -0.06091083 -0.014435299 0.062980995 -0.046326417
000320 3c f5 24 3c 93 bc 4d 3d 32 36 23 3c 0c 6d c5 3d
       0.010068234 0.050228667 0.009961652 0.0963994
000330 db 67 9f 3d 37 c6 0c 3c 77 7d 43 3c ca cc a3 3c
       0.07783481 0.00859218 0.011931769 0.019995112
000340 ee f2 a6 bd b6 04 1d 3d be b6 ab 3d 40 b3 10 3c
       -0.08151804 0.03833457 0.08384465 0.008831799
000350 ec 7b 4d 3d 74 95 91 3c 3a 61 8e bd 1a 61 01 3d
       0.05016701 0.01777146 -0.06952138 0.031586744
000360 15 58 a3 bd b0 db d3 3c 76 12 4c 3d 56 f9 64 3d
       -0.07975785 0.025861591 0.049822293 0.055901848
000370 cd 51 0c bd e8 70 dc 3c 65 47 93 3d 5c 44 9f bd
       -0.0342577 0.026909307 0.07191352 -0.077767104
000380 90 52 a3 bb 3a 7f 34 bd 23 15 9d bd 69 a0 b0 3d
       -0.0049842075 -0.044066645 -0.07670047 0.08624346
000390 e5 62 93 3d 75 52 d9 bb 1f 65 ad 3b 43 36 41 bc
       0.07196597 -0.006632144 0.0052915956 -0.011792722
0003a0 79 18 8c 3c b3 00 29 3c aa c3 2e 3d 9f 59 5d bd
       0.017101513 0.010315108 0.04266707 -0.054040547
0003b0 15 30 73 3d 13 46 8e bd 3f fb fa bb a5 39 43 bd
       0.059372026 -0.06946959 -0.0076593454 -0.047662396
0003c0 40 bf a8 ba a2 c1 b5 3c 2d 1a ad 3d 1e cd 9c 3d
       -0.001287438 0.022187058 0.08452258 0.076563105
0003d0 bf d4 41 bd 0b e9 89 bd 76 39 03 3d 73 6b ba 3c
       -0.04732203 -0.067339025 0.03203722 0.022756314
0003e0 b8 cb 44 3c 5e 51 82 bd 75 5d 0d 3c 08 fa 86 3d
       0.012011461 -0.06363176 0.008628239 0.065906584
0003f0 ae 09 3d 3d 5a 05 38 3d 29 9e e9 3b 14 9b f9 3b
       0.04615181 0.04492698 0.00712945 0.0076173637

net.4.bias f4 [78]
000000 00 22 a2 bc 94 cf fc 3c 3d 52 3d bc 38 1a 29 3d
       -0.019791603 0.0308607 -0.011555252 0.04128477
000010 e8 c9 28 bd cc bd d1 3d 9b 5b 50 bd c7 34 8c 3d
       -0.041208178 0.10241279 -0.05086861 0.06846004
000020 f7 59 09 bd df f9 d0 3d 93 6f 9e 3c f1 48 1c bd
       -0.033533063 0.10203909 0.019340312 -0.0381555
000030 2e bb f4 bc 52 3a b6 3d 76 e1 2c bd 98 ce 22 3d
       -0.02987441 0.088978425 -0.042207204 0.039747804
000040 52 2b d5 bc 03 50 28 3d b2 9a 8f 3d 29 8d 80 bb
       -0.026021633 0.04109193 0.07011928 -0.0039230776
000050 29 a1 65 3c e2 6d 62 3d 00 ac ab bd 31 9c 36 3d
       0.014015474 0.055280574 -0.08382416 0.04458255
000060 f6 06 f0 bc b3 40 6c bd 0d ec 2a bd 62 29 98 3d
       -0.029300194 -0.05767889 -0.04172902 0.07429768
000070 9a 44 1f bd dc c4 6f bd 7b 82 88 bd be 4e 24 bd
       -0.038883783 -0.05853735 -0.06665512 -0.040114157
000080 8c ed 8e bd 10 bc 4a 3d dd c6 1d 3d ab 77 16 bd
       -0.06978902 0.049495757 0.03851973 -0.036735218
000090 9b fc 23 3d 3a 24 5c bd f7 78 38 3d d2 0e 3b 3c
       0.040035825 -0.053745486 0.045037236 0.011417108
0000a0 42 31 a0 3d 1e fe a0 3d c5 28 a3 3d 99 c4 68 3d
       0.07821895 0.07860969 0.079667605 0.056828115
0000b0 ea 49 f5 3d e1 39 02 3d e6 fe c2 bc 6e 01 b2 bb
       0.119769886 0.03179348 -0.023803186 -0.0054322993
0000c0 4d 8e a1 3d ba f7 9d 3d af 70 72 bd 97 81 f4 bc
       0.0788847 0.07713266 -0.059189495 -0.02984695
0000d0 90 e4 92 3d 4c 92 48 3d 7d 9e ec bc d4 c9 01 bd
       0.07172501 0.048967645 -0.028884167 -0.03168662
0000e0 6d 9b 8b bd fb a2 7b 3d 5c 4a 52 bc bb fe a4 bc
       -0.068167545 0.061434727 -0.0128351115 -0.020140996
0000f0 d2 73 c1 3c 08 00 08 bd f8 5b 90 bd 10 04 1c 3d
       0.023614798 -0.033203155 -0.07048792 0.03808981
000100 bb 35 bf 3d 6d 23 ab 3d 9e f7 bf 3d 44 f8 83 3c
       0.0933642 0.08356366 0.09373401 0.016109593
000110 c4 34 02 3e 18 72 17 3d e7 8e d9 bc 1a da 0f 3d
       0.12715441 0.036974043 -0.026557399 0.035120107
000120 cb 55 13 bd 62 92 72 37 0f ef 35 bd 70 66 58 bd
       -0.03597049 1.4458406e-05 -0.044417437 -0.052832067
000130 45 a8 31 3c 7b 96 18 3d
       0.010843341 0.037252884
