Entities/pained_rep.pth (torch, 80441 bytes, 6 tensors)

net.0.weight f4 [128, 12]
0.119603366 -0.1724271 -0.10986219 -0.04559791 0.16621518 -0.055522513 0.07813651 -0.16825834
-0.0039078677 0.42093566 0.15627177 -0.22206096 -0.10615177 0.2510684 -0.21097115 -0.0036116948
0.28598458 0.010927709 -0.2330483 -0.17742492 -0.11946852 -0.09850362 -0.26866168 0.035520077
-0.111311704 -0.28814912 -0.17694956 0.26925784 -0.019648636 -0.2507762 -0.18993051 0.24978141
0.013526741 0.2748518 0.14508955 0.032490272 0.021395037 -0.093252264 -0.047947742 -0.11922928
-0.25875056 -0.01193041 0.09715079 0.091303 0.044833124 0.0829214 -0.25996208 -0.09307164
-0.2892395 -0.24450141 -0.026723022 0.10656742 -0.16196126 0.036395766 -0.099578284 0.11889838
0.24333435 -0.14424437 0.07944188 -0.09746167 0.055364788 0.20431507 0.17035064 -0.037196934
-0.20859368 -0.013533503 0.023212403 -0.0400635 -0.15453258 0.0045149624 -0.116463676 -0.14142597
-0.013843316 0.13212721 0.12585711 0.09590835 -0.16403286 -0.12237125 -0.29022455 0.0006836513
-0.22846025 0.16364686 0.18257082 -0.11534964 -0.33483058 0.25416255 0.22390103 0.3392213
-0.12537076 0.00922422 -0.15600686 0.09646714 0.015007036 0.026258264 0.22072811 -0.28162175
0.29272908 0.023767669 -0.23152508 -0.2728219 -0.2097651 -0.17401743 -0.37395027 0.23383829
-0.35276377 -0.15765208 -0.12541856 0.004781844 -0.25386113 -0.32791767 0.22605851 -0.0306527
-0.03372992 -0.16567038 -0.14383322 -0.14391688 0.26126632 -0.2562468 0.106965244 -0.0085970685
0.013420241 -0.010861893 0.25511 -0.09753497 -0.25786552 -0.16913773 0.10005118 0.0028806082
0.12774391 0.010480775 0.12959957 -0.07911261 -0.21603268 0.19671932 0.12771231 0.093455434
0.05344829 0.23956633 0.20587823 -0.214142 -0.078723386 -0.09569438 -0.11603476 -0.2712388
-0.1229105 0.25736228 -0.20415972 -0.014680705 0.20321104 0.066336125 0.28708547 -0.025724482
0.22540694 0.08440922 0.07096741 -0.1766768 0.28951874 0.068612106 -0.062412288 0.26004702
-0.115744434 0.1476984 0.30601075 -0.2657479 -0.05851928 0.108768545 0.14524134 0.19358775
0.030763254 0.2365119 -0.13188359 -0.2261558 -0.06248397 0.052790213 0.27375454 0.1611979
-0.14604908 0.06262561 0.24215242 -0.039437424 0.25905925 -0.25135154 0.19211811 -0.3192162
-0.07362976 0.06422047 -0.10154134 -0.16629939 -0.27032733 -0.02948902 -0.00892379 0.1531982
-0.11972879 -0.18887398 0.087454885 -0.26823688 0.07375938 -0.215545 0.0677467 -0.108874425
0.15844303 0.17500895 -0.034329474 -0.28190377 -0.07695159 0.03795864 0.06713109 0.014421732
0.2931009 -0.10111962 0.2609717 0.25703633 -0.1281845 0.07564657 -0.04171845 0.009338934
0.4013527 -0.0069959783 0.23465593 -0.033515632 0.1665121 -0.44809172 -0.056116953 0.12040133
0.12394337 0.03311769 0.048521485 -0.0121337855 -0.22680849 0.1634545 -0.024865836 -0.24607152
-0.12619117 0.23662078 0.13507366 0.2346155 0.1543062 0.13989556 -0.27721065 -0.015315115
0.15922613 0.08647843 0.082727015 0.26241273 -0.186552 -0.14976132 0.089145645 -0.1379742
0.1430959 -0.18483096 -0.09871805 -0.17976172 0.0011153982 -0.010104121 -0.11569265 0.32018766
00000000: 9cf2 f43d bb90 30be 6eff e0bd e0c4 3abd
00000010: 5034 2a3e 936b 63bd 0906 a03d ea4b 2cbe
00000020: 920d 80bb e184 d73e b505 203e f363 63be
00000030: 1966 d9bd 0a8c 803e d208 58be 2fb2 6cbb
00000040: 926c 923e 220a 333c 37a4 6ebe e1ae 35be
00000050: e9ab f4bd 44bc c9bd 068e 89be 807d 113d
00000060: 64f7 e3bd 4888 93be 4432 35be 2adc 893e
00000070: 2df6 a0bc bd65 80be 257d 42be b3c6 7f3e
00000080: 449f 5d3c 60b9 8c3e 5b92 143e 8514 053d
00000090: a544 af3c 0bfb bebd da64 44bd 7b2e f4bd
000000a0: f47a 84be c477 43bc fef6 c63d 11fd ba3d
000000b0: f0a2 373d b2d2 a93d c019 85be 589c bebd
000000c0: 3317 94be 945e 7abe 3dea dabc 0540 da3d
000000d0: 2cd9 25be ba13 153d b3ef cbbd fe80 f33d
000000e0: a42c 793e ccb4 13be 6db2 a23d fc99 c7bd
000000f0: 30c6 623d f837 513e 6670 2e3e d05b 18bd
00000100: 9599 55be a0bb 5dbc f027 be3c a019 24bd
00000110: ca3d 1ebe 40f2 933b 8284 eebd f8d1 10be
00000120: 13cf 62bc 5b4c 073e b0e0 003e 996b c43d
00000130: 3bf8 27be c79d fabd 5098 94be 1037 333a
00000140: 7cf1 69be 0b93 273e d8f3 3a3e 6f3c ecbd
00000150: ea6e abbe 9821 823e 5046 653e 6aae ad3e
00000160: 3161 00be 2f21 173c 43c0 1fbe 9090 c53d
00000170: 12e0 753c 921b d73c 8d06 623e ba30 90be
00000180: 96e0 953e 6ab4 c23c e914 6dbe 50af 8bbe
00000190: aacc 56be a031 32be 6976 bfbe 4e73 6f3e
000001a0: 749d b4be 8c6f 21be b96d 00be 04b1 9c3b
000001b0: 16fa 81be d3e4 a7be e27b 673e 5f1b fbbc
000001c0: 6228 0abd 7fa5 29be 0449 13be f25e 13be
000001d0: b3c4 853e c832 83be 9810 db3d b8da 0cbc
000001e0: 92e0 5b3c 15f6 31bc c79d 823e 6ac0 c7bd
000001f0: f306 84be 7132 2dbe a2e7 cc3d 96c8 3c3b
00000200: 4dcf 023e 8eb7 2b3c c0b5 043e cb05 a2bd
00000210: ac37 5dbe ca70 493e 04c7 023e 9065 bf3d
00000220: 98ec 5a3d e050 753e bed1 523e 0a48 5bbe
00000230: ba39 a1bd 6afb c3bd a2a3 edbd d0df 8abe
00000240: 80b8 fbbd fdc4 833e 3f0f 51be 5787 70bc
00000250: 8e16 503e 3cdb 873d defc 923e 26bc d2bc
00000260: 14d1 663e bede ac3d 5d57 913d c3ea 34be
00000270: cd3b 943e 8184 8c3d 07a4 7fbd e224 853e
00000280: 6b0b edbd 403e 173e 71ad 9c3e 1c10 88be
00000290: eab1 6fbd 0bc2 de3d 25ba 143e de3b 463e
000002a0: 3803 fc3c 2d30 723e 7e0c 07be 6395 67be
000002b0: 31ef 7fbd 8d3a 583d 8e29 8c3e 1011 253e
000002c0: e48d 15be db41 803d cef6 773e 2389 21bd
000002d0: 6aa3 843e 26b1 80be 9cba 443e 4e70 a3be
000002e0: 33cb 96bd 0686 833d e8f4 cfbd 634a 2abe
000002f0: 5868 8abe f592 f1bc 1735 12bc fddf 1c3e
00000300: 5e34 f5bd 2e68 41be 8c1b b33d 5856 89be
00000310: 280f 973d d4b7 5cbe c8be 8a3d 8ef9 debd
00000320: e43e 223e 8c35 333e 109d 0cbd b155 90be
00000330: cc98 9dbd 857a 1b3d 067c 893d 2149 6c3c
00000340: 5211 963e ce17 cfbd 159e 853e 449a 833e
00000350: cc42 03be 97ec 9a3d f7e0 2abd 5402 193c
00000360: 1a7e cd3e 853e e5bb a549 703e b047 09bd
00000370: 2682 2a3e 476c e5be e4da 65bd f994 f63d
00000380: 06d6 fd3d 6aa6 073d 77be 463d c9cc 46bc
00000390: 7c40 68be 9e60 273e 70b3 cbbc 2cfa 7bbe
000003a0: 4238 01be b84c 723e c050 0a3e 0c3f 703e
000003b0: 7202 1e3e c840 0f3e 8eee 8dbe 40ec 7abc
000003c0: 2d0c 233e 9a1b b13d c86c a93d f65a 863e
000003d0: 7d07 3fbe 085b 19be fe91 b63d 1c49 0dbe
000003e0: bb87 123e 5444 3dbe b02c cabd 7513 38be
000003f0: 8e32 923a c18b 25bc 45f0 ecbd a3ef a33e

net.0.bias f4 [128]
0.21011165 -0.2524075 -0.17607981 -0.072967835 0.24678661 -0.27346104 -0.0026951218 -0.35015464
0.37508768 0.26100236 -0.06889155 0.14445278 0.18801215 -0.1664885 -0.3305777 0.087038785
-0.16626796 0.042109482 0.36216658 0.2536955 -0.2977965 0.093487 -0.16589473 0.24285626
0.3433209 -0.12159681 -0.07030392 -0.21179369 -0.22076859 0.013004422 0.105844036 -0.056508124
0.028373351 -0.09170458 -0.15148532 0.18525453 -0.12566756 -0.104888014 0.14801121 0.319191
0.2381947 -0.030763732 0.23920256 -0.09645098 0.33355823 0.22334972 0.41035637 -0.26959231
0.18434832 -0.093945324 -0.022689547 0.13718732 0.09389979 -0.15461685 0.2515377 -0.094318055
0.2262497 0.20743564 0.22214301 0.08487457 -0.14601995 0.33420888 0.283858 0.13435794
-0.23242652 -0.13187568 0.22336984 0.14985926 0.111185215 0.21915905 0.26011544 -0.26926833
0.2465532 0.2328986 0.17952533 -0.035033762 -0.30177572 0.19736092 0.0069975955 -0.1266531
0.29683277 0.26528737 -0.2074796 -0.27612054 0.051395804 -0.17950833 0.3013196 0.13212633
0.27043414 -0.22137506 0.2515784 0.33631802 0.0024903296 0.25447807 0.15100183 0.09765096
-0.29227915 -0.0030917227 0.06328425 0.037767295 -0.0053175576 0.09055568 0.1552951 -0.029286206
0.11048067 0.10043072 0.2220199 -0.16468309 -0.16840364 -0.13716674 0.09533965 0.044610303
0.2881208 -0.027892567 -0.18150313 0.2813457 0.028967623 -0.12541866 0.19110048 0.2329825
0.0020269807 0.08679182 -0.11335653 0.233247 0.31611177 -0.24828686 0.3034412 -0.08689635
00000000: 8227 573e 8e3b 81be 444e 34be 2970 95bd
00000010: a1b5 7c3e 1603 8cbe a4a0 30bb 7847 b3be
00000020: 7e0b c03e 1aa2 853e 0317 8dbd 6eeb 133e
00000030: 4286 403e f67b 2abe 7b41 a9be 6441 b23d
00000040: 2642 2abe fe7a 2c3d e66d b93e 60e4 813e
00000050: c878 98be 1d76 bf3d 4fe0 29be 50af 783e
00000060: c2c7 af3e c007 f9bd 80fb 8fbd 72e0 58be
00000070: 2911 62be 8010 553c c2c4 d83d 1075 67bd
00000080: 3b6f e83c 9ccf bbbd f81e 1bbe 5db3 3d3e
00000090: ffae 00be 87cf d6bd 4090 173e 016d a33e
000000a0: 50e9 733e 3904 fcbc 84f1 743e 1788 c5bd
000000b0: 25c8 aa3e cab5 643e 3b1a d23e 0108 8abe
000000c0: cec5 3c3e 6866 c0bd 6edf b9bc d57a 0c3e
000000d0: 884e c03d e153 1ebe 8dc9 803e d329 c1bd
000000e0: 00ae 673e 026a 543e 7579 633e b8d2 ad3d
000000f0: 4186 15be 6d1d ab3e d655 913e 2195 093e
00000100: 3801 6ebe 6b0a 07be 10bb 643e b574 193e
00000110: 13b5 e33d 3b6b 603e da2d 853e 8add 89be
00000120: 7178 7c3e f87c 6e3e 7dd5 373e 907f 0fbd
00000130: 5982 9abe fb18 4a3e 164c e53b 5ab1 01be
00000140: 77fa 973e bfd3 873e 8875 54be ac5f 8dbe
00000150: 6884 523d 08d1 37be 9046 9a3e 204c 073e
00000160: 5876 8a3e 25b0 62be e2ce 803e e031 ac3e
00000170: cc34 233b f34a 823e 39a0 1a3e 3afd c73d
00000180: 9da5 95be 809e 4abb 2c9b 813d e1b1 1a3d
00000190: e83e aebb 4275 b93d ae05 1f3e a0e9 efbc
000001a0: b143 e23d 9fae cd3d 2f59 633e afa2 28be
000001b0: 0172 2cbe 7075 0cbe 6f41 c33d 4bb9 363d
000001c0: 9284 933e f47e e4bc f5db 39be 8b0c 903e
000001d0: 824d ed3c c06d 00be d8af 433e f792 6e3e
000001e0: 18d7 043b e9bf b13d 7827 e8bd 4dd8 6e3e
000001f0: 67d9 a13e e93e 7ebe a55c 9b3e b7f6 b1bd

net.2.weight f4 [128, 128]
-0.06062685 0.012384333 0.063334145 -0.020570055 -0.06557818 -0.010069177 -0.045860186 0.012329355
-0.009623192 -0.022298507 -0.0301596 0.002476573 -0.01924304 -0.088229455 0.025129423 -0.030138746
0.038520508 0.022935905 -0.011063777 0.065832146 -0.076197326 -0.06839745 -0.025876686 -0.049664337
0.011385843 -0.055469066 0.013224818 0.02003976 -0.08087608 -0.07815387 -0.076432064 -0.020001702
-0.05850683 -0.081538945 0.026881315 -0.009303547 -0.0044779256 -0.04409785 0.014730446 0.056096144
-0.0091239065 0.03891232 -0.08760285 -0.026297927 -0.06370275 0.046434127 -0.01629968 -0.06598914
-0.061655067 -0.08653362 -0.011450715 0.058853425 -0.055808052 0.03645972 0.017201014 0.079117425
0.02625738 0.04248356 -0.04732582 0.086889125 0.08015031 -0.050894838 0.088004924 -0.012580231
-0.009554796 0.059741117 0.027320549 0.046745934 -0.020602308 0.047255464 -0.03877565 -0.0765435
0.06798232 -0.05602729 0.0006599575 -0.06446229 -0.0057925805 0.03600616 0.0110141635 -0.021032184
-0.0023855343 -0.0076407418 0.08053488 -0.0056458116 -0.031763036 0.0076144934 0.051820867 -0.05153509
-0.02291859 0.017469354 -0.07193942 0.0008244887 0.08640332 -0.0102672875 -0.075183064 -0.05077592
0.012258157 0.081895806 0.080398194 -0.041443344 0.08623166 -0.07519937 0.06716325 0.036795758
0.017627768 -0.022883706 0.071126886 -0.08133661 -0.03946695 -0.03588075 -0.020356387 -0.043339457
-0.024397083 0.07804189 0.04541058 0.0321929 -0.08666726 -0.057138808 0.044114448 0.028644666
-0.0035205334 0.004651934 -0.029698502 -0.05769074 -0.07541688 -0.057186753 0.012102239 -0.003468074
0.07894058 0.07716418 0.025566056 0.04737658 -0.026442606 -0.053275872 -0.065442465 -0.08355917
0.06019699 0.08782611 0.0027757883 0.061330445 -0.042160083 0.06712311 -0.064456366 -0.07159074
-0.024850003 0.015072532 -0.073771924 0.043554224 -0.019200273 0.040461548 0.08657343 0.047659718
0.049628086 -0.036296614 0.031135164 -0.083438896 -0.0075856 -0.025676712 0.035715267 0.06715051
0.03212277 0.022420846 -0.049395546 0.072744675 0.022300899 -0.05136661 -0.06362538 -0.06667985
-0.019558527 -0.019524895 -0.035061255 -0.029350549 -0.053702448 0.0062657595 -0.050252244 -0.05551484
-0.052967925 -0.06676915 0.08671867 -0.005555503 0.059112318 0.056672655 0.040259518 -0.006675273
0.050175287 0.038687862 -0.071754195 0.031585477 -0.055719048 -0.00050318986 -0.043557007 -0.08159177
-0.07060003 0.034494445 0.04005646 0.055752374 -0.07679557 0.028169475 0.0058039576 0.055058233
-0.07157759 -0.08132211 -0.045555443 0.063064806 -0.07301992 -0.05916992 0.053373836 -0.060886074
0.04683604 -0.0186565 -0.028050654 0.020621397 0.07998776 -0.010073803 -0.06761242 -0.0015229136
-0.033933237 -0.00927221 -0.06792693 -0.017437585 0.0031838566 0.06913596 0.017427407 -0.003132403
-0.03204959 0.07337215 -0.002102919 0.08220897 -0.039215196 -0.014903568 -0.004041344 -0.048440382
0.0017441213 -0.07961176 0.06517752 -0.07202024 -0.059096806 -0.024324894 0.07170526 0.038275324
0.038155906 0.050524868 -0.07021548 -0.004178196 -0.0041763633 -0.08147354 -0.08562173 0.079030074
0.03173378 0.016945392 0.007321395 0.043135546 -0.085797936 0.015084557 0.006324969 0.0037868768
00000000: dc53 78bd a8e7 4a3c 55b5 813d 8882 a8bc
00000010: da4d 86bd 30f9 24bc e4d7 3bbd 1001 4a3c
00000020: 98aa 1dbc 5cab b6bc 4411 f7bc 004e 223b
00000030: 94a3 9dbc a5b1 b4bd 38dc cd3c 88e5 f6bc
00000040: aec7 1d3d 14e4 bb3c d844 35bc 01d3 863d
00000050: 580d 9cbd f613 8cbd 58fb d3bc d56c 4bbd
00000060: b08b 3a3c 8833 63bd e8ac 583c 6c2a a43c
00000070: 5ca2 a5bd 230f a0bd 6a88 9cbd 9cda a3bc
00000080: dca4 6fbd e4fd a6bd 3436 dc3c e86d 18bc
00000090: 90bb 92bb f29f 34bd f857 713c 12c5 653d
000000a0: 707c 15bc 8662 1f3d 1f69 b3bd c06e d7bc
000000b0: 9676 82bd b631 3e3d e886 85bc 5025 87bd
000000c0: 068a 7cbd 8a38 b1bd c89b 3bbc 4a10 713d
000000d0: fc96 64bd ca56 153d 24e9 8c3c 5108 a23d
000000e0: b819 d73c 3e03 2e3d b8d8 41bd edf2 b13d
000000f0: d925 a43d 1b77 50bd ed3b b43d 501d 4ebc
00000100: b88b 1cbc 1ab3 743d 58cf df3c aa78 3f3d
00000110: 2cc6 a8bc f28e 413d 37d3 1ebd d7c2 9cbd
00000120: 513a 8b3d df7c 65bd 0001 2d3a ce04 84bd
00000130: b0cf bdbb 327b 133d c074 343c b04b acbc
00000140: a056 1cbb 305f fabb 79ef a43d 8000 b9bb
00000150: f519 02bd 0083 f93b 1e42 543d 7516 53bd
00000160: c4bf bbbc e41b 8f3c fa54 93bd 8022 583a
00000170: 39f4 b03d 2038 28bc 94f9 99bd 69fa 4fbd
00000180: 70d6 483c fdb8 a73d cfa7 a43d 7fc0 29bd
00000190: 399a b03d 2102 9abd e38c 893d 26b7 163d
000001a0: 1c68 903c 9c76 bbbc f9aa 913d cf93 a6bd
000001b0: 19a8 21bd b1f7 12bd 70c2 a6bc b784 31bd
000001c0: 64dc c7bc 6dd4 9f3d 7200 3a3d b4dc 033d
000001d0: 9b7e b1bd 620a 6abd 5ab1 343d 38a8 ea3c
000001e0: c0b8 66bb 406f 983b 464a f3bc 204d 6cbd
000001f0: 2a74 9abd a83c 6abd 7848 463c a048 63bb
00000200: 99ab a13d 4108 9e3d e86f d13c f20d 423d
00000210: 2a9e d8bc cd37 5abd b306 86bd 1221 abbd
00000220: 1e91 763d 2dde b33d 00ea 353b a235 7b3d
00000230: 0db0 2cbd d777 893d b301 84bd 2a9e 92bd
00000240: 3c92 cbbc c8f2 763c bc15 97bd ea65 323d
00000250: e449 9dbc 02bb 253d 694d b13d d636 433d
00000260: d246 4b3d c2ab 14bd 2c0f ff3c 03e2 aabd
00000270: a090 f8bb f857 d2bc 2c4a 123d 3586 893d
00000280: 2a93 033d ecab b73c fc52 4abd 29fb 943d
00000290: 60b0 b63c cb65 52bd 064e 82bd 728f 88bd
000002a0: 3439 a0bc acf2 9fbc 649c 0fbd 9070 f0bc
000002b0: 19f7 5bbd 0051 cd3b 4cd5 4dbd 8763 63bd
000002c0: e5f4 58bd 44be 88bd 8f99 b13d f00a b6bb
000002d0: c21f 723d 9621 683d 2ae7 243d 40bc dabb
000002e0: 9a84 4d3d 2a77 1e3d ddf3 92bd c65f 013d
000002f0: a839 64bd 80e8 03ba d568 32bd 9619 a7bd
00000300: c096 90bd 0c4a 0d3d 3e12 243d 9a5c 643d
00000310: ff46 9dbd acc3 e63c 202f be3b be84 613d
00000320: 4697 92bd 358c a6bd 5898 3abd 1f28 813d
00000330: 788b 95bd 285c 72bd 869e 5a3d ad63 79bd
00000340: 26d7 3f3d 84d5 98bc 7cca e5bc 34ee a83c
00000350: 9fd0 a33d 980c 25bc 6178 8abd 809c c7ba
00000360: 94fd 0abd 78ea 17bc 461d 8bbd 44d9 8ebc
00000370: 40a8 503b 2797 8d3d ecc3 8e3c 0049 4dbb
00000380: 6e46 03bd 2344 963d 20d1 09bb 2d5d a83d
00000390: 1da0 20bd 182e 74bc 406d 84bb 6c69 46bd
000003a0: 009b e43a 7e0b a3bd cb7b 853d 597f 93bd
000003b0: 7e0f 72bd 0045 c7bc 35da 923d 96c6 1c3d
000003c0: 5e49 1c3d 2af3 4e3d 22cd 8fbd 40e9 88bb
000003d0: e0d9 88bb 99db a6bd 725a afbd 85da a13d
000003e0: 48fb 013d 10d1 8a3c 50e8 ef3b e6ae 303d
000003f0: d4b6 afbd 3825 773c b041 cf3b 402d 783b

net.2.bias f4 [128]
-0.04649751 -0.08514523 0.0490405 0.03648318 -0.018926416 0.047877137 0.100016 -0.041935902
0.15160514 -0.01966235 0.09287718 0.13208398 0.015746327 -0.051822025 0.07113255 -0.049365
0.016687555 -0.099665135 -0.07401768 0.031337056 -0.08372914 0.022278152 0.08267119 0.029855208
-0.005648689 0.05945544 -0.0023113503 -0.0546613 0.07776308 0.01084432 -0.06622231 -0.018489301
0.0342963 0.022921821 -0.05869095 0.05247232 0.002596771 -0.019746313 -0.09012163 0.078141704
0.011899159 0.0800025 -0.05772286 -0.06350325 0.16322342 0.05048824 0.06303915 -0.001144611
0.056750234 -0.035455003 -0.116537705 -0.026820865 -0.007201879 -0.07923264 0.08242302 -0.020956043
0.015361194 0.042875256 -0.08414631 0.06218049 0.15786245 -0.0008159678 -0.07872699 -0.011326147
0.0013475788 0.048591066 0.10548983 -0.0512889 -0.081133634 0.028895741 0.0045776274 -0.06563186
0.08012778 0.04660233 -0.0032834725 0.051482666 -0.05652316 -0.08203762 -0.0041952906 -0.09144284
0.05853737 0.06933883 0.008911303 -0.064917445 -0.028076071 -0.0432969 0.013031855 0.034014843
0.04164608 0.0039333226 0.045021955 0.06430375 0.031349406 0.057756416 0.008752614 0.12235522
-0.05481589 0.060261603 -0.08226063 -0.037769515 -0.070914805 0.014145829 -0.08837026 0.0028965285
0.033009104 0.10939506 0.0518339 -0.05677426 0.012193993 0.078162186 -0.010311428 0.1945755
0.061221465 -0.052851252 0.04303347 0.028443355 0.019894028 -0.09695898 -0.07418748 -0.009883321
0.052386336 0.10193905 0.06277342 -0.0022049341 0.030855767 -0.04062906 -0.021583514 -0.016549736
00000000: 2c74 3ebd 9f60 aebd b1de 483d 636f 153d
00000010: 920b 9bbc d11a 443d 30d5 cc3d fbc4 2bbd
00000020: 613e 1b3e f012 a1bc 6436 be3d 0641 073e
00000030: 71fe 803c 5543 54bd f1ad 913d f432 4abd
00000040: 57b4 883c 3c1d ccbd 9596 97bd 495b 003d
00000050: 2f7a abbd ac80 b63c 834f a93d e992 f43c
00000060: a318 b9bb 8c87 733d 067a 17bb 87e4 5fbd
00000070: 4042 9f3d 60ac 313c 909f 87bd e076 97bc
00000080: 477a 0c3d 8bc6 bb3c ec65 70bd 37ed 563d
00000090: 972e 2a3b 05c3 a1bc b091 b8bd c208 a03d
000000a0: b1f4 423c 5ad8 a33d ce6e 6cbd fe0d 82bd
000000b0: 0a24 273e c2cc 4e3d ab1a 813d c606 96ba
000000c0: ef72 683d 4439 11bd 52ab eebd 6eb7 dbbc
000000d0: bdfd ebbb b944 a2bd 66cd a83d 02ac abbc
000000e0: 84ad 7b3c f79d 2f3d e754 acbd f8b0 7e3d
000000f0: b2a6 213e ace6 55ba 9e3b a1bd 4e91 39bc
00000100: 3ea1 b03a 6d07 473d 0d0b d83d 4f14 52bd
00000110: 6429 a6bd c3b6 ec3c ecff 953b ff69 86bd
00000120: 091a a43d 16e2 3e3d 872f 57bb 7ddf 523d
00000130: d484 67bd 5703 a8bd a678 89bb 6246 bbbd
00000140: e2c4 6f3d 8401 8e3d b700 123c 70f3 84bd
00000150: caff e5bc 1758 31bd 9083 553c 2653 0b3d
00000160: 1495 2a3d 1ae3 803b f168 383d afb1 833d
00000170: 3c68 003d fe91 6c3d 2067 0f3c 6095 fa3d
00000180: a086 60bd dfd4 763d 4378 a8bd 35b4 1abd
00000190: c83b 91bd e8c3 673c 78fb b4bd afd3 3d3b
000001a0: 8e34 073d 840a e03d c94f 543d 208c 68bd
000001b0: 50c9 473c 7f13 a03d 44f1 28bc cd3e 473e
000001c0: 5cc3 7a3d 8e7a 58bd dd43 303d 0a02 e93c
000001d0: cdf8 a23c 6e92 c6bd 9bef 97bd a7ed 21bc
000001e0: 0e93 563d 6cc5 d03d 5a8f 803d a880 10bb
000001f0: 3cc5 fc3c a86a 26bd e9cf b0bc 5093 87bc

net.4.weight f4 [9, 128]
0.061178572 -0.07888653 -0.019710267 0.026043177 0.047102876 0.07391823 0.07102069 -0.057439968
-0.03514075 0.026784785 0.025406882 0.034965318 0.017272392 -0.00070862175 0.08861405 -0.05604024
0.08280178 0.054254554 0.08152474 0.024450451 -0.04359678 0.06985754 -0.02771167 0.07144906
-0.0042264485 0.061323926 -0.0092624575 -0.023940941 -0.059874866 0.039500408 0.0048955153 -0.040645972
0.05277577 0.011456339 -0.009140393 -0.08509615 0.087162375 -0.012365311 0.08485962 -0.04378245
0.0056802747 0.03416982 0.004015699 0.045887373 -0.0018827962 0.023625933 0.043306522 -0.0004628713
0.036592007 -0.06301576 0.018186867 0.0037647858 -0.11851138 0.022162937 -0.035515934 -0.0041008317
0.070868894 0.054579753 -0.030314844 -0.04360151 0.009320448 -0.029643886 0.06810313 -0.026382938
0.039706767 -0.05196529 -0.057454374 0.016016964 -0.038594015 -0.04834431 -0.025379818 0.029371943
-0.012143813 0.0593723 0.05462057 0.02438603 0.076149195 0.021697823 0.06515053 -0.035000302
-0.020403566 0.004094314 0.033769965 0.02532301 0.056331974 -0.04923348 0.07472784 0.0061429664
0.008108555 -0.06981129 0.036595892 -0.07346349 0.038982507 0.20716049 0.030961253 0.007817206
-0.014656569 -0.04511307 0.040623263 -0.021942412 0.018390082 0.026985584 -0.06369816 -0.035523266
-0.040519945 0.08098502 0.072088465 -0.053162538 -0.07184004 0.027189456 0.063147955 0.057881832
-0.036835797 -0.06008251 -0.01318354 0.005667947 0.028784292 0.018291237 0.04227879 -0.022633161
0.0008332953 0.047836315 0.053055223 -0.03319419 -0.020821374 0.057994492 0.019728519 0.024521502
0.086571 -0.08397553 0.059074305 0.11365424 -0.0049952404 0.05092201 0.01227597 -0.0058364198
-0.018278144 -0.07592539 0.0795952 -0.03577815 0.08071069 -0.07309463 0.0032864637 0.014813618
0.0011196509 -0.035436723 -0.028891813 -0.08053792 0.066807605 0.0643786 0.06608295 -0.025688935
0.07987208 -0.018479848 0.008636847 0.04835078 0.047766183 -0.036999106 0.012820924 -0.056352373
-0.056679014 -0.013922119 -0.020162862 0.021265887 -0.035927407 -0.012020286 -0.031841613 -0.051690232
0.040788837 0.08561505 -0.031634983 0.08321189 0.03543116 0.08570192 -0.009151378 -9.736244e-05
-0.047249287 -0.021298634 -0.057325337 0.07035417 0.08411398 0.0032890828 0.046551958 -0.038707756
-0.002541093 0.02936214 -0.0029511526 -0.002252802 0.012037807 -0.021246275 -0.004973054 0.087093286
0.012037027 0.030294307 0.035891544 0.017590942 0.004783116 -0.008285303 0.04167413 0.012588349
-0.025593147 -0.016212225 -0.010780163 -0.005940631 -0.05376384 0.03737071 -0.00966316 -0.07853337
-0.0061378935 -0.023326252 -0.07945042 -0.031475045 0.005356197 -0.08710784 0.038007583 -0.0772405
-0.054918762 0.005503923 -0.042523235 0.005695766 0.0064673945 0.1438894 0.055116467 0.012233479
-0.016696382 0.05234394 -0.068517044 0.04247709 0.07567998 -0.052121475 0.03986263 0.012155925
-0.054733485 0.06599524 0.0069897966 0.021165907 -0.08313479 0.058105193 -0.03721627 0.01990912
-0.016463785 0.014489494 0.028459165 0.07154357 -0.039337333 -0.011907004 -0.03784572 -0.0058305888
0.06578443 0.097163536 -0.041821282 0.018582914 0.021864902 -0.057483096 0.04975805 -0.0212301
00000000: 6296 7a3d 438f a1bd 6d77 a1bc 8058 d53c
00000010: f2ee 403d 7162 973d 4c73 913d 2c46 6bbd
00000020: bfef 0fbd c46b db3c 1822 d03c cb37 0f3d
00000030: d57e 8d3c cdc2 39ba 487b b53d 738a 65bd
00000040: fb93 a93d 063a 5e3d 71f6 a63d 504c c83c
00000050: 8a92 32bd 7811 8f3d 9603 e3bc e353 923d
00000060: 057e 8abb cc2e 7b3d 90c1 17bc cb1f c4bc
00000070: 593f 75bd 2ecb 213d 8f6a a03b 647c 26bd
00000080: 682b 583d 5eb3 3b3c 96c1 15bc e446 aebd
00000090: 3082 b23d e097 4abc e1ca ad3d 3a55 33bd
000000a0: 9921 ba3b a7f5 0b3d 2096 833b 66f4 3b3d
000000b0: 28c8 f6ba 2c8b c13c 2e62 313d 89ad f2b9
000000c0: 80e1 153d 680e 81bd a0fc 943c a0ba 763b
000000d0: 18b6 f2bd 0c8f b53c 2879 11bd 4560 86bb
000000e0: b623 913d 058f 5f3d d656 f8bc 7f97 32bd
000000f0: cbb4 183c bcd7 f2bc a779 8b3d 0821 d8bc
00000100: 90a3 223d 8ed9 54bd 4755 6bbd 0236 833c
00000110: c214 1ebd af04 46bd 56e9 cfbc 6e9d f03c
00000120: d8f6 46bc 5e30 733d d2b9 5f3d 36c5 c73c
00000130: 1cf4 9b3d a2bf b13c a46d 853d 7a5c 0fbd
00000140: 6125 a7bc 9829 863b 6052 0a3d 3372 cf3c
00000150: 5bbc 663d 0ca9 49bd e90a 993d f04a c93b
00000160: bfd9 043c 39f9 8ebd 93e5 153d 0774 96bd
00000170: 1fac 1f3d e121 543e 74a2 fd3c bd13 003c
00000180: 1b22 70bc 7cc8 38bd 9464 263d 93c0 b3bc
00000190: cca6 963c df10 dd3c 2e74 82bd d880 11bd
000001a0: 3ef8 25bd 79db a53d 1ea3 933d f6c0 59bd
000001b0: df20 93bd 6cbc de3c b753 813d 8015 6d3d
000001c0: 22e1 16bd 1419 76bd c6ff 57bc 30ba b93b
000001d0: 09cd eb3c 81d7 953c 862c 2d3d 2e69 b9bc
000001e0: 8071 5a3a 03f0 433d 6f50 593d a2f6 07bd
000001f0: 9691 aabc a28b 6d3d b49d a13c 51e1 c83c
00000200: 234c b13d 5dfb abbd e6f7 713d 8ec3 e83d
00000210: 1daf a3bb 9993 503d 2621 493c 703f bfbb
00000220: 0cbc 95bc c57e 9bbd cf02 a33d 1c8c 12bd
00000230: a54b a53d a3b2 95bd b661 573b d1b4 723c
00000240: 40c1 923a 1926 11bd 86ae ecbc 11f1 a4bd
00000250: 6dd2 883d edd8 833d 7f56 873d 9a71 d2bc
00000260: f993 a33d 0d63 97bc 9081 0d3c 780b 463d
00000270: 79a6 433d 608c 17bd da0e 523c bfd1 66bd
00000280: 4128 68bd 9919 64bc 962c a5bc cc35 ae3c
00000290: 9e28 13bd bcf0 44bc 5a6c 02bd 23b9 53bd
000002a0: 3212 273d f156 af3d af93 01bd ff6a aa3d
000002b0: 4420 113d 7d84 af3d a9ef 15bc 102f ccb8
000002c0: 7888 41bd 797a aebc f9cd 6abd d915 903d
000002d0: f343 ac3d a78d 573b 44ad 3e3d 068c 1ebd
000002e0: 7788 26bb df88 f03c 2068 41bb bfa3 13bb
000002f0: 393a 453c ab0c aebc 00f5 a2bb f75d b23d
00000300: f336 453c c42b f83c 0303 133d e11a 903c
00000310: afbb 9c3b 14bf 07bc 7eb2 2a3d 5d3f 4e3c
00000320: b8a8 d1bc 80cf 84bc 489f 30bc a0a9 c2bb
00000330: 7937 5cbd 0812 193d 3b52 1ebc 1ad6 a0bd
00000340: 6220 c9bb b216 bfbc e7b6 a2bd faeb 00bd
00000350: 0983 af3b 9865 b2bd d7ad 1b3d 4430 9ebd
00000360: 7ff2 60bd 415a b43b d82c 2ebd 8ca3 ba3b
00000370: 70ec d33b be57 133e cec1 613d ee6e 483c
00000380: dac6 88bc 9966 563d aa52 8cbd 75fc 2d3d
00000390: 1bfe 9a3d 547d 55bd ff46 233d a529 473c
000003a0: 3830 60bd 8328 873d aa0a e53b 2064 ad3c
000003b0: 9342 aabd b6ff 6d3d 1670 18bd 7318 a33c
000003c0: 0fdf 86bc 5865 6d3c 3223 e93c 6f85 923d
000003d0: 2f20 21bd 9815 43bc 1d04 1bbd 860e bfbb
000003e0: fdb9 863d adfd c63d cb4c 2bbd 323b 983c
000003f0: 061e b33c 6573 6bbd 19cf 4b3d bfea adbc

net.4.bias f4 [9]
0.03494766 0.14444923 0.018459136 0.13651596 0.11076937 0.08286321 0.02163394 0.07572985
0.11116473
00000000: 4725 0f3d 80ea 133e 9d37 973c d7ca 0b3e
00000010: 0ddb e23d 30b4 a93d a939 b13c 4018 9b3d
00000020: 55aa e33d
