Entities/pained_nav.pth (torch, 73785 bytes, 6 tensors)

net.0.weight f4 [128, 4]
00000000: 1c42 ef3d ca80 353e 657a 453d 990f db3d
00000010: 74dd 9d3e 10d9 1cbd 48be c6bd 2a3c d5be
00000020: 45a1 6e3d 6ed2 bd3e 77bd e7ba 4d30 aabe
00000030: fe2e f1be 7ad6 80be 7cd1 c1be 5811 a2be
00000040: 996b b9be 78cd ef3d 74b9 62bc e0ca bbbd
00000050: 6558 06be 216d df3e ae90 d5bd dcc0 d4be
00000060: 1456 54be f41d 32be 7078 41bd a0e9 57be
00000070: f7c6 18be e90d 643e 0b4f 843e bdb7 54be
00000080: 487a 2f3e b4b9 85be 3884 f4be 4026 a0bd
00000090: 864a c1be 2017 c13d 405a fcbe 20cd c9be
000000a0: 6e96 813d 8eab 74bd e145 9bbd ea16 853e
000000b0: 2240 b23e 89fe 72ba c019 6a3e 243a 45bc
000000c0: 9e29 cdbe 4a35 e63e ba2e bdbe 8884 b53d
000000d0: 4d4c 40be c447 693e 8ff9 293e 300e 313d
000000e0: 7051 c6bd 4837 023e 4400 0fbe b0c1 7ebd
000000f0: 8fc7 9fbe 0838 dcbc 34b4 263e dc18 7d3e
00000100: a62a ba3c 4702 e03e 86a4 b8be 3d5c 9b3d
00000110: aed5 953e c8c5 babe ebe3 643e 5030 35bd
00000120: f76f dc3e 6319 93bc 27d1 74bc 2036 573e
00000130: 0458 07be 208c 843d 463f bcbe 6c8b 6d3e
00000140: b598 8a3d 4e8b 02bc 811d 0dbe 3507 d73e
00000150: 8894 f5bd 00bb 3a3b 1071 b7be a061 86bc
00000160: 9f95 323e 7861 2a3e d282 babe b8fe 863e
00000170: 2736 06bf bf13 a53c 4fc0 683e fa6b 0dbe
00000180: da3e df3e 048c acbe 00f4 da3a fefd f0be
00000190: 40e4 db3c 40ed eebe 0822 123e a4a3 7dbe
000001a0: f510 0fbe 7066 acbe 7ab1 9f3d d398 013e
000001b0: 9a80 e8be 8ab8 2abd 21e0 cb3e f996 c13e
000001c0: 651b 7e3e 939f b43e 4e5b 98be c545 993e
000001d0: 04cc 323e 86fd bcbe 4fb2 d23e 61f3 c0bd
000001e0: f072 a13e ad6e 9cbd 5785 d13e 8d52 a53e
000001f0: c06e 3b3e 9615 d0be 0020 9e3d e6f4 f7be
00000200: 40e0 b33d eca5 7d3e aef2 a0be cc5d 7bbe
00000210: 6f9e c4be a7c4 f93c 8a3c c73e 0413 303e
00000220: 80a6 87be 105c b3be 6cba fcbe c008 d63d
00000230: 4642 afbd a86e 693e d37b 383e 8b26 be3e
00000240: f08f e3be b2cc cbbe 947f 0abe b2a8 cbbe
00000250: 37b1 3dbe d60d b9be 2f28 a03d a833 ac3e
00000260: cf4f a8be f5fc e3be e20a 4f3e 5345 133e
00000270: 238e 6e3e 06e8 f7be 21fc bd3e 83de 043e
00000280: a452 c53e f22e 04bf cf56 6a3e bfab e2bd
00000290: 0e09 993e a054 91be 7014 12bb 1403 763e
000002a0: b030 cd3a 1e80 d83e 00f2 583e 83d5 913e
000002b0: 620e 8b3e 8bf9 50be 5f24 8e3e 74ce e33e
000002c0: 2967 ce3e 0536 903e 8f3a a5be b493 bebe
000002d0: d4af 923e 0846 e9be 20dd aa3d f04e c9be
000002e0: 3d5f 94be f0f7 36be 6e67 8d3e 760f 69be
000002f0: f85b c7be bc12 39be 06ba dabe f80f c33e
00000300: c056 373c 3076 1fbe cad0 c9be 0edb e6be
00000310: 4018 afbe 7439 c23e cbce 92be fbfa df3e
00000320: d4b9 6b3e 781a fb3d 345d d2be 805e 49be
00000330: 896a d63e 31a5 5dba 8200 ddbc 4803 babe
00000340: ca55 fcbe 21c6 103e 952e 493e eb47 e9be
00000350: e0b9 25be 0cea 02be 84f3 5dbe 120a 87be
00000360: 65c6 d6be f8d3 1f3e f1a4 193c bea7 01be
00000370: c64a dcbe 18fd f4be 1aff a1be 90a9 573e
00000380: e9f9 c6be fd57 9c3e b891 323d 0dcc babe
00000390: b1cd 213e 1347 a4be 2a13 8f3e b433 47be
000003a0: 1e24 03be e4fc a33e 5350 c03e 074e bc3e
000003b0: 6823 aebc 7781 793e ddc9 19be c616 f83c
000003c0: c080 cfbd d9de cebe 0295 ed3e b0f8 f7bd
000003d0: 70d7 83be dc2e ac3e 2f28 c0bc baad 8fbe
000003e0: f0fd 933e 2070 df3c dda8 efbd 7572 ad3d
000003f0: 6034 cebe dcd2 d23e 6efc fcbe 6081 fdbe
0.11682531 0.1772491 0.048212428 0.106963344 0.30833018 -0.038292944 -0.09704262 -0.41647464
0.058259267 0.37074608 -0.0017680366 -0.33239976 -0.47106165 -0.25163633 -0.37855136 -0.31653857
-0.36214903 0.11709112 -0.013838161 -0.09169555 -0.13119657 0.43637946 -0.10427986 -0.4155339
-0.20735961 -0.17394239 -0.047234 -0.21085215 -0.14919649 0.22270931 0.25841555 -0.20773216
0.1713649 -0.26118243 -0.47757125 -0.078197956 -0.3775217 0.09428239 -0.49287605 -0.3941431
0.0632752 -0.05973392 -0.07581688 0.25994045 0.34814554 -0.0009269496 0.22861385 -0.012037788
-0.40070814 0.4496253 -0.36949712 0.08863169 -0.18779106 0.22781283 0.16599105 0.04322642
-0.09683502 0.127164 -0.13964945 -0.062196434 -0.3120694 -0.026882187 0.1627968 0.24716514
0.022725414 0.43751737 -0.3606302 0.075859524 0.29264587 -0.3647902 0.22352569 -0.044235528
0.43054172 -0.017956441 -0.014942444 0.21016741 -0.13217169 0.06472039 -0.36767024 0.23197716
0.06767408 -0.007967783 -0.13780786 0.41997686 -0.11991221 0.0028492808 -0.35828447 -0.016403973
0.17439888 0.16638744 -0.36427933 0.2636621 -0.5242638 0.020151017 0.2272961 -0.13810721
0.4360264 -0.33700573 0.0016704798 -0.4706878 0.026842237 -0.46665382 0.14270794 -0.24769455
-0.13971312 -0.33671904 0.07797523 0.12655954 -0.45410615 -0.041679896 0.39819434 0.37810495
0.24815138 0.35277995 -0.2975716 0.29936042 0.17460638 -0.36912173 0.41151664 -0.09421421
0.31533003 -0.07638297 0.40922043 0.32289544 0.18303967 -0.4064147 0.07720947 -0.4842903
0.08783007 0.24770325 -0.3143515 -0.245475 -0.38402125 0.030489279 0.38913375 0.17194754
-0.26494217 -0.35031176 -0.4936098 0.10450888 -0.085575625 0.22796118 0.18015985 0.3713878
-0.44445753 -0.39804608 -0.1352523 -0.39777142 -0.18524633 -0.36143368 0.078201644 0.3363316
-0.3287339 -0.44528928 0.20218995 0.14381914 0.23296408 -0.48419207 0.37106422 0.12975506
0.38539612 -0.5163413 0.22884677 -0.11067914 0.2988972 -0.28384876 -0.0022290014 0.24024612
0.0015654769 0.42285246 0.21186066 0.2848321 0.2715941 -0.20407693 0.27762124 0.4449345
0.4031308 0.28166214 -0.3227124 -0.37222064 0.2864977 -0.45561242 0.083429575 -0.39318037
-0.2897891 -0.17868018 0.27617973 -0.22759804 -0.38937354 -0.18073553 -0.4272005 0.3809812
0.011190116 -0.15572429 -0.39417106 -0.45089 -0.3419819 0.37934458 -0.28673396 0.4374617
0.23020107 0.12260908 -0.41086733 -0.19664955 0.41878155 -0.00084550964 -0.026977781 -0.36330628
-0.49284202 0.1413808 0.19646676 -0.45562682 -0.16184187 -0.12784594 -0.21674925 -0.2637487
-0.41948238 0.15608203 0.009377704 -0.12661645 -0.43025798 -0.47849345 -0.3163994 0.21060777
-0.3886254 0.3053588 0.043596 -0.36483803 0.15801121 -0.32085475 0.2794431 -0.19453317
-0.12806746 0.32028878 0.37561283 0.3677828 -0.021257117 0.24365793 -0.15018411 0.030284297
-0.10131979 -0.40404394 0.46402746 -0.1210798 -0.25750303 0.336295 -0.023456661 -0.2806223
0.28904676 0.027275145 -0.1170213 0.084690966 -0.40274334 0.41176498 -0.4941134 -0.49512768

net.0.bias f4 [128]
00000000: d28f a2bd c0dd d7bd b07d 693e 0c61 f23e
00000010: 9160 c63e c7ec ba3e 904c 6f3e 84a4 093e
00000020: 50a0 5c3d 98cd 7ebe 327c e83e 85c4 d4be
00000030: 38f9 8c3d ef1c a33e 5c37 c8be 475d a63e
00000040: 4719 47bc 6cd6 da3e d626 733e 76bb 903e
00000050: 2552 d13d bc6c 06be f23c f33e d1c7 9a3d
00000060: 4054 503e 2cb7 e4be d75c b33e 393c 98be
00000070: 482b fabe 7d9d b7be 6f2f b33e 7090 15bd
00000080: 4cc7 4d3e f0e7 20bc 3028 1abd 9ee1 d23d
00000090: 2c6c 4d3e d025 733a 5261 02be 6066 a23e
000000a0: 3d00 10be 670a bfbe 0286 453e ce64 453d
000000b0: bbc9 e63e 0041 40bc 7199 f8be 3a21 94be
000000c0: b805 6dbe 10ad 493e fa1f b03e a78b 8c3e
000000d0: c198 6f3e 588e 84be 2841 8c3e c0b4 26bd
000000e0: a505 b63d 1fdf c43e a694 fa3e ebd6 8b3e
000000f0: f0a5 98bd 34a8 d83e 7b3e d6be 685f 313e
00000100: ec94 833e 6652 9abe c195 eabe e8ec f83d
00000110: d0e7 03be 8ce2 aabe 18e5 c43d c0b2 4dbd
00000120: c899 133d d196 0e3e f25f d63d 0c6a c63e
00000130: 21de 6d3e 78c6 5b3e 3a50 6abc 2761 4b3e
00000140: 0761 2f3e 7c14 153e e12d afbe fe5e cc3e
00000150: b69c ab3e d074 d0be 3e36 6dbe e60a fb3a
00000160: def0 e63e 116e 2ebe 501b f73e 99b2 61bd
00000170: 0268 c53e 00a4 1d3e 5b4b 49be 45f4 c63e
00000180: decf d2be c81d c8be 4410 3c3c 507d e43e
00000190: f06e edbe c8e4 3c3e cab5 85be 6c89 053e
000001a0: de02 ac3e dd0e 773e beda c33e 7711 8ebd
000001b0: ee8e 9cbe d885 dfbe fa22 d53b 1829 513d
000001c0: 9c86 b03e 1837 f53d e048 d23c b970 fdbd
000001d0: 3221 cc3e 50f6 7abe f001 32be 9a16 8c3c
000001e0: 38f4 8a3e 53b2 733e c51c b63e fec5 dbbd
000001f0: 64a6 c73e 1269 d33e 7cd6 a4be 71ad 25be
-0.07937588 -0.10540342 0.22801852 0.47339666 0.3874555 0.36508772 0.2336905 0.13441664
0.053863823 -0.24883115 0.45407254 -0.41556183 0.06883472 0.31858012 -0.39104736 0.3249304
-0.012152023 0.42741716 0.23745283 0.2826802 0.10220746 -0.13127416 0.47507435 0.07557643
0.20344639 -0.44671 0.3503177 -0.29733446 -0.48861146 -0.35862342 0.34997126 -0.0365147
0.20095557 -0.009820923 -0.037635982 0.10296939 0.20060796 0.0009275349 -0.12732437 0.3171873
-0.14062591 -0.37312624 0.19289401 0.048191838 0.45075783 -0.011734247 -0.48554567 -0.289316
-0.23146713 0.19694924 0.34399396 0.27450296 0.23398115 -0.2588985 0.2739346 -0.04069972
0.08887795 0.38451478 0.48941535 0.27312407 -0.07453525 0.4231583 -0.41844544 0.17321551
0.25699556 -0.3014099 -0.45817378 0.12154561 -0.12881398 -0.33375967 0.09614009 -0.050219297
0.03603533 0.1392472 0.10467519 0.38752782 0.23229267 0.21462429 -0.014301354 0.1986128
0.17126857 0.14558595 -0.3421469 0.39916223 0.33517998 -0.4071412 -0.23165223 0.0019153028
0.45105642 -0.17034175 0.48263025 -0.055101965 0.38555914 0.15394592 -0.19657652 0.38858238
-0.41174215 -0.3908522 0.011478487 0.44626856 -0.463737 0.18446648 -0.26115257 0.13040704
0.33595937 0.24126764 0.38252825 -0.06936925 -0.30577797 -0.43656802 0.0065044137 0.05106458
0.344777 0.11973399 0.025669515 -0.12375016 0.39869076 -0.24508023 -0.17383552 0.017100621
0.2713945 0.23798494 0.35568824 -0.107311234 0.38994133 0.412911 -0.3219489 -0.16179444

net.2.weight f4 [128, 128]
00000000: 488a 933c 8ce5 76bd 4670 233d 4a64 793d
00000010: 3677 4b3d 00a8 823a 1e8b 4c3d 62ca 7dbd
00000020: e041 153b 5f3f 40bd 2b73 9cbd 7481 33bd
00000030: aebe 533d 57f0 b23d 6cac a53c 218c 65bd
00000040: 8842 273c 425e 293d c567 b03d b0d0 d93c
00000050: 40be c33c 8702 8b3d 789f 8bbd c52e 17bd
00000060: 2c2c a7bd 16e1 203d 5c06 84bd 986e b0bd
00000070: ac4b cbbc 4077 74bb 0473 3bbd d685 60bd
00000080: 0094 aa3a 8800 ca3c 8fe9 903d 46ae 223d
00000090: f475 46bd db3c ae3d a027 63bb f0e2 a3bb
000000a0: 3701 48bd 505c 4cbd 3cb6 09bd 0f9a b0bd
000000b0: 3a89 593d 0002 183b 0402 3abd c3b4 883d
000000c0: a42f 61bd 90d3 8f3b 242c c43c 204f 7dbb
000000d0: 8a9a 6b3d 3031 83bc 7562 903d 6108 a2bd
000000e0: 9f80 ac3d 02cb 6d3d 4931 59bd e03e f1bb
000000f0: 6d7b a53d 408e 57bc 34e3 02bd 883d 0d3d
00000100: a8d9 37bc c84f febc 9e6d 9cbd 0078 a7b8
00000110: d69b 8dbd 8ac5 183d c8d3 d33c a8a1 473c
00000120: e0a0 36bc 8ea0 293d 1a3f 343d 580e 4ebc
00000130: 408d 55bb 6e25 dcbc bed1 abbd 0096 313b
00000140: 2714 50bd 4c9e 8dbc a089 6f3c aca4 e13c
00000150: d765 993d 60c1 49bb 5f58 8dbd b3f3 7cbd
00000160: b1f3 9cbd 8ec5 623d 7a54 33bd 405a 8ebb
00000170: dc0e 7fbd c26a 363d 8014 2dba 25ef 9cbd
00000180: da80 aebd b46c afbd c0d9 ca3c 09bf 93bd
00000190: 514d 873d 93ba b43d 3e10 2e3d 3cfd 92bd
000001a0: d2cb 05bd 19eb 813d d0cc 11bc d122 86bd
000001b0: 0601 633d 6cc6 6bbd 10ce 443c c67e 403d
000001c0: 0671 113d 3093 90bb e826 56bc 98da 35bc
000001d0: 46ee 1c3d 9ba9 90bd 498e acbd 25d5 9f3d
000001e0: 9019 97bb 18c8 b83c 1e9e 333d e25b 6d3d
000001f0: 6ebe 693d ba32 763d f4fb cd3c 6a4d 633d
00000200: 6b4f 78bd f010 d9bb bd6f 1a3d a566 54bd
00000210: 1b4a 773d ef23 b8bd 2020 55bb 0bad 373d
00000220: 8095 c13b 646c b8bc 1857 b6bd 3c50 1b38
00000230: 7ea0 483d 49e9 5ebc 0b0d a0bd 8208 183c
00000240: 01d2 5d3d 31c3 8abd 6789 9ebd 581d 1d3c
00000250: 5230 68bd 1003 d4bb fd8b 8e3d e533 08bd
00000260: a891 043d 1305 aebd 9681 d6bc c572 b7bd
00000270: d5c3 233d c28b 9b3d 6c98 19bd d4f6 c5bc
00000280: aadc 733d 2eeb 9abd be54 3a3d a57a b5bd
00000290: 82df 5b3d 3a99 1dbd f9b6 29bd a2ba 84bd
000002a0: 4d92 eb3b f006 c7bc 014f 4bbd 3147 2b3d
000002b0: de62 08bc 8834 043c fecc 313b b2f2 6e3d
000002c0: eaed 533d 41e9 63bd eebe ddbc 027c 2dbc
000002d0: 5773 2ebd ea16 3a3d 0cdb 52bd 712e ae3d
000002e0: b488 813d 7f5b 093d 79bd 3c3d e855 53bd
000002f0: 20be 753d 1e53 f53c 58c6 7fbd 464b 4b3d
00000300: 912b 013d 0058 913c b92f 8fbd 5c3e 4ebd
00000310: fa19 513d 7032 8d3c 3000 c4bc e23d 073d
00000320: 2279 273b 1c16 8e3d 1a1c 7ebd dae9 2dbd
00000330: 4215 a43d 987a b2bc 650c b7bd 8b54 a2bd
00000340: 3616 77ba 00b6 7339 5a3c 0abd f0d7 b43b
00000350: 4409 f63c 0850 60bd fdaa ca3c 607e d23c
00000360: 3ea9 d7bc d6c7 5dbd 0291 243d a467 01bd
00000370: de49 6f3d a0a3 2a3c 8b78 c7bc 50a2 2cbc
00000380: abe2 993c 18fd 92bd b0fe 22bc e0db ce3b
00000390: e9c5 38bc a493 4d3d 8569 293d af15 6e3d
000003a0: a091 62bd d7fd bcbd 8b68 d93c a3c0 aabc
000003b0: c987 9b3d 007b 363b c6f8 acbc 7df2 e83b
000003c0: ab10 f63b d81a 18bd 8034 0e3d c34a eabb
000003d0: ff2b 3639 00d5 c63c f01f 16bd 509c 74bc
000003e0: a629 783d 2ee6 133d 38b2 d03c d05f f03c
000003f0: ae22 8e3d b448 e7bc 8204 a1bd c36a 5abd
0.018010274 -0.060277507 0.039901994 0.06088666 0.049674235 0.0009968281 0.04993736 -0.061960585
0.002277486 -0.046935435 -0.07639154 -0.043824628 0.05169552 0.087372474 0.020223819 -0.05604184
0.010208733 0.041349657 0.086135425 0.026588768 0.02389443 0.067875914 -0.068175256 -0.036909837
-0.08162722 0.03927716 -0.064465255 -0.08614844 -0.024816357 -0.0037302524 -0.045763984 -0.054815136
0.0013014078 0.024658456 0.07075798 0.03971698 -0.048452333 0.08507701 -0.003466107 -0.0050014183
-0.048829284 -0.049892724 -0.033621058 -0.08623134 0.053109385 0.0023194551 -0.04541208 0.066751026
-0.054977074 0.004389234 0.02394683 -0.0038651899 0.057520427 -0.016014665 0.07050029 -0.079117544
0.0842297 0.05805493 -0.053025518 -0.0073622316 0.08080182 -0.013156474 -0.03195496 0.03448251
-0.011221327 -0.031043902 -0.07638095 -7.985532e-05 -0.06914489 0.037297763 0.025857821 0.012184538
-0.011146754 0.041412883 0.04400549 -0.012576662 -0.0032585412 -0.026873317 -0.083896145 0.0027097464
-0.05080047 -0.017287396 0.014620215 0.027544342 0.074901275 -0.0030785426 -0.06901621 -0.061755847
-0.07663668 0.055364184 -0.043781735 -0.0043442547 -0.06227003 0.044535406 -0.0006602481 -0.07662801
-0.0852067 -0.08565655 0.024762034 -0.072141714 0.06606544 0.08824649 0.04249596 -0.07177207
-0.03266508 0.063436694 -0.008898929 -0.065496095 0.055420898 -0.057562277 0.01201202 0.0469959
0.03550818 -0.0044120774 -0.013070799 -0.01109948 0.038313173 -0.070636 -0.08425576 0.07804326
-0.0046112016 0.02255635 0.043851964 0.057948954 0.057066374 0.06010697 0.025144555 0.05549375
-0.060622614 -0.0066243336 0.03770422 -0.051855702 0.060373407 -0.08991229 -0.0032520369 0.04484276
0.0059077144 -0.022512622 -0.089033306 3.7029604e-05 0.048981182 -0.013605424 -0.07814988 0.009279372
0.054155353 -0.06775511 -0.07741051 0.009589516 -0.056686707 -0.0064700916 0.069602944 -0.033252615
0.03236547 -0.084970616 -0.026184838 -0.089574374 0.03998168 0.07595016 -0.037498876 -0.024165548
0.059536614 -0.07564388 0.045490973 -0.08861283 0.05367995 -0.038476206 -0.041434262 -0.0648091
0.0071890713 -0.0242953 -0.04963589 0.04181594 -0.008324353 0.008069165 0.0027130242 0.05833692
0.051740564 -0.05564237 -0.027068581 -0.010588648 -0.042590465 0.04543201 -0.05147843 0.08504952
0.06324902 0.033534523 0.046079133 -0.0515956 0.05999577 0.02994686 -0.062445015 0.049632333
0.03153569 0.017742157 -0.06991524 -0.05035244 0.051050164 0.017235965 -0.02392587 0.033018
0.0025554379 0.06937811 -0.06203852 -0.042459346 0.08011867 -0.021786973 -0.08937911 -0.079262815
-0.0009425612 0.00023242086 -0.033748962 0.005518906 0.030033715 -0.054763824 0.024739737 0.025695026
-0.026325818 -0.054145657 0.040177353 -0.03159298 0.058420055 0.010414988 -0.024349472 -0.010536745
0.018784842 -0.0717718 -0.009948418 0.0063128322 -0.011277654 0.05018963 0.041360397 0.058126148
-0.05531466 -0.092281036 0.026539108 -0.02084381 0.07594258 0.002784431 -0.021114718 0.007108985
0.007509311 -0.037134975 0.034718037 -0.0071500256 0.00017373262 0.024271488 -0.03665155 -0.014929846
0.060586594 0.03610819 0.025475606 0.029342562 0.069402084 -0.02823291 -0.07862188 -0.053324472

net.2.bias f4 [128]
00000000: a2b5 79bd f3ed 4f3c 9b4f 933d 3bb8 f93c
00000010: 24eb 5a3d eea1 363d fe51 073c 3a9e 2bbd
00000020: 8dc7 823d 8714 abbd 9d17 14bd 6434 4dbd
00000030: a022 0dbd 61e6 3cbd de09 aabd 5854 38bc
00000040: 17c5 bcbd 9a04 f7bc b0bb 88bc f204 a1bd
00000050: d34b 8d3d a40a 93bd ef25 863d cdf9 67ba
00000060: 1464 fd3c 133e 26bd 6647 23bd 95fd cc3c
00000070: 8583 4fbc b512 333c d43a 1dbd b5dc 1fbd
00000080: 3020 aa3b 9f92 71bd 29be 723d 0584 3ebd
00000090: 5b02 94bd d702 f5bc d159 91bd 6768 15bd
000000a0: 9350 c33c bb0a 613d e01e 3abd 98ed 71bd
000000b0: 7099 86bd 0134 b3bd 7c11 9a3d 0079 9bbb
000000c0: 2726 02bd adf1 6d3c 791b d33c 552d 01bd
000000d0: 435c b0bd ae08 8ebd 4cb6 23bd 41ba bfbc
000000e0: b0fc c9bc 02c5 703d 9929 d83a 2a30 7cbc
000000f0: 04c2 c03c b5f8 80ba e47f d73c b4b8 b9bd
00000100: 2853 abbd 04e1 9e3d 3f6a be3c 2eca a53b
00000110: 93e9 abbd e4af 98bc d182 5cbb 83cb 683d
00000120: 9742 5bbd 85bf ab3d 1b1e 2bbd 2ad5 c13c
00000130: 0183 b3bd f01f 5bbc 4ff9 953d bd0d 45bd
00000140: d617 3f3d 9976 853d 2f0c e4bc bc71 93bc
00000150: be53 14bd c197 a0bd f5ce acbd 5b21 a33d
00000160: 4761 8fbd ee26 523d 8691 04bd 4f77 b23d
00000170: 77a0 9abd 8141 63bd f82c 023d 8603 05bd
00000180: 20c6 c0bb 7269 7ebd 057f e63c 1040 623d
00000190: 48d5 b43b 5430 8fbc 7e5d 70bc f245 963d
000001a0: 469e d63c 996e 873d 04d9 b0bd e5bf 9ebd
000001b0: 2a3d 4d3d 2a84 573d 47db 6ebd bbba 57bd
000001c0: 0823 d23c 42dd 6f3d b974 45bb ce6d a63d
000001d0: 0082 6939 d812 82bc 1f41 873d f397 923d
000001e0: 498c 01bd 6cd0 b5bc 13f5 8c3d 6c79 f0bc
000001f0: 6435 28bd 48df 21bc 4899 80bd 4ae6 753d
-0.060964234 0.012691009 0.07192918 0.030483356 0.053446904 0.044588022 0.008259295 -0.041898943
0.063857175 -0.08353525 -0.036155332 -0.05009879 -0.03445685 -0.046118144 -0.08302663 -0.011250578
-0.092172794 -0.030153561 -0.016691059 -0.07862271 0.06899228 -0.07179764 0.06550204 -0.0008849174
0.03093151 -0.040586542 -0.039863013 0.025023261 -0.012665634 0.010929753 -0.03838618 -0.039028842
0.0051918253 -0.05897772 0.059263382 -0.046512622 -0.07227012 -0.02990858 -0.07097209 -0.03647652
0.023842132 0.054941874 -0.0454396 -0.059064478 -0.06572235 -0.08750153 0.07522866 -0.004744649
-0.031774666 0.014522952 0.025769936 -0.031537373 -0.086113475 -0.06935249 -0.039968774 -0.023404242
-0.024656624 0.05878163 0.0016491889 -0.015392343 0.023530014 -0.0009839745 0.0263061 -0.090684325
-0.0836547 0.07757762 0.023244021 0.005059502 -0.0839416 -0.018638559 -0.0033647309 0.05683471
-0.053530302 0.08386139 -0.041776758 0.023661215 -0.087652214 -0.013374314 0.073229425 -0.048108805
0.04665359 0.06516761 -0.02783784 -0.017998569 -0.036212675 -0.07841445 -0.084379114 0.079653464
-0.07000976 0.051306657 -0.032365344 0.087141626 -0.075501375 -0.05548239 0.031781167 -0.032474063
-0.0058829933 -0.06211228 0.02813674 0.055236876 0.005518589 -0.0174791 -0.014670728 0.0733756
0.026198518 0.06612892 -0.086351424 -0.07751445 0.05010716 0.052616276 -0.058314588 -0.052668314
0.02565147 0.058560617 -0.0030129387 0.08126412 0.0002226904 -0.015878126 0.06604218 0.07157888
-0.031627927 -0.02219411 0.06882682 -0.029354773 -0.041066542 -0.009879895 -0.06279236 0.060034074

net.4.weight f4 [4, 128]
00000000: 40d0 e33b 38d4 95bc d317 70bd 0ee8 613c
00000010: 12a0 31bd 68e9 7bbd 9e46 0c3d 8f68 2e3d
00000020: c8bc c83c 1efd d33b dcb6 283c fc57 783d
00000030: 94ee 40bc 2c49 1ebd c216 183d 3fd1 afbd
00000040: 0735 c5bc 0d4c 8abd e0ab 41bd e66d a3bd
00000050: 510c 99bc 20a0 cbbc b46d bc3c 1af7 25bd
00000060: 8020 ab3a 6999 a73d 3ae2 183d fb8d 27bd
00000070: 602d 4cbd 2f6d 5e3d f01b a93c 6140 42bd
00000080: 8342 b03d fd12 8a3d 3a6d 70ba d7da 73bd
00000090: 2345 853d ce19 193d 9fa2 18bd 6c52 20bd
000000a0: da8a 0abc 4fb5 19bd 54c7 2cbd c47b f33c
000000b0: 6d00 223c 0658 dbb9 93af b5bc 3c57 82bc
000000c0: 405a d0bc 613d 4dbc 94cf 14bd 0d17 7ebd
000000d0: 14c9 983c e61e 453d 7eb0 2bbd ff74 b13c
000000e0: 565b f2bc fec7 0a3d 33b0 7cbc 00f6 05bb
000000f0: 4a19 3d3d 1e72 96bd 6a3d 283d 5a62 5abc
00000100: d393 02bd 9f83 2fbd 1cb6 3b3d 812e e73c
00000110: ed0d 9c3d a76b af3d 0172 1bbd 5a8e 8abc
00000120: e18a 32bd 2b11 a0bd ab8b 503d 176d fabb
00000130: 6364 a5bc b00c 163c 9805 db3c fabd a4bb
00000140: 0089 34bc 858b eebc 4676 923c c8a1 223c
00000150: ec34 e43c 2cc9 bc3c b047 83bd 34d2 2bbd
00000160: 268b 133d 84b4 233d 4306 12bd 9bf3 23bd
00000170: 705f 343d a8dc f7bc 6ec6 1b3d a87c 3ebc
00000180: cf1d 873d 12ef 5e3c ffdb 74bc 0bbc c6bc
00000190: 46c6 9d3d a200 87bd a8cb 943d 98f8 ba3a
000001a0: 42f1 01bd 3346 93bc 7f2d 083b 8067 1b3b
000001b0: 41b0 debc 10d9 3abc 7948 a7bc 1c51 c43c
000001c0: d7d6 943d 04cd 73bc edd1 53bd 3833 76bc
000001d0: 4a68 85bd 941e d7bc 3aec a1bd 00d9 eeba
000001e0: 208a 453d 3428 da3c e875 6d3c cf87 44bd
000001f0: b0d3 603d 9113 90bd 4314 0dbd fa3d 58bd
00000200: 3969 943d 49b0 7f3a e6b9 3dbd c3ca 5cbc
00000210: 3805 9e3d a98d 893d 7f5d a63c 95fd 34bd
00000220: d8d0 113c 3dd2 8a3d afd7 11bd 1f19 0bbd
00000230: 82b2 4dbd 780a a03a 7a19 093d 5c4b 0d3d
00000240: 7c13 db3c 7dc5 843d 6bc1 b13d d85f 59bd
00000250: 965f bdbc 00e6 5f3d 7572 16bd 602e 9abc
00000260: 75f3 3dbd 682f de3c 7729 413d 7794 03bd
00000270: e39a 573d de84 6d3d bac9 25bd e3d6 043d
00000280: 7535 6ebd a80c 14bd 4a9f 2a3c c755 b9bd
00000290: a957 b03d a50b 643d 6502 1fbd ae7c 213d
000002a0: a2f5 55bd 77be fd3c 20da 563b f836 27bc
000002b0: b5a6 26bd e6a7 593d d827 513d 65fe ac3d
000002c0: 286c c0bc 2ae9 94b9 95c4 913c 5538 123d
000002d0: 5721 1cbd 5d81 433d 5113 3abd ffa8 ae3c
000002e0: b478 0bbd f699 493d 003c 063c 6e71 603d
000002f0: 02a3 303d ac74 463d 34cd af3c ccc2 d4bc
00000300: cc40 9c3d 461b 2abd ca12 8abc 6186 5e3d
00000310: 95b1 ac3d c658 653d 926c 123d 584f bd3c
00000320: f253 1cbd 892d 32bd 3063 d4bc 1d46 363d
00000330: ca63 b83c 87ce a43d 58d1 ec3c 440d 8b3c
00000340: a8a4 0fbd ceff 9c3c 958a 4cbd 747e a03c
00000350: c6c1 4f3d 4e0b 553d 7044 1d3c 23aa 75bd
00000360: 3610 e1bc ff8b ff3c f03b 253c d4a8 a4bc
00000370: d9e5 2dbd 2bff 973c 1f44 b23d 8cbb 35bd
00000380: 5fb1 8c3d 2760 a73d 7d01 453d 023c 6cbc
00000390: 6eed 81bd 0026 d4b9 4660 16bc 9677 4c3c
000003a0: b7ef 683c aa7e 3aba d87b 373d 82fe a63b
000003b0: 31f3 d7bb 1f14 aebd 056b 3abd 5848 eb3c
000003c0: 994d adbd 47f4 50bd feab 22bd 9adf 4fbd
000003d0: b605 1e3d 9e95 733d 9b2b 57bd 755c 96bd
000003e0: 3c5e b2bc 3fe6 a0bd abe6 933c deb3 e4bc
000003f0: 5c11 44bd 02a9 6c3d 7e93 703d 6033 3f3c
0.0069523156 -0.01828967 -0.05861647 0.013788236 -0.043365546 -0.06150189 0.034247033 0.042580184
0.02450408 0.006469383 0.010297503 0.060630783 -0.011775631 -0.038644 0.03713108 -0.085848324
-0.024073137 -0.06752787 -0.047283053 -0.07979946 -0.01868263 -0.024856627 0.02300153 -0.040518858
0.001305595 0.081835575 0.03732512 -0.040906888 -0.04984796 0.054303344 0.020643204 -0.047424678
0.08606436 0.06741903 -0.00091715495 -0.059534874 0.065073274 0.037378125 -0.037264463 -0.039141104
-0.008455956 -0.037526425 -0.04218228 0.029722102 0.009887797 -0.00041836518 -0.022178447 -0.015910737
-0.02543366 -0.012526841 -0.036330774 -0.0620337 0.018650569 0.04812517 -0.041916363 0.021662233
-0.029584568 0.033882134 -0.015422869 -0.0020440817 0.046166696 -0.07345985 0.041074194 -0.013329113
-0.031879257 -0.042850133 0.04582797 0.028220417 0.07619844 0.08565455 -0.03795052 -0.016913582
-0.043589476 -0.078157745 0.050914448 -0.007642399 -0.02018947 0.009158298 0.026736066 -0.00502753
-0.0110189915 -0.029119262 0.017878663 0.009926267 0.027857266 0.023045145 -0.06410158 -0.041948512
0.036021374 0.039967075 -0.035650503 -0.040027242 0.04403633 -0.030256584 0.038031034 -0.0116264
0.065974824 0.0136068035 -0.014945029 -0.024259588 0.07703833 -0.065919176 0.07265407 0.001426476
-0.031724222 -0.01797781 0.002077907 0.0023712814 -0.027183654 -0.011404291 -0.0204203 0.023964457
0.0726754 -0.0148804225 -0.051713873 -0.01502686 -0.06514032 -0.026259698 -0.07906385 -0.001822263
0.04822743 0.026630498 0.014493443 -0.04798108 0.05488938 -0.07034982 -0.03444315 -0.05279348
0.07246632 0.00097537466 -0.046319865 -0.013476077 0.07715839 0.06716473 0.020308254 -0.044187147
0.00889989 0.06778381 -0.035606083 -0.033959504 -0.050219066 0.0012210151 0.033471562 0.034495696
0.02674269 0.064829804 0.0867947 -0.05306992 -0.023116868 0.054662704 -0.03673025 -0.018820941
-0.046374757 0.027122214 0.047158685 -0.03212401 0.052637946 0.05798804 -0.040475585 0.032431494
-0.05815645 -0.036144882 0.010413954 -0.09049564 0.0861047 0.055675168 -0.038820643 0.039425544
-0.052236207 0.03097461 0.0032783821 -0.010205977 -0.040686328 0.053138636 0.05106339 0.084469594
-0.023489073 -0.0002840248 0.017793933 0.035698254 -0.038117733 0.047730792 -0.045428578 0.021320818
-0.03405066 0.049219094 0.008193016 0.054795675 0.043124206 0.04845111 0.021460153 -0.025971793
0.076295465 -0.041529916 -0.016854662 0.054327372 0.084323086 0.055992864 0.035748072 0.023109123
-0.038165994 -0.043500457 -0.025926203 0.04450046 0.02250852 0.080472045 0.028908417 0.016974099
-0.035069138 0.019164946 -0.04993685 0.019591548 0.050721906 0.052012734 0.009598836 -0.05997671
-0.02747355 0.031194685 0.010085091 -0.020100035 -0.042455528 0.01855429 0.08704399 -0.04436831
0.06869768 0.081726365 0.048097122 -0.014418604 -0.06344114 -0.00040464103 -0.009178227 0.012479683
0.014217309 -0.00071142113 0.04479584 0.0050962577 -0.00659027 -0.084999315 -0.045512218 0.02872102
-0.08462066 -0.05101421 -0.039714806 -0.050750352 0.038579665 0.059468858 -0.05253182 -0.073418535
-0.02177345 -0.07856416 0.018054327 -0.027917799 -0.047868118 0.057778366 0.05873441 0.011669964

net.4.bias f4 [4]
00000000: 4d93 91bc 2697 c83c 7635 a03d 2779 91bd
-0.017770434 0.024486136 0.07822697 -0.07103186
