Entities/pained_rep.pth (torch, 80441 bytes, 6 tensors)

net.0.weight f4 [128, 12]
000000 6d ad fd bd f1 c2 49 be 0a 19 f5 3e 59 a0 f8 be
       -0.12386594 -0.1970327 0.47870666 -0.48559836
000010 f0 d6 06 3f 28 d9 9a 3e af 26 53 3e 78 bd 4c bf
       0.5267172 0.30243802 0.20620225 -0.79976606
000020 0e 53 b6 be 67 a8 9d bf 00 69 73 bc 82 46 ea bd
       -0.3561024 -1.2317017 -0.014856577 -0.114392295
000030 6f 88 07 bf 82 23 30 bf 1a 68 55 3f 1c f9 fe 3e
       -0.52942556 -0.6880418 0.8336197 0.4979943
000040 cd 9e f8 3e 20 05 bf 3e 35 64 40 bf a2 39 05 bf
       0.48558655 0.37308598 -0.75152904 -0.52041066
000050 08 2c f6 3e c8 32 2d bf f4 2f 4f 3a c3 e5 91 be
       0.48080468 -0.6765561 0.0007903569 -0.28495607
000060 39 e3 cf 3e b6 e3 ba 3e 87 c6 69 be e9 9e 58 3e
       0.40603045 0.36501855 -0.22829638 0.2115437
000070 c1 ff 89 be 30 2e 0d bf 59 f2 8d 3d 98 16 06 bf
       -0.26952937 -0.551486 0.0693099 -0.52378225
000080 24 a5 82 3f 0a d6 d0 be 77 79 51 be b5 e0 55 be
       1.0206647 -0.407883 -0.20456491 -0.208865
000090 b8 e0 00 bf 98 d1 ed bd 00 ba cf 3f 80 76 1e 3f
       -0.50342894 -0.116122425 1.6228638 0.61899567
0000a0 24 9a 72 3f 23 1f df 3e 1d 88 95 3f b4 51 81 3f
       0.9476645 0.43578443 1.1682163 1.0103059
0000b0 20 db 67 3d 61 f7 03 3f 74 62 08 bc 5f 54 ed be
       0.05660546 0.51549345 -0.008324254 -0.46353433
0000c0 be de 41 be 63 c1 42 bf 7f ca 2b bf 60 5b 15 bf
       -0.18932626 -0.76076335 -0.6710586 -0.5834255
0000d0 a3 b1 89 bd f3 6e de 3c bb 16 3c bf 41 9e 87 be
       -0.06723335 0.027152514 -0.73472184 -0.26487926
0000e0 b5 24 31 bf e0 ce bd be 7c 47 02 3a 8b 28 7d bd
       -0.69196635 -0.37071896 0.00049697584 -0.061806243
0000f0 a3 61 7d be 36 cd ac bd 03 ca 0b 38 2b ad 14 be
       -0.24744277 -0.084375784 3.332832e-05 -0.14519183
000100 ad b9 86 be 00 72 95 ba 5e 97 79 be 50 59 b0 bc
       -0.26313534 -0.0011401772 -0.24374148 -0.021526963
000110 e9 b7 2e be 9b 97 42 3e d0 ac df be 34 4b 0c bd
       -0.17062344 0.19003145 -0.43686533 -0.034251407
000120 60 cf 51 be 7e 71 eb bd 5e d4 c2 bd 0d c1 00 be
       -0.20489264 -0.11496256 -0.09513162 -0.12573643
000130 34 99 7d 3e b0 3b 08 bd ae db 2f 3e 8a 21 44 3e
       0.24765474 -0.033260047 0.17173645 0.19153419
000140 14 7b 1e be a0 3d 33 bc 78 45 50 be 40 1e 95 bc
       -0.15476638 -0.0109399855 -0.20339 -0.0182029
000150 99 f6 87 be 56 46 c2 bf 48 02 e6 be a3 fc 23 bf
       -0.26555327 -1.5177715 -0.44923615 -0.6405737
000160 e0 32 86 bf 9d 14 48 bf 0b 0b cd be 58 f0 54 3e
       -1.0484276 -0.78156453 -0.40047488 0.20794809
000170 2a 7e 89 bf ea f9 c5 be 0b 0a c9 3c 6b e8 07 bd
       -1.0741627 -0.38667232 0.024540922 -0.033180635
000180 e2 d5 00 bf e9 e0 a8 bf 07 56 dd be 1f 52 8e be
       -0.5032636 -1.3193637 -0.43229696 -0.27797028
000190 87 eb 83 bf ad 87 57 bf 08 0e f8 be 99 43 00 be
       -1.0306252 -0.841914 -0.48448205 -0.12525786
0001a0 a0 35 44 bf 28 45 c9 be 48 16 ab bc 12 05 98 bd
       -0.76644325 -0.39310575 -0.020884648 -0.07422842
0001b0 b4 41 aa bc d7 ba d6 bf 92 36 39 bf c2 1b f1 3b
       -0.020783283 -1.6775769 -0.7234889 0.0073580453
0001c0 5b fa f0 be 3b 29 7c bf 07 19 06 bf 3e ce 49 bf
       -0.47066006 -0.9850041 -0.5238194 -0.78830326
0001d0 70 f6 58 bf b2 a6 db be 94 c1 33 bc 08 e4 38 be
       -0.84751034 -0.42900616 -0.010971446 -0.18055737
0001e0 85 f0 de 3d a0 99 98 3d 10 d0 7e 3d 3e 31 61 be
       0.10885719 0.07451177 0.062210143 -0.2199144
0001f0 50 ac d0 3c 12 15 20 be 88 71 82 3e 79 c7 3c be
       0.02547279 -0.15633038 0.25477242 -0.18435468
000200 98 de e3 3d 47 84 1a be 04 28 a3 be e8 26 0e be
       0.11126441 -0.15089522 -0.31866467 -0.13882029
000210 7b 48 4d 3e c8 bc 14 c0 d3 e1 9f bf a4 d8 66 bf
       0.2004718 -2.3240223 -1.2490791 -0.9017432
000220 1f c5 92 bf e7 3f b1 bf 29 47 b5 bf 31 90 c9 bf
       -1.1466407 -1.3847626 -1.4162341 -1.5747129
000230 46 21 a4 bf f0 80 20 bf 71 6b 13 3b 85 28 87 bd
       -1.2822654 -0.62696743 0.002249446 -0.06599525
000240 31 6a c2 3d 1f 52 6a be 03 1d 94 3d 12 06 4e 3e
       0.09492911 -0.22882889 0.07232096 0.20119503
000250 d4 90 11 be ff 20 18 be 72 94 c4 bd e2 89 89 3e
       -0.14215404 -0.14856337 -0.09598626 0.2686301
000260 3a 0d 08 be 4c e2 77 be 4a 8e 24 be e5 42 67 be
       -0.13286296 -0.24207419 -0.16069904 -0.22584112
000270 c7 50 ff 3c 48 49 7c bd 30 46 0e 3d 72 18 26 3e
       0.031166447 -0.061593324 0.034734905 0.16220263
000280 20 37 85 3c 76 ab ed bd 4a 4e 2c be 5c 71 87 3e
       0.016261637 -0.11604969 -0.1682674 0.26453674
000290 b2 4d 80 3e 58 91 b5 3d 3e ce 64 be 7e 83 08 be
       0.25059277 0.08865613 -0.223443 -0.1333141
0002a0 7a 0a 81 3e 11 b0 e4 3e d1 ab ff 3d 87 44 87 3e
       0.25203305 0.44665578 0.12483943 0.2641947
0002b0 82 b3 8e bf 66 61 33 3f 00 15 cd 3e a3 6b 62 3f
       -1.1148531 0.70070493 0.40055084 0.8844549
0002c0 20 3a 0b 3f 14 b2 df 3d ec d8 0b bc d4 e3 12 bf
       0.54385567 0.109226376 -0.008535605 -0.5737889
0002d0 d1 04 8a be b0 e3 a0 bf 42 ee c5 3d e3 98 e4 be
       -0.269568 -1.2569485 0.09664585 -0.44647893
0002e0 3e b8 42 bf a1 74 26 bf 91 06 05 be 94 e8 85 3e
       -0.7606238 -0.6502171 -0.12990786 0.26154006
0002f0 ee a0 d1 bf 3a b2 4e bf 2d f4 3a 3d 03 65 9e bd
       -1.6377237 -0.807407 0.04564302 -0.0773411
000300 89 39 bb be 09 51 cc bf 2b 7f 24 3e 2a b3 a3 be
       -0.36567333 -1.596223 0.16064136 -0.3197263
000310 90 5c eb 3d aa 28 67 3d ee d0 52 bf 2d dc 87 bf
       0.11492264 0.056435265 -0.8235005 -1.0614067
000320 4b b3 19 be 1d 17 c7 3e 41 ba 8e bb dc af 04 bf
       -0.15009801 0.38884822 -0.0043556993 -0.5183084
000330 83 2f 4b bd f9 98 a2 be b5 21 37 be db dc 06 be
       -0.049605858 -0.31757334 -0.17883952 -0.13170187
000340 c1 cf 4f 3e 76 f7 9c be 2b 14 e4 3e 74 e3 e7 be
       0.20294096 -0.30657548 0.44546637 -0.4529072
000350 6e dd c8 3d fe 2a 4e be f1 58 74 bd 23 66 43 bd
       0.09807859 -0.20133588 -0.059655134 -0.047704827
000360 85 5c 8e 3c 07 b5 6a 3f d8 c2 a5 3f b8 85 9e 3f
       0.017378101 0.91682476 1.2950087 1.2384558
000370 c8 43 f4 3f 9f 2f b3 3f c9 3a 61 3f 19 98 9a 3e
       1.9083185 1.3998908 0.87980324 0.30194166
000380 cd 24 dc 3f cd b0 92 3f 9a 12 58 bc 8f e1 20 bc
       1.7198731 1.1460205 -0.013188029 -0.009819402
000390 16 25 8c be ec 1d a4 bd e2 55 2b be 26 cd 4a be
       -0.27372044 -0.0801352 -0.1673198 -0.1980482
0003a0 3b 43 f2 bc 46 0c 10 3e 0c 20 cb 3d 5c b0 8b be
       -0.029573074 0.14067182 0.09918222 -0.2728299
0003b0 a6 73 81 3e 00 6c e0 bc ab cd f1 be 63 28 f0 bc
       0.25283545 -0.027395248 -0.47227225 -0.029316133
0003c0 c2 f2 e7 bd 70 79 99 3c 8c 94 8e be 74 af 8b be
       -0.11325599 0.018734664 -0.27847707 -0.27282298
0003d0 e0 92 20 3d 4e 36 91 3e 38 07 73 3e c2 f9 4a 3e
       0.03920257 0.28361744 0.23733222 0.19821838
0003e0 95 09 34 be 7d 72 67 be 73 ce 8d be 9e 7f 99 bd
       -0.1758178 -0.22602268 -0.2769657 -0.07495044
0003f0 d0 e9 ea 3c 42 42 88 3e aa 2e f0 bd 80 95 22 bd
       0.028675944 0.2661305 -0.117276505 -0.039693356

net.0.bias f4 [128]
000000 fd 86 26 bf 25 01 9d bf 83 db bb bd 15 80 81 bf
       -0.65049726 -1.2265974 -0.09172728 -1.0117213
000010 aa 70 e5 bd 74 a9 68 be 80 85 80 be b4 5a 3a 3e
       -0.112031296 -0.22720891 -0.25101852 0.18198663
000020 d8 04 14 3e 94 e5 8b 3f 16 af 61 be 70 66 9a 3f
       0.14454973 1.0929437 -0.22039446 1.2062511
000030 62 43 24 3c 86 39 e1 3c 4d bc ca be 38 68 70 3e
       0.010025831 0.02749325 -0.39596787 0.23477256
000040 ec 05 f0 3d 3a 61 13 3e 66 58 06 bf a0 03 97 bd
       0.117198795 0.14392558 -0.52478635 -0.07373738
000050 ca c1 57 3e 30 f9 e1 3c 6e 43 97 3f 54 14 99 bf
       0.21070018 0.027584642 1.1817453 -1.1959329
000060 74 9e ad 3e 12 67 ad bd 14 90 20 bf c2 90 76 be
       0.33909953 -0.08466925 -0.62719846 -0.24078658
000070 de a1 55 bf 84 5a 2d 3e 84 d1 69 bf a7 81 ae bb
       -0.83450115 0.1692906 -0.9133532 -0.0053255144
000080 be 7c 95 be b2 85 c3 3e 1c 25 9b be 03 98 74 bf
       -0.29196733 0.3818794 -0.3030175 -0.9554445
000090 e5 be 93 bd f0 c8 e4 bd 78 27 07 be ec 52 92 bc
       -0.072141446 -0.11171138 -0.1319865 -0.017861806
0000a0 f6 14 db be 72 36 93 bd 78 c2 c5 be 74 c8 3d bf
       -0.4278943 -0.07188119 -0.3862493 -0.7413399
0000b0 74 f2 d7 3d e3 34 3f bf 44 5e bb be a0 33 35 be
       0.10544291 -0.74690074 -0.36595356 -0.17695475
0000c0 57 cf 32 3e 71 c9 89 3e 88 44 cd bc 50 e8 48 3e
       0.17461906 0.269115 -0.025057092 0.1961987
0000d0 c4 6d 77 bd 7d b3 17 3f 28 63 53 3f eb 6b b5 3e
       -0.060407415 0.5925825 0.82573175 0.35433897
0000e0 fe 59 80 be 8e 16 75 bf e4 27 57 3c c0 44 fa bc
       -0.2506866 -0.9573754 0.013132069 -0.03055036
0000f0 71 44 71 bf 15 ce 81 be c8 50 5c 3d 50 1b 85 3e
       -0.9424506 -0.2535254 0.053787977 0.259974
000100 d2 88 8b be 24 f5 c0 bd 1c ee 12 be 26 d9 b5 bd
       -0.27252823 -0.09421757 -0.14348644 -0.088793084
000110 62 23 b4 be 2f f3 34 bf e8 f0 8e 3e 65 1a 28 3e
       -0.35183245 -0.7068357 0.27918172 0.16416319
000120 5f cf 17 3f 45 25 8c 3f 73 fb 3c bf e0 20 51 bc
       0.593008 1.0948874 -0.7382118 -0.012764186
000130 9c 6d 05 be 85 60 86 bf 7a f8 59 bd 96 47 f9 bd
       -0.13030094 -1.0498205 -0.05321548 -0.12171857
000140 79 d3 95 bf 53 2e 46 be d4 1b 3b bf c9 65 7d bd
       -1.1705161 -0.19353609 -0.7308934 -0.061864648
000150 d8 7c 60 be 50 08 6c be 77 72 07 3e c9 06 37 bf
       -0.21922624 -0.23050046 0.13227259 -0.7149473
000160 f2 9a c8 bd a6 97 03 3f 1c 2e 56 bf a8 b2 0c 3d
       -0.097951785 0.5140327 -0.8366411 0.034350067
000170 59 43 a9 be 30 d1 23 bd a8 a4 01 3e d0 7a 5d bf
       -0.33059195 -0.03999442 0.12660468 -0.8651552
000180 f3 20 15 bf c4 18 c3 3e 42 05 4e 3f 28 e6 3d bf
       -0.582534 0.38104832 0.8047677 -0.74179316
000190 4c 1d d3 3d 30 55 83 bf 2f e4 8a 3e ed 5c 55 be
       0.10308322 -1.0260372 0.27127215 -0.2083623
0001a0 63 c4 2e 3e 73 d6 99 bd 70 2e 88 be 19 b5 2e bd
       0.17067103 -0.07511606 -0.2659793 -0.042653177
0001b0 4c 1d a6 3d ad 19 70 bf ef 1e 8d bd 07 40 ea be
       0.08111057 -0.9378918 -0.06890666 -0.45751974
0001c0 79 bd 84 bd 28 c1 46 3d f1 66 f3 3e 82 74 e0 be
       -0.064814515 0.048524052 0.47539476 -0.43838888
0001d0 05 6b 1d be 2d 0e 78 be 0b 94 02 bf e1 78 56 bf
       -0.15372856 -0.24224158 -0.51007146 -0.83778197
0001e0 93 08 46 bf e0 01 c2 3e b0 cb 0b 3e 3c 2e 09 bc
       -0.77356833 0.37892056 0.1365192 -0.00837284
0001f0 8b f7 69 bd 22 d5 03 3e 25 f1 ad 3c d8 2b 7a 3e
       -0.05712084 0.12874272 0.02123315 0.24430788

net.2.weight f4 [128, 128]
000000 a6 79 85 3c db 88 2d 3d d7 34 67 bd e3 c8 17 bd
       0.016293358 0.042366844 -0.056446876 -0.037056815
000010 9c 2d 9b 3c bc d9 a4 bd 64 ed ae bd b7 7a 28 bd
       0.018942647 -0.08049342 -0.085413724 -0.041132655
000020 b3 2e 54 bd d1 ea 0a be a0 a1 bd bb 4f b7 9f bc
       -0.05180235 -0.13566138 -0.0057870895 -0.019496588
000030 83 ba a2 3d ae 86 85 bd 97 33 85 3d c5 be fb bc
       0.079457305 -0.06519829 0.065039806 -0.030730614
000040 d8 28 42 3c 4b d7 1c bd 8f 7b 82 3c c0 00 26 3c
       0.011850558 -0.038291257 0.015928058 0.010132015
000050 c8 7f 44 3c c5 7e 87 bd d2 67 43 3d fd 48 e8 bd
       0.011993356 -0.06615976 0.047706433 -0.113420464
000060 1c b3 a9 3c c7 dc 3c bd c1 1f ea bd ee 7b 20 bd
       0.020715289 -0.046108987 -0.11431838 -0.03918069
000070 1f 57 e7 bd 31 d6 95 3b fd 24 53 bd 7c 02 d9 bc
       -0.11295914 0.0045726527 -0.051548947 -0.026490442
000080 48 a9 07 bc d3 20 15 be 2a 51 2f 3d 44 5d 75 bd
       -0.008280106 -0.14563303 0.042802013 -0.0599034
000090 ca 8a 01 bd 6a ca 62 3d 4c a8 c0 3c e6 44 c2 bc
       -0.0316265 0.05536882 0.02351775 -0.023714494
0000a0 ac 22 90 3c ad a0 ad bd af 59 93 3d 62 81 57 bd
       0.017594658 -0.08477912 0.0719484 -0.052613623
0000b0 5d aa 90 bd b8 81 7c bc 29 f8 84 bd 80 e2 1a 3a
       -0.07063744 -0.015411787 -0.06492645 0.0005908385
0000c0 13 07 ab bd 29 f5 9e bd 5b 6a b6 bd 84 e6 eb 3c
       -0.08350959 -0.07761604 -0.089070044 0.028796442
0000d0 7a 88 12 bd 4e 76 d7 3b d3 97 ef bb 47 57 33 bd
       -0.035774685 0.0065753823 -0.0073118 -0.043784406
0000e0 1f d7 49 bd f0 88 e2 3c 13 cc 9c 3d 7c 2a 94 3c
       -0.04927742 0.027653188 0.076561116 0.018086664
0000f0 d9 8e 98 bd 40 10 8c bc aa 3c 74 3d 38 6c 84 3c
       -0.07449121 -0.017097592 0.059628166 0.016164884
000100 82 eb 19 3d 06 af 18 3d 42 50 2f 3d 3b 02 93 3d
       0.037578113 0.03727629 0.04280115 0.0717816
000110 76 68 07 bd cc 0e 06 bd fb 94 f2 bd b8 e0 98 bd
       -0.033058606 -0.032728955 -0.11844822 -0.07464737
000120 be b8 1f 3d 9a 62 4e 3d a1 bb 96 3b 70 6d ea 3c
       0.038994543 0.050387003 0.004600004 0.028616637
000130 40 e5 37 bb b3 b3 c8 bd f5 e3 23 3d 2e a2 76 bd
       -0.0028060228 -0.097999 0.04001232 -0.06021326
000140 a2 66 fa 3c ac ce 59 bd 2c 21 c4 bc d8 14 25 bd
       0.030566517 -0.053175613 -0.023941599 -0.04030308
000150 7b 95 92 3d e0 f2 98 bb 40 f2 59 bd b3 99 25 3d
       0.071574174 -0.004667625 -0.053209543 0.040429782
000160 c8 59 a4 bd 4f ca a1 bc 80 f1 be 3b d1 db 63 bd
       -0.08024937 -0.019749789 0.005827129 -0.055629555
000170 3b 25 4d bd dc 68 e6 bc 59 af 58 3d 3c db 63 3d
       -0.050084334 -0.028126173 0.0529016 0.055629
000180 79 7c 55 bd 73 4c ca bd af 5d 9f bd c3 41 a0 bd
       -0.05212066 -0.09877863 -0.077815406 -0.07825043
000190 ac 2e 1e bb e0 90 89 3c 8e 45 4d bd 26 41 6f 3d
       -0.0024136705 0.016792715 -0.05011516 0.05841174
0001a0 2d 2f a3 bd 09 8e b4 3d f0 40 a2 bb 62 60 07 3d
       -0.079679824 0.088161536 -0.004951589 0.033050902
0001b0 f7 e1 8c bd b4 0f cb bd b2 83 85 bd 47 6a 13 bd
       -0.06879037 -0.099151045 -0.065192595 -0.035990026
0001c0 b4 3f 88 bd f6 c1 29 3d 51 14 37 bd 7f f8 c7 bc
       -0.066527754 0.04144474 -0.04469711 -0.024410484
0001d0 1d f3 93 bd e7 64 27 bc d4 df 8a bd 61 32 22 3c
       -0.072241046 -0.010216928 -0.06780973 0.009899707
0001e0 36 c1 79 bd 23 51 56 bd 0e a7 ac bd 93 e3 1a bd
       -0.060975276 -0.05232347 -0.08430301 -0.037814688
0001f0 65 3b 93 3d 76 77 ae bd 8c 86 3b 3d 70 17 b7 3b
       0.07189063 -0.08518879 0.04578261 0.0055875108
000200 a1 8a 71 bc 81 f4 14 bd 04 59 90 bd 30 f4 70 3c
       -0.014742524 -0.03636599 -0.070482284 0.014706656
000210 0d 74 b3 bd 6a be c4 3a 79 6c a4 3d b1 7a b2 bc
       -0.08762369 0.0015010361 0.08028502 -0.02178702
000220 97 eb d8 bd e8 13 8f bd 2c 2d 9f 3c f3 d9 af 3c
       -0.1059181 -0.06986219 0.01943072 0.021466231
000230 19 d0 6f bd 1c 72 4e bd 82 af b4 bd e4 45 86 bd
       -0.058548067 -0.050401792 -0.08822538 -0.06556299
000240 7f 54 40 bd d3 50 7d 3d b7 cb 51 bd 97 f4 5a bc
       -0.04695558 0.061844658 -0.05121967 -0.013363979
000250 2f 37 27 bd 90 4c d2 3b 02 61 ec bc 30 2c 84 bc
       -0.04082411 0.0064178184 -0.02885485 -0.016134351
000260 00 ab a0 bb 3f b3 0e bd 90 42 2e bd 35 c9 3e bd
       -0.0049031973 -0.03483891 -0.042543948 -0.046578605
000270 9f 7d 8d 3c ab da 45 bd 13 ed 82 bd 5e 64 21 3d
       0.017271815 -0.04830424 -0.063928746 0.03940236
000280 bf 33 85 3d bb 0d 10 be e9 94 c7 bd 7d be 9b bd
       0.065040104 -0.14067738 -0.09745199 -0.07604692
000290 c7 f4 96 bd 96 f0 98 bd 5f 17 67 bd d6 a6 c4 bd
       -0.07370906 -0.07467763 -0.056418773 -0.09602134
0002a0 a6 cd 13 3d 00 be cc b9 8d 26 00 bd 59 e8 07 3d
       0.036084794 -0.00039051473 -0.031286765 0.03318057
0002b0 c7 c4 53 3d cb c7 a2 3a f7 81 37 bc 6e 9d ad bd
       0.051701333 0.0012419162 -0.01120042 -0.08477293
0002c0 5d b4 04 be b9 e3 61 bd 53 f6 86 bd 6e 7a 4f 3d
       -0.12959428 -0.055148814 -0.06589951 0.050653867
0002d0 f3 73 12 bd 0e 89 8a bd 7d e3 ec bd 94 2a 2c 3c
       -0.03575511 -0.06764422 -0.115668274 0.010508198
0002e0 ca 32 ee bc 3a 61 89 bd d2 38 b1 bd 54 5f a3 bd
       -0.029076952 -0.067079976 -0.08653416 -0.07977167
0002f0 60 e3 e4 3c f1 85 82 3d 34 fb 34 bd 22 97 8b bd
       0.027940452 0.063732035 -0.04418488 -0.06815936
000300 d4 27 cd bc 59 be b0 3c 04 a0 b0 bd 48 2f 01 3d
       -0.025043406 0.02157514 -0.086242706 0.03153923
000310 95 f3 d6 3c 86 95 75 bd 7d ed ce bd b5 67 d5 bd
       0.026239196 -0.05995705 -0.10103891 -0.10420171
000320 0e f4 26 3d 84 12 19 3d 1b 34 08 3c 23 4b a8 bd
       0.040760092 0.037371174 0.008313204 -0.08217456
000330 40 02 3f 3c 7f 90 27 bd 44 8a 28 3d 9b be 0e bd
       0.011658251 -0.040909287 0.041147485 -0.034849744
000340 be a1 74 bc 28 fb 52 bd 63 4b 2f 3d b0 a8 87 3d
       -0.0149311405 -0.051509053 0.042796504 0.066239715
000350 7d f0 b2 3d 40 19 9c 3c e2 48 ab bd 78 7b aa bd
       0.08737276 0.019055009 -0.08363511 -0.08324331
000360 90 33 ed bb b8 1b 27 bd e3 34 b7 3c 8b cb dc bd
       -0.0072388127 -0.04079792 0.022364086 -0.1078101
000370 48 4b 59 bc c6 19 aa 3b ff 4d 6f 3d e4 93 20 3d
       -0.013262577 0.0051910607 0.058423992 0.03920354
000380 8e 3c 83 bd 61 dd cc bd aa 46 90 bd 7f 3e b6 bd
       -0.06408034 -0.10003162 -0.07044728 -0.08898639
000390 61 ac f5 bd 40 9f 83 bd 4a 32 b3 bc b8 cc af 3c
       -0.11995769 -0.06426859 -0.021874566 0.021459922
0003a0 d3 4c 5b 3c a2 08 1c 3d 64 d9 a3 bc 00 0b 5b ba
       0.013385016 0.03809417 -0.02000112 -0.0008355826
0003b0 72 2d af bd 84 b2 00 3b b1 4d 68 ba c8 42 94 bd
       -0.0855359 0.0019637654 -0.00088616746 -0.072393
0003c0 47 3d 6b bd 89 87 a0 3d b3 64 74 3d 3e 39 f6 bb
       -0.057431486 0.07838351 0.059666347 -0.007514148
0003d0 cc 4c 6e 3d ef 7a 50 bd fc d2 60 bd bc 2f cf bd
       0.058178708 -0.05089849 -0.05488871 -0.101165265
0003e0 2e 75 b8 bd 76 13 f1 3b 39 01 88 3d 19 27 90 3d
       -0.09006725 0.0073570563 0.06640858 0.07038707
0003f0 87 b9 ac 3d 28 8a e5 bd 74 0c 93 bc 82 38 8c bd
       0.08433824 -0.11207992 -0.017950274 -0.068467155

net.2.bias f4 [128]
000000 87 eb ea bd 1d 83 8d bd 69 a6 4b be 99 eb ef ba
       -0.114707045 -0.069097735 -0.19887699 -0.0018304467
000010 f4 44 b1 3a 85 f9 44 3d 1f ff 7b bd 42 27 3b 3e
       0.0013524578 0.048089523 -0.0615226 0.18276694
000020 46 a2 7a 3d 04 cc ac bd db 2a 81 3d 48 61 af bd
       0.061189912 -0.084373504 0.06307002 -0.08563477
000030 2c 4c 19 be 13 6d 46 bd a8 dd 43 bd 1f b6 0d be
       -0.14970464 -0.048443865 -0.04781881 -0.13839005
000040 e6 14 f2 bc 70 6e 25 be f2 c2 75 3d 67 5e 3b be
       -0.02955098 -0.1615541 0.060000367 -0.1829773
000050 da 0d b0 bd 6d 1f 15 be b4 b0 f9 bd ed 4d 58 bd
       -0.08596392 -0.14562769 -0.121919066 -0.05280869
000060 31 94 91 bd ed 1d 62 bc 04 2e 92 bd f1 f9 4b 3f
       -0.071083434 -0.01380108 -0.07137683 0.79678255
000070 44 b0 4b bd 15 1b 17 be f0 41 ef bd 96 92 9d bd
       -0.049728647 -0.14756425 -0.116824985 -0.07693975
000080 e7 51 9e 3d af 5a 83 bd 3d a0 0a be 6f fd 86 bd
       0.077304654 -0.06413781 -0.13537689 -0.06591307
000090 02 94 d2 bd bb d5 5c be 42 e3 48 be 18 f1 18 3f
       -0.102821365 -0.21565907 -0.19617942 0.5974288
0000a0 4a 78 b2 3b 1a 87 0a be cb ac 11 3e 7c 82 6a 3d
       0.0054464685 -0.135281 0.14226072 0.057253346
0000b0 25 e6 6d 3d e4 49 0a be 6d 6b 54 bd 9e 3a b3 3d
       0.05808081 -0.1350475 -0.05186026 0.08751415
0000c0 95 41 c3 bc 09 5e 3e be b0 d7 b4 3d bb d1 8b 3d
       -0.023834983 -0.18590559 0.088302016 0.06827112
0000d0 5e 13 f7 bd c5 ac 2e be a1 4a 16 be 36 82 97 3d
       -0.12064241 -0.17058094 -0.14676906 0.07397883
0000e0 d6 9e 74 bd d4 6e bb 3c 6b 2c ef bd 0f e7 87 bd
       -0.05972179 0.022879995 -0.11678394 -0.06635868
0000f0 91 61 1b 3d a3 eb a5 bb c3 1d bc bc 33 7e a3 bc
       0.037934843 -0.0050634905 -0.02296341 -0.019957637
000100 f1 a5 01 3e 03 ba 56 be f5 89 84 bd 1d 08 c0 bd
       0.12660958 -0.20969395 -0.06471626 -0.093765475
000110 3b 5e db bc 9b 43 9d 3d c9 44 48 3e ae 9b fa 3b
       -0.026778331 0.0767891 0.1955749 0.007647953
000120 60 3c 3a 3d 5c 7e 9f bd c9 a5 b1 bd 4f e4 0e 3b
       0.045467734 -0.07787773 -0.08674199 0.0021803563
000130 24 f5 5d 3e a1 02 bc 3d d3 c9 f2 bc c3 26 cd bc
       0.21675545 0.09180189 -0.029637253 -0.025042897
000140 40 7c b2 bd 1a 21 06 3f 9b d3 a4 3d 15 6d 95 bc
       -0.08715105 0.5239426 0.08048173 -0.01824049
000150 7b c1 9f bd ba b5 23 bd 42 8c 17 3e ed 1c c1 bd
       -0.07800575 -0.03996823 0.14799598 -0.09429345
000160 04 44 0a be 97 25 25 bd bc 51 c5 bd 5d 83 93 bd
       -0.13502508 -0.04031905 -0.0963473 -0.0720279
000170 4a ad a1 bd e0 44 fc bd 56 c7 2c 3c 42 2a ff 3c
       -0.078943804 -0.12317824 0.010545572 0.03114808
000180 87 b3 c3 bc ef a6 8b 3d b4 46 6a 3e 63 7e 5a bc
       -0.023889316 0.068189494 0.22878534 -0.013335797
000190 a8 32 66 bd 16 9d 6e bd 7f 3d d1 bd 9d 79 4e bd
       -0.056200653 -0.058255278 -0.102168076 -0.05040895
0001a0 61 5b 03 3e 5f 2c 60 bc bc 87 f6 bd 2b ed be bd
       0.12827827 -0.013682454 -0.12037608 -0.0932258
0001b0 c0 4c 55 3e c9 12 b6 bd 42 bd 40 3d 90 c7 1d bd
       0.20830059 -0.08890302 0.04705549 -0.038520396
0001c0 79 25 00 3d db 5c 96 bd 8b 6f 61 3c 39 b7 ee bb
       0.031285737 -0.073419295 0.013759504 -0.0072850254
0001d0 66 69 05 be 7f 06 5e be 7b f6 1f 3e 53 b5 f4 3e
       -0.13028488 -0.21682166 0.15621369 0.4779459
0001e0 a3 90 17 3e a7 74 8d bd b5 80 fe 3c a0 e4 13 bc
       0.14801268 -0.06907015 0.031067232 -0.009026676
0001f0 bc f0 bc bd ca 9e 50 be 55 58 3c be 20 f3 b2 bd
       -0.09225604 -0.20373073 -0.18393071 -0.08737779

net.4.weight f4 [9, 128]
000000 9e cc 85 bd b8 b8 14 bc ff 39 83 be ed 97 56 bd
       -0.06533168 -0.0090772435 -0.25630185 -0.05239098
000010 b8 1b 55 bd 31 9e 5c bd 91 d4 95 3d 92 b0 7e bd
       -0.052028388 -0.0538618 0.073159344 -0.06218011
000020 2e 34 0b be e3 55 65 3c 9d 26 0c 3e 7e 70 4e 3d
       -0.13594124 0.013997528 0.13686605 0.05040025
000030 76 09 c5 bc 1e e8 95 bb e1 95 cd ba 00 c1 3f ba
       -0.024052363 -0.0045747897 -0.0015684926 -0.0007314831
000040 1b 12 9a 3d ec c8 b4 bd 71 16 42 be 49 a8 dc bc
       0.075229846 -0.08827385 -0.18953873 -0.026935713
000050 44 4f 8f bd 36 78 47 bc 7e e6 03 bd 9e 03 9e bd
       -0.069975406 -0.012174657 -0.032202236 -0.07715534
000060 4b f0 4d bd 97 7d 8b 3d 42 bb 19 3d 3f f2 8e be
       -0.05027799 0.06811064 0.0375321 -0.27919194
000070 0d 8c 98 bb 96 1e 06 bd 69 fc c6 ba b0 b9 ff 3c
       -0.004655367 -0.032744013 -0.0015181425 0.031216472
000080 ef 5d 6b bd b1 4a f5 3d 42 21 9c 3c aa d2 94 3d
       -0.05746263 0.11977137 0.019058827 0.072667435
000090 24 5e a0 3d 20 30 86 3d 9e f0 ca bc 91 95 be bd
       0.07830456 0.06552148 -0.024772938 -0.09305871
0000a0 64 ac 06 bc a8 81 28 bc bf 8d 4e 3c a9 35 33 3d
       -0.008219812 -0.010284819 0.012607037 0.043752346
0000b0 da f1 96 bd 31 a0 8c 3d c0 40 be bd a9 ce 30 3c
       -0.07370348 0.068664916 -0.09289694 0.010791459
0000c0 92 49 d9 bc 5b 43 0c 3d b8 1e 92 3b 08 5c 35 3c
       -0.026524339 0.034243923 0.0044592284 0.011069305
0000d0 af 4e 45 bd fe de 5b bc d5 34 5e bd 3d 54 42 be
       -0.04817074 -0.013419865 -0.054249603 -0.18977447
0000e0 aa 30 73 3d 94 9d 0a 3e 1e 12 4b bd e0 8d 25 3b
       0.05937258 0.13536674 -0.049577825 0.0025261566
0000f0 6b 48 18 3d c3 db ed 3c 9f a3 68 bd 54 2e 9e bd
       0.03717844 0.029035455 -0.056796666 -0.0772368
000100 ad 63 33 bd 93 31 42 bc 26 33 c1 ba f1 5d 6c 3c
       -0.04379623 -0.01185264 -0.0014739975 0.014426694
000110 79 bd 77 bd fa 90 75 bd f9 22 69 3d 78 6d 97 bc
       -0.06048343 -0.059952714 0.05691812 -0.018484816
000120 be 9e 2a bd 56 25 92 3d 5e ce 8a bd 8a 23 64 3c
       -0.041655295 0.071360275 -0.06777643 0.013924489
000130 a0 05 1b 3d 2b 97 ba bd ea 40 83 3d 02 09 9d 3d
       0.03784716 -0.09110864 0.06408866 0.07667734
000140 3e ba 07 3d b9 cd cd bd 87 cd 07 3c 81 56 0f bd
       0.0331366 -0.10049004 0.008288748 -0.034994606
000150 cd a3 07 bd 5f 77 62 3d fd b8 f6 bd e9 b2 6d 3d
       -0.033115197 0.055289622 -0.120470025 0.05803195
000160 5b 0c a0 3c de 7b 69 3d 97 c0 51 be 76 5b 24 bd
       0.019537142 0.057002895 -0.20483623 -0.040126286
000170 bb 20 56 bd bd 13 9b 3d ca cd ff 3c 19 1b 02 3d
       -0.052277308 0.07572124 0.031226058 0.031764124
000180 8b 7d 83 bd ce d8 91 3c ce 18 2f be 00 0a ba 3c
       -0.0642043 0.017803576 -0.17099306 0.022709846
000190 00 a7 2c 3b c8 8f 5f 3d 46 6a ed bc f3 e6 2e bd
       0.0026344657 0.05458048 -0.02898134 -0.04270072
0001a0 40 2d 47 be b0 8e cb bc 98 8e 41 3c 7a 67 da 3d
       -0.19450855 -0.024848312 0.011813782 0.10664268
0001b0 c3 aa 4f 3d 08 4d 03 3d 87 96 cb bb df 74 0c 3e
       0.05069996 0.032055885 -0.0062130126 0.13716458
0001c0 fc 21 55 3d 78 79 44 3c df 05 0b 3e d8 98 75 3d
       0.052034363 0.011991851 0.13576458 0.059960216
0001d0 4f ed ef 3d 71 44 81 bd da b1 c5 bc 6e 3c 2c be
       0.11715185 -0.06311882 -0.024132658 -0.16819927
0001e0 0e e0 1f be c3 6a 1e bd 62 fc 83 bd 88 38 42 bc
       -0.15612814 -0.038676035 -0.064446226 -0.011854298
0001f0 5d bf 24 3a c5 ea fb bd 6c 82 0a 3d f6 6f 13 be
       0.0006284619 -0.12300638 0.033815786 -0.14398178
000200 c5 39 87 bd 7e 2f 37 3d 32 06 98 3d a4 26 8d 3d
       -0.066028155 0.044723026 0.07423057 0.06892136
000210 80 a3 69 bd 6d 48 4c 3d 8d 38 8a bd d2 65 15 3c
       -0.05704069 0.049873758 -0.067490675 0.009118514
000220 28 bd bc bd 09 11 7f 3c 27 f7 27 bd fb 0d 41 bd
       -0.09215766 0.015568026 -0.041007187 -0.047132473
000230 af 84 7c bd e7 d9 ab bc cf f1 e3 bb ef 42 2b 3d
       -0.061649974 -0.020977927 -0.006956316 0.04181188
000240 36 35 6c 3d 39 3e ab 3d d4 23 18 be 73 f0 12 bd
       0.057667933 0.083614774 -0.14857417 -0.03587384
000250 38 73 d7 3c 40 f2 03 3d 48 2e 04 3d 20 b2 a5 3c
       0.026300058 0.03221345 0.0322707 0.020226538
000260 e2 84 9e 3c 5f 19 b3 bc 80 00 4a 3d 78 0a 9b be
       0.019350473 -0.021862684 0.049316883 -0.30281425
000270 c3 e7 d0 3d eb 28 f0 bd e2 0d fb bb b5 c3 a7 3c
       0.10200455 -0.117265545 -0.007661567 0.020479063
000280 b8 c9 5f 3d 8c f4 82 bd f1 3f 8e 3d 54 33 de 3c
       0.054635733 -0.063943 0.069457896 0.027124085
000290 49 4c 2a bd d0 78 28 3d 8e ac dd ba dc 6d f8 bd
       -0.041576657 0.04113084 -0.0016912387 -0.12130329
0002a0 a8 9f cb bd 27 23 c7 bd 70 d8 f1 39 4e 19 3f bb
       -0.099425614 -0.09723502 0.0004612836 -0.002915937
0002b0 8a 30 96 3d c7 11 9c 3d 9f 55 26 3d 49 ba 9b 3d
       0.07333477 0.07620578 0.040609 0.076038904
0002c0 08 6d f9 3c 7b fb 7e bd d5 cf 92 bd 70 74 16 be
       0.030447498 -0.06225155 -0.07168547 -0.14692855
0002d0 43 d1 3a 3b dc 60 72 bd 45 ba 8a bc d5 b2 62 bd
       0.0028506077 -0.059174404 -0.016934523 -0.05534633
0002e0 59 26 8b bc 48 93 bf 3d 69 0f e9 3c 5a 40 72 3d
       -0.016986059 0.093542635 0.028449731 0.0591434
0002f0 c2 ac e0 3c 2d 8f 8c bd 8f 12 ff 3b 4a 60 62 3d
       0.027426127 -0.06863246 0.007784195 0.05526761
000300 87 03 95 3d 89 28 e1 bc ad e1 cf 3d b6 6c b4 bd
       0.072760634 -0.027485149 0.10150466 -0.088097975
000310 41 25 ed bd b4 75 c9 bc 3a d5 7f 3e 52 b1 90 bd
       -0.11579371 -0.024592258 0.24983683 -0.07065071
000320 77 83 3d be 5d 76 37 bd a6 d9 bf bd c4 48 70 bd
       -0.18507181 -0.044790614 -0.09367685 -0.058663145
000330 9d 22 76 be 0b 06 d8 3d cf 6c a5 3c 8c ca ce 3c
       -0.24036641 0.105480276 0.020193486 0.025243066
000340 bd 68 19 3b 2e d1 2d be bf 26 8f bd 26 41 63 bb
       0.0023408376 -0.16974327 -0.06989812 -0.0034676283
000350 f3 d4 97 bb 9a 04 77 3d f3 4a 6b bd a9 6d 8d 3c
       -0.00463354 0.060307123 -0.057444524 0.017264204
000360 1f 26 94 bb a3 75 46 bc cd 04 c2 bc 88 ed f5 bd
       -0.004521146 -0.012113008 -0.02368393 -0.12008196
000370 b8 11 93 bb 40 a8 c6 bd 63 d2 c9 b9 56 86 f3 3c
       -0.004488196 -0.0970006 -0.00038494458 0.029727142
000380 de 6d 83 3c e3 d9 0d be 62 eb c8 bc 87 26 53 bd
       0.0160436 -0.13852648 -0.024526302 -0.051550414
000390 51 01 9f bd d5 ca 1b 3d ae 6a 18 3d fc f8 58 bd
       -0.07763923 0.038035233 0.037211113 -0.052971825
0003a0 4b fd 2e be 62 dc 3d 3d 6b 2a af 3c e1 95 7a bd
       -0.17088811 0.04635275 0.021382531 -0.061178092
0003b0 28 95 f5 3d 68 ca f0 bc 7b f4 d5 3c ca 9a e4 bd
       0.1199134 -0.02939339 0.026117554 -0.11162336
0003c0 7c a3 2f 3d ba ca 5f 3d 7d 34 fb bc 97 24 bc bc
       0.04288052 0.054636694 -0.030664677 -0.022966666
0003d0 eb 8d 28 3e b9 b5 32 bd 22 33 eb bd 56 69 1b be
       0.16460387 -0.043630335 -0.11484362 -0.15176901
0003e0 ae 52 4b 3d 5a b2 48 3d 70 42 08 3d 57 a3 c6 bd
       0.049639396 0.048998214 0.033266485 -0.09699123
0003f0 2d e9 1f be 35 8e 88 3d 37 ff 02 bd 12 2e 87 bd
       -0.15616293 0.06667749 -0.031981673 -0.06600584

net.4.bias f4 [9]
000000 53 73 c3 3e 2e 4a 00 3f c8 09 e5 3e 60 f6 a9 3e
       0.38173923 0.5011319 0.44734025 0.33195782
000010 15 0a f4 3e f2 07 00 3f 1e 3a 0f 3f c2 53 d0 3e
       0.47663942 0.50012124 0.55948055 0.40688902
000020 16 c2 fe 3e
       0.4975745
