Entities/pained_nav.pth (torch, 73382 bytes, 6 tensors)

net.0.weight f4 [128, 4]
00000000: b890 863e 221c 7abe 02b1 1fbe a3c8 8bbd
00000010: aa17 09bf 5db9 7e3e b83f 873e c679 503e
00000020: 20f0 403d 6050 553d 8c62 b0be f0a4 bbbd
00000030: 5c0d 0abe 6403 2dbe 7073 75bd 0c43 4d3e
00000040: 684c 89bd d834 0cbe b8b3 c3be 2230 f3be
00000050: fd97 e9bc 9068 a4be f8e1 8d3e a86a 4f3d
00000060: 708e 61be eede efbe 6472 ecbe 00e7 283d
00000070: 94a5 fd3d d7f2 743e 3256 f0be bf8c f13d
00000080: 30b9 273e 5404 84bb 62f2 f4be f9ac 4b3e
00000090: 1a31 babe c63b cdbe 3463 dabe f09d 0cbe
000000a0: 487b 993d 8efe 9fbe a047 013e 10f3 b6bd
000000b0: e337 013e 25aa e23d 0a95 e2be e46d 253d
000000c0: e064 d5bc 946b 96be 8e83 95be 0051 32bc
000000d0: f5ea 2c3e 95e7 f23d 7103 0ebf c8bb e43d
000000e0: f3e9 693e 4bed 063f 2f1c 01bf 4eea 60bd
000000f0: 6575 2b3d c8a6 813e 1ccb bcbe 650f 243e
00000100: ae23 213e bfb2 13be c87f c8be 9303 c13e
00000110: be07 513e f530 5cbd f219 d1bd f0e1 1cbe
00000120: 8dec 873e e042 ecbe de2c 49be d1ab 043e
00000130: 10a9 193d be5a babe 1870 47be 9063 063e
00000140: 1801 c2be c6e3 1c3e 0e5c 3c3e b2e0 963e
00000150: 40e9 f7be 2249 b73d aaa8 c83e 533a c4be
00000160: e787 c03e abe9 50be 7793 ab3d 1864 a5be
00000170: e850 733e fdf8 0abf b148 77be beb0 c03e
00000180: 3d99 a13e 1bbe 07bf a933 a6bd 20ad 3a3e
00000190: 8e34 8abe 501e 903e cc1e 55be 6042 733e
000001a0: 9cff 8d3d 08cb 3dbe 37bd 3d3e f3c4 84be
000001b0: e85b b63d e262 babe 4ce5 383e 68e8 86be
000001c0: d05b 7f3d f5ae 3f3e 0292 613e 091c c6be
000001d0: 95ed d83e 7bca 7cbe d3f0 ac3d d6d8 04bf
000001e0: 9868 03bf db43 7abd 4867 da3e 09c6 a53d
000001f0: 11a4 90be eeac 773d fb1f 6f3e 3e28 84be
00000200: f4b8 68be b2e5 623e 0a20 13be 5b4b b83d
00000210: d39a b13e 3f23 de3c 6f8b eebe 4610 c43d
00000220: 4bbf ae3d db71 d63d af37 91be 9c4a 823d
00000230: 2e43 9abc baf6 e5bd ac7b bb3e 656a f8bd
00000240: 45f4 b53d be58 23be 7798 d1bd ce8f 823d
00000250: 5804 5cbb f2e3 5abe e716 cdbb e177 8a3e
00000260: ca2a 0f3e 833e 32bf 511b 6d3e 650d f83d
00000270: 836f ca3e 403d 143e 3d45 b6be 1e03 0dbe
00000280: ded9 23be 6b01 423e ebc8 b4be f0e6 b73e
00000290: deb2 a7be b8fe ddbd 90ef b3bd 2ef7 963e
000002a0: 01c9 b7bb 5ccf a33e 02ce 97be 5ece e53d
000002b0: 6438 5b3e e980 a23e 57b8 9cbe 182b 9dbe
000002c0: d9d5 4cbe c08b a53d 4e7a 543e f5de 03be
000002d0: 2566 c03d b8c1 f2be 37ca e93c abbb a33e
000002e0: e0b8 9abe 488b a8be 4088 9c3d 2865 ad3e
000002f0: 4ad3 e4bd b6ec 8bbe ac86 acbc 19b3 ed3e
00000300: 39ba 003b 25e9 133d c384 0fbf 29d8 e33e
00000310: 2ebb bdbd 3a50 823e 7be9 913e 5bb6 8abe
00000320: 1d0c 8c3d bd02 903d b1d2 913e d510 81be
00000330: 00ef e6be a0f6 bf3c c4a5 94be 2057 7a3d
00000340: 3298 753d 5fd2 903e 8737 7dbe 1e80 9fbd
00000350: 8a82 f3be 5acb c6be 4837 b2bd 24e3 85be
00000360: a08a 1bbe 4c0e 59be 3233 f1be f875 d43e
00000370: 0914 c4bd 5ee1 5bbe 43f9 4dbe 0620 bd3e
00000380: 98eb e6bd a079 97be f4d2 fc3d 7536 073e
00000390: a2a8 ea3c 88de 4f3e 4fcc e6be 357f 7c3e
000003a0: 801f e3be 1aef e3be eeb7 f3be 5276 f2be
000003b0: 9360 6c3e a2fb d23b dee7 533e f8bf f3be
000003c0: e676 1ebd 0432 983e c79e a9be 6759 2e3e
000003d0: 3412 2e3e 9068 02bf 1cf9 80be dba2 dd3e
000003e0: 1463 8ebd b60a 61be 4c1e 9fbd 932f 9f3e
000003f0: effc 2d3e 1f1e fcbe d666 c2bd fca8 153e
0.26282287 -0.24424794 -0.15594867 -0.06825378 -0.53551733 0.24875398 0.264158 0.20358953
0.047104 0.052078605 -0.34450185 -0.09162319 -0.13481659 -0.16895825 -0.059924543 0.20045108
-0.067040265 -0.13692033 -0.38223052 -0.4749766 -0.028514856 -0.32111025 0.27711463 0.050638825
-0.22026992 -0.4684977 -0.46181023 0.041235924 0.12385097 0.23920761 -0.46940762 0.11794423
0.16379237 -0.0040288363 -0.47841173 0.19890203 -0.36365587 -0.40084666 -0.4265381 -0.13732123
0.07494217 -0.31248897 0.12624979 -0.08933079 0.12618975 0.11067609 -0.44254333 0.040388003
-0.026049078 -0.2937895 -0.2920193 -0.01088357 0.16886504 0.11860577 -0.55474 0.11168629
0.22843151 0.5270583 -0.5043363 -0.05491095 0.041860003 0.25322556 -0.3687371 0.16021498
0.15736267 -0.14423655 -0.3915999 0.3769804 0.2041311 -0.053757627 -0.10210027 -0.15320563
0.2654766 -0.46144772 -0.19646022 0.12956168 0.037514746 -0.36397356 -0.19476354 0.13123918
-0.3789146 0.15321264 0.18394491 0.29468304 -0.48420143 0.08949496 0.3919118 -0.38325748
0.37603685 -0.20401637 0.08377736 -0.32302928 0.23761332 -0.54286176 -0.24148823 0.37634844
0.31562224 -0.5302445 -0.08115322 0.18230104 -0.2699322 0.28148127 -0.2081253 0.23755789
0.06933519 -0.18534482 0.18529211 -0.2593151 0.089042485 -0.36403567 0.1805622 -0.26349187
0.06234342 0.18719085 0.22028354 -0.38693264 0.4236876 -0.24686615 0.08444371 -0.51893365
-0.5133147 -0.06109987 0.42656922 0.08094413 -0.28250173 0.060467653 0.23352043 -0.25811952
-0.22726804 0.22157934 -0.1436769 0.08998748 0.34688434 0.027116416 -0.46590754 0.095734164
0.0853258 0.10470935 -0.28362796 0.06361887 -0.018830862 -0.112287 0.36617792 -0.12129668
0.08884481 -0.15951821 -0.102341585 0.06375085 -0.0033571925 -0.21376017 -0.0062588337 0.27044585
0.13981166 -0.69626635 0.23154952 0.1211193 0.39538202 0.1447649 -0.355997 -0.1377072
-0.16001078 0.18945853 -0.35309538 0.3591838 -0.32753652 -0.10839599 -0.08785927 0.29485458
-0.0056086783 0.3199414 -0.2964936 0.11221002 0.2140823 0.31738976 -0.3060939 -0.3069694
-0.20003451 0.08083296 0.2074978 -0.1287802 0.093944825 -0.4741342 0.028538806 0.31979117
-0.30219173 -0.32918763 0.07643175 0.3386624 -0.11173113 -0.27329034 -0.02106031 0.46425703
0.0019642247 0.036111016 -0.56061953 0.44500855 -0.09264217 0.25451833 0.28498444 -0.2709225
0.06838248 0.07031772 0.28481057 -0.25208154 -0.45104218 0.02343303 -0.2903272 0.061118245
0.059959598 0.282855 -0.24728213 -0.07788108 -0.4756053 -0.3882702 -0.0870195 -0.26149857
-0.151896 -0.2119686 -0.4710937 0.41496253 -0.09574134 -0.2147269 -0.20114617 0.36938494
-0.11275405 -0.2958498 0.123449236 0.13204367 0.028644864 0.20299733 -0.4507775 0.246579
-0.4435997 -0.44518358 -0.47601265 -0.47355896 0.23083715 0.0064386884 0.20693919 -0.47607398
-0.03868761 0.2972566 -0.3312895 0.17026292 0.16999131 -0.509408 -0.25190055 0.4328831
-0.069524914 -0.21976742 -0.077694505 0.31090984 0.16991018 -0.4924173 -0.09492271 0.14615244

net.0.bias f4 [128]
00000000: fdab b03f 1fe8 843d 3e9c b53e f07f 0bbe
00000010: 387d bbbe 206b efbf 94a4 05be 552e b13f
00000020: b0a6 7f3f 6e26 b3be 00c0 e9be e7e2 c0bf
00000030: f0fc 00bd f771 8c3e bde8 cdbf 51e3 f2bf
00000040: d435 fabf 52c6 d43f 51c5 abbe 80d3 7cbe
00000050: ead2 88bf cc53 d53d d934 dfbf 7b9c 8abf
00000060: da1a c1bf 7538 0f3f 6ce7 5b3d c881 2cbe
00000070: 39e8 b63f 39f7 34bf d1fe 4c3f 2e57 af3e
00000080: 7535 45bf 845b b8bf e864 e73f 8972 e5bf
00000090: 2d95 0140 7d1a 05c0 6d4e 363e e887 dfbf
000000a0: 3bc5 91bf 70cd 13bd 851b 04c0 6c76 93bf
000000b0: 2385 663f 6254 a8bf 86cb d53e 4e6b 7abf
000000c0: 048e 563f e01e b4bf c1bd febf 90d2 a0be
000000d0: f9db a63f 98b9 22be 28a3 e03e e010 b23f
000000e0: 6e31 e63e c1f1 bcbf b09e 76bd 02ea 34bf
000000f0: a715 fabf 3c0a ee3d 5bed a43f f1fd 9cbf
00000100: ef51 0b3f 7e79 ee3e b8b6 a23d e87b e6be
00000110: 64df 683f 3f90 7a3f e637 cf3e 0cdc debe
00000120: 8079 cabe dae3 ac3e c3a0 2dbf 7c2b 803f
00000130: 9398 acbf 18af 8ebf 6083 90be 0619 c2bf
00000140: b3bf 6a3f 1b04 91bf d418 66be 6876 ba3d
00000150: e0c2 5ebe 464a a33c 2075 2cbd a65d 96bf
00000160: aaca cebe 4b2a cdbf f799 33be 5433 6a3e
00000170: 0090 38bd d3d0 89bd 2647 d9be b35e d03e
00000180: bd2a 08c0 00a0 083b 80b4 603c 1cf2 d8be
00000190: 9be4 ab3e e611 49bd 8796 9c3f 74e3 82be
000001a0: 75cf ef3f 5761 4e3f 19d1 4b3f 8ec3 9dbe
000001b0: a216 ecbe 2654 81bf bfff 77bf 57d2 9c3f
000001c0: f8e9 a93e ff50 c7bf 81df d1bf 7dd0 8c3f
000001d0: c27c 963f 40e1 f43d 3c7a 1a3f 124e 4ebe
000001e0: 0088 b439 e0c3 a5bd 32c6 10c0 9094 9b3e
000001f0: 4b5b 2bbf 9c91 c0be 583d d9be d46f 96be
1.3802487 0.06489586 0.35470766 -0.13623023 -0.36618972 -1.8704567 -0.13051063 1.3842264
0.9986372 -0.34990257 -0.45654297 -1.5069245 -0.03149122 0.27430698 -1.6086651 -1.8975621
-1.9547677 1.6623023 -0.33548978 -0.24690056 -1.0689366 0.104163736 -1.7438003 -1.0829004
-1.508632 0.5594552 0.053687498 -0.16846383 1.4289619 -0.7068973 0.8007632 0.342462
-0.77034694 -1.4402928 1.8077669 -1.7925578 2.02473 -2.0797417 0.17803355 -1.746335
-1.1388315 -0.036084592 -2.0641797 -1.1520514 0.900469 -1.3150752 0.4175684 -0.97819984
0.8381045 -1.4071922 -1.9901658 -0.31410646 1.303588 -0.15891111 0.43874478 1.39114
0.44959587 -1.4761277 -0.06020993 -0.7066957 -1.9537858 0.11623046 1.2884935 -1.2264997
0.54421896 0.46577066 0.07945007 -0.45016408 0.9096587 0.9787635 0.40472335 -0.43527257
-0.39545822 0.33767587 -0.6782343 1.001327 -1.3484062 -1.1147184 -0.2822523 -1.5163887
0.9169876 -1.1329378 -0.22470409 0.091046154 -0.21754026 0.019932877 -0.042103887 -1.1747329
-0.40388995 -1.6028532 -0.17539202 0.22871143 -0.045059204 -0.06729283 -0.42437094 0.4069725
-2.1276085 0.002084732 0.01371491 -0.42372215 0.3357285 -0.049089335 1.2233437 -0.25564158
1.8735186 0.8061728 0.7961593 -0.3081326 -0.46111017 -1.0103805 -0.9687461 1.2251691
0.33186316 -1.5571593 -1.6396333 1.1001126 1.1756823 0.119570255 0.60342765 -0.20146969
0.00034433603 -0.08094001 -2.262097 0.30386782 -0.66936177 -0.3761109 -0.42429614 -0.29382193

net.2.weight f4 [128, 128]
00000000: 782c 833d 4c6b f33d 14e2 9abd bb1b a0bd
00000010: e061 323b 2d48 5fbe 040b b63c 3b6f ec3c
00000020: 79e8 81bd 5eb2 1b3d 3e2f 123d 9155 a33d
00000030: 1ae5 07bd 7780 973e cae4 833c 425c 86bd
00000040: 40e9 1bbf 74a7 3c3d 50dd c33b fddd ad3d
00000050: 221e 7a3c 25b8 c4bd bb32 5b3b 5ea5 fa3d
00000060: e017 3d3d 2786 823b c639 933d 2db0 b13d
00000070: 226f 243e fa87 a83e fd5d d3be 0efc 63bc
00000080: 1f99 19bd b1ac 58be 6d35 783d 2b3e c53d
00000090: cedd 7c3e ad9f 02bf c20e f73c 25a0 adbd
000000a0: 8919 43be 3b7c 903d 8678 aebd a60c 2dbd
000000b0: 0447 27bd 15d5 bcbd 0ca0 93bc 982c 44bf
000000c0: 117c 633e df44 903c 9c50 1abe 8c8b 82bd
000000d0: 1646 fd3d fd9d 45bd 18fd dcbc d9a8 22bf
000000e0: 5f64 27bd f70f 06be aa35 753d c0b3 103e
000000f0: 496c 40bd 0744 e2be 8c37 cabe d887 42bc
00000100: 791f 65bc 2c54 97bc 9563 afbd d11f 6abd
00000110: 3637 15bd 1052 643d 265a 19bf 8914 e8bd
00000120: 67e7 803d 40b8 9f3b bc07 93bc 0e45 5a3d
00000130: 9517 7d3d dc25 81be 1078 e0bb 575c 98be
00000140: 2423 523e 7849 92bd da71 73bd f2c0 243d
00000150: e985 04bd fc51 1ebe 55b6 b1bd ac44 9cbd
00000160: fc24 c3bc 7e20 f83c c7f9 ccbd f546 483c
00000170: f6c1 87bd 8586 e53d c526 25bf 2811 87bd
00000180: 54b8 44be e95a 80bd 143e aabc 87c6 7abc
00000190: 581a 5e3d be42 633f 6159 2c3e 721b 5c3d
000001a0: 6b58 203e d91f 94bc 8cdc 473d 07ec 903e
000001b0: cfa1 56bd 011c 8b3e 42e5 86bd 635d aa3d
000001c0: bad4 d9bd 263b ccbe 42c4 8fbd 5c26 ea3d
000001d0: eb12 a13c a241 313d 89d4 98bc f71b 94bd
000001e0: a57d 843d 00a0 823c 7156 4bbe 607a 583b
000001f0: 00ea d5bd 8902 8abd 6e03 263d 0048 1dbc
00000200: a077 bcbe 1e15 ef3d 86ec 2d3d 09d3 a43d
00000210: 0335 a03d 01f8 0e3c bddd 843d dc47 763d
00000220: e2a9 b9bd 4ee6 9bbd 1837 79bd 751c 24be
00000230: de80 dbbc fcac 9ebe 65df d03d 9b75 86bc
00000240: 6b93 f23d 9305 0b3e d68f 753c 2e48 133d
00000250: 87b4 393d 152c b8bd 3ec5 ac3d 9b66 8ebd
00000260: aa28 bd3b fd77 8d3d 9b34 28bd 5043 cabb
00000270: f20e cabd a353 3bbe c480 0ebf b6ed f4bd
00000280: 4af3 10bd a409 7e3b 4365 e13d e23a d83a
00000290: 514a 783e 1bca 1abd 6f02 4bbe 32b6 c33d
000002a0: 0caa f53b 0075 5d3a 166d 843d e83d babe
000002b0: 6261 46be 400c 28bc 635c a53d 85d1 093c
000002c0: caf3 3abd ab0d 1fbd 3d32 403e 0810 ed3c
000002d0: 9dda 443d 107a d93b 808f 43bd 0957 d6be
000002e0: 726a 4d3c 1e12 87bd 2106 803d de3b 5b3e
000002f0: 7528 763d 2a82 c8bd c739 17bd 3889 0bbd
00000300: 5c8e 3ebd 4df7 9b3d 7c59 b23c 3837 3cbc
00000310: 880b a0bd 71c2 b03c 110b a9be 277f 6a3d
00000320: 71d0 ab3d 86f4 263d 1aad 323d d435 93bd
00000330: 533f 17bd ff31 3cbe 3a65 f0bc 7b0d 273e
00000340: b6d9 4f3d b488 e8bc e00d b53c 1e1b 363d
00000350: 5355 9e3d 7b81 393d 8174 68bd 2c94 35bc
00000360: c0e1 84bd 9de0 e9bd 7c1e 86bb b625 27bd
00000370: 3038 b9bb ae70 29be bdc4 863e cd2e bfbd
00000380: f8c9 d1bb 289c 223c 3918 5cbd 678e 963c
00000390: bd19 82be d900 ffbe c356 27be 2394 9b3d
000003a0: 7399 aabd 2a98 573d fa14 32be 0959 cfbd
000003b0: c8a6 bf3c f393 60bf 3900 6cbd 2767 39bd
000003c0: c6a4 0ebe 0713 b4bd 8035 d23c dc75 cb3d
000003d0: 56ed dfbd cca9 a03d 1a9b ea3d fb8b 8bbd
000003e0: 7c04 b5bd fce0 96bd 957b 3fbc d538 993d
000003f0: 7b1d c5bd d31a 05bd 3ee9 44bd e3b4 9d3d
0.06404966 0.118857 -0.07562652 -0.07817789 0.0027218983 -0.21804877 0.02222205 0.028861633
-0.06343169 0.0380119 0.035689585 0.07975305 -0.033177473 0.29590198 0.016100306 -0.065605655
-0.60902786 0.046058133 0.0059773102 0.084896065 0.015265973 -0.09605435 0.0033446986 0.122385725
0.046165347 0.0039832774 0.07188754 0.08676181 0.16058019 0.32916242 -0.41282645 -0.013915075
-0.037499543 -0.21159627 0.060597826 0.09630998 0.24693987 -0.51024896 0.030158404 -0.08477811
-0.1905271 0.07054945 -0.08519082 -0.04224839 -0.04083921 -0.0922033 -0.018020652 -0.76630545
0.22215296 0.017610965 -0.15069813 -0.06374273 0.123668835 -0.048246372 -0.026976153 -0.6353889
-0.040867206 -0.13092028 0.05986563 0.14131069 -0.04697827 -0.44192526 -0.39495504 -0.011873208
-0.013984554 -0.018472753 -0.08563916 -0.05715925 -0.036429606 0.055742323 -0.5990318 -0.11332042
0.062941365 0.0048742592 -0.017948024 0.053288512 0.061790068 -0.25224197 -0.00685025 -0.2975795
0.20521218 -0.07142919 -0.05943475 0.04022307 -0.03235427 -0.15460962 -0.08677355 -0.076302856
-0.023821346 0.030288931 -0.10008579 0.012223949 -0.06628792 0.11207298 -0.6451228 -0.06595069
-0.1921094 -0.0626734 -0.020781554 -0.015306122 0.054224342 0.88773715 0.1683097 0.05373711
0.15658729 -0.018081592 0.048794314 0.28305075 -0.052400406 0.27169803 -0.06586696 0.08318593
-0.106362775 -0.39888877 -0.07019855 0.11433098 0.019662341 0.043275483 -0.018656032 -0.07231896
0.06469277 0.015945435 -0.19857194 0.0033031926 -0.104450226 -0.06738765 0.040530615 -0.009599686
-0.36810017 0.1167395 0.042461894 0.08048064 0.07822611 0.008726121 0.06487606 0.060127124
-0.09065606 -0.076122865 -0.060843557 -0.1602648 -0.026794847 -0.30991352 0.10198859 -0.0164135
0.11844524 0.13576345 0.014987906 0.035957508 0.04533818 -0.08992783 0.084360585 -0.06953164
0.00577267 0.069076516 -0.041065793 -0.006172575 -0.09866132 -0.18293624 -0.5566523 -0.11959402
-0.03538827 0.003876307 0.11005642 0.0016497041 0.242471 -0.0377904 -0.19825147 0.095562354
0.007497078 0.00084479153 0.06466119 -0.36375356 -0.19373086 -0.010256827 0.08074262 0.00841177
-0.04564265 -0.038831394 0.18769164 0.028938308 0.04806005 0.0066368654 -0.047744274 -0.41863278
0.012537586 -0.065952525 0.06251169 0.21409556 0.060097177 -0.09790452 -0.036920335 -0.03406641
-0.046522483 0.07615528 0.021771185 -0.011487775 -0.078146994 0.021577092 -0.33016255 0.05725017
0.083893664 0.04076054 0.043622114 -0.07188001 -0.036925625 -0.18378447 -0.029345144 0.16313736
0.050744735 -0.028385498 0.022101343 0.044459455 0.07731118 0.045289498 -0.05675173 -0.01108269
-0.06488371 -0.11419795 -0.0040929895 -0.04080745 -0.00565245 -0.1654689 0.26321974 -0.093350984
-0.0064022504 0.009924926 -0.053734038 0.01837845 -0.25410262 -0.49805334 -0.1634169 0.07596614
-0.08330049 0.05263535 -0.17390814 -0.10124404 0.023394957 -0.8772575 -0.0576174 -0.04526439
-0.13930044 -0.08792692 0.025660276 0.09934589 -0.1093394 0.07844886 0.114553645 -0.068138085
-0.08838746 -0.07367131 -0.011687179 0.07481543 -0.096247636 -0.032496285 -0.048074 0.07700517

net.2.bias f4 [128]
00000000: bbe7 333f 5d3a 04bf 7fa3 e3bd d8e3 b63e
00000010: ef3f 8a3d e63f 293e 04e1 07be 2724 a8be
00000020: f10e f63c 8055 b43f b559 933f e142 92bd
00000030: f38f e63b aa67 5bbd 022e 073f 0c05 94bc
00000040: 630c 21bd f697 083f 5aaa c7bd 9ccb 93be
00000050: 8ebc f23b df5e 83be c570 e7bd 9291 6cbf
00000060: 7467 09bd ac73 d0bd d5b6 09bf 3c4c c6bd
00000070: d1a1 1bbe 58e8 f3bd a353 1cbd a557 ccbd
00000080: dfab f8be c983 b03c 3106 103c 6876 e53e
00000090: 32ab f4be 8496 553f 9131 9f3c a263 b6bd
000000a0: b6fb e73a b14a 72be 352d 2ebd e797 003c
000000b0: c739 37bd 8655 c8bd 43f3 b0bd 0656 e7bd
000000c0: a65e 17be ee21 aabd 630d d3bd ba24 dd3e
000000d0: 1aa0 edbd 4f24 c03c d867 82bd 99f4 b3bd
000000e0: 5908 e8bd cbfa d4bd c029 29bd 5828 013e
000000f0: 97e4 223e 293f f1bd 9f67 74be 663e d6bd
00000100: a23f c83e b2c4 233e c3c7 49bd 4ace efbd
00000110: 6e89 4fbd fd9a 7fbc 4e35 1b3d b945 bdbe
00000120: ae45 ccbc e27d 28be 7910 713c 4764 23bc
00000130: b7c1 4b3f 3286 19bd d43d e5bd f16e 2f3f
00000140: 3f63 f2bb e4f5 0bbe 1980 debd 2adf 26be
00000150: f35a a5bc b534 55bf a4e5 efbc a397 1dbf
00000160: de6f efbd 4c0d f0bd 90a3 a03b 29e5 f4bd
00000170: 89cb 243e 4c5a 643d 904d 2f3e a815 31bd
00000180: c211 8ebc 37ca 0cbd 53a8 89bd 5a6c c0bd
00000190: 8366 e63e 8ff2 683f bed0 a7bb 1c13 86bd
000001a0: c218 6a3a 0043 9a3e 1ac8 44bd de44 523d
000001b0: 483c bbba 2900 3cbd 4da2 0abe 5d39 7dbd
000001c0: 28af 2bbd e866 04be 84bc 2fbd 05c7 f4bc
000001d0: 393b cfb9 c2ee 393f 467b 583e bb35 dfbd
000001e0: 2940 5e3f bdd1 d7bd d44e 02bc 699a 46bd
000001f0: 7751 813f 84dd 00bd 86d7 e83c 0ef2 9abc
0.7027547 -0.51651555 -0.11115169 0.35720706 0.067504756 0.16528282 -0.1326943 -0.32840082
0.030036421 1.4088593 1.1511751 -0.071416624 0.007036203 -0.05356566 0.5280458 -0.018068813
-0.039318454 0.53356874 -0.09749289 -0.2886628 0.0074077314 -0.25658318 -0.11300806 -0.9240962
-0.033545926 -0.10178313 -0.53794605 -0.09682509 -0.15198447 -0.119095504 -0.0381657 -0.09977654
-0.48568627 0.021547215 0.008790539 0.448169 -0.47786862 0.83432794 0.019432815 -0.08905722
0.0017698917 -0.23661305 -0.04252358 0.007848716 -0.044732835 -0.09781937 -0.086401485 -0.112957045
-0.147822 -0.08307253 -0.10305288 0.43192083 -0.116028026 0.023454813 -0.06367463 -0.08786888
-0.11329717 -0.103993975 -0.04129958 0.12613046 0.15907513 -0.11779625 -0.23867653 -0.1046112
0.39111048 0.15993002 -0.049262773 -0.117092684 -0.050668173 -0.015600917 0.037892632 -0.36967257
-0.02493557 -0.1645427 0.0147134 -0.009972638 0.7959246 -0.037481494 -0.111934334 0.6852866
-0.007397085 -0.13668019 -0.108642764 -0.16296068 -0.02018497 -0.8328355 -0.029284306 -0.61559504
-0.11691259 -0.11721286 0.0049023107 -0.11957771 0.16093268 0.055750176 0.17119431 -0.043233544
-0.017342452 -0.034372535 -0.067215584 -0.093956664 0.45000085 0.90995115 -0.0051213196 -0.065466136
0.0008930081 0.30129242 -0.048042394 0.051335208 -0.0014284933 -0.04589859 -0.13538475 -0.061822284
-0.04191509 -0.1292988 -0.042904392 -0.029880056 -0.0003952624 0.7262994 0.21140775 -0.1089892
0.8681665 -0.10538051 -0.007953364 -0.0484871 1.0102986 -0.031461254 0.028423082 -0.018914249

net.4.weight f4 [4, 128]
00000000: 31b8 1a3e 3c20 21bc 6ed5 8dbc e912 ce3d
00000010: 20f2 1c3d 4790 563e 6df1 833d 4d0f 603d
00000020: 5e76 ab3d f9d3 6c3c f9a3 50bc 25f6 22bd
00000030: 28a8 d7bc 00ed a73d 47ee 9ebd d3db 953d
00000040: c852 b4bc ba62 4abb 9e8a 513c 5356 6abc
00000050: 8ae0 b4bc 5704 b9bc 0a56 56bc 9883 3e3c
00000060: b5f3 da3b f00c a73c 5879 0d3d eea7 123d
00000070: f445 173d 1ea4 4a3c e36b 1bbd 1393 863d
00000080: efe4 483e 726d e93d 2e61 2e3d f23b 423e
00000090: 8c34 a73d 7eb3 ae3c dbee 96bd 6150 4d3d
000000a0: 81c4 a93d 3e9d 69b9 a35f 8f3d d77a a03d
000000b0: c0d2 8dbc efa7 723c d667 f5bc 1936 3b3d
000000c0: 351d a6bc 309a 973b 40d7 1cbd 29c1 073e
000000d0: 3010 983b 32f7 ffbb 0256 0d3c 1c1a bbbc
000000e0: 8649 e1bb b7c3 eabd df36 c1bd 4948 a03c
000000f0: 539a 23bd e319 7dbc f58a 183e c81c 33bd
00000100: dc8c 90be 631d 86be 0dbd 02bd 771a a7be
00000110: 149a 8bbd 7bdf 1cbd 26d6 1c3d 9555 c7bb
00000120: c74e bf3c 7734 143c d79e fc3d 7572 ae3c
00000130: 0860 553e db07 3bbb 6e58 063c 8fe9 e5bc
00000140: d071 a43c 4c30 de3c ecce e7bc bebd af3d
00000150: f162 2fbc ba16 2d3c 09d7 c63a 2c90 063d
00000160: 0685 e3bc 918b b6bb d271 77bd 382c d5bc
00000170: a7f6 8e3e c4ef 563c a02d 8f3a 48a5 c8bc
00000180: 0454 ddbc 03ed acbd 01d8 05bd 9124 a2bb
00000190: fe4e 82bd 30d8 f4bd 2557 6e3d da5b 183d
000001a0: 48fa 483b 1f6e 33bc 56e4 333d 1ee0 3c3d
000001b0: 289d 8bbc 5642 6d3c 3239 b4bb f0ca 6a3b
000001c0: a532 3c3d 79f9 a8bc 80b2 143d 9bfe 4cbc
000001d0: 09f0 00bd 3e6f a53e c310 123e ef1d 9abc
000001e0: dc1c 0abc fafa 29bd f6cb 53bd 75be 21bd
000001f0: dcd2 713c 2848 093d 221a 713d 5576 1c3e
00000200: 7069 0c3e dcf3 eb3c b5f7 6abd cf56 9bbc
00000210: 0e10 123c 0201 053e c22d 7c3d 46aa 69bd
00000220: 0874 183c a1d1 1b3e e386 d23d c5c7 2bbd
00000230: ec10 33ba 897b fc3c 0c68 483e a106 b8bc
00000240: d059 a43c f7be 8abd 6e3d 0b3d 14ba a1bc
00000250: 4e65 6f3d 5bc5 20bd 7f02 8d3c 34ab bcbc
00000260: aaab f2bc 0cfe 0b3d 56a2 d7ba 2e70 6c3d
00000270: 05dd 77bd 0114 aabd b71a a03e d2f2 7c3d
00000280: a84a b6bc 5d20 9e3b 8b97 a73c 71dc d5bc
00000290: c4e7 d83b b613 98bc fa8a 55bd 0fbb 23bd
000002a0: 18cb cabc 70c6 99bc 7230 363d 0fa7 153d
000002b0: efc8 9f3c 661d 6e3b 5df0 293d 578d 29bd
000002c0: 327f 9abd 281b 93bd d593 7bbd 331c c8bd
000002d0: 6a56 17bd d37c be3b 505c 5bbd 76af 0d3d
000002e0: bbdc 9abd 169a c93c 6f8d e83c 3a71 153c
000002f0: 4dc9 5e3d c5e7 793d a4b8 983e e720 92bd
00000300: 0aec e33d fc22 58bd 2c3e 053e bbcc 3fbd
00000310: a5bd 10bd 814d 163d 809b 82bd 4b3b 6a3e
00000320: 7b9f 14bc ac0a 7bbc 93d2 0cbd b1b0 97bc
00000330: 2098 94bd 1cc9 8abd ff59 593c 391b ca3d
00000340: b10d 96b8 95ff 19bb 8423 973c 1565 3abe
00000350: 7b9e 513d 1d97 2d3c 28e7 d43c cb4f 113c
00000360: ad3c 313c 8207 15bd e861 633c 536d 283d
00000370: 02c9 613d 0f75 10bd 95e1 543d 2066 a93c
00000380: d2b0 6abd adc5 463d 6323 48bd 9ee1 b7bb
00000390: 6ad5 c53d 7182 7ebd c4c2 6c3d 7fea aa3c
000003a0: eb95 22bc 1c6a 18bc 505a 483c fb69 6bbc
000003b0: 903e 6dbd 7b91 123d c62a 50bd d8db 99bc
000003c0: b5a8 91bd e988 acbc e873 0c3c 0d4b 71bd
000003d0: 50d6 a93b 403d 01bd c998 ed3c ddcd 19bc
000003e0: 243b f0ba c5d4 603d 8124 fe3c 968b ca3b
000003f0: 7a07 d03d 843d ecbc 0fd0 bfbc b4f0 8bbe
0.15109326 -0.009834345 -0.017313685 0.100622006 0.038316846 0.20953475 0.06442533 0.054702092
0.08372186 0.014454835 -0.012734407 -0.039785523 -0.0263253 0.08199501 -0.077602915 0.07317319
-0.02201213 -0.00308816 0.012789397 -0.014302808 -0.022079725 -0.022585077 -0.013082037 0.011628054
0.006681884 0.020391911 0.03453955 0.03580468 0.036931947 0.01236823 -0.037944686 0.06571021
0.19618581 0.11397828 0.042573147 0.1896818 0.081643194 0.021325823 -0.07369777 0.050125483
0.08289433 -0.00022279189 0.07000663 0.0783593 -0.017312407 0.014810546 -0.02995674 0.04570589
-0.020277599 0.004626535 -0.038291216 0.13257279 0.0046406016 -0.0078114504 0.008626463 -0.022839598
-0.0068752198 -0.11463111 -0.09434294 0.019565718 -0.039942097 -0.015448066 0.14896758 -0.04372862
-0.28232467 -0.26194295 -0.031918574 -0.3263738 -0.068164974 -0.038299065 0.038290165 -0.0060832
0.023352994 0.009045712 0.12334984 0.021294812 0.20837414 -0.0028538618 0.008199794 -0.028065471
0.020073801 0.02712264 -0.02829691 0.08581112 -0.010704742 0.0105645005 0.0015170287 0.032852337
-0.027773391 -0.005570837 -0.060411282 -0.026022062 0.27922556 0.013118688 0.0010923631 -0.024492875
-0.0270176 -0.08443644 -0.0326767 -0.0049482067 -0.06362723 -0.11955297 0.058188576 0.03719697
0.0030666757 -0.010951548 0.04391893 0.046112172 -0.017042711 0.014481148 -0.0054999823 0.0035826527
0.045946736 -0.02062677 0.036303043 -0.012511875 -0.031478915 0.32311434 0.14264207 -0.018813102
-0.008429732 -0.041499116 -0.051708184 -0.039488275 0.014759745 0.03351608 0.058862813 0.15279515
0.13712096 0.028802805 -0.057365138 -0.018962292 0.008914961 0.12988666 0.061567076 -0.05704715
0.009305008 0.15216686 0.10279634 -0.041938562 -0.00068308297 0.030820625 0.1957094 -0.022464098
0.020062357 -0.06774705 0.03399413 -0.01974205 0.05844622 -0.039250713 0.017213104 -0.023030855
-0.029622871 0.034177825 -0.0016451578 0.05772417 -0.060513515 -0.08304597 0.31270382 0.06175501
-0.022252396 0.0048256353 0.020458004 -0.026106091 0.0066194255 -0.018564086 -0.05213449 -0.039973315
-0.024755046 -0.01877138 0.044479795 0.036536273 0.019504992 0.003633344 0.041488994 -0.041394558
-0.07543792 -0.07182914 -0.06142028 -0.097710036 -0.036947645 0.00581322 -0.053554833 0.03459116
-0.07561632 0.024609607 0.028387753 0.009121234 0.054391194 0.06101205 0.2982837 -0.07135182
0.11129005 -0.05276774 0.13011998 -0.046826106 -0.03533711 0.036695007 -0.063773155 0.22874181
-0.009071226 -0.015322369 -0.034380507 -0.01851687 -0.07255578 -0.0677664 0.013266086 0.098684736
-7.1551076e-05 -0.0023498286 0.018449552 -0.18202622 0.05117653 0.01059511 0.02598913 0.008869122
0.010817689 -0.036384113 0.013878323 0.041119885 0.055123337 -0.035267886 0.051972944 0.02067858
-0.057297535 0.048528362 -0.048861872 -0.0056116125 0.09659846 -0.062136117 0.05780293 0.02086377
-0.009923439 -0.009302642 0.012228563 -0.014368529 -0.057920992 0.035783272 -0.050822042 -0.018781587
-0.071122564 -0.021061378 0.008572556 -0.058909465 0.0051830187 -0.031552553 0.029003518 -0.009387461
-0.0018328172 0.054890413 0.031023266 0.0061811907 0.10157676 -0.028837927 -0.02341464 -0.2733208

net.4.bias f4 [4]
00000000: 92d7 a73d 353c 2c3d 336a 863d 6137 eb3b
0.08195414 0.042049605 0.06563225 0.0071782325
