Entities/pained_nav.pth (torch, 73785 bytes, 6 tensors)

net.0.weight f4 [128, 4]
00000000: dee7 d9be f052 46be 4476 c33e 7b2b 15bf
00000010: 9c96 85be b5e6 053e 5e9e a73d 2ad8 c7be
00000020: 306e 76bd 926e 8ebe 1c3b 00be f822 293e
00000030: 80ee 06be 2f49 933d 03f4 c0be dce5 f4bc
00000040: 11d3 cbbd aa16 453e a3b8 e3bd ac97 c5be
00000050: 9cce b33c 07f9 9f3d a71a 863d 3fca 06bf
00000060: f122 3d3e 4d83 e3bd d05c 0fbf f3d2 943d
00000070: 19d8 683c 9210 d43d bb7e 0abf 83ab 8dba
00000080: 7879 b73d 349b ddbe 2016 cdbd 0845 a5bd
00000090: db33 1cbe 0712 69be a222 b43e c30b 0bbf
000000a0: 9cdc 93be 0473 28be a887 e9bd 2c85 73be
000000b0: 041b 76be e479 4fbe 46b6 b5be 3e4d 9bbe
000000c0: c6d2 943c 15c7 25bf d5c0 9abd 688f 0e3e
000000d0: 0320 343d 4c93 d23d 2f48 c6be ee67 00be
000000e0: 0813 653d bc5b 95be 2e8c 9bbc 39fd 72bd
000000f0: 1c33 a1be 64c9 cd3e 4561 13be 065c 14bf
00000100: e49d 7bbe 0888 d9bd 508b c2be 0856 833d
00000110: 0c0a 00bf 0174 8e3e a1f2 32be 07dc 80be
00000120: c6f4 7f3d 3291 88bd 216d 35bf 03a1 423c
00000130: c7e2 7f3c 1c69 99bd ae3b 89be 8c65 0b3e
00000140: 2bc9 8f3d 4980 f5bd 8e80 893d 60a7 90be
00000150: 1576 bdbd ee15 e63d 8eaa 03bf 8e34 0e3d
00000160: bfa7 083e 5bca 9ebe 5bc1 81bd fa57 96be
00000170: 87e0 95be 3ed3 16bf 013a 423e 467d 833d
00000180: 04ae 6bbe 00f7 e03c 2c41 41be 42e2 cdbe
00000190: 04b8 2a3d 5679 c0bd 70a6 cf3d 4e69 babe
000001a0: fd82 cbbd cebe 11bf 6b57 7b3e 916b 69be
000001b0: fd77 c13d 51d2 893e d023 15bf 02a8 1dbf
000001c0: f0a3 eabe 3284 933e 999d 21bf 54bb 4c3d
000001d0: bd35 573e 50c1 14bf 14d1 bbbe 7a52 c6bd
000001e0: d2e2 953d 21d2 b63e b3f5 d5bc 4839 05bf
000001f0: 11be 333e 6143 1bbf 7022 49bd 8a9d 2bbe
00000200: 7e4e 2fbe e038 7c3e bfd7 3abd 67f6 443e
00000210: 1e48 3abc 48ff 5a3e 1742 c1be 6fbf d6be
00000220: fcad 853e 236a 08bf 8b60 62be 3dde 7abe
00000230: 781e 0bbc a61f bebd 8a60 b2bd cf4a b73c
00000240: b721 12bf 7ad5 5f3e 50ed 453e ac5d e1be
00000250: d14b 05be 4aa1 fb3d 41ad 00bd d56f 70be
00000260: 9ab0 e6bc 9f57 fbbe 89c3 bc3e acc7 fcbe
00000270: e271 6abe 8f7b babd efb7 68be c9c4 5a3e
00000280: 298f 1dbf cbcb 8a3e 90a0 01bf d60c 67bd
00000290: f01a e1bd 6c53 d6be 28fe 6abe 2eb6 fabe
000002a0: 67d1 82be 2b93 e6be 77b6 853e a28d 2ebe
000002b0: c632 e1be 00e1 343b 5e22 b4be c894 80be
000002c0: 938e 5cbe f601 683d 48d1 153e dc9a 05bf
000002d0: 30d9 f43a 019c 7e3e 85e1 3bbe 8ab7 1bbf
000002e0: 4f62 853d 92e2 9bbe 1bea 0bbf 13dc 443e
000002f0: 206c 3fbe eb30 c2bd 2bc1 25be 1236 023e
00000300: 9f70 fabd c1c7 97be d402 943e 78ee c9be
00000310: 4527 273b 4b18 babc 1878 05bf 1fc4 c03d
00000320: 769b 523c 2c4e d6bd acbe 8cbd 29ea 05bc
00000330: 695a c4be b33e b33e b1f0 dcbe 00dd a6be
00000340: 7bef 3d3d 4e11 0bbe 9efb e3be bb47 523d
00000350: d461 b1be 5e17 acbe 2026 81bc 246a e4be
00000360: 0c63 f83d 577c ecbe f9b7 bbbe f632 a43d
00000370: 2e13 97be dcba 5ebe b4fb e8be d01c 4d3e
00000380: 58d1 61be 8c95 dfbe b216 8bbe a2a8 8e3e
00000390: a149 69bd 5d4b 2f3e d233 0b3e 61b7 3abf
000003a0: b0bd febe 5073 b0be 8465 11be a817 a03e
000003b0: 9e5e 6cbe 4d56 8cbe 51b1 7f3e 3d4e c3bd
000003c0: 657c 4cbc 330e bd3c fe95 8f3d 8cd7 bebe
000003d0: 528a 133e c7f9 14bf b156 003e b2f9 c7be
000003e0: e5bf debd 4c63 fbbd 1d0d 94be e8a0 563e
000003f0: 4621 adbe 4766 873e e139 d9be d68e 75be
-0.42559713 -0.19367576 0.38176167 -0.5826947 -0.26091468 0.13076289 0.08184503 -0.39032108
-0.060163677 -0.27818733 -0.12522548 0.16517246 -0.13176918 0.07191693 -0.37686166 -0.029894762
-0.09952367 0.19246927 -0.11119201 -0.3859228 0.021949105 0.0781117 0.06548052 -0.52652353
0.1847036 -0.11109028 -0.56000996 0.07266798 0.014211678 0.10354723 -0.54099625 -0.0010808561
0.08958715 -0.43282473 -0.10013986 -0.08069807 -0.15254156 -0.22760783 0.35182673 -0.5431482
-0.2887925 -0.16450125 -0.114028275 -0.2378127 -0.24033743 -0.20261341 -0.35490626 -0.3033237
0.01816691 -0.647569 -0.07556311 0.13921893 0.04397584 0.10282001 -0.38726947 -0.12539646
0.055926353 -0.2917155 -0.018987741 -0.059323523 -0.31484306 0.4019271 -0.14392574 -0.57952917
-0.24571949 -0.10621649 -0.37996912 0.064128935 -0.5001533 0.2782288 -0.17475368 -0.25167868
0.062489294 -0.06668319 -0.7086964 0.0118792085 0.015618033 -0.07490751 -0.26803344 0.13612956
0.070207916 -0.11987359 0.06713973 -0.28252697 -0.09251038 0.112346515 -0.5143212 0.03471809
0.1334524 -0.3101376 -0.06335708 -0.29363996 -0.29272863 -0.5891608 0.18967439 0.064203784
-0.230156 0.027461529 -0.18872517 -0.40211684 0.041679397 -0.09398143 0.10139167 -0.36408466
-0.099370934 -0.5693177 0.24545066 -0.2279494 0.09446714 0.2691827 -0.5825777 -0.61584485
-0.458282 0.28811795 -0.631311 0.049983338 0.21016593 -0.5810747 -0.3668295 -0.096837
0.07318653 0.3570719 -0.026118135 -0.5204053 0.17552973 -0.6064969 -0.049105108 -0.16759315
-0.17119786 0.24631071 -0.045615908 0.1923462 -0.011369733 0.21386445 -0.37745735 -0.41942927
0.26109302 -0.5328695 -0.2210714 -0.2449884 -0.008491151 -0.0928338 -0.087098196 0.022374539
-0.57082695 0.21858779 0.19328809 -0.44016778 -0.13017203 0.12286623 -0.031415228 -0.2348016
-0.028160382 -0.49090287 0.3686793 -0.49371088 -0.22895005 -0.09105598 -0.22726415 0.2136413
-0.6154657 0.27108607 -0.50635624 -0.056408726 -0.10991466 -0.4186052 -0.22948515 -0.48967117
-0.25550386 -0.45034155 0.26115772 -0.17046216 -0.4398405 0.002759993 -0.3518247 -0.2511351
-0.21538763 0.056642495 0.14630616 -0.5218942 0.001868045 0.24864198 -0.18347748 -0.60826933
0.065128915 -0.30446297 -0.5465409 0.19224577 -0.1869359 -0.094819866 -0.16186969 0.12715939
-0.12228512 -0.29644588 0.28908408 -0.3943975 0.0025505584 -0.022716662 -0.52136374 0.09412407
0.012854448 -0.10464129 -0.06872305 -0.008173504 -0.38350227 0.35008773 -0.43152383 -0.32590485
0.046370964 -0.1358082 -0.44527906 0.05133794 -0.3464495 -0.33611578 -0.01576525 -0.4461223
0.12128267 -0.46188614 -0.36663797 0.080175325 -0.2950682 -0.21750969 -0.45504534 0.20030522
-0.22052515 -0.43668783 -0.27165753 0.27863032 -0.056954984 0.17118593 0.13593987 -0.72936064
-0.49754095 -0.34462976 -0.14198881 0.31268048 -0.23082969 -0.27409592 0.24969985 -0.09536407
-0.01248083 0.02307806 0.070110306 -0.37273824 0.14408234 -0.5819363 0.1253307 -0.3905769
-0.10876445 -0.12274799 -0.28916255 0.20959818 -0.33814448 0.2644522 -0.4242697 -0.23980269

net.0.bias f4 [128]
00000000: b84f fabe da9d 2ebe 442d 633e f5bd b73d
00000010: a753 e6be 6ad8 733e 200f babe e30f 39bf
00000020: 10dd e0be 31ce 4f3e d20e 9f3e fe46 c8be
00000030: eeda a13d ff51 9ebf 0939 b0bf db9f 613e
00000040: 14b7 0c3e 7852 9a3e 1f37 d13c a6b4 c3be
00000050: 7d5c 56bf 2e69 6dbe 5658 83be c76b 23bf
00000060: 1e08 903e 9ca5 2c3e ff02 2fbe fa0d 4dbe
00000070: 96a2 08be 5aec f2bd fffb 1740 d373 edbe
00000080: b08b f8be b060 9cbe 5987 e4bd 5f12 3f3f
00000090: 7e4e 34be 466e 183e 31df 8abe 0b5f 38bf
000000a0: 04bb 85be 4005 ab3d bd01 bb3e e60f 99be
000000b0: 6bce 783e f088 b13d 64f0 bd3d 0800 17bf
000000c0: 5dd6 9c3e 9dfe a73e 7f1e e23d a296 dabe
000000d0: 7735 2bbf 90a8 d73d aa09 4ebe 9c27 2dbe
000000e0: 245e 41be 04c5 88be a0fc 8f3e 5f01 68be
000000f0: d620 6cbf 332f f1bd 66fa 78be 452e bd3c
00000100: 5cfe 123e 5b90 adbe 4007 f13e 85af 26ba
00000110: 0183 333f f631 b2be 0e7d 8fbe 5c2b 173e
00000120: b536 57be 8efe 9d3e 1e66 df3c 194d 573e
00000130: f4b5 833e db8d c13d a3ba c3bf 0099 bb3b
00000140: 4a74 113e e982 c6be ac08 65be 3a27 b9be
00000150: 57ce c4be ea24 4c3c aedf aa3f 0712 00bf
00000160: a46d e8bc a337 46be 282d 873e 4a54 03be
00000170: 6dcb c6bf f3df ae3d 9ca9 78be da2e 09bf
00000180: 7abd f5bd 8859 27be 00cd 273d b4ce c9bf
00000190: 9862 e4be a2af c3be 1a74 8d3e d787 ff3e
000001a0: c836 083e e160 85be d70b 1a3e d22c 06bd
000001b0: 85bb a53e fee6 b63e 33a4 333e 3264 98bd
000001c0: b498 31be ac24 43bf 2e8b e13e 7b90 e93c
000001d0: fdaa ee3d 819e 7cbe 892f 07bf 16a0 153e
000001e0: 8629 6dbe 90e9 733e cd64 40bf 8097 2dbe
000001f0: 41e1 88be 4207 ffbe ba34 c8be 5cbf 8d3d
-0.48888946 -0.17052403 0.22185236 0.08971778 -0.44985697 0.23813024 -0.36339664 -0.72289866
-0.43918657 0.202935 0.31065995 -0.39116663 0.07903086 -1.2368773 -1.3767406 0.22033636
0.13741714 0.30141044 0.02553898 -0.3822376 -0.83734876 -0.23184654 -0.25653332 -0.6383633
0.28131193 0.1686005 -0.17090987 -0.20024863 -0.13343272 -0.11861487 2.3747556 -0.4637743
-0.48544073 -0.30542517 -0.11158628 0.7463741 -0.17608067 0.14885816 -0.27123407 -0.72020024
-0.26119244 0.08350611 0.36524764 -0.29894942 0.24297492 0.08668697 0.092743665 -0.5898442
0.30632296 0.32811442 0.11040973 -0.4269305 -0.66878456 0.105301976 -0.20120874 -0.16909641
-0.18883568 -0.2671281 0.28122425 -0.22656773 -0.92237604 -0.11776581 -0.2431427 0.023093352
0.14354843 -0.33899197 0.47075844 -0.0006358552 0.7012177 -0.34803742 -0.28025097 0.14762634
-0.21016963 0.30858272 0.027270373 0.21025504 0.25724757 0.09450885 -1.5291332 0.005725026
0.14204517 -0.38771752 -0.2236659 -0.3616274 -0.38438675 0.012459973 1.3349512 -0.5002751
-0.028372593 -0.19357161 0.2640164 -0.12825122 -1.5530831 0.08538809 -0.24283451 -0.53587115
-0.119990304 -0.16342747 0.040966988 -1.5766206 -0.4460647 -0.38219935 0.2762764 0.49908325
0.13302147 -0.26050475 0.15043579 -0.032757588 0.3236963 0.35723108 0.17543106 -0.07440986
-0.17343408 -0.7622783 0.44051498 0.028511276 0.11653707 -0.2466984 -0.5280691 0.14611849
-0.23160371 0.23819566 -0.7515381 -0.16952324 -0.26734355 -0.49810225 -0.39102727 0.069212645

net.2.weight f4 [128, 128]
00000000: aebb 57bd f592 a0bc fe6a 2bbd a4f3 99bb
00000010: 5df4 a8bc cbd0 b03b 437f 453d 7518 17be
00000020: f888 58bc 2475 89bd 080a 18bc 15b5 99bd
00000030: 2c82 92bc 9ec2 c9bd cafe 07bd ba09 80bd
00000040: 0d8e 89bd f0ea 3abc e6e1 48be 4a0a 1dbc
00000050: 34c8 a6bc d79e a6bd 0688 a03d efd2 57bc
00000060: 1ee1 243d 2819 d93c 1a7d 00bd c3c1 07bd
00000070: 4174 cf3b b630 903d 7476 a0bd 88da 553d
00000080: 54e3 adbd af9b 8cbd a57c a4bd a06d d13d
00000090: dff4 363d 1560 7fbd d632 2dbd c83d 0dbc
000000a0: c3f3 833d e8b5 e43c dfbd 5abd 4f32 983d
000000b0: 9ee1 793d 80ba 90bd 1dcc ebbd 92ff d4bd
000000c0: 10ba 003d e8a2 5c3d ce69 963c c486 d73c
000000d0: 0126 e3bc f25d 143d 61e4 8a3d ce81 583d
000000e0: 6fa3 adbd 2026 643d eb1d a53d 5cdb 503c
000000f0: 34f1 52bd e690 adbd 7f8c d83b f732 0ebd
00000100: 8a6d 1dbd 706e a23c c844 6bbd 9f93 9d3d
00000110: 28b3 ab3b 6b48 a6bd 6cdb b4bd 24f8 afbd
00000120: 9513 b43c abed 81bd a0de 4b3c 9e0c 723d
00000130: fd87 a23d 6112 9fbd 61ca a0bb 101e 33bc
00000140: b6fb 85bd e965 ae3d 4c2c 17bd d562 20bd
00000150: 58a3 f03a 6bc6 873d 2893 2dbd 293b 0abd
00000160: bc5b c43a cc8a ddbc ac17 9f3c 5054 2a3c
00000170: 496f 05be 80d4 923a 9ca3 17bd a38f 95ba
00000180: d332 dabb a110 a43d 683c 323c 6968 59bd
00000190: 223f 2cbd ccf5 acbd f8a9 353b 1e5d a0bd
000001a0: 6f23 a4bd 55b5 853b 31a0 34be 188d 913d
000001b0: 163d babd c8fd b6ba c57f 9f3d fc7b 213d
000001c0: bf56 3b3c da77 dcbc c95c a83d 6719 a83d
000001d0: fa2b 9bbc 0081 703a 60e7 3c3b 99fe 96bd
000001e0: 7d56 96bd 0d37 8d3d 714b 01bd 2bfe a33b
000001f0: d8a3 773c a846 35bc e505 9c3d cd8a 40bd
00000200: 3045 1cbc 78a4 27be dc4e 8dbc f90f 9abd
00000210: c81f 5c3d 5af4 29bd 5487 d5bd 963d 23bb
00000220: 603d 49bb 6050 c7bb 04d2 b4bc ec36 a2bd
00000230: d8ae afbd 3845 3bbd bfb5 fdbb 015d 31bd
00000240: 32bb 033d b39b da3d 9697 7dbd 848f acbd
00000250: e98b ebba bbc2 623d 07d5 b2bd e9ba 11bd
00000260: c8e4 87bd 6ba0 b8bd 7345 5ebc 489d c8bd
00000270: 3e47 01bd 9e32 483d b4dc e1bd 03e6 44bd
00000280: a613 66be 2d39 9fbd 936a 8ebd 7969 8d3d
00000290: 99bf e03c 03a8 6d3d 979c b13d d7b2 81bc
000002a0: bf0b 813d 302a d53b a2f1 86bd e35b 943d
000002b0: ffee cfbd d774 343b 0d10 94bd e28b e2bd
000002c0: 629b 123d 301c af3b 9113 dcbd d52c 7fbd
000002d0: 5203 7ebd 529c 73bd 092f 13bd 7a64 7a3d
000002e0: f839 4f3c 8917 16bd e3f4 acbd edda 153d
000002f0: c795 babd dd24 1abe 68bd 9dbc 5da1 aebc
00000300: 6afc 703d c883 053d e06d 6d3b 99f0 873d
00000310: 9480 05be 0b27 a6bb c358 7dbd 53b5 a4bd
00000320: ab99 31bd bd2c 86bd 8825 5bbd 9732 a03d
00000330: 8fa0 80bd c243 1cbd 1e1f e8bc 1072 e03b
00000340: b726 27bc 86dd d3bd f87f f8bc 61bb be3b
00000350: f0c6 663d 0534 fcbd 03a1 1a3d 38c6 1a3d
00000360: 62f3 ab3d a5ad 05be 0cde f43c ddb4 bebd
00000370: 3416 83bd 042e 55bd 2b39 43bd 410d 45bd
00000380: 8368 903d ff86 813d f617 2b3d f7c7 27be
00000390: fa8c 05bd 2605 31bc 2f23 abbd 0457 2cbd
000003a0: d600 323d 18be ba3c 9549 1b3c cc6b b23d
000003b0: 1a47 24be 7420 6dbd 996f 933d fda6 63bd
000003c0: eed3 44bd 9577 04be b663 89bd 10ba 80bb
000003d0: ef1c ac3d b869 77bd 3e67 f8bc ec5a b53a
000003e0: 724b 9b3c 7436 8abd 2bf6 debc bc34 0abe
000003f0: ea55 31bd 2eaa 613d a5dc 88bd 4681 213d
-0.05266922 -0.019601325 -0.041850083 -0.0046982337 -0.020624334 0.005395984 0.04821707 -0.14755423
-0.01321625 -0.06711796 -0.009279735 -0.07505242 -0.017884336 -0.098515734 -0.03320197 -0.06251855
-0.06716547 -0.0114085525 -0.19617423 -0.009584973 -0.020359136 -0.08135765 0.078384444 -0.013172849
0.04025375 0.026501253 -0.031369306 -0.03314377 0.006330997 0.07040541 -0.07835093 0.05221036
-0.08490625 -0.06865632 -0.080315866 0.102259874 0.04466712 -0.06234749 -0.04228481 -0.008620687
0.06442978 0.02791877 -0.05340373 0.074314706 0.06100618 -0.07066822 -0.11513541 -0.10400309
0.031427443 0.053866297 0.018360998 0.026309378 -0.027728083 0.036222406 0.06781841 0.052858166
-0.08478438 0.05570042 0.08062347 0.012747612 -0.05149956 -0.08474903 0.0066085453 -0.034716573
-0.038434543 0.019828051 -0.05743864 0.07694172 0.005239863 -0.081192814 -0.08830914 -0.08592251
0.021981994 -0.0634416 0.012443215 0.059094064 0.07936094 -0.077671774 -0.004906938 -0.01093246
-0.06542151 0.085155316 -0.03690748 -0.039156754 0.0018359227 0.06629642 -0.042376667 -0.033747826
0.0014980952 -0.027043723 0.019420467 0.010396078 -0.13030733 0.0011202246 -0.037021264 -0.0011410605
-0.0066588908 0.08010984 0.01087866 -0.05307809 -0.042052396 -0.084453195 0.0027719717 -0.07830261
-0.08014571 0.0040804544 -0.17639233 0.071069896 -0.090936825 -0.0013961131 0.07788042 0.03942488
0.011434256 -0.026912618 0.08220822 0.0820797 -0.018941868 0.0009174496 0.0028824434 -0.073727794
-0.07340715 0.06895266 -0.031566087 0.0050046644 0.015114747 -0.011064209 0.07618312 -0.04700737
-0.00953798 -0.16371334 -0.017249517 -0.07522578 0.053741246 -0.041492797 -0.104262024 -0.0024908534
-0.0030706748 -0.0060825795 -0.0220728 -0.07920632 -0.08578271 -0.04572031 -0.007742613 -0.043301586
0.032160945 0.106742285 -0.06191214 -0.08425811 -0.0017970774 0.05536149 -0.08732038 -0.035578642
-0.066354334 -0.09014972 -0.013566363 -0.09795624 -0.031562082 0.048876397 -0.11028424 -0.04807092
-0.22468433 -0.07774577 -0.06953921 0.06904883 0.02743511 0.058021557 0.08672445 -0.015832348
0.063010685 0.0065052733 -0.065890566 0.072440885 -0.10153007 0.0027535462 -0.07229624 -0.11061837
0.035792716 0.0053439364 -0.107459195 -0.062298615 -0.062014885 -0.05947525 -0.035933528 0.06113098
0.012648098 -0.03664354 -0.08445146 0.036585737 -0.09110599 -0.15053125 -0.019255355 -0.021317178
0.05883447 0.03259638 0.003622882 0.06637687 -0.1303733 -0.0050705723 -0.061852228 -0.08042397
-0.04335944 -0.06551502 -0.05350259 0.07822149 -0.06280624 -0.038150556 -0.02833515 0.006849535
-0.010202101 -0.103449866 -0.030334458 0.005820677 0.056342065 -0.123146094 0.03775121 0.037786692
0.08396031 -0.13054521 0.029891036 -0.09311841 -0.06400719 -0.052045837 -0.04766194 -0.048108343
0.07051184 0.063245766 0.041770898 -0.16384874 -0.03260515 -0.01080445 -0.0835632 -0.042075172
0.04345783 0.022795722 0.009477993 0.08711967 -0.16042748 -0.057892278 0.0719902 -0.055579174
-0.048053674 -0.12936242 -0.067084715 -0.0039284304 0.08403956 -0.060403556 -0.030322667 0.0013836301
0.018956874 -0.06748667 -0.027216991 -0.13496679 -0.043294825 0.055093937 -0.066827096 0.039429925

net.2.bias f4 [128]
00000000: b073 2d3b 4a46 47bd b697 52be e0b6 f1bd
00000010: a44d 0cbd 4bb6 23be 8d39 55be c126 423d
00000020: cebc 6fbf 88b0 493c 3f0d 3c3d b979 d7bd
00000030: 7939 ad3c 61e3 0fbd bf1f 56bd 1e84 64bd
00000040: 675f 23be e431 0dbe db2c e4bd 9569 7bbc
00000050: eae9 0ebe 1175 28be 2fec 4fbe 0068 60bd
00000060: 6eeb aabc e9f9 65bd 88a5 d4bc 2193 c2bd
00000070: 08c5 bebd c597 a0bd a5c2 17bc cde3 bcbc
00000080: 795b 7dbd f870 99bd d165 a0be 6e8a 79bd
00000090: e1ab 183d 6674 35bd 0874 0abe 393f d4bd
000000a0: c0a2 f5bd 0cc0 e6bd 8b15 27bc cfdd 3cbd
000000b0: b584 29be ecc7 05be 03da febe 88d6 e3bd
000000c0: 22de 6cbe 5c16 27bd f7cf 5f3d 7024 6ebe
000000d0: 5cbf acbd f6d6 46be 9d6c d1bc f995 753c
000000e0: b1b9 c5bd 75da aabd a934 ccbe 2996 dbbd
000000f0: 46d9 e8bd 1e57 fdbd 28f6 2ebe fb89 3abd
00000100: b25a 96bd f646 e7bd 078e 19be 917a c4bd
00000110: b5c0 e9bd a583 78bd 8c5c 9bbd 4ff2 9a3c
00000120: 502e 5ebe 1eac 3abc 2213 4fbe f166 11be
00000130: 8048 963d 81a4 05be 4060 a93c 872b debc
00000140: 476e 2bbd bbcb c1bd adb0 11bd 578f 63bc
00000150: 1196 dfbd ce57 9cbd 03f3 163d d64a 25be
00000160: a06a 60be 4686 fbbd 37a6 a23d 6e41 c4bd
00000170: b100 b7bd 0eac 97bc c1ab 5abd d19d 9bbd
00000180: 4f07 ffbd b6f7 24be 798e 9cbd 9385 5dbd
00000190: f607 293c bcd6 203d 55bd debd ab80 24be
000001a0: 1834 8ebd 7e8f c4bd 9742 67bd be86 123f
000001b0: 8a72 f0bd f495 50bd fdfb cfbd b24d dcbd
000001c0: f312 aebc ceaf 0cbe f034 ccbb 1b75 4ebd
000001d0: 6dd0 81bd a5a8 12bd 764e c6bd c226 243e
000001e0: 805a a7bd 3fe7 82bd 1965 f4bb 773e 72be
000001f0: 876f 7cbc 2636 a1bd 58c8 e0bd acb9 85bc
0.002646666 -0.048651017 -0.20565686 -0.11802459 -0.03425373 -0.15987508 -0.20822735 0.04740024
-0.9364747 0.012310155 0.04591107 -0.10521264 0.02114557 -0.035128955 -0.05227637 -0.05579006
-0.15954362 -0.13788563 -0.11141368 -0.015344997 -0.13956419 -0.16450907 -0.2030494 -0.054786682
-0.020864215 -0.056146536 -0.025957838 -0.09500719 -0.093149245 -0.07841448 -0.0092627155 -0.023057843
-0.061854813 -0.0749225 -0.3132768 -0.060923032 0.03727329 -0.04430046 -0.13520825 -0.10363621
-0.11993933 -0.11267099 -0.010198007 -0.04610997 -0.1655453 -0.13064545 -0.49775705 -0.11124903
-0.23131612 -0.040792808 0.05464169 -0.23256087 -0.084349364 -0.19417939 -0.025564486 0.01498937
-0.096545584 -0.083424486 -0.39883927 -0.10722 -0.113695666 -0.12370132 -0.17086089 -0.045541745
-0.073415175 -0.112928316 -0.14995585 -0.0959369 -0.11413709 -0.06067242 -0.07586011 0.01891437
-0.21697354 -0.011393575 -0.20222142 -0.14199425 0.07338047 -0.13051035 0.020675778 -0.027120365
-0.041853216 -0.09462687 -0.03556888 -0.013889155 -0.10917295 -0.07633935 0.036852848 -0.16141829
-0.21915674 -0.1228147 0.07941859 -0.09582792 -0.08935679 -0.01851466 -0.053386454 -0.075984605
-0.12452566 -0.16110119 -0.07644362 -0.054082464 0.010316839 0.039267287 -0.10875956 -0.16064708
-0.0694353 -0.095976815 -0.05645999 0.5723685 -0.117405966 -0.050924256 -0.10155485 -0.10757007
-0.02124927 -0.13738939 -0.0062318966 -0.05040465 -0.06338582 -0.035805363 -0.09682934 0.1603041
-0.081715584 -0.06391763 -0.007458341 -0.23656641 -0.01540745 -0.07871656 -0.109757125 -0.016323887

net.4.weight f4 [4, 128]
00000000: 8bf3 63bd 6e3b d33d 8696 57bc 87da bb3d
00000010: 2afa 2e3d 7e4e 5a3d 0319 bdbc 3cd8 823c
00000020: eeaf 95bd 7a32 2c3d dea3 c23d 3366 ce3d
00000030: b66f e83d 6c03 42bd 8158 9a38 7be6 83bd
00000040: 8421 98bd f57a dfbc 9171 d2bc 1d67 83bd
00000050: 4079 04bb 1445 f43d 867a 9fbc c503 233d
00000060: f446 faba 3cef 443d 5ad4 8f3d b4e4 41bd
00000070: 7820 00bd 9006 c63c 525f cbbd ac8a b9bd
00000080: 3943 783d 063a f83c c9a1 853c 16b6 aebd
00000090: 147f 96bd 85c9 a23d 5049 22bd 3016 ba3d
000000a0: d24d 8fbb 801e 3c3c d14c c23c 61d0 4b3c
000000b0: ee59 49bd 3ae3 d4bd 8486 0f3e bfce d0bd
000000c0: de29 d13c 61fc f23c d863 303d 808d 0dbb
000000d0: 1ccd 2fbc 0d9d f53c a9e9 ab3d 0005 3a3d
000000e0: 9e0a b83d 0b34 ec3d b002 bb3c 0265 87bd
000000f0: e4f4 473d 2959 fd3c 5313 40bd d314 41bd
00000100: d68f 23bd 842d 5abd 9cf2 353e 2d29 ba3d
00000110: e4fc a73d 8b7e 42bd 5a9f 0a3c cbd3 5fbd
00000120: 7996 2b3e 93cd 4d3c 80f1 a2b9 fcf0 6a3d
00000130: c9ee 723a d41f 74bd 4674 4f3c 9a7e 5dbd
00000140: 64ba 3e3d 788b 053e a222 bb3c cd2a 7abd
00000150: 2f52 233e 2480 27bb cd3f 2cbd 5b35 363d
00000160: d7ca 4dbc c1fc 29bd 1a98 a7bd 3c37 1abd
00000170: f74b 203d c6c4 ee3c ec8e 00bd 8090 03be
00000180: 4df2 efbd 225b c73d 2a78 a63c 22a0 ef3d
00000190: 62cb 70bb 4492 e3bb ea09 113d c2e4 92bd
000001a0: 84fa 0abe cccd 81bd bf55 42bc 55f4 56be
000001b0: 80cb 06be 68e7 79bd 5fd1 903d e760 e23d
000001c0: 4266 fb3b a316 88bd 282f f3bc 416c 24bd
000001d0: bf22 25bc fdf4 b0bd ae4b 05bd 3c7e 153e
000001e0: a329 4ebb d167 fa3c 2c4f 823a 1e0b 98bd
000001f0: d142 5d3d a9a2 c3bc dacf 4dbc 6611 fa3c
00000200: 1a9e 1c3c f9f9 133d 6ca2 863d 3a4c 4c3d
00000210: 9316 d73c d4de 8d3c f174 f4bc 72e5 77bd
00000220: d49f 193e 93b5 31b9 0def 36be 6b93 0e3e
00000230: 54d9 98bd 37ec d13c 0aac bdbc 9ef8 0fbd
00000240: ea89 01be 299a e13b 3f52 92bc 165f 083d
00000250: da70 fcbc 1043 e03d 31d6 b23c 48b4 e53c
00000260: fea8 d3bb 7020 003c ab60 283d 9adf 87bd
00000270: 24d5 9c3c 486c ec3c 293e e63c 5bae 82bd
00000280: d62e 1f3d 25bb c03d 6f62 93bc 1ab6 8e3c
00000290: 64bf 913d a992 1e3d b81a abbc 07e1 34be
000002a0: bf48 46bd 43b3 183d 2e3e 983d 7109 7e3d
000002b0: 6ad7 b03c e6ca 33bd 57e8 de3d f746 f1bc
000002c0: 1b2a a63c 328f b0bc 970c 0d3d 9d07 353d
000002d0: 61eb bfbd 82e9 a23c 3087 a9bd 29c0 bf3b
000002e0: 08d9 7fbc 94d6 9b3d 3029 c93d 5506 e13c
000002f0: d557 8fbd 066e 9ebd 6b7b e9bb 326e c13d
00000300: e045 15bd 689a 79bd 64d4 9f3c 6fff 95bd
00000310: 716b 8abd e5e9 6cbd 8501 8ab9 56df 3cbd
00000320: 5283 ed3d 126d 5dbd 6ce2 1a3d 3900 783c
00000330: 289c 0d3c f844 863d 2af5 283d 8425 953c
00000340: aa40 dfbd 2824 3dbd 7a5f 883d b498 80bd
00000350: 9199 4a3d 47ee 6abd 32df 163d bbb6 78bc
00000360: fad2 103c 4daf dc3c be67 f4bd c72f 193d
00000370: 2b8f 163d 26bb 0abd ac0e ae3c 181c 673e
00000380: 2717 a43c 10c6 263e fea0 af3c 09e9 78bb
00000390: a334 f13b 1af6 f4bd bb84 3dbd 87ac 83bc
000003a0: 5b96 c5bc 36f7 b1bc 316a f7bc f5e0 99ba
000003b0: 76ae 96bd 0030 a039 5584 8ebd 86d3 3ebd
000003c0: 4732 3abd 03eb 2a3d 9d7d 56bb cfa2 fcbc
000003d0: 8df6 79bc 89d5 923a a529 7b3d e9c7 503c
000003e0: 49cb 29be 20c7 303d 4ec6 843c 62fc 12bd
000003f0: 4714 15be 210a 3a3c 8ff9 853d ce58 53bb
-0.055652183 0.1031407 -0.013158446 0.0917254 0.042719044 0.053297512 -0.023083216 0.01597225
-0.073089465 0.042040326 0.095039114 0.10078087 0.11349432 -0.047366545 7.3597774e-05 -0.06440445
-0.074282676 -0.02728031 -0.025688918 -0.06416152 -0.0020213872 0.11927238 -0.019467603 0.039798517
-0.0019094632 0.048079714 0.07022925 -0.04733725 -0.031280965 0.024173051 -0.0993029 -0.09059653
0.060610984 0.030301105 0.016312497 -0.08530824 -0.07348457 0.07948593 -0.039620697 0.09086263
-0.0043732906 0.011481881 0.02371827 0.012439818 -0.04915803 -0.103949025 0.14016157 -0.10195684
0.02553266 0.02966136 0.04306397 -0.0021599233 -0.010730054 0.029982114 0.083941765 0.045414925
0.089864 0.11533364 0.02282843 -0.066110626 0.04881753 0.030926304 -0.04689343 -0.047139
-0.039932095 -0.053266063 0.1776833 0.09089885 0.08202532 -0.047483962 0.008460844 -0.05464534
0.1675662 0.01256122 -0.0003107898 0.057358727 0.0009267149 -0.059600666 0.012661999 -0.054075815
0.046564475 0.13041484 0.022843663 -0.061075974 0.1594932 -0.0025558555 -0.042053033 0.044484477
-0.012560568 -0.04150081 -0.08183308 -0.03765033 0.039134946 0.029146563 -0.0313863 -0.12848091
-0.11716137 0.09734179 0.02032097 0.11700465 -0.003674232 -0.0069449265 0.035409845 -0.07172538
-0.13572127 -0.06338081 -0.011861264 -0.20991643 -0.13163567 -0.0610117 0.07071184 0.11053639
0.007672102 -0.066449426 -0.029685572 -0.0401423 -0.010079085 -0.08640478 -0.032542877 0.14598936
-0.0031457923 0.030567082 0.0009941808 -0.074239954 0.0540188 -0.023881273 -0.012561763 0.030525874
0.009559179 0.036127064 0.06573948 0.049877383 0.026255881 0.017318167 -0.029840918 -0.06052155
0.15002376 -0.00016947677 -0.17864628 0.13923423 -0.07463327 0.025625331 -0.023153324 -0.03514921
-0.12650266 0.0068848324 -0.017861484 0.033293806 -0.03081553 0.10950291 0.02183065 0.028040066
-0.0064593544 0.007820234 0.041107815 -0.066344455 0.019144602 0.028860226 0.028105812 -0.06380912
0.038863026 0.09410695 -0.017991273 0.017420817 0.07116583 0.038714085 -0.020886764 -0.17663966
-0.04840922 0.037280332 0.07433735 0.062020723 0.021587092 -0.04389467 0.10884159 -0.029452784
0.02028375 -0.021552656 0.034435835 0.044196714 -0.09371067 0.019886736 -0.08277738 0.0058517647
-0.015615709 0.07609287 0.09822309 0.02746884 -0.069991745 -0.07735829 -0.0071253083 0.09444846
-0.03644359 -0.06093827 0.019510455 -0.07324111 -0.06758774 -0.057840247 -0.00026322543 -0.046111427
0.11597313 -0.054059096 0.03781359 0.015136772 0.008643188 0.065561235 0.04124943 0.018206365
-0.109010056 -0.04617706 0.06658836 -0.06279126 0.04946286 -0.057356145 0.03683395 -0.015180285
0.008839363 0.026939059 -0.1193385 0.03739908 0.03675763 -0.033869885 0.02124723 0.2256931
0.020030571 0.16286492 0.021439072 -0.0037980697 0.007361011 -0.11961003 -0.04626916 -0.016073478
-0.024119547 -0.021724325 -0.030202003 -0.0011740016 -0.073574945 0.0003055334 -0.06958834 -0.046588443
-0.045458104 0.04172803 -0.003272868 -0.030839352 -0.015256536 0.0011202554 0.061319012 0.012742975
-0.16581453 0.04315865 0.01620784 -0.035885222 -0.14558516 0.011354954 0.0654174 -0.0032248977

net.4.bias f4 [4]
00000000: 3f09 dd3e 1b46 623e ef3a 573e fa3e 9e3d
0.43171117 0.22097056 0.21018575 0.077268556
