Entities/pained_nav.pth (torch, 149817 bytes, 6 tensors)

net.0.weight f4 [128, 78]
0.044124734 -0.053976014 0.01898722 0.10092731 -0.10142016 0.02660879 0.094889 0.09913901
-0.030801397 0.0063669686 -0.08107264 0.016718708 -0.0015125625 0.045815367 -0.045530215 -0.04649158
-0.093155555 -0.0963639 0.032609247 0.064341985 -0.08987507 0.027500724 0.054194532 -0.09041186
-0.045751125 -0.038726725 -0.048370134 -0.042216618 0.09907145 -0.121211395 0.058418784 -0.06694323
-0.095213495 0.010588247 0.09855901 -0.082003646 -0.03821356 -0.123502485 0.04672447 0.0782192
0.079273984 0.030626154 -0.10655192 -0.034585226 -0.02263588 -0.022830151 -0.016137654 0.020987486
0.025598815 0.035186984 0.030583113 -0.018445466 -0.05022725 -0.07851777 -0.067185536 -0.008383249
-0.017898474 0.0058927503 -0.120095134 -0.000604892 -0.050158802 0.013666997 -0.0069516804 -0.00037454278
-0.12020036 0.04013768 0.061036993 -0.0047821873 0.033351913 -0.03699639 0.036089867 0.044312976
-0.029545449 -0.02381665 0.031963106 -0.11865879 -0.0801203 0.09829771 -0.06770877 -0.047622293
0.06417089 -0.04956301 0.084458336 0.039654333 0.022696564 -0.09261651 0.03412952 -0.08031931
-0.11938673 0.09459737 -0.008737487 0.07615848 -0.046917796 -0.07251336 -0.025869269 0.018911222
0.061853632 -0.08246075 0.02460281 -0.05664684 -0.10426592 -0.0632681 0.053082414 0.06597272
0.049643952 0.03626701 -0.13821411 0.027571846 -0.037460398 -0.11342334 0.040855613 -0.045321535
-0.09294146 0.07279379 0.030470459 0.02902474 0.07492279 0.012607703 0.03795439 -0.11692706
-0.08456718 -0.042757664 0.009488168 0.08126696 0.09908852 0.04312107 -0.078505576 0.028408332
0.0938905 0.09575827 0.049885504 0.0048193024 0.09973438 0.055928767 -0.09917202 0.018506357
0.07066174 -0.033226185 -0.061820418 -0.041793995 -0.05204327 -0.110343695 -0.062470067 0.070801854
0.055278894 0.014000846 -0.0450319 0.04108977 0.030507097 -0.00032359402 -0.0302129 -0.10361602
-0.0076862704 0.09700556 0.068483345 -0.013039453 -0.051063515 -0.013657015 0.029105246 -0.037027195
0.10287086 -0.037677586 -0.08326198 0.07468955 -0.0006278662 -0.019486217 -0.03697442 -0.071306475
0.00018896998 -0.053630225 0.052967366 0.03829898 0.027152281 -0.0019697847 0.085022554 -0.13092028
0.015490233 -0.022174072 0.002620047 -0.035474848 0.030994078 -0.10212059 -0.059985816 -0.04825567
0.00790288 0.093055375 -0.04195798 0.106934406 -0.022098364 -0.09517237 -0.09404355 0.03894351
-0.1146895 -0.047656663 -0.08996297 0.05364255 -0.105829924 0.071752146 0.008616969 -0.118837096
0.020002576 -0.007882434 -0.04069609 0.07654356 0.07062939 0.104090236 0.042917345 -0.10114888
-0.009284744 0.028802676 0.0038057219 0.100256555 0.08905382 -0.09959907 -0.11178428 0.08500585
-0.07342397 -0.08079953 -0.06299692 -0.09425626 0.06220097 -0.07199616 0.03317619 0.011703605
0.08842084 -0.07694931 0.06458205 -0.039542906 0.11079109 -0.10780939 0.10149676 -0.055001866
-0.047691032 0.07038867 -0.0352382 0.06408943 0.043665018 -0.08954139 -0.08086444 0.08017849
-0.06970055 -0.08369886 0.05541132 -0.08477245 -0.061291754 0.047994565 0.013520582 -0.10694465
0.07021902 0.06834052 -0.08384785 0.073768094 -0.037240013 0.022883601 -0.08534657 0.07083941
00000000: 23bc 343d f415 5dbd 168b 9b3c fab2 ce3d
00000010: 5fb5 cfbd adfa d93c 2a55 c23d 6509 cb3d
00000020: 3653 fcbc 01a2 d03b 6a09 a6bd acf5 883c
00000030: 2d41 c6ba e5a8 3b3d e47d 3abd f46d 3ebd
00000040: 57c8 bebd 705a c5bd 4691 053d bbc5 833d
00000050: 6c10 b8bd 3349 e13c 16fb 5d3d da29 b9bd
00000060: 8865 3bbd ea9f 1ebd c31f 46bd 55eb 2cbd
00000070: f9e5 ca3d ae3d f8bd 8948 6f3d 8819 89bd
00000080: 4bff c2bd 547a 2d3c 4ed9 c93d 87f1 a7bd
00000090: d285 1cbd dfee fcbd 2862 3f3d 6331 a03d
000000a0: 665a a23d b3e3 fa3c e537 dabd 3da9 0dbd
000000b0: e26e b9bc 4c06 bbbc 1d33 84bc f3ed ab3c
000000c0: 9bb4 d13c 3a20 103d 7089 fa3c f21a 97bc
000000d0: 17bb 4dbd edcd a0bd 9298 89bd e559 09bc
000000e0: d29f 92bc f917 c13b 70f4 f5bd 9d91 1eba
000000f0: 5173 4dbd 8aeb 5f3c ecca e3bb 485e c4b9
00000100: 9b2b f6bd 6867 243d ed01 7a3d e5b3 9cbb
00000110: 049c 083d 8789 17bd f8d2 133d 8681 353d
00000120: 4c09 f2bc 231b c3bc bfeb 023d 6103 f3bd
00000130: 1d16 a4bd 4f50 c93d e5aa 8abd 980f 43bd
00000140: 076c 833d 9502 4bbd 7ef8 ac3d 956c 223d
00000150: 25ee b93c baad bdbd 65cb 0b3d 737e a4bd
00000160: 0881 f4bd 44bc c13d ad27 0fbc faf8 9b3d
00000170: e02c 40bd e281 94bd caeb d3bc b5eb 9a3c
00000180: 3c5a 7d3d 2fe1 a8bd d58b c93c 8406 68bd
00000190: 5f89 d5bd b592 81bd f26c 593d b51c 873d
000001a0: 7557 4b3d b78c 143d 0088 0dbe 5ade e13c
000001b0: 1370 19bd 7f4a e8bd 3758 273d 13a3 39bd
000001c0: 1858 bebd e914 953d 2f9d f93c 4bc5 ed3c
000001d0: 1f71 993d 8a90 4e3c 1076 1b3d 7477 efbd
000001e0: 8f31 adbd a922 2fbd 4374 1b3c 4b6f a63d
000001f0: ecee ca3d b89f 303d 88c7 a0bd 97b8 e83c
00000200: aa49 c03d e91c c43d be54 4c3d 3deb 9d3b
00000210: 8a41 cc3d 9015 653d b31a cbbd a59a 973c
00000220: 1ab7 903d 2e18 08bd 6837 7dbd 2e30 2bbd
00000230: 532b 55bd e0fb e1bd 9de0 7fbd 9000 913d
00000240: 1f6c 623d ce63 653c 5f73 38bd bf4d 283d
00000250: 05ea f93c 0ea8 a9b9 0b81 f7bc a334 d4bd
00000260: 1cdd fbbb daaa c63d ff40 8c3d 6ea3 55bc
00000270: fa27 51bd acc1 5fbc 206e ee3c d4a9 17bd
00000280: f5ad d23d d053 1abd 4285 aabd d6f6 983d
00000290: 6397 24ba 8fa1 9fbc 7d72 17bd 2109 92bd
000002a0: 3e26 4639 5eab 5bbd 4ff4 583d 64df 1c3d
000002b0: 766e de3c 8117 01bb 4e20 ae3d f70f 06be
000002c0: bfca 7d3c 66a6 b5bc 18b5 2b3b 134e 11bd
000002d0: 4be7 fd3c 9a24 d1bd b0b3 75bd bda7 45bd
000002e0: 157b 013c d193 be3d 21dc 2bbd 6d00 db3d
000002f0: a107 b5bc bbe9 c2bd e899 c0bd 3b83 1f3d
00000300: 54e2 eabd a233 43bd 813e b8bd 4ab8 5b3d
00000310: 5cbd d8bd caf2 923d 302e 0d3c dd60 f3bd
00000320: 71dc a33c 5325 01bc f1b0 26bd dfc2 9c3d
00000330: 24a6 903d 432d d53d 19ca 2f3d 2527 cfbd
00000340: 0a1f 18bc 97f3 eb3c 6b69 793b 4f53 cd3d
00000350: d961 b63d 99fa cbbd 28ef e4bd 8c17 ae3d
00000360: 4e5f 96bd 397a a5bd 8704 81bd 6d09 c1bd
00000370: 72c6 7e3d b972 93bd c2e3 073d 7ac0 3f3c
00000380: fc15 b53d 9a97 9dbd 9843 843d bef7 21bd
00000390: 70e6 e23d 2bcb dcbd 89dd cf3d a349 61bd
000003a0: ac57 43bd ef27 903d ee55 10bd 5241 833d
000003b0: 17da 323d 7a61 b7bd 419c a5bd 9f34 a43d
000003c0: 29bf 8ebd 4f6a abbd fbf6 623d 2e9d adbd
000003d0: 100d 7bbd f395 443d 6e85 5d3c cc05 dbbd
000003e0: fdce 8f3d 1df6 8b3d 6cb8 abbd ba13 973d
000003f0: fc88 18bd 6476 bb3c 2fca aebd 4114 913d

net.0.bias f4 [128]
0.09095512 -0.07771518 -0.057104006 0.06595058 -0.03152284 0.0113363415 -0.10657631 -0.0349373
0.0020392751 0.05030543 0.008277863 -0.030281924 0.04852958 0.06280259 -0.06569286 -0.02750602
-0.03714458 -0.07485918 -0.057310246 -0.08938398 0.08475194 0.03696248 0.037628613 -0.008262348
-0.113862485 -0.053261567 -0.0067399815 -0.07400615 0.07787739 0.024381489 0.01869859 0.04043483
-0.04497949 0.08332226 -0.05740069 0.06300797 -0.06539768 0.04786271 0.0011427067 0.085259534
0.005714719 -0.061921295 -0.081405655 -0.032218598 0.02881048 -0.08568129 0.08913822 -0.046328884
-0.069405496 -0.002868325 -0.10236052 0.039107572 0.03494283 0.054366637 -0.08684476 -0.09085507
-0.08813716 -0.11961005 0.049726196 0.05711029 -0.10455533 -0.07722202 0.005365012 -0.080525845
0.056803387 -0.08132925 -0.08731318 0.0945961 0.00062852935 -0.05098371 0.07225271 -0.028368413
0.038306035 0.07821408 0.02898653 0.05222772 0.04242331 0.047556087 -0.038131855 -0.048487734
0.05995731 -0.09003459 -0.04440653 0.030806357 0.045824762 -0.10038216 -0.0015385927 -0.047707904
0.093668975 -0.07187078 -0.0022760215 -0.052836295 0.04123461 0.024652986 0.060770884 -0.034212243
0.060776267 -0.018681271 -0.013050664 -0.028964467 -0.10871764 -0.05472289 -0.030964026 0.102378406
-0.027918248 -0.036476087 -0.058855616 0.0020204808 0.094890386 0.042993158 -0.040281817 -0.09599244
-0.11758353 -0.011170876 -0.017719608 -0.11204025 -0.0516605 -0.09401816 0.0027573272 -0.05039097
0.019444218 0.021158138 0.07725847 -0.08694614 0.06858794 0.015407959 0.066831686 0.09529073
00000000: ae46 ba3d 2329 9fbd e4e5 69bd 1911 873d
00000010: 181e 01bd 10bc 393c ae44 dabd 6a1a 0fbd
00000020: 5ca5 053b 110d 4e3d e09f 073c cc11 f8bc
00000030: f4c6 463d a59e 803d fa89 86bd 4e54 e1bc
00000040: ea24 18bd c54f 99bd 26be 6abd f30e b7bd
00000050: 6d92 ad3d f865 173d 7620 1a3d cd5e 07bc
00000060: bc30 e9bd cd28 5abd 10db dcbb 8990 97bd
00000070: 2e7e 9f3d b0bb c73c c92d 993c fe9e 253d
00000080: 6a3c 38bd dca4 aa3d fc1c 6bbd 530a 813d
00000090: 38ef 85bd b00b 443d e0c6 953a 8d9c ae3d
000000a0: 8a42 bb3b 2fa1 7dbd 02b8 a6bd a6f7 03bd
000000b0: f503 ec3c ac79 afbd 198e b63d 5bc3 3dbd
000000c0: 7824 8ebd 82fa 3bbb 64a2 d1bd 432f 203d
000000d0: 3720 0f3d 8daf 5e3d aadb b1bd 3912 babd
000000e0: 4181 b4bd 1df6 f4bd b2ad 4b3d 7bec 693d
000000f0: 1b21 d6bd 9426 9ebd fccc af3b bcea a4bd
00000100: abaa 683d f38f a6bd 41d1 b2bd 9abb c13d
00000110: e4c3 243a 4bd4 50bd 3bf9 933d e064 e8bc
00000120: cae6 1c3d b42e a03d 2975 ed3c bcec 553d
00000130: 11c4 2d3d 2cca 423d 2630 1cbd 139b 46bd
00000140: cc95 753d 0e64 b8bd 9fe3 35bd 9d5d fc3c
00000150: bfb2 3b3d 2995 cdbd 9baa c9ba 5d69 43bd
00000160: 85d5 bf3d fd30 93bd 4e29 15bb df6a 58bd
00000170: 9fe5 283d 0ff5 c93c e4ea 783d 2322 0cbd
00000180: 89f0 783d 7709 99bc 74d2 55bc e446 edbc
00000190: 5ba7 debd 1c25 60bd 45a8 fdbc c5ab d13d
000001a0: cfb4 e4bc f367 15bd 9612 71bd 0b6a 043b
000001b0: e455 c23d 9819 303d 8cfe 24bd af97 c4bd
000001c0: a2cf f0bd 0d06 37bc b628 91bc 5c75 e5bd
000001d0: f699 53bd 988c c0bd 46b4 343b c366 4ebd
000001e0: 7b49 9f3c d553 ad3c b039 9e3d d110 b2bd
000001f0: d577 8c3d aa71 7c3c 0ddf 883d c927 c33d

net.2.weight f4 [128, 128]
-0.088621296 -0.06239854 0.029000966 0.072738335 -0.08502003 -0.07418378 -0.08962516 0.0055761808
0.05798856 -0.08224617 -0.034857195 -0.07339339 0.03642672 0.01939119 -0.005967982 -0.07920569
-0.059178267 -0.04686912 0.06272899 0.009707545 0.014435083 -0.030714653 -0.027226577 0.05998285
0.009311335 -0.01042106 -0.07376242 -0.068767145 0.076207235 0.033477504 0.0045108167 0.070645355
-0.07362757 -0.028245347 -0.06928342 -0.09370782 -0.062147614 0.06541972 0.010656899 -0.06211754
-0.023112997 -0.0331498 -0.029182686 0.033402868 0.055416163 0.03317126 -0.038422357 -0.005322036
-0.008193789 -0.108031414 -0.05362844 0.085627556 0.07462853 0.04248387 -0.08295748 -0.017428322
-0.053559266 -0.03232123 -0.038048495 0.07239893 -0.08457149 -0.024911446 0.048745822 0.046784364
0.026447129 -0.03867011 0.06275326 0.009019029 -0.010854706 0.030056648 -0.06367646 0.067947105
0.07490788 -0.004114459 0.059323546 0.064267635 -0.06349977 -0.05207464 0.04674269 0.020580644
0.0798674 0.038984798 -0.0452598 0.060875323 -0.012643549 0.019410556 0.074263856 -0.051478054
0.07647148 -0.048546366 -0.03215422 -0.033173423 0.03786723 0.076366924 0.0311532 0.04449391
0.05796946 -0.042594485 0.012663889 -0.004824141 0.025994724 0.042408504 0.04142054 0.0037979707
0.077209204 0.054283105 -0.032328248 -0.05424661 -0.08909491 0.06732995 -0.0027980208 -0.027059022
-0.05154908 0.0017148796 -0.050079096 -0.04934653 0.08263772 -0.08236084 0.01325278 -0.06857341
-0.049821127 0.060977954 0.0380457 0.041092638 -0.07060016 0.030005153 -0.036571253 0.023093974
-0.026541054 0.018344264 -0.09183334 -0.009440658 0.0056198966 0.022087432 0.015475441 -0.06349851
-0.06413741 -0.021196263 -0.058834072 0.066083245 -0.038005933 -0.08488411 0.015126042 -0.010402637
0.041154932 -0.040898062 0.055672284 0.042044565 -0.035339963 0.032530718 0.015739962 -0.097167134
-0.063600086 -0.06194049 -0.0538885 0.07432679 -0.08383479 0.008214391 0.09276653 0.0087377895
-0.12540111 0.05891914 0.014785173 -0.00011863335 0.078017615 -0.070594914 0.06988625 0.009483922
0.07936352 0.0052999854 0.016932648 0.071724705 0.0035107508 0.07867948 -0.09391623 -0.07552373
-0.019513575 -0.05728411 0.08411569 0.03584039 -0.053310644 0.045096647 -0.03976465 0.032587804
0.03162928 -0.08557753 0.021336166 0.00032242388 -0.094497494 0.00782821 0.003923759 -0.053409982
-0.07201896 0.06815182 -0.0152252745 0.027427133 -0.08278563 -0.09777698 -0.0485245 -0.03344444
0.0631507 -0.04960624 -0.0029615 -0.0837025 -0.04081744 -0.0926911 0.074788764 0.043592874
-0.015146393 -0.03603327 -0.08753532 -0.057680055 0.02526276 0.051941786 0.06981571 -0.041647386
-0.08972204 0.067862906 -0.040536832 0.045209605 -0.06332677 -0.06838694 -0.06296848 -0.015138834
-0.07047665 0.03171667 -0.05845978 -0.029031238 0.008198279 0.049738824 -0.04397709 0.08144131
-0.08273157 0.03319734 0.04514933 -0.08597045 -0.057661816 -0.049848545 -0.037806313 0.06942865
0.043977596 -0.015939653 0.039715983 0.06306535 -0.020328091 -0.05056813 0.026195431 0.029560303
0.05020504 0.06401978 -0.025325738 -0.011450362 -0.038248807 -0.03509405 0.083744116 -0.07016471
00000000: 157f b5bd 9d95 7fbd 6f93 ed3c d6f7 943d
00000010: fb1e aebd aaed 97bd 658d b7bd 65b8 b63b
00000020: 6a85 6d3d ae70 a8bd 6bc6 0ebd 464f 96bd
00000030: 2f34 153d 46da 9e3c 108f c3bb 9836 a2bd
00000040: e964 72bd d6f9 3fbd 0f78 803d 650c 1f3c
00000050: 2081 6c3c 4c9d fbbc 450a dfbc 94b0 753d
00000060: 928e 183c 18bd 2abc c010 97bd cad5 8cbd
00000070: 8a12 9c3d b51f 093d 79cf 933b 83ae 903d
00000080: 0dca 96bd c962 e7bc 77e4 8dbd e3e9 bfbd
00000090: 7f8e 7ebd c6fa 853d 469a 2e3c f66e 7ebd
000000a0: 7857 bdbc 16c8 07bd 8710 efbc 72d1 083d
000000b0: 0ffc 623d 96de 073d c360 1dbd 7964 aebb
000000c0: 3e3f 06bc 933f ddbd 7fa9 5bbd 805d af3d
000000d0: d8d6 983d 9103 2e3d 9ce5 a9bd d7c5 8ebc
000000e0: f660 5bbd 4463 04bd bdd8 1bbd e445 943d
000000f0: d133 adbd 1713 ccbc b3a9 473d f6a0 3f3d
00000100: a6a7 d83c 8d64 1ebd c884 803d 8dc4 133c
00000110: f0d7 31bc 5c39 f63c ce68 82bd da27 8b3d
00000120: 4d69 993d 95d2 86bb 3ffd 723d c09e 833d
00000130: 2b0c 82bd 384c 55bd 4375 3f3d bd98 a83c
00000140: 8591 a33d 86ae 1f3d 5762 39bd 6758 793d
00000150: e326 4fbc e302 9f3c a617 983d a7da 52bd
00000160: 149d 9c3d 8ed8 46bd 25b4 03bd dbe0 07bd
00000170: ab1a 1b3d 4366 9c3d ff34 ff3c 3f3f 363d
00000180: 6271 6d3d 8e77 2ebd 337c 4f3c d413 9ebb
00000190: e3f2 d43c 8ab4 2d3d 96a8 293d 60e7 783b
000001a0: dc1f 9e3d f657 5e3d a06a 04bd b131 5ebd
000001b0: 6477 b6bd 49e4 893d 005f 37bb e2aa ddbc
000001c0: 2125 53bd d0c5 e03a bd1f 4dbd 961f 4abd
000001d0: f73d a93d cdac a8bd 3022 593c 3770 8cbd
000001e0: 3d11 4cbd 05c4 793d cfd5 1b3d c150 283d
000001f0: d196 90bd 5ecd f53c bdcb 15bd 932f bd3c
00000200: a06c d9bc b646 963c 1e13 bcbd fdac 1abc
00000210: 1c27 b83b b4f0 b43c b48c 7d3c 820b 82bd
00000220: 795a 83bd c9a3 adbc fffb 70bd a756 873d
00000230: 1cac 1bbd b8d7 adbd 38d3 773c d26f 2abc
00000240: 1392 283d ba84 27bd 9f08 643d ec36 2c3d
00000250: a3c0 10bd ee3e 053d 18f1 803c 90ff c6bd
00000260: c340 82bd 50b5 7dbd 30ba 5cbd a538 983d
00000270: 93b1 abbd a795 063c 61fc bd3d f228 0f3c
00000280: 2669 00be 3255 713d 833d 723c cbca f8b8
00000290: b3c7 9f3d 1194 90bd 8620 8f3d 7462 1b3c
000002a0: 5789 a23d 80ab ad3b 56b6 8a3c 67e4 923d
000002b0: a014 663b b522 a13d 2757 c0bd 2fac 9abd
000002c0: efda 9fbc bea2 6abd d944 ac3d 5fcd 123d
000002d0: 435c 5abd 43b7 383d 42e0 22bd ca7a 053d
000002e0: b48d 013d 4643 afbd 2fc9 ae3c 000b a939
000002f0: e787 c1bd e441 003c e092 803b 6dc4 5abd
00000300: ad7e 93bd 2e93 8b3d 6e73 79bc deae e03c
00000310: 838b a9bd 4c3f c8bd a0c1 46bd 0afd 08bd
00000320: 2755 813d ea2f 4bbd ba15 42bb 376c abbd
00000330: 3030 27bd d5d4 bdbd da2a 993d 718e 323d
00000340: 9428 78bc 9f97 13bd b845 b3bd ec41 6cbd
00000350: d9f3 ce3c e9c0 543d 8afb 8e3d 7396 2abd
00000360: 30c0 b7bd b5fb 8a3d f309 26bd b52d 393d
00000370: 77b1 81bd 740e 8cbd 9ef5 80bd df08 78bc
00000380: 1056 90bd 57e9 013d 8673 6fbd ebd2 edbc
00000390: 1352 063c f0ba 4b3d 5221 34bd b4ca a63d
000003a0: 2b6f a9bd eff9 073d 81ee 383d 4611 b0bd
000003b0: cc2e 6cbd fd2d 4cbd cbda 1abd 9c30 8e3d
000003c0: da21 343d e093 82bc 3aad 223d 6828 813d
000003d0: 1987 a6bc 8720 4fbd cd97 d63c 7328 f23c
000003e0: cda3 4d3d cd1c 833d ec77 cfbc 4d9a 3bbc
000003f0: c8aa 1cbd c7be 0fbd 0982 ab3d 84b2 8fbd

net.2.bias f4 [128]
0.034114648 0.031688403 -0.100523405 -0.047193073 -0.07044039 -0.103796475 -0.09653817 -0.011626038
-0.072743416 -0.0733132 0.011592978 -0.064257905 0.05242723 6.288751e-05 0.06660239 0.022602975
0.076781504 -0.010105606 0.05060471 0.0128856 0.031081948 -0.012826262 -0.02381232 0.040615972
-0.0013994839 0.012166461 0.05447714 -0.009025946 -0.07203775 0.02169528 0.021285672 -0.022334768
0.06477256 -0.089760184 -0.024073632 -0.03459811 0.043261796 -0.08616641 0.032301173 -0.089032926
-0.07208777 -0.058032528 -0.043565642 0.0063705808 0.08177886 0.06922853 -0.034750275 0.014138331
-0.090553924 -0.08139591 -0.03350588 -0.034469165 -0.05079975 -0.013102354 -0.072647765 -0.031666562
0.049061466 -0.09430322 -0.077280015 -0.037619594 -0.06839039 -0.035188876 -0.02955032 -0.078298785
-0.019267293 0.053273425 -0.025928935 -0.11307411 -0.058272883 -0.043255888 -0.047012508 -0.034577187
-0.029481586 0.051148243 -0.0072312737 -0.00096359925 0.020870706 0.013016885 -0.07334484 -0.10814962
0.011578567 -0.01039051 0.030163828 0.05781391 -0.068643406 0.061004166 -0.032097377 0.03912266
0.059132002 0.042557925 -0.04000891 0.056482237 0.013428843 0.026471647 0.011550219 -0.1057481
0.07095074 0.055547226 -0.03626569 0.054435976 0.08248208 0.06642124 0.064068906 -0.0910129
0.03908838 -0.089496374 -0.10114031 -0.054299988 -0.028991496 -0.03817116 -0.098937385 0.07487399
-0.042943712 -0.0080517735 0.0049948073 0.030752791 0.0047831265 0.024170587 0.053528234 -0.12132813
0.015992288 0.055269897 -0.07684095 -0.010260739 0.06334508 0.045520924 -0.017909447 0.012135312
00000000: cdbb 0b3d b3cb 013d 37df cdbd 864d 41bd
00000010: 0d43 90bd 3f93 d4bd ceb5 c5bd 237b 3ebc
00000020: 80fa 94bd 3b25 96bd 79f0 3d3c a699 83bd
00000030: efbd 563d 7ae2 8338 d566 883d e029 b93c
00000040: 9f3f 9d3d fc91 25bc e246 4f3d 201e 533c
00000050: 929f fe3c 3e25 52bc 0e12 c3bc ef5c 263d
00000060: e36e b7ba d655 473c 6c23 5f3d 90e1 13bc
00000070: 8788 93bd 4dba b13c 4a5f ae3c 67f7 b6bc
00000080: 7aa7 843d 30d4 b7bd 1136 c5bc bfb6 0dbd
00000090: 4833 313d 0478 b0bd 3c4e 043d e556 b6bd
000000a0: c1a2 93bd 84b3 6dbd e371 32bd 4ec0 d03b
000000b0: ad7b a73d b0c7 8d3d 4e56 0ebd 75a4 673c
000000c0: 5674 b9bd e6b2 a6bd 763d 09bd 8a2f 0dbd
000000d0: 6613 50bd 41ab 56bc 5ac8 94bd ccb4 01bd
000000e0: adf4 483d 0c22 c1bd fc44 9ebd 0117 1abd
000000f0: 4310 8cbd 3622 10bd 8313 f2bc 1d5b a0bd
00000100: 71d6 9dbc 3c35 5a3d eb68 d4bc 6693 e7bd
00000110: 8caf 6ebd 162d 31bd 3090 40bd cfa0 0dbd
00000120: 5e83 f1bc d280 513d 52f4 ecbb 0d9a 7cba
00000130: 0bf9 aa3c c644 553c d235 96bd 8c7d ddbd
00000140: 08b4 3d3c f53c 2abc 221a f73c 47ce 6c3d
00000150: ea94 8cbd 81df 793d 8a78 03bd 153f 203d
00000160: 6634 723d 3851 2e3d 62e0 23bd eb59 673d
00000170: a604 5c3c 11db d83c 213d 3d3c 7692 d8bd
00000180: 9f4e 913d 7d85 633d 558b 14bd 42f8 5e3d
00000190: 5dec a83d dc07 883d 8f36 833d f964 babd
000001a0: 231b 203d e049 b7bd a722 cfbd aa69 5ebd
000001b0: 937f edbc 5d59 1cbd af9f cabd 8957 993d
000001c0: bfe5 2fbd 96eb 03bc 7bab a33b 47ed fb3c
000001d0: c6bb 9c3b 6501 c63c 6c40 5b3d e27a f8bd
000001e0: 4202 833c b062 623d ca5e 9dbd a91c 28bc
000001f0: 11bb 813d 2674 3a3d d5b6 92bc 30d3 463c

net.4.weight f4 [78, 128]
0.014083065 0.015105672 -0.025366731 0.030102648 -0.036786992 -0.0600501 -0.06712734 0.019984908
-0.0010606572 -0.08252693 -0.01770623 -0.080966875 -0.025207207 0.002171047 -0.06273799 -0.080078274
-0.051509865 -0.03949521 0.058871053 0.08016767 0.0065241307 -0.055324756 -0.072210476 0.05335919
0.06555023 -0.017580576 -0.044445716 -0.08691623 0.06202533 -0.041815277 0.084292464 -0.037522063
0.0197858 -0.0802971 0.024481788 0.067124285 -0.08743321 0.03866776 -0.04143125 0.037117876
0.04295408 -0.005137913 -0.032713436 -0.017857313 -0.018716149 -0.054745015 0.034811087 0.04721696
0.05922223 0.04639905 0.035793453 -0.00729914 -0.014209494 0.082958005 0.028561696 0.05749134
-0.054299682 -0.009154305 0.046545036 0.066910245 -0.01977536 0.060686193 0.044815697 0.081497125
0.025382377 0.048941292 -0.06825811 -0.08218815 -0.04705352 0.08552123 -0.06467725 0.058612294
-0.025707193 0.07995068 -0.07120612 0.0739856 0.06502145 -0.059274253 -0.06405168 -0.030157082
-0.041426137 -0.0060994104 0.010541275 0.07553025 -0.025080398 0.0230892 0.035740726 0.03562755
0.03609349 0.048543714 -0.07620543 -0.06692304 0.0036693811 0.035282865 -0.06889311 0.0573202
-0.04327671 0.00041738898 -0.00043595582 0.041344546 0.0023495182 -0.076520376 -0.039125107 -0.02588433
0.08036495 -0.02282647 -0.040086973 -0.021952175 0.07710371 0.00072256476 -0.08571915 -0.023555197
-0.049542673 -0.05728259 -0.058259748 0.07992496 0.084664546 0.018966459 0.060157485 -0.043212056
0.016319975 -0.023895808 -0.032693278 0.010641836 0.08013027 -0.059250534 0.058398493 0.056420736
0.06605766 0.0147423595 -0.02274078 -0.021681285 0.010278333 -0.05550593 -0.05391087 0.08056669
-0.06505505 -0.056261655 -0.07584418 -0.101195164 0.037010275 -0.01595376 -0.022993147 0.037684273
-0.067242876 -0.038694683 0.019226067 0.042994548 -0.054956153 0.05299348 0.0732976 -0.015288888
0.03300818 -0.009930389 -0.025463095 -0.0063825925 0.0053788573 0.084765054 0.027262308 -0.008925253
-0.089649275 0.0011080623 -0.049788017 -0.08173144 0.06397512 0.051046737 -0.094493926 0.04920944
-0.08365467 -0.05551054 0.030696645 0.05604883 0.019101826 0.067773305 -0.08468479 -0.07187676
-0.03317196 -0.04817982 0.0646718 -0.06912646 0.06260418 -0.0081629725 0.0018357735 -0.058012057
0.014537938 0.08320839 0.03542549 -0.046202477 -0.026782205 0.014559327 0.07921806 0.0511531
-0.02039291 -0.07433266 -0.045509618 -0.083259486 -0.036383897 0.0038080907 0.034363493 0.05887467
0.04017402 -0.050794456 0.039866004 0.012671061 -0.07788369 0.08379655 -0.0131295845 -0.020300254
0.038051482 -0.06544354 0.03483689 0.060771767 -0.05245652 -0.062313586 0.025359599 -0.016170442
-0.07004825 -0.009323419 0.03868237 -0.0013489707 0.028557241 -0.049227014 -0.09858628 -0.007145439
-0.06089724 0.09476325 -0.05914289 0.04046228 -0.04930505 -0.065010816 0.08431227 0.03235554
-0.06776566 -0.048915464 0.012018174 -0.07841858 0.0465946 -0.058381777 -0.0030708835 0.06016127
-0.020529509 0.03825576 0.020426847 0.022976687 -0.061804876 0.010364905 -0.055236984 -0.080618985
0.062186666 -0.07347587 0.02684632 0.024356691 -0.049439516 -0.015923508 0.0742166 0.020301344
00000000: a8bc 663c c87d 773c e4cd cfbc d499 f63c
00000010: f5ad 16bd 18f7 75bd 0f7a 89bd 64b7 a33c
00000020: c005 8bba e103 a9bd a80c 91bc f6d1 a5bd
00000030: 587f cebc 2048 0e3b c67c 80bd 1400 a4bd
00000040: 02fc 52bd bbc5 21bd c622 713d f32e a43d
00000050: 60c8 d53b 369c 62bd 16e3 93bd 2a8f 5a3d
00000060: 333f 863d 2405 90bc b60c 36bd 2301 b2bd
00000070: 460e 7e3d 7f46 2bbd 87a1 ac3d bcb0 19bd
00000080: d415 a23c ce72 a4bd 088e c83c 7578 893d
00000090: 2f10 b3bd 1662 1e3d d0b3 29bd ea08 183d
000000a0: 9ef0 2f3d f05b a8bb 86fe 05bd 8049 92bc
000000b0: 9c52 99bc 4f3c 60bd 1296 0e3d 9266 413d
000000c0: 0293 723d ee0c 3e3d 289c 123d a02d efbb
000000d0: f0ce 68bc e3e5 a93d 38fa e93c 0a7c 6b3d
000000e0: 5869 5ebd f0fb 15bc 02a6 3e3d 3d08 893d
000000f0: f0ff a1bc 1692 783d aa90 373d f7e7 a63d
00000100: b4ee cf3c aa76 483d e8ca 8bbd 4352 a8bd
00000110: 31bb 40bd c125 af3d 8275 84bd 7213 703d
00000120: e497 d2bc 2fbd a33d 84d4 91bd c385 973d
00000130: f729 853d 8fc9 72bd 872d 83bd fc0b f7bc
00000140: 74ae 29bd 90dd c7bb 50b5 2c3c 9baf 9a3d
00000150: 6875 cdbc 9025 bd3c de64 123d 32ee 113d
00000160: c4d6 133d c6d5 463d 9811 9cbd f20e 89bd
00000170: 007a 703b c484 103d d517 8dbd 96c8 6a3d
00000180: eb42 31bd 00d5 da39 0091 e4b9 e658 293d
00000190: 60fa 193b b7b6 9cbd a641 20bd 600b d4bc
000001a0: 6196 a43d 94fe babc 3d32 24bd 0cd5 b3bc
000001b0: 8de8 9d3d 806a 3d3a 868d afbd d4f6 c0bc
000001c0: 42ed 4abd 26a1 6abd c6a1 6ebd b3af a33d
000001d0: 9b64 ad3d 8c5f 9b3c b267 763d 20ff 30bd
000001e0: 78b1 853c 24c1 c3bc 63e9 05bd 185b 2e3c
000001f0: 571b a43d b0b0 72bd 4233 6f3d 6e19 673d
00000200: 3d49 873d f089 713c df4a babc f39c b1bc
00000210: 7466 283c 305a 63bd a5d1 5cbd 2600 a53d
00000220: 953b 85bd 9f72 66bd 3254 9bbd 693f cfbd
00000230: 1698 173d 76b1 82bc 205c bcbc d35a 1a3d
00000240: a2b6 89bd 517e 1ebd fc7f 9d3c 0d1b 303d
00000250: b419 61bd b10f 593d 0d1d 963d 3e7e 7abc
00000260: 9633 073d 12b3 22bc fb97 d0bc 1125 d1bb
00000270: 2041 b03b 4d99 ad3d 3455 df3c 393b 12bc
00000280: 0a9a b7bd 673c 913a 85ee 4bbd d062 a7bd
00000290: 6305 833d 6216 513d 0886 c1bd d68f 493d
000002a0: 2453 abbd 055f 63bd 8877 fb3c 7593 653d
000002b0: 6f7b 9c3c bbcc 8a3d 386f adbd 1f34 93bd
000002c0: 52df 07bd 3458 45bd a672 843d 2c92 8dbd
000002d0: 9f36 803d fdbd 05bc 569e f03a 0d9e 6dbd
000002e0: 8830 6e3c 2969 aa3d 521a 113d cf3e 3dbd
000002f0: 5b66 dbbc 3e8a 6e3c 143d a23d ea85 513d
00000300: 080f a7bc b93b 98bd 4b68 3abd f383 aabd
00000310: 4807 15bd 2991 793b bcc0 0c3d 9126 713d
00000320: 838d 243d d90d 50bd 894a 233d 489a 4f3c
00000330: 7c81 9fbd 879d ab3d 781d 57bc b84c a6bc
00000340: dfdb 1b3d 4307 86bd 20b1 0e3d d1eb 783d
00000350: a6dc 56bd 883c 7fbd efbe cf3c e077 84bc
00000360: 7575 8fbd 41c1 18bc 6871 1e3d f2cf b0ba
00000370: e0f0 e93c 44a2 49bd 9be7 c9bd 4924 eabb
00000380: 626f 79bd 3c13 c23d d13f 72bd c7bb 253d
00000390: 18f4 49bd 6424 85bd e9ab ac3d 3e87 043d
000003a0: b9c8 8abd 955b 48bd e0e7 443c ec99 a0bd
000003b0: fbd9 3e3d bb21 6fbd e040 49bb aa6b 763d
000003c0: 802d a8bc 12b2 1c3d 3456 a73c 9b39 bc3c
000003d0: 1c27 7dbd 90d1 293c 2d40 62bd 911b a5bd
000003e0: 72b7 7e3d 847a 96bd d0ec db3c af87 c73c
000003f0: 1781 4abd 0472 82bc dffe 973d 014f a63c

net.4.bias f4 [78]
-0.03805559 0.021152655 -0.02503417 0.07745311 0.012397558 -0.047487173 -0.0059845387 -0.068378136
0.0009894301 0.051097237 0.009756936 -0.0530309 -0.035353545 -0.0044774837 0.049553774 -0.01413179
0.053463943 -0.06616501 0.032184426 0.05455775 0.11312645 0.032737408 0.07861049 0.051489685
0.052462947 0.07320627 0.06823422 -0.016119104 0.010809503 0.046883672 0.12216641 -0.046896808
-0.019905036 0.08089483 -0.023942605 0.049246114 0.07028865 0.09429692 0.04115974 -0.005684016
-0.078353934 0.079934835 -0.083545074 0.10272423 0.05022394 -0.045858253 -0.008022996 -0.0556891
0.068411484 -0.011035384 -0.0048463047 0.013909547 -0.056331575 -0.024018055 -0.010363694 -0.05310803
-0.038141865 0.055689357 -0.07551903 -0.050873805 0.005584829 0.058228455 0.081673406 0.10611735
-0.047074717 0.070553854 0.038608894 0.07900533 0.08448523 -0.0012987786 -0.010628618 -0.039862312
0.083978735 -0.019464804 0.03688064 0.084273465 0.054128528 -0.0034601686
00000000: 2ee0 1bbd 5548 ad3c 7614 cdbc bc9f 9e3d
00000010: 211f 4b3c e981 42bd f319 c4bb d609 8cbd
00000020: c4af 813a 564b 513d 8edb 1f3c ee36 59bd
00000030: e1ce 10bd dbb7 92bb e6f8 4a3d 0689 67bc
00000040: 02fd 5a3d 8581 87bd d1d3 033d f277 5f3d
00000050: d7ae e73d a917 063d 89fe a03d d9e6 523d
00000060: 63e3 563d 2bed 953d 62be 8b3d 360c 84bc
00000070: 571a 313c 1809 403d 6232 fa3d de16 40bd
00000080: e30f a3bc 30ac a53d 4823 c4bc 4bb6 493d
00000090: 7ff3 8f3d be1e c13d 1e97 283d fb40 babb
000000a0: 0778 a0bd e0b4 a33d ae19 abbd 1561 d23d
000000b0: 9eb7 4d3d ddd5 3bbd e272 03bc 411a 64bd
000000c0: 521b 8c3d c1cd 34bc c0cd 9ebb dee4 633c
000000d0: f0bb 66bd 83c1 c4bc 7ccc 29bc ce87 59bd
000000e0: a53a 1cbd 861a 643d b9a9 9abd 0d61 50bd
000000f0: f100 b73b f680 6e3d 6344 a73d 0e54 d93d
00000100: 6bd1 40bd 8a7e 903d 5c24 1e3d 8ccd a13d
00000110: 9806 ad3d c73b aaba a823 2ebc aa46 23bd
00000120: 0bfd ab3d a774 9fbc 2710 173d 9197 ac3d
00000130: e0b5 5d3d ffc3 62bb
