Entities/pained_rep.pth (torch, 80441 bytes, 6 tensors)

net.0.weight f4 [128, 12]
000000 a8 ed 4e bd 08 26 18 be 5b 7e 22 be aa 46 15 3e
       -0.050519615 -0.14858258 -0.15868513 0.14577737
000010 39 1b 77 be dc 50 72 3e 5a 0e 81 3e 64 1d 28 3e
       -0.24131478 0.23663658 0.25206262 0.16417462
000020 44 de d7 3d 88 1e bc 3d f7 82 14 be 7c dc 70 be
       0.10540441 0.09185511 -0.14503084 -0.23521608
000030 99 c2 03 be 98 13 27 be 7a f0 00 be 00 e8 be 3d
       -0.12867202 -0.16316068 -0.12591735 0.09321594
000040 f0 f1 3a bd 00 da ee 3b 60 63 76 bd fa f4 92 be
       -0.045640886 0.007289171 -0.060153365 -0.28702527
000050 b8 28 8b 3e 5c 74 75 be 46 8c f7 bd 5e fa 5a be
       0.27179503 -0.23970169 -0.12087302 -0.2138457
000060 c0 e5 d2 bc a2 5f 82 3e 20 b3 88 be 6b 40 62 be
       -0.025744319 0.25463587 -0.26699162 -0.22094886
000070 70 c2 6e 3e ac 8d 46 3e 2e 97 d3 bd 3c c7 0e be
       0.2331636 0.19389981 -0.103315696 -0.1394319
000080 94 ae 78 3e ca 8b 15 be 9b d1 71 be b8 cd 89 3e
       0.24285346 -0.14604107 -0.23615114 0.26914763
000090 68 55 08 3e c0 fc cb 3c 80 04 77 3e ee b4 0d be
       0.1331383 0.024900794 0.2412281 -0.1383855
0000a0 ce 92 37 3e a2 de 03 3e 6c fd 63 3e 6d a9 87 be
       0.17927095 0.12877896 0.22264642 -0.2649645
0000b0 b4 dc 74 be b8 06 14 3e e0 ed f6 3c 89 b7 84 be
       -0.23912317 0.14455688 0.030142725 -0.25921276
0000c0 f6 e5 2e be 97 7e 8c be 38 bf 59 be 6b 0b 06 be
       -0.1707991 -0.2744033 -0.2126435 -0.13090293
0000d0 d8 b8 1d 3e 40 37 87 bd f6 fa 92 3e da 28 05 be
       0.15402544 -0.06602335 0.28707093 -0.13003865
0000e0 7d fc 14 be bd 51 17 be 02 09 0e 3e 7c 60 04 3e
       -0.14549442 -0.14777274 0.13870624 0.12927431
0000f0 a0 c1 78 3e 0b 3b 92 be 2c 30 d4 3d c2 5b 06 3e
       0.24292612 -0.2856067 0.103607506 0.1312094
000100 ec dc a4 3d 8d 89 88 be 60 5f 95 3c fe 34 e7 bd
       0.0804995 -0.26667443 0.018233955 -0.11289404
000110 30 e5 f5 bd e0 b6 51 3d 50 a6 54 3d e8 f5 08 bd
       -0.12006605 0.051199794 0.05191642 -0.03343764
000120 6e 95 9b bd 91 64 8a be f0 34 c4 bc 6c f6 73 3e
       -0.07596861 -0.2702985 -0.023951024 0.23824471
000130 50 c3 80 3d 20 02 89 be 04 af 05 3e 08 f3 57 3d
       0.06287253 -0.26759434 0.13055044 0.052722007
000140 90 e8 b9 bc 48 d8 58 be 30 d6 82 3c 70 e8 e6 bd
       -0.022693902 -0.21176255 0.015971273 -0.11274803
000150 24 c1 4b bd f2 38 85 be 88 2a 54 3e 50 1b ad bc
       -0.04974474 -0.26020008 0.2071935 -0.021131188
000160 32 d4 31 3e b2 4e 85 be 00 f1 8e 3e e6 60 27 be
       0.17366102 -0.26036602 0.27918243 -0.16345558
000170 c2 48 90 bd 60 c4 88 3e 62 de 3e 3e a0 0d 90 bc
       -0.070451275 0.26712322 0.1863952 -0.017584622
000180 50 08 6e 3e 80 da 5d 3b 94 6e 64 3e aa 75 8d be
       0.23245358 0.003385216 0.22307807 -0.27628833
000190 75 9f 87 be 5a c5 24 3e 40 10 3d 3c a0 f4 8f 3e
       -0.26488844 0.16090909 0.011539519 0.28116322
0001a0 9a a1 44 be 38 f0 02 3d 52 8a 3f be 00 12 51 bd
       -0.19202271 0.03196737 -0.18705109 -0.051042557
0001b0 fe f8 36 be 34 20 80 be 30 fa 18 bd b6 cf ec bd
       -0.1786842 -0.2502457 -0.037347972 -0.11563055
0001c0 f8 de ea bd e8 34 00 3e 38 54 4a be 50 3a 66 3e
       -0.11468309 0.12520182 -0.1975869 0.22483182
0001d0 f4 ce c6 3d 44 1b 3b 3e 0c ba e5 3d 28 09 6e 3e
       0.09707442 0.1827212 0.11217126 0.2324568
0001e0 82 af ef bd 34 52 87 be 4a a9 ac bd 18 f5 56 3e
       -0.11703397 -0.26429904 -0.08430727 0.20991933
0001f0 12 d8 87 3e d0 8c 69 be 60 96 89 3e 34 17 e8 bd
       0.26532036 -0.22807622 0.2687254 -0.11332551
000200 2c ce 72 3e 0c af 78 bd 89 e2 61 be 88 dc 7f 3e
       0.23711461 -0.060713813 -0.22059073 0.2498647
000210 fe 36 3f be a8 7c 8e 3e ae 78 1c 3e d8 48 d4 bd
       -0.18673322 0.2782948 0.1528041 -0.10365456
000220 40 13 12 3d 40 bc a2 3c b9 aa 56 be 8c 32 2c 3e
       0.03566289 0.019865155 -0.20963563 0.16816157
000230 9c 99 f9 bd c8 a9 33 3e e0 9a b6 3d 88 92 7c bd
       -0.12187502 0.17545235 0.08916259 -0.06166318
000240 98 15 83 3e f8 7f 15 3e 0c 9e 14 be 16 87 87 bd
       0.25602412 0.14599597 -0.14513415 -0.066175625
000250 80 82 06 bc 3c 15 97 3d e2 d0 89 bd ac bb 05 be
       -0.008209825 0.07377097 -0.06729294 -0.13059872
000260 90 fb 5a be 74 25 61 bd 1e 20 fc bd dc d6 aa bd
       -0.21385026 -0.05496736 -0.12310813 -0.083417624
000270 44 e8 89 3d 3c f1 1b be 32 df 1b 3e f0 07 9b bc
       0.06733754 -0.15228742 0.15221861 -0.018924683
000280 64 cd 84 3e 80 ae b3 bc 45 33 02 be 30 ad b6 3d
       0.2593795 -0.021933794 -0.1271487 0.08919752
000290 ca e8 8c be a4 0f e6 3d 8e 83 8c bd 5f 74 55 be
       -0.27521354 0.11233452 -0.068610296 -0.20845173
0002a0 48 f5 6e 3e 90 29 6e 3d 40 9a b9 bc 80 bb 73 3b
       0.23335755 0.058145106 -0.02265656 0.0037190616
0002b0 08 97 4e be 94 4e 42 be 4c 4d 04 3e 91 6a 8b be
       -0.20174801 -0.18975288 0.12920111 -0.2722974
0002c0 00 45 f5 ba ca 21 20 3e d0 c8 ec 3c 6c ec 3b 3e
       -0.001871258 0.1563789 0.028904349 0.18351907
0002d0 30 f0 82 3c 10 89 4d 3e a0 37 ce 3c 80 59 17 bb
       0.015983671 0.20071816 0.025173008 -0.0023094118
0002e0 36 e7 71 be 70 52 fd bc 0c d7 63 3e 62 4d 84 3e
       -0.23623356 -0.030923098 0.22250003 0.25840288
0002f0 60 3b 84 3d 80 eb 3c bb f0 43 db bd 7c c2 20 3e
       0.064566374 -0.0028826892 -0.107063174 0.1569919
000300 26 b2 25 be 00 0a cd bb 78 34 9d bd fc 3e 02 3e
       -0.1618124 -0.0062572956 -0.07676023 0.12719339
000310 24 c7 db bd 1d 05 91 be d6 4e 0d 3e 44 91 01 3e
       -0.107313424 -0.28324214 0.13799605 0.1265307
000320 58 a5 98 3d 46 ea 79 be f2 63 28 be 10 e0 e5 bc
       0.07453412 -0.24405774 -0.16444376 -0.028060943
000330 7a 86 47 3e 2e 27 30 be bc 28 70 bd d8 8a 78 3d
       0.19484892 -0.17202446 -0.058632597 0.060679287
000340 1e a5 91 bd 40 4d 61 bc b2 1a 91 3e 57 f9 47 be
       -0.07111572 -0.013751328 0.2834068 -0.1952871
000350 e6 7b 9c bd 0c 56 59 be c0 5c e5 bb 01 e6 90 be
       -0.07640819 -0.2122423 -0.006999582 -0.2830048
000360 88 f9 8b be ba 49 be bd 8c 8e 87 3e c0 57 bd bd
       -0.27338815 -0.09291406 0.26475942 -0.092452526
000370 3a 7d 22 3e 20 10 92 be fd c3 39 be c0 70 1f 3d
       0.15868083 -0.28527927 -0.1814117 0.038925886
000380 e0 00 3e 3c 58 b8 33 3d 30 fd fe 3c 88 32 7b 3d
       0.011596888 0.043876976 0.031126589 0.061327487
000390 0c 39 c0 3d 7c 35 8b 3d 40 a5 c5 bb ac 19 f1 3d
       0.09385881 0.06797311 -0.006031662 0.11772475
0003a0 cc a8 4d be c0 48 13 bc b8 a7 ac 3d cf c6 81 be
       -0.20083922 -0.008989513 0.08430427 -0.2534699
0003b0 04 4a 20 3e 38 67 3f 3e f8 f0 f6 bd 49 8d 13 be
       0.15653235 0.18691719 -0.1205768 -0.14409365
0003c0 00 0e 51 ba 80 61 19 3b 82 5b 30 3e a0 8c 42 be
       -0.00079748034 0.0023404062 0.17222407 -0.18998957
0003d0 54 1f 91 3e 9a c9 57 be 58 2e 15 bd c4 6b 57 3e
       0.28344214 -0.21072999 -0.03642115 0.21037203
0003e0 de d2 14 3e 5c 9f a6 bd d4 82 1e be 28 26 64 3e
       0.14533564 -0.08135864 -0.15479594 0.2228018
0003f0 4c 61 23 3e 28 fa 7d bd 12 b7 3b 3e a4 98 72 3e
       0.15955085 -0.062006146 0.18331555 0.2369104

net.0.bias f4 [128]
000000 02 92 5c be 60 ae 30 bd 10 4e 3b 3d b8 10 08 3d
       -0.21540073 -0.043135047 0.045728743 0.03321907
000010 4c c2 90 3d 66 84 81 be 8f 2e 91 be d2 42 26 3e
       0.07068309 -0.25296324 -0.28355834 0.16236427
000020 31 e5 8c be 70 1a b9 bc b0 14 aa 3d 92 d7 43 be
       -0.2751861 -0.022595614 0.08304727 -0.19125202
000030 ac 08 41 be 64 f0 b1 3d e6 bf 5b be f8 c6 23 3d
       -0.18850964 0.08688429 -0.21459922 0.039984673
000040 34 33 27 bd 62 36 82 3e 6a a5 8a 3e 18 a6 8d 3e
       -0.040820315 0.25432116 0.27079326 0.27665782
000050 b0 0f 69 3e ba d1 53 3e d6 00 90 3e e2 92 e8 bd
       0.2275989 0.20685473 0.28125638 -0.11356141
000060 00 9b e2 3b 20 cb b6 bc c0 30 2a 3c 58 64 01 bd
       0.00691545 -0.022313654 0.0103875995 -0.031589836
000070 40 a1 30 bc c0 87 fd 3b f2 a6 92 be 14 d7 63 3e
       -0.0107806325 0.00773713 -0.28642994 0.22250015
000080 88 40 bb 3d 70 57 c2 bc 8c e2 ee 3d e0 47 c1 3d
       0.09143168 -0.023723334 0.11664304 0.09437537
000090 25 d4 76 be 40 bf e8 3c 4a b7 87 be 60 22 96 3d
       -0.24104364 0.028411508 -0.26507026 0.07330775
0000a0 5a 62 9c bd ec 39 4a be 5c 3e a3 3d 20 5e 1a bd
       -0.076359466 -0.19748658 0.079708785 -0.03768742
0000b0 e0 67 85 be d0 b8 53 3e f1 02 23 be c2 97 53 be
       -0.26055813 0.20675969 -0.15919091 -0.2066336
0000c0 c0 a0 6e 3c cf 38 19 be 78 30 08 3e 80 59 ac 3d
       0.014564693 -0.14963077 0.1329974 0.08415508
0000d0 70 cc 43 be f2 3f 81 3e 16 79 4e be f4 be a7 bd
       -0.19120955 0.252441 -0.20163378 -0.08190718
0000e0 fc 4b 59 be 88 b3 7a 3e e0 0c 36 bd 18 86 a8 3d
       -0.21220392 0.24482548 -0.044445872 0.08228701
0000f0 e4 93 75 bd e0 1a 81 be 04 ab 1b be 54 de 2a bd
       -0.059955493 -0.25215816 -0.15201956 -0.041715935
000100 58 51 0c 3e bc dd 73 3e 60 e2 7a be 00 9a 54 3e
       0.13702905 0.23815054 -0.24500418 0.20761871
000110 a3 cb 1c be 5d ec 7e be f8 75 ed bd e0 c2 4f be
       -0.15312056 -0.24894853 -0.115947664 -0.20289183
000120 30 27 d3 bc d0 2f 89 bc c8 6b 1c 3d ce 23 ed bd
       -0.025775522 -0.016746432 0.038188726 -0.11579095
000130 b8 65 93 bd af 6f 27 be 70 c4 ff 3c 22 48 87 be
       -0.07197136 -0.16351198 0.031221598 -0.2642222
000140 85 09 67 be fc 00 90 3e 18 21 ef 3d 65 d1 46 be
       -0.22562225 0.2812575 0.11676234 -0.19415815
000150 23 b9 47 be 80 a9 6e 3e 0a 5c 2b be 01 05 07 be
       -0.19504218 0.23306847 -0.16734329 -0.13185503
000160 e4 c0 67 3e 69 31 26 be 22 34 53 3e 18 8e 1d be
       0.22632176 -0.16229786 0.20625356 -0.15386236
000170 cd b1 84 be 06 6a 8e bd e6 65 fb bd 44 81 64 bd
       -0.259169 -0.06953816 -0.12275295 -0.05578734
000180 7e 29 dd bd 48 a3 81 bd 2c 75 fc 3d 90 1d 40 3e
       -0.1079893 -0.063299716 0.12327036 0.18761277
000190 ca 15 4f 3e e0 68 cd bc 98 a3 87 bd b0 a0 19 bd
       0.20223156 -0.025074422 -0.06623 -0.03750676
0001a0 de 4b fd bd 90 6f c7 3c a8 56 55 be 9d 83 2b be
       -0.12367986 0.02434519 -0.20833838 -0.16749425
0001b0 de f2 32 be 50 cb 73 be c4 55 4f be 00 1f 58 bb
       -0.17475459 -0.23808026 -0.2024756 -0.0032977462
0001c0 10 1b c4 3d fc 68 66 3e c4 37 e6 3d 2e 85 d9 bd
       0.09575474 0.22500986 0.11241105 -0.10621105
0001d0 7c df 83 be c8 19 f8 bd 28 3f 5e 3d bc 77 a6 3d
       -0.25756443 -0.121142924 0.05425945 0.08128306
0001e0 9e 40 91 3e 9a e7 90 bd d8 81 d5 3d c0 c6 8a 3b
       0.28369612 -0.070754245 0.10425156 0.0042351186
0001f0 8c 35 1f 3e d6 20 14 be 18 1f 16 be 52 24 83 3e
       0.1554777 -0.14465651 -0.14660299 0.25613648

net.2.weight f4 [128, 128]
000000 24 68 fc 3c 60 25 80 bc 2d c4 ae 3d 34 b4 6f bd
       0.030811377 -0.015642822 0.08533511 -0.058521464
000010 00 41 39 bb 90 1b 66 3c c8 df 58 bc b2 79 5d 3d
       -0.0028267503 0.014044657 -0.013236947 0.054071136
000020 ea c8 34 3d f0 7d 2d 3c b8 27 3f bc f2 32 21 3d
       0.04413692 0.010589108 -0.0116671845 0.039355226
000030 5a 51 e5 bc 28 d7 bf 3c 48 c6 50 3c 7a bc 86 bd
       -0.027992893 0.023418024 0.012742586 -0.06578918
000040 5e 25 19 3d 86 eb 28 3d d2 8c 56 3d a2 09 6b 3d
       0.03738915 0.041240238 0.05238039 0.057382233
000050 60 a5 9f bc 14 c7 60 bd c7 7d 97 3d da 0b 0f 3d
       -0.019488037 -0.054877356 0.07397037 0.034923412
000060 4e de 68 bd dc ea 8e 3c 8a c7 65 bd e8 24 8e bd
       -0.05685263 0.017445974 -0.0560985 -0.06940633
000070 38 fd 8a bc 58 22 26 bc a5 0f ac 3d 3c aa bf 3c
       -0.016966447 -0.010140024 0.084014215 0.023396604
000080 53 5e 98 3d 40 82 65 3b b8 27 c7 3c 45 b0 28 bd
       0.07439866 0.0035020262 0.024310932 -0.04118373
000090 8c 54 9f bd cb 4f 26 bd 56 20 78 3d 8a 11 14 3d
       -0.07779798 -0.04060344 0.060577713 0.03614954
0000a0 d7 06 61 bd 82 35 29 3d 10 20 86 3c 5c 1f b3 bd
       -0.054938164 0.041310795 0.01637271 -0.08746216
0000b0 a2 82 66 bd 69 ab 96 3d ba ca 39 3d 0e 55 16 3d
       -0.056276925 0.07356913 0.04535935 0.03670221
0000c0 a4 7a 58 bd e0 e3 6a 3b 48 e4 a2 bc b0 b0 98 bd
       -0.052851334 0.003584139 -0.019884244 -0.074555755
0000d0 1d 95 19 bd ef bc 80 3d 80 96 f4 bc 01 d2 a0 3d
       -0.03749572 0.06286036 -0.02985692 0.07852555
0000e0 a8 6b 18 bc b0 0f cd bc b3 c7 a5 3d 40 80 65 3c
       -0.009303011 -0.025031894 0.0809473 0.014007628
0000f0 59 5a 04 bd 97 e6 b0 3d 35 5f 2a bd cc 19 89 bd
       -0.032312725 0.086377315 -0.041594703 -0.066943735
000100 f1 1a a0 bd a0 b4 7e 3b 00 a6 f6 3b b8 46 5b bd
       -0.07817639 0.0038864985 0.007527113 -0.05353424
000110 0b ca b1 3d a6 8a 45 3d aa c7 65 3d e1 14 2f bd
       0.08681115 0.04822793 0.056098618 -0.04274452
000120 48 26 a6 bc c0 ce 23 bc 0d 4a b4 3d 41 00 0d bd
       -0.020281926 -0.0099980235 0.088031866 -0.03442407
000130 80 72 62 ba 70 37 94 bb bd c0 a3 3d 89 3f a8 bd
       -0.00086382776 -0.00452321 0.07995746 -0.08215243
000140 8e 01 10 bd 51 10 ac 3d b0 58 05 3c 75 e9 aa 3d
       -0.035157733 0.084015496 0.0081388205 0.0834531
000150 d0 4c 9a bc 26 64 37 3d 60 84 8c 3c 46 e6 57 3d
       -0.018835455 0.044773243 0.017152965 0.05270984
000160 f6 ec 55 3d 65 35 14 bd a0 be 63 3c 80 78 e7 bc
       0.052227937 -0.036183733 0.013900429 -0.028255701
000170 20 05 ed 3b d1 c2 33 bd 9a be 64 3d 63 c2 33 bd
       0.007233277 -0.043886963 0.055845834 -0.043886553
000180 80 20 b5 3a 20 7e 31 3b 16 53 6d bd 01 f5 9d 3d
       0.001381889 0.0027083233 -0.057940565 0.077127464
000190 ed 4a 36 bd 56 2a 1b 3d 39 57 1d bd 84 a1 10 3d
       -0.04450505 0.03788217 -0.03841326 0.035310283
0001a0 50 5c be bc 0a 7a 3f 3d 00 de 08 39 d2 66 0a 3d
       -0.023237377 0.046747245 0.00013052672 0.033789463
0001b0 b9 f3 8e 3d 50 a4 0d bc 20 78 45 bc 8d 67 87 3d
       0.0698008 -0.008645132 -0.012052566 0.066115476
0001c0 b8 b2 38 bc 22 b7 5d 3d dd 8d 89 3d bc 03 e7 3c
       -0.011273079 0.054129727 0.067165114 0.028200023
0001d0 43 29 b3 3d b5 e3 b3 3d 38 b7 a3 3c d8 5b 8a bc
       0.087481044 0.08783666 0.019984826 -0.016889498
0001e0 98 df 8c 3c 90 39 1a 3c d0 73 80 3b b5 10 9c 3d
       0.017196462 0.009413138 0.003920056 0.07620374
0001f0 90 81 25 bd 20 75 c7 bc 7b b2 54 bd 72 e6 62 bd
       -0.040406764 -0.024347842 -0.051928025 -0.05539555
000200 9a 09 66 3d 6b 59 13 bd 9e 26 59 3d 45 f2 18 bd
       0.0561615 -0.035973947 0.053015344 -0.03734042
000210 95 d8 91 3d 10 b0 9e 3b 30 0c 41 bc e0 28 e7 bb
       0.07121388 0.0048427656 -0.011782691 -0.007054433
000220 0d 58 9d 3d 6f a9 ae 3d 40 5a 31 3c 00 72 bf b9
       0.0768281 0.08528411 0.01082474 -0.00036515296
000230 ac 36 e7 bc 44 a5 bd 3c da b3 14 3d 2c a9 e1 3c
       -0.028224312 0.023150094 0.036304332 0.027546488
000240 e0 d6 8c bd 4c 33 82 bc 1a 9b 35 3d eb a3 94 3d
       -0.06876922 -0.0158936 0.04433737 0.07257827
000250 ee 7b 94 bd d3 ce 12 bd df 1f 27 bd f0 9b 8b bc
       -0.072502 -0.035841774 -0.04080188 -0.01704213
000260 db f9 82 3d 40 08 89 bb 58 fc 12 3d b1 e3 1d bd
       0.063953124 -0.0041818917 0.035885185 -0.03854722
000270 63 b4 85 3d ec 92 74 bd 57 db a9 3d 52 87 a8 bd
       0.06528547 -0.059710428 0.08293789 -0.08228935
000280 a2 77 8f bd 00 8b 2b 3b 20 f1 c0 3c 70 3b cf 3c
       -0.0700524 0.002617538 0.023552477 0.025296897
000290 d4 62 2d bd 99 f9 a4 3d 02 9a 31 3d ff af 8a bd
       -0.042330578 0.080554195 0.043359764 -0.0677185
0002a0 73 51 b4 3d da eb 99 bd a0 4f c3 3c 1e d4 2b bd
       0.08804598 -0.07515688 0.02384168 -0.041950338
0002b0 c8 af c1 3c c0 78 2c 3c 06 16 40 3d d0 6e 96 bb
       0.02364339 0.010526836 0.046896003 -0.0045908466
0002c0 f7 3d 81 3d 85 d4 a4 bd 1c 69 ce bc ef a9 9b 3d
       0.06310647 -0.080483474 -0.025196604 0.07600772
0002d0 e0 a6 23 3c 36 47 7e 3d 17 89 96 3d 0e 0c 7a bd
       0.009988517 0.06207963 0.073503666 -0.061046652
0002e0 1d 1f 9e 3d 78 2f 14 bc 2d 00 70 bd 30 e2 00 bc
       0.07720778 -0.009044521 -0.058593918 -0.007866427
0002f0 00 11 32 bb c0 c5 0c 3c 98 3c c6 3c 87 7a af bd
       -0.0027170777 0.008592069 0.024198815 -0.08568292
000300 4a 11 4f 3d 00 ea ac b9 f9 7f 64 bd e0 ff 2a bb
       0.050553598 -0.0003298074 -0.055786107 -0.0026092455
000310 80 d6 71 3b 96 cd 6d bd 18 dc ac 3c 28 18 ce bc
       0.0036901534 -0.05805739 0.021101043 -0.025158003
000320 ef 95 90 bd c0 90 84 3c 00 a8 45 bc 5a c6 25 bd
       -0.070598476 0.016182303 -0.01206398 -0.040472366
000330 b6 72 de bc d5 12 27 bd 58 10 cb 3c 03 aa a7 3d
       -0.027154308 -0.040789444 0.024788067 0.08186724
000340 7a 99 ee bc 9b 0c 1c bd d0 1f a2 bd 28 4a 3b bc
       -0.029125918 -0.03809796 -0.07916224 -0.011431254
000350 2d c2 46 bd f8 be 6d 3c be 69 17 3d 12 3b 2d 3d
       -0.048525024 0.0145108625 0.036966078 0.042292662
000360 fe 53 95 bd ec d7 ed bc 90 c3 d6 bb 18 8f 8b bc
       -0.07291411 -0.029033624 -0.0065540746 -0.017036006
000370 2c 8d b9 3c 98 de 42 3c 26 a1 0c bd f0 f4 87 3c
       0.022650324 0.011893891 -0.03433337 0.016596287
000380 73 6c 84 bd 8b fa 81 bd cb 60 b3 3d 73 90 9e 3d
       -0.064659975 -0.063466154 0.08758696 0.07742395
000390 20 e1 bd 3c 9e 8c 38 3d da d4 dc bc 66 86 10 3d
       0.023178637 0.045055978 -0.026956964 0.035284422
0003a0 bd b3 89 3d a1 41 84 3d 53 e9 88 3d ec ca e7 bc
       0.067237355 0.0645783 0.06685128 -0.028295003
0003b0 68 e0 09 bd f0 bc fb bc 08 18 f9 3c d3 5e 94 bd
       -0.033661276 -0.03072974 0.030406967 -0.07244649
0003c0 4a 66 39 bd 4e 3c 2e 3d 97 78 b2 bd 65 5e 91 3d
       -0.045263566 0.04253798 -0.08714407 0.070980825
0003d0 09 89 4c bd d2 84 26 3d e2 08 37 bd 98 7f 5d 3c
       -0.049935374 0.04065401 -0.044686206 0.01351919
0003e0 40 3d 9f bc e4 14 dd bc 88 ea af 3c ee ac 34 3d
       -0.019438386 -0.0269875 0.021474138 0.04411023
0003f0 f2 2d 7f 3d 20 22 c7 bb 6c 41 9e bd 0c 56 87 bc
       0.062299676 -0.006077066 -0.07727322 -0.016520523

net.2.bias f4 [128]
000000 78 64 c3 bc 63 72 b0 3d a3 e7 b0 3d 45 0e ac 3d
       -0.023851618 0.086155675 0.08637931 0.08401159
000010 c3 e3 16 bd 20 11 92 bb 5a 6d 39 3d bc 43 d9 3c
       -0.036838304 -0.004457608 0.0452703 0.026521556
000020 3f fa 9e 3d 60 e7 e4 3b 4e c5 13 bd bd ff a5 3d
       0.077625744 0.00698559 -0.036076836 0.08105419
000030 c3 b3 a0 3d 51 51 a3 3d 8e d3 5a 3d 3c e7 6c bd
       0.07846787 0.07974494 0.05342441 -0.05783771
000040 80 21 fd ba d7 c2 84 3d a3 d6 68 bd aa 0e 65 3d
       -0.0019312352 0.06482475 -0.05684532 0.055922188
000050 c3 2b 5d bd 77 0d 99 bd 2f 43 95 3d 82 b1 18 3d
       -0.053996813 -0.07473271 0.07288205 0.03727866
000060 06 9c 4b bd dc 45 9d 3c 33 68 84 3d 42 3b 4a 3d
       -0.049709342 0.01919835 0.06465187 0.04937292
000070 50 b9 3a bd 40 2a f9 3c b9 c8 a0 bd 73 e9 5c bd
       -0.045586884 0.030415654 -0.07850785 -0.053933572
000080 36 3d 87 bd 60 2d 17 3b 08 63 3d bc ae 1a 34 3d
       -0.06603472 0.0023067817 -0.011559255 0.043970756
000090 aa e3 05 3d 06 97 74 bd 29 ef 15 bd a1 94 88 3d
       0.03268782 -0.05971434 -0.036605034 0.06668974
0000a0 a6 5b 53 3d 6e 1f 1f 3d 6d 16 a1 3d 5e 38 29 bd
       0.051601075 0.038848333 0.078656055 -0.04131352
0000b0 9e 69 6e 3d 20 f3 92 3b 2c 5b 72 bd 60 2d b6 bb
       0.058206193 0.004484549 -0.05916898 -0.0055596083
0000c0 9e 90 7a 3d a8 23 f6 bc 75 77 b4 bd e4 da 9b 3c
       0.061173074 -0.0300463 -0.08811847 0.019025274
0000d0 20 87 62 3b a8 0b 6f bc ef ca 95 3d 9a 12 78 3d
       0.0034565404 -0.014590181 0.07314097 0.060564615
0000e0 39 c4 88 3d e4 2d 80 3c df e9 18 bd 89 11 a2 3d
       0.066780515 0.015646882 -0.03733241 0.07913501
0000f0 2a c4 f6 bc d2 f2 34 3d b9 f1 aa 3d ec fa ed 3c
       -0.030122835 0.044176884 0.08346886 0.029050313
000100 60 53 73 3c 78 e2 97 bd 85 67 8c 3d fa c1 67 3d
       0.014851421 -0.07416242 0.06855682 0.056581475
000110 25 24 4f bd 88 83 9e 3c 50 95 bd 3b 71 e9 a6 bd
       -0.05057158 0.019349828 0.0057856217 -0.08149994
000120 8a ff 7e 3d 44 a8 0b 3d 10 1d 9d bd e4 b5 a5 bc
       0.06225542 0.034096017 -0.07671559 -0.020228334
000130 54 3a 95 bc 62 09 6d bd 30 bd 5e bd 91 f9 a7 bd
       -0.01821629 -0.057870276 -0.054379642 -0.08201898
000140 c7 21 a0 3d 1d 88 8c 3d 1b e1 ab 3d 33 29 24 bd
       0.078189425 0.06861899 0.08392545 -0.040078353
000150 ca 98 51 3d 02 94 1e 3d 96 be 76 3d c1 ef 24 bd
       0.0511711 0.03871537 0.06024035 -0.04026771
000160 3e da b3 bd 10 70 70 3c 10 04 f0 3c b3 8a 8e 3d
       -0.08781861 0.014675155 0.029298812 0.069600485
000170 00 71 d0 b9 ce c5 63 bd 3a 48 63 3d 10 45 a3 3b
       -0.00039757043 -0.055608563 0.055488802 0.004982598
000180 32 dc 7e 3d 46 8f 74 3d 10 68 f1 bb f7 fe ab 3d
       0.062221713 0.05970695 -0.0073671415 0.0839824
000190 ef b0 b4 3d 00 c4 64 3a 2e d6 e0 bc 01 24 95 bd
       0.0882281 0.0008726716 -0.027445879 -0.07282258
0001a0 c0 ae 8b ba 75 d4 58 bd 42 12 ff bc 3d 3a 02 bd
       -0.0010656938 -0.05293699 -0.031136636 -0.03179382
0001b0 0e 27 70 3d b8 15 37 3c 5e 9a af bd 51 41 16 bd
       0.058630995 0.011174612 -0.08574365 -0.036683384
0001c0 38 86 35 bd a4 ee 54 bd 2c 55 bb bc 22 a8 88 bd
       -0.044317454 -0.051985398 -0.022867762 -0.06672694
0001d0 f0 7a 48 bd 22 75 a7 bd 80 b8 b8 bb 10 5b 33 bd
       -0.048945367 -0.08176638 -0.0056372285 -0.043788016
0001e0 fd e9 86 bd 6a e4 19 3d ec 2a 05 3d 58 aa a1 bc
       -0.065875985 0.03757135 0.032511637 -0.019734547
0001f0 0c 3e ab bd 1c 36 b2 bd a2 d3 4a bd 21 34 50 bd
       -0.08361444 -0.08701727 -0.049518235 -0.050830964

net.4.weight f4 [9, 128]
000000 fe 33 72 3d 82 26 43 3d ba 1b b2 bd de c9 11 bd
       0.059131615 0.047644146 -0.08696695 -0.035592906
000010 13 c9 95 bd 04 40 50 bd d4 68 9c 3c 78 48 7b bc
       -0.073137425 -0.0508423 0.019092955 -0.015337102
000020 00 ca 35 bd fc c0 95 bc fb ea 96 3d a0 73 9a bd
       -0.044382095 -0.018280499 0.07369038 -0.07541585
000030 6c 87 07 3d f8 98 89 bc 74 65 ee 3c 7e e3 00 3d
       0.033088133 -0.016796574 0.029101111 0.031466953
000040 90 be c2 bb e2 4b 6a 3d bc fb 0e 3d 9c a6 14 3d
       -0.005943127 0.057201274 0.03490804 0.036291704
000050 2b ab 45 bd e0 3c 50 3c b1 4e a2 3d 71 45 9a 3d
       -0.04825894 0.012709826 0.079251654 0.07532776
000060 80 5e 43 3b 46 6b 76 bd d0 c6 e1 3c 38 0f cf 3c
       0.0029810965 -0.060160898 0.027560622 0.025275812
000070 30 e2 ab 3b 6f 19 b3 bd 06 97 a9 bd 1e fa 08 3d
       0.0052454695 -0.087450854 -0.082807586 0.033441655
000080 f3 e3 66 bd d4 39 d8 3c 44 31 d3 3c 00 16 f2 b9
       -0.056369733 0.026394762 0.025780328 -0.00046174228
000090 3d 24 a4 3d aa 07 34 3d de 80 56 3d f6 24 04 3d
       0.080147244 0.04395262 0.05236899 0.03226181
0000a0 6e c7 76 bd f8 c8 6b bc e9 37 ac 3d 46 96 a4 bd
       -0.060248785 -0.014391176 0.084091015 -0.08036475
0000b0 2e d0 37 3d 1a 8a 70 3d a4 90 f4 3c fc 95 6c bd
       0.04487627 0.058725454 0.029854126 -0.057760224
0000c0 d0 13 1c 3c 0d 80 ad bd d0 aa 06 bc 3a 07 27 3d
       0.009526208 -0.084716894 -0.008219436 0.040778376
0000d0 34 ec ad bd 14 87 72 bd 32 aa de bc ca 3b 80 bd
       -0.08492318 -0.05921085 -0.027180765 -0.06261404
0000e0 80 ab 30 bd c8 25 74 bc 85 14 8d 3d 84 f8 dd bc
       -0.043132305 -0.014901586 0.068886794 -0.02709604
0000f0 d6 d5 54 bd d6 e5 52 3d 74 d8 fa bc ee d1 af bd
       -0.051961742 0.05148872 -0.030620791 -0.08584963
000100 9a a4 1a 3d 59 7f 67 bd 54 50 df 3c a7 ee 88 3d
       0.037754633 -0.056517933 0.027259983 0.06686144
000110 1e 4b 3d 3d c0 73 72 bc a2 3c 55 bd f6 72 6c 3d
       0.046214215 -0.014798105 -0.052059777 0.057726823
000120 40 35 6e 3c ac 24 81 bc 78 53 4f bc 20 0d 9f bc
       0.014539063 -0.015764557 -0.012654178 -0.019415438
000130 12 d7 8a bd c0 a0 c9 bb 37 fd 0e bd 86 04 59 3d
       -0.06779303 -0.006153196 -0.034909453 0.05298283
000140 8e 2c 3d 3d fe 13 51 3d d6 e6 7a bd 04 cd a5 3c
       0.04618507 0.051044457 -0.0612553 0.02023936
000150 9c a4 b2 3c 69 d1 03 bd a0 ad a6 3c 5d b2 91 3d
       0.021807007 -0.03218213 0.020346463 0.07114098
000160 fb 72 99 3d 64 45 09 3d b5 01 5e bd 08 08 32 3c
       0.07492634 0.03351344 -0.054200847 0.010866173
000170 a3 d2 b1 3d 75 c4 69 bd 1f b6 29 bd 8a db ef bc
       0.08682754 -0.05707212 -0.04143345 -0.02927949
000180 59 32 0f bd 79 1c 8f 3d 00 2e e0 3b 38 d8 4b 3c
       -0.034960125 0.069878526 0.006841421 0.012441687
000190 40 79 86 3c 80 3e 56 bb 7e 7c 40 3d 38 d0 dc 3c
       0.016415238 -0.0032691061 0.046993725 0.026954755
0001a0 9d 64 38 bd 35 34 8e 3d 80 9f 2b ba 9c b5 f1 3c
       -0.045017827 0.069435515 -0.00065468997 0.029505543
0001b0 86 c5 95 bd 62 17 54 bd b8 80 47 bd 05 8f b0 3d
       -0.07313065 -0.051780112 -0.04870674 0.08621029
0001c0 9e d0 10 3d 00 76 52 b9 00 37 9c bd 76 23 5b 3d
       0.035355203 -0.00020071119 -0.07627678 0.053500615
0001d0 ba f1 34 3d b4 5d 9f bd ba 35 11 3d 00 6e 10 bc
       0.04417584 -0.07781544 0.03545163 -0.008815289
0001e0 39 1d 9d bd b2 e6 4d 3d e8 e0 80 bd c0 c7 7e 3b
       -0.076715894 0.050268836 -0.062928975 0.0038876384
0001f0 8c 1e 84 bc ea c3 39 bd 74 c9 99 bc 60 f7 b0 bc
       -0.016127847 -0.045352854 -0.018772818 -0.021602333
000200 d0 a9 14 bd aa 45 5c bd 70 78 11 3c f4 7f 96 bc
       -0.03629476 -0.053777374 0.008878812 -0.01837156
000210 14 6d fe 3c e8 c7 38 bd 18 f2 82 bc 2b 29 0f bd
       0.031057872 -0.04511252 -0.01598458 -0.03495137
000220 76 d5 3e 3d 3c 8a f1 3c 6b 05 ab 3d be 22 29 3d
       0.04659029 0.02948486 0.08350643 0.0412929
000230 f4 6d 03 3d 28 b6 72 bd e0 ea 81 3b cb d3 85 bd
       0.03208728 -0.05925575 0.003964767 -0.06534537
000240 1c 5c 9d bd 90 29 83 bc 28 35 c8 bc c3 03 27 bd
       -0.07683584 -0.01601103 -0.02443941 -0.04077507
000250 00 1a 91 3b a2 b7 ef bc 88 71 f0 bc 5e 56 79 3d
       0.0044281483 -0.029262368 -0.02935101 0.06087338
000260 00 a4 dc b8 08 e1 52 3c c0 21 ef bb c0 ae c2 ba
       -0.00010520965 0.012871034 -0.0072977245 -0.0014853105
000270 48 bc 19 bd 20 59 9b 3c 50 e1 44 bd 17 37 3b bd
       -0.037533075 0.018963397 -0.048066437 -0.045706835
000280 45 e3 93 bd 58 ac 03 bc f4 08 89 bc c0 27 01 3b
       -0.072210826 -0.008036695 -0.016727902 0.001970753
000290 b2 4f 62 3d 2c 09 ad bc f9 1b 55 bd e8 ba 6a bd
       0.055251785 -0.021122538 -0.05202863 -0.057307154
0002a0 c0 24 41 3b 1c 84 80 bd a4 df 91 bc 70 fe 8c bd
       0.0029471368 -0.06275198 -0.017806835 -0.068844676
0002b0 09 23 95 3d 26 fb 58 3d bd a7 95 3d 10 c3 cf 3c
       0.07282073 0.05297389 0.07307384 0.025361568
0002c0 50 92 4f 3c e5 15 0e bd 67 b4 8d 3d c1 26 86 3d
       0.012669161 -0.03468885 0.06919175 0.065503605
0002d0 fd fc 55 bd 50 37 03 bc fc 90 9b 3c af 46 84 3d
       -0.05224322 -0.008008793 0.018990032 0.06458794
0002e0 44 5c 88 bc 18 c7 8c 3c 55 c7 b0 bd 80 0c 8e bd
       -0.016645558 0.017184779 -0.086317696 -0.06935978
0002f0 ca 88 46 3d b6 b9 61 3d 5e 5e 07 3d ff 18 32 bd
       0.048470296 0.05510875 0.03304898 -0.04348087
000300 8e 97 88 bd f4 0c 9e bd d0 cc e2 3b de 2f 9b bd
       -0.06669532 -0.07717314 0.006921388 -0.07577489
000310 40 4e 15 3c 30 75 8e bc 7c e2 a5 bd 80 e4 9a 3b
       0.009112895 -0.017389864 -0.08099839 0.0047269464
000320 5b 50 a1 3d 35 c4 05 bd 1a 7f 24 bd 40 3a f6 bb
       0.07876655 -0.03265782 -0.040160276 -0.007514268
000330 ce 38 81 bd 33 ca aa 3d 46 3d 98 bd 5c 38 33 bd
       -0.06309663 0.08339348 -0.07433562 -0.04375492
000340 76 56 71 bd 13 fa a2 bd 41 ae a1 3d fc 9b 3d bd
       -0.058920346 -0.07957854 0.078945644 -0.046291336
000350 44 1f 8e bd 99 b3 0c bd a0 39 f0 bb 73 e9 0a bd
       -0.06939557 -0.034350965 -0.007331088 -0.03391404
000360 59 50 b2 3d 07 30 89 3d e0 3a 6a 3c 2a 90 df bc
       0.08706731 0.066986136 0.014296263 -0.027290422
000370 ce 87 90 bd 4d 44 5b bd c4 dc 4d bd 00 e8 71 b8
       -0.07057153 -0.053531934 -0.050259367 -5.7674944e-05
000380 0f ba b1 3d b1 fa a0 3d bd 0e 0b bd 75 4b 12 bd
       0.08678066 0.078603156 -0.033949602 -0.035716493
000390 6f ef 76 bd c0 cb e0 bc 1f a4 ac 3d ae 31 79 bd
       -0.060286935 -0.027440906 0.08429741 -0.060838394
0003a0 86 f8 21 3d ac 3b 5d bd 2b 73 85 bd 37 35 60 bd
       0.03954365 -0.054011986 -0.06516107 -0.05473825
0003b0 45 0e a2 bd 82 62 2c 3d a1 df 3a bd 82 c1 a3 bd
       -0.07912878 0.042086132 -0.045623425 -0.07995893
0003c0 60 e4 1a 3b da 94 08 bd 34 4c 94 3c 0a 1c 3e 3d
       0.0023634657 -0.03334508 0.018102743 0.04641346
0003d0 28 cd e1 3c 4e 5e 1a 3d b0 cd 6c bc 9f e5 5f bd
       0.027563646 0.037687592 -0.014453337 -0.054662343
0003e0 03 f9 af 3d 69 34 84 bd b5 b5 32 bd 68 d1 e8 3c
       0.08592417 -0.06455309 -0.04363032 0.028420165
0003f0 ee 64 e9 bc 36 df f6 bc 15 26 a6 3d c6 57 35 3d
       -0.02849051 -0.030135732 0.08112732 0.04427316

net.4.bias f4 [9]
000000 e8 59 c6 bc 50 b1 f7 bc e6 bb 9a bd a8 47 f8 3c
       -0.024212793 -0.030235916 -0.0755537 0.030307606
000010 37 bd af bd ab 6a 0a bd e2 b2 4f bd 38 10 0d 3d
       -0.08581012 -0.033793133 -0.050707705 0.034439296
000020 aa ef 3b 3d
       0.04588286
